Assignment_1/1/CNN_Layers/Models/1CNN/model-4.pth (torch_old, 46280 bytes, 8 tensors)

conv1.weight f4 [64, 3, 5, 5]
0	0x3e2741b2	0.16333655
1	0x3e631784	0.22176939
2	0x3e4b287a	0.1983966
3	0x3e68fe19	0.2275318
4	0x3e2efc20	0.17088366
5	0x3dec180b	0.11528023
6	0x3e06d850	0.13168454
7	0x3e145abc	0.14487737
8	0x3e0e0274	0.13868123
9	0x3dc1cbaa	0.09462674
10	0xbd1bbc51	-0.03802139
11	0xbcfaba49	-0.030606406
12	0xba04b244	-0.0005061964
13	0xbcc5ad27	-0.024130417
14	0xbb084f04	-0.002079905
15	0xbe0abce8	-0.13548625
16	0xbe228883	-0.15872388
17	0xbe227508	-0.15864956
18	0xbe332daa	-0.17497888
19	0xbe22d412	-0.15901211
20	0xbe438b98	-0.1909622
21	0xbe65c494	-0.2243827
22	0xbe753c3d	-0.2394876
23	0xbe7619a2	-0.24033216
24	0xbe4d6304	-0.20057303
25	0x3dffcc79	0.12490172
26	0x3e2c3202	0.16815951
27	0x3e3e5b46	0.18589506
28	0x3e26928f	0.16266845
29	0x3dfd05d5	0.12354628
30	0x3d5e6d1b	0.05430327
31	0x3e08bfdf	0.13354443
32	0x3df6f9d3	0.12059369
33	0x3e0f930c	0.14020938
34	0x3dd31f14	0.10308662
35	0xbd4b4b35	-0.04963227
36	0x3c3ee868	0.01165209
37	0x39977c11	0.000288934
38	0x3c9a0c64	0.018804736
39	0xbc347419	-0.011014008
40	0xbde5ebe2	-0.11226632
41	0xbe0b4d80	-0.13603783
42	0xbe140525	-0.14455087
43	0xbe21313f	-0.15741442
44	0xbde62baa	-0.11238797
45	0xbe204ad5	-0.15653546
46	0xbe555977	-0.2083491
47	0xbe43b23f	-0.19110964
48	0xbe5eb051	-0.21746947
49	0xbe3d6cf7	-0.18498598
50	0x3e01bda6	0.12670001
51	0x3e33dfcd	0.17565842
52	0x3e3e0b48	0.18558991
53	0x3e1d5d69	0.15367664
54	0x3e103160	0.14081335
55	0x3e0e2626	0.1388174
56	0x3e119df6	0.14220414
57	0x3e3476fb	0.17623512
58	0x3e0cec67	0.13762055
59	0x3dcfe0da	0.10150309
60	0x3cbb004e	0.022827294
61	0x3d386055	0.045013744
62	0x3d0cfe64	0.034422293
63	0x3d64bd19	0.0558444
64	0x3d377392	0.04478795
65	0xbd33f1a7	-0.04393163
66	0xbd99c426	-0.075081155
67	0xbdb04643	-0.08607151
68	0xbd9ed4ce	-0.07755433
69	0xbdb03ad9	-0.08604974
70	0xbe0c5e2a	-0.13707796
71	0xbe0abc7b	-0.13548462
72	0xbe2ca938	-0.16861427
73	0xbe2021d3	-0.15637903
74	0xbe0d0898	-0.1377281
75	0xbe1794dc	-0.14802879
76	0xbcebd906	-0.028790008
77	0xbb45ef2f	-0.003020238
78	0x3c6589ad	0.014009875
79	0x3de3de75	0.11126415
80	0xbd90542a	-0.07047303
81	0xbc3c48e4	-0.011491988
82	0x3c52addd	0.012858835
83	0xbba54faf	-0.0050448994
84	0x3d0bd149	0.034135137
85	0xbd65461c	-0.055975065
86	0x3b71d758	0.0036902037
87	0x3b86b4dc	0.0041109156
88	0xbc9bd892	-0.019024167
89	0x3d0bc47e	0.034122936
90	0xbd20ac8b	-0.03922705
91	0xbabfe106	-0.0014639206
92	0xbc98b586	-0.018641245
93	0xbcbb20ae	-0.022842731
94	0x3d22a7f3	0.03971095
95	0xbdb45737	-0.088056974
96	0xbb978ae7	-0.0046247127
97	0x3cf18930	0.029484361
98	0x3c60c4f2	0.01371883
99	0x3dd2481c	0.1026766
100	0xbe1a0e2d	-0.1504447
101	0xbd95ea89	-0.07320125
102	0xbc21ca72	-0.009874927
103	0x3c52d159	0.012867295
104	0x3dc0d0db	0.09414836
105	0xbe04dd5a	-0.12975064
106	0xbbff908c	-0.0077992138
107	0x3b651faa	0.00349615
108	0x3c365f4f	0.011131122
109	0x3d088913	0.03333385
110	0xbdd62817	-0.10456865
111	0xbc82b210	-0.015954047
112	0xbd03442e	-0.032047443
113	0xbcd0fb02	-0.025510315
114	0x3d5c080a	0.053718604
115	0xbdc7c535	-0.09754411
116	0xbcd261b9	-0.025681363
117	0xbc6ed676	-0.014577499
118	0x3c802eef	0.01564738
119	0x3d65c704	0.056098
120	0xbe1f5fbc	-0.15563864
121	0xbd19f2cf	-0.037585076
122	0xbcb7d980	-0.02244258
123	0x3d20c07b	0.039246064
124	0x3d8bef00	0.06832695
125	0xbe1ba72c	-0.1520049
126	0xbd2cb491	-0.04216439
127	0x3c61f20c	0.013790619
128	0x3d534a5a	0.05158458
129	0x3e0f6672	0.14003924
130	0xbdb5ce5c	-0.088772506
131	0xbd06a952	-0.03287632
132	0x3c0d88f4	0.008638609
133	0x3d529447	0.05141094
134	0x3e09f0d3	0.13470773
135	0xbdd055c4	-0.101726085
136	0x3c567022	0.013088258
137	0x3cce7d3c	0.0252062
138	0x3d67498e	0.05646663
139	0x3e097d6f	0.13426755
140	0xbddc766b	-0.10764774
141	0x3c54111d	0.012943533
142	0x3d483436	0.048877917
143	0x3d946d5f	0.072474234
144	0x3e11c994	0.14237052
145	0xbded535f	-0.115881674
146	0x3c8a48ca	0.016880412
147	0x3d817cdf	0.063226454
148	0x3ddfabc9	0.10921437
149	0x3e19a547	0.15004455
150	0xbe9f0be8	-0.3106377
151	0xbeb0613c	-0.34449184
152	0xbebe3335	-0.37148443
153	0xbebf5bb6	-0.37374657
154	0xbebd8a09	-0.37019375
155	0xbe77511c	-0.24152035
156	0xbe84d3b0	-0.25942755
157	0xbe82f9a6	-0.25581092
158	0xbe845127	-0.25843164
159	0xbe8ac889	-0.2710612
160	0xbdaa2c3f	-0.083092205
161	0x3c513b6a	0.012770513
162	0x3d8610eb	0.065461956
163	0x3d2d5ddb	0.042325836
164	0xbd4b39cc	-0.049615666
165	0x3dcaab86	0.09895997
166	0x3e7be587	0.24599276
167	0x3ead544b	0.33853373
168	0x3ea02992	0.31281716
169	0x3e178ae6	0.1479908
170	0x3e216bc1	0.15763761
171	0x3e9a4abf	0.30135152
172	0x3ecd7bf0	0.4013362
173	0x3ec18794	0.3779875
174	0x3e53c1f1	0.20679452
175	0xbe1efb0b	-0.15525453
176	0xbe2b36fc	-0.16720194
177	0xbe1093e5	-0.14118917
178	0xbe1c031d	-0.15235563
179	0xbe2a9e2f	-0.16661905
180	0xbe14e761	-0.14541389
181	0xbdeca046	-0.11554007
182	0xbdf1b42a	-0.11801942
183	0xbdfacb5e	-0.122458205
184	0xbe0d1e26	-0.13781032
185	0xbcfefdde	-0.031126913
186	0x3cc521e9	0.024064021
187	0x3da3a121	0.07989717
188	0x3d707255	0.058702786
189	0x3c37e80d	0.011224759
190	0x3d6000d6	0.054688297
191	0x3e4cda20	0.20005083
192	0x3e85cddf	0.2613363
193	0x3e829195	0.25501695
194	0x3dc69595	0.09696499
195	0x3d868eff	0.06570243
196	0x3e3e4b76	0.18583474
197	0x3e9b17a6	0.3029148
198	0x3e7a1602	0.24422458
199	0x3db13936	0.0865349
200	0x3db365bc	0.08759639
201	0x3d9be3bb	0.076117955
202	0x3d921e57	0.07134693
203	0x3d4aec59	0.049541805
204	0x3d96a96b	0.07356533
205	0xbc331826	-0.01093105
206	0xbc82ea8d	-0.015980983
207	0xbbe19e1f	-0.0068853046
208	0xbb299392	-0.0025875312
209	0xbd325ba2	-0.04354442
210	0xbd61c73c	-0.055121645
211	0x3c90050d	0.017580533
212	0x3daa51c1	0.083163746
213	0x3d257b82	0.04040099
214	0xbbb133d6	-0.0054077907
215	0xbd3a0b2b	-0.045420807
216	0x3d4a061c	0.049322233
217	0x3e01911f	0.12653016
218	0x3da46653	0.08027329
219	0xbd14aaca	-0.03629569
220	0xbe0872f4	-0.13325101
221	0xbd49d795	-0.04927786
222	0x3d09c7f6	0.033637963
223	0xbcc39b91	-0.02387789
224	0xbe06e462	-0.13173059
225	0x3efbd109	0.4918292
226	0x3ef61298	0.4806106
227	0x3d11eeed	0.035628248
228	0xbec608a5	-0.3867847
229	0xbed51d29	-0.4162381
230	0x3eec70f3	0.46179923
231	0x3ebeaa0f	0.3723912
232	0xbc1073f1	-0.008816705
233	0xbe9a6d11	-0.30161336
234	0xbeba9e3a	-0.36448842
235	0x3d86f344	0.06589368
236	0xbca5d9bc	-0.020245425
237	0xbc098e18	-0.008395694
238	0x3c3dbb0d	0.011580241
239	0x3d383f75	0.044982392
240	0xbec1e4a6	-0.37869757
241	0xbed65c37	-0.4186723
242	0xbd83adbf	-0.06429624
243	0x3eaca470	0.33719206
244	0x3ef90119	0.4863365
245	0xbedcf9f7	-0.43159458
246	0xbefc1fda	-0.4924305
247	0xbdb15a1d	-0.08659766
248	0x3ed09e45	0.4074575
249	0x3f014c1b	0.5050675
250	0x3f01dd1b	0.50728005
251	0x3ef8d8f7	0.4860303
252	0x3d8fc0d2	0.070191994
253	0xbebe086e	-0.37115806
254	0xbed1f91f	-0.41010377
255	0x3edea924	0.4348842

conv1.bias f4 [64]
0	0xbf77d4bc	-0.9680898
1	0xbea465a0	-0.32108784
2	0xbf0e53a6	-0.5559639
3	0xbf49e787	-0.7886891
4	0xbf205f45	-0.6264537
5	0xbf4688fe	-0.77552783
6	0xbefa350b	-0.48868594
7	0xbe918215	-0.28419557
8	0xbfa82dcc	-1.3138976
9	0xbef2abf8	-0.47396827
10	0xbda4a59e	-0.080394015
11	0xbf50249c	-0.8130586
12	0xbf728ed7	-0.94749206
13	0xbe7995ea	-0.24373594
14	0x3bcc6781	0.0062379246
15	0xbf8f6202	-1.1201785
16	0xbe7acfb2	-0.24493292
17	0xbf92dee6	-1.1474273
18	0xbe8cbe6f	-0.2748904
19	0xbd5b9c27	-0.053615715
20	0xbfbd62cd	-1.4795777
21	0x3dd65abb	0.10466524
22	0x3eada041	0.33911327
23	0xbe17c3cb	-0.14820783
24	0xbea7c883	-0.32770166
25	0xbf153e88	-0.5829854
26	0xbed5dcc9	-0.41770008
27	0xbdd7642e	-0.10517155
28	0xbebb9d48	-0.36643434
29	0xbf22938d	-0.63506395
30	0xbf81bfa9	-1.0136615
31	0xbf3f736e	-0.74785507
32	0xbf15ae43	-0.5846903
33	0x3e6f43d7	0.23365723
34	0xbf753a94	-0.9579251
35	0xbfbcaf34	-1.4740968
36	0xbf023ef2	-0.50877297
37	0xbe4be3f8	-0.19911182
38	0xbd470bcd	-0.04859524
39	0xbfb3cdf6	-1.4047229
40	0x3daccf52	0.08437981
41	0xbd29e97e	-0.04148244
42	0xbeda39b0	-0.42622137
43	0xbeb8712d	-0.36023846
44	0xbf4112b4	-0.75419164
45	0xbe810b2a	-0.2520383
46	0xbe9ecfaa	-0.3101781
47	0xbee0500e	-0.43811077
48	0xbeff5199	-0.49866942
49	0xbfad36da	-1.3532364
50	0xbf0fe5ed	-0.56210214
51	0xbf33ef4e	-0.70287025
52	0xbe245606	-0.1604844
53	0xbe4dbe10	-0.20092034
54	0xbf1bfd43	-0.6093332
55	0xbf25ec9d	-0.6481417
56	0xbea2dc32	-0.3180862
57	0xbeb02b59	-0.34408072
58	0xbde1ce52	-0.110256806
59	0xbefccdd2	-0.49375778
60	0xbee9d832	-0.45672756
61	0xbf5ae4dd	-0.8550547
62	0xbf123573	-0.5711281
63	0xbf1a190c	-0.6019447

fc1.weight f4 [64, 64]
0	0xbc8062cf	-0.015672116
1	0x3c9c92f3	0.01911304
2	0x3c0df85f	0.008665173
3	0xbbb8742f	-0.0056290845
4	0xbca25d14	-0.019819774
5	0xbb386a8d	-0.002813968
6	0xbcd8c093	-0.026459014
7	0xbc571bb7	-0.013129166
8	0xbcccae75	-0.024985531
9	0x3c94cf48	0.018165246
10	0x3c78faba	0.015196497
11	0xbcde1ee9	-0.027114348
12	0x3c4e1814	0.012578983
13	0x3cc0355a	0.02346294
14	0x3cba2830	0.022724241
15	0xbcab7e89	-0.02093436
16	0x3c1e4b86	0.009661561
17	0xbd044541	-0.03229261
18	0x3b95d3a5	0.004572349
19	0xbc3916fc	-0.011296984
20	0xbc60001e	-0.013671903
21	0xbb53f4b8	-0.0032341909
22	0x3c08ab43	0.008341613
23	0xbc9e9457	-0.019357843
24	0x3bf770b5	0.0075512775
25	0x3bd79925	0.0065795355
26	0xbbc886de	-0.006119593
27	0xbc7bd13f	-0.015369712
28	0xbccd0749	-0.025027888
29	0xbaa3ff60	-0.0012512021
30	0xbc408ea7	-0.011752761
31	0x3cc02edc	0.023459844
32	0x3bfd88bb	0.007737247
33	0xbc96bb88	-0.018399969
34	0x3b8d8c38	0.004319694
35	0x3bfaa534	0.0076490883
36	0x3ca84f2f	0.02054557
37	0x3ca26e2a	0.019827921
38	0xbcda05ef	-0.026614157
39	0xbc92ff55	-0.017944017
40	0xbb00845b	-0.001961014
41	0x3baa6424	0.005199926
42	0xbcd24597	-0.025667949
43	0xbcdeabf5	-0.027181605
44	0xbca30095	-0.019897738
45	0x3c71cc6c	0.014758211
46	0xbb67de2f	-0.0035380234
47	0x3cafbb95	0.02145175
48	0xbc3230f6	-0.010875931
49	0x3be563ab	0.0070004067
50	0x3c54f64d	0.012998176
51	0xbc292e56	-0.010325989
52	0x3c0fa8e4	0.008768294
53	0x3b6201e7	0.0034485997
54	0xbc5dd25a	-0.013538921
55	0x3ca4052a	0.020021994
56	0xbc1f5cd3	-0.009726721
57	0x3cb1e537	0.021715743
58	0x3b8db80b	0.004324918
59	0xbc35a50b	-0.011086713
60	0x3c281133	0.010258007
61	0x3c626fee	0.013820631
62	0x3cd4556d	0.02591964
63	0xbc454966	-0.012041425
64	0x3ce87df8	0.02838038
65	0xbc5232a1	-0.012829454
66	0x3c2e983a	0.010656411
67	0xbbd13435	-0.0063843974
68	0xbc9f5c55	-0.019453207
69	0xbbcfc282	-0.006340326
70	0xba9526d6	-0.0011379372
71	0xbb2bf4ce	-0.0026238444
72	0x3ca03cb5	0.019560197
73	0x3d7b07d4	0.061286762
74	0xbb86d053	-0.0041141897
75	0xbbc421c2	-0.0059854696
76	0xbc270777	-0.010194651
77	0xbcda0c2c	-0.026617132
78	0x3ce2d8cc	0.027691267
79	0x3bd13742	0.006384761
80	0xbd184ae7	-0.037180807
81	0xbb8bb502	-0.004263521
82	0x3d7f7b96	0.06237372
83	0xbc7f205d	-0.015571681
84	0x3bd56a1a	0.0065128924
85	0x3d168536	0.036748134
86	0xbbe690c6	-0.0070363013
87	0xbbd06ed5	-0.0063608685
88	0x3bca881d	0.0061807767
89	0xbcd9ae1d	-0.026572281
90	0x3cb37c63	0.021909898
91	0xbc9e2d89	-0.019308822
92	0x3bafac49	0.005361114
93	0xbc8bb342	-0.01705325
94	0x3ce81581	0.028330566
95	0x3cfadeae	0.03062376
96	0xbd5c775b	-0.053824764
97	0x3cb1c44b	0.021700045
98	0xbc6e767f	-0.014554619
99	0xbd579248	-0.05262974
100	0xbb751241	-0.0037394913
101	0x3b1d90ae	0.0024042535
102	0x3cdab3ee	0.026697125
103	0x3c939a2a	0.018017847
104	0x3c8fac78	0.017538294
105	0xbaf95fc2	-0.001902573
106	0x3cb27136	0.021782499
107	0xbd20c79e	-0.03925287
108	0x3d0d1ce4	0.03445138
109	0xbbe56fe5	-0.0070018643
110	0xbccf3e48	-0.025298253
111	0x3d1af20f	0.0378285
112	0xbc54b1ab	-0.0129818125
113	0xbc60036b	-0.01367269
114	0xbc85c63f	-0.016329883
115	0xbc1ba1c1	-0.009499014
116	0x3d266fbb	0.0406339
117	0x3cc9a4f4	0.024614789
118	0x3dae15d4	0.08500257
119	0xbc38dff9	-0.011283868
120	0xbb20197f	-0.002442926
121	0x3d9286a4	0.07154587
122	0x3cc12143	0.02357543
123	0x3d162c93	0.036663603
124	0x3cb7b53c	0.022425286
125	0x3c1e7612	0.009671705
126	0xbc8041e0	-0.015656412
127	0xbb802723	-0.0039109155
128	0x3e341729	0.1758696
129	0x3cd3b03b	0.02584087
130	0xbbe97e9a	-0.007125688
131	0x3a27b6a8	0.00063977623
132	0x3d89d493	0.067299984
133	0x3e446ffd	0.19183345
134	0x3bbcd125	0.0057622367
135	0x3c73b52a	0.014874736
136	0x3e8e20e5	0.27759472
137	0x3e379bd5	0.17930539
138	0x3c2a1b95	0.010382553
139	0xbcc4c0d4	-0.024017729
140	0x3e83d8db	0.25751385
141	0x3c9cc4b3	0.019136762
142	0xbb60b4ef	-0.0034287532
143	0x3cea5eca	0.028609652
144	0xbd9f7e98	-0.07787818
145	0xbd89d07c	-0.06729218
146	0x3e1401c0	0.14453793
147	0xbbea8b30	-0.0071577057
148	0x3e71d4b7	0.236163
149	0x3dd8b19c	0.10580751
150	0x3e719185	0.23590668
151	0xbd1fd85b	-0.039024692
152	0xbdabc50d	-0.08387194
153	0x3db24715	0.08704964
154	0x3d2aab63	0.041667353
155	0x3bbb5f50	0.0057181492
156	0xbd44befd	-0.048033703
157	0x3d239a62	0.039942153
158	0x3e8089f5	0.25105253
159	0x3d2c2cf5	0.042035062
160	0xbe2bb383	-0.16767697
161	0x3db67c22	0.08910395
162	0x3df1825f	0.117924444
163	0x3e37eec4	0.17962176
164	0xbd4495a8	-0.047994286
165	0x3c6bbc7c	0.0143882
166	0x39bbd9e5	0.00035829764
167	0x3e8655db	0.26237378
168	0x3e69ef92	0.22845295
169	0x3d31d8a6	0.043419503
170	0x3bb59bbd	0.005542247
171	0xbdaab293	-0.083348416
172	0x3d39ace7	0.04533091
173	0x3d2038ad	0.03911655
174	0x3d98bbdc	0.07457706
175	0x3d01199a	0.031518556
176	0x3dc32576	0.095286295
177	0x3dfff5dc	0.12498066
178	0x3e127748	0.14303315
179	0x3eea7250	0.4579034
180	0x3dc05d03	0.093927406
181	0x3d8fa4f6	0.07013886
182	0x3e79215f	0.24329136
183	0xbdd73dde	-0.10509847
184	0x3e0e082e	0.13870308
185	0x3df20b91	0.11818612
186	0x3c87ce0b	0.016577741
187	0x3d2ccda3	0.042188298
188	0x3d7f4cb5	0.062329013
189	0x3ca25413	0.01981548
190	0x3d23fad2	0.040034123
191	0x3d78e64d	0.060766507
192	0x3e3b6f1c	0.18304104
193	0x3bbaa7df	0.0056962813
194	0x3cefb0c7	0.029259099
195	0x3e116d23	0.14201789
196	0xbdfa7916	-0.122301266
197	0xbe639f70	-0.2222879
198	0x3d406bd5	0.046977837
199	0xbd776bc9	-0.060405526
200	0x3eab4f27	0.33458826
201	0x3d6b007b	0.057373505
202	0xbc862a0a	-0.016377468
203	0xbe576038	-0.21032798
204	0xbddf9272	-0.10916604
205	0xbd6d1edb	-0.057890754
206	0x3c72a25b	0.014809216
207	0xbd954914	-0.07289329
208	0xbe2249dc	-0.15848488
209	0xbe67ce30	-0.22637248
210	0x3daf4a09	0.08559043
211	0xbb903405	-0.0044007325
212	0x3e9faa75	0.31184736
213	0x3dd3ce33	0.10342064
214	0x3e56307a	0.2091693
215	0xbd6bf800	-0.057609558
216	0xbe5fabb6	-0.21842846
217	0xbdba7b75	-0.09105579
218	0x3c88a576	0.01668046
219	0x3cba8072	0.022766326
220	0xbdafeed6	-0.08590476
221	0xbe3fb573	-0.18721561
222	0xbe93f445	-0.288973
223	0xbc3f87e3	-0.011690113
224	0xbf195ba3	-0.5990545
225	0x3d76dc27	0.060268547
226	0x3e5cee84	0.21575361
227	0xbe8bfe33	-0.27342376
228	0xbe0ee15c	-0.13953155
229	0x3ce57b98	0.028013036
230	0x3bca1c98	0.0061679594
231	0x3eac633b	0.33669457
232	0x3e5bf69b	0.21480791
233	0x3d40d1be	0.047075026
234	0xbd314a4e	-0.043283753
235	0xbe607176	-0.21918282
236	0x3d08073a	0.033210017
237	0xbd77054e	-0.060307793
238	0xbca1860c	-0.019717239
239	0x3d299858	0.041405052
240	0x3d9d1003	0.076690696
241	0x3e992435	0.29910436
242	0xbdbb3b96	-0.091422245
243	0xbdf0ce01	-0.11758042
244	0x3e0addad	0.13561125
245	0x3d7a90ad	0.06117313
246	0x3db669d4	0.08906904
247	0xbebbdd0b	-0.3669208
248	0x3d41953b	0.047261458
249	0x3d8d9d1d	0.069147326
250	0x3c2e2fb9	0.010631495
251	0xba647b07	-0.0008715842
252	0xbd191575	-0.03737398
253	0x3e0bf428	0.13667357
254	0xbb0defce	-0.0021657827
255	0x3de3fca6	0.11132173

fc1.bias f4 [64]
0	0xbd0e768a	-0.034781016
1	0xbdc5421f	-0.09631752
2	0xbf379448	-0.71710634
3	0xbd9273a8	-0.07150966
4	0x3d99d1a3	0.07510688
5	0xbd4dc6ec	-0.050238535
6	0xbcc0e0cc	-0.023544692
7	0x3dcaa2c5	0.09894327
8	0xbe7a1a61	-0.24424125
9	0xbcc4d75d	-0.024028474
10	0x3e52e660	0.20595694
11	0x3ea2d7ce	0.3180527
12	0xbe3b4a5b	-0.18290083
13	0x3c7c9934	0.015417386
14	0xbdd79391	-0.10526193
15	0x3dfdb2c7	0.12387615
16	0x3e21e431	0.15809704
17	0xbe3d9199	-0.18512572
18	0x3ecbf288	0.39833474
19	0x3eec23d9	0.461211
20	0xbaaf1466	-0.001335752
21	0x3f17982b	0.59216565
22	0xbf23fbea	-0.64056265
23	0x3e188333	0.14893799
24	0x3df26b54	0.118368775
25	0x3ed85d09	0.4225848
26	0xbd4e4ea9	-0.050367985
27	0xbbb2a545	-0.0054518306
28	0xbe0b23a3	-0.13587813
29	0x3e42d58c	0.19026774
30	0x3e9004ab	0.2812856
31	0x3f02292d	0.5084408
32	0x3e68722c	0.22699803
33	0x3e894614	0.26811278
34	0x3eac414d	0.3364357
35	0xbc939dd7	-0.0180196
36	0x3e0ac3f3	0.13551311
37	0x3e6cbada	0.23118153
38	0x3ec8afab	0.39196524
39	0x3e812ce3	0.25229558
40	0xbf324151	-0.69630915
41	0xbcab33d7	-0.020898743
42	0xbbe3cbc9	-0.0069517833
43	0x3ebe35b7	0.37150356
44	0x3f17aa27	0.59244007
45	0xbe0cf338	-0.13764656
46	0x3f41ac8e	0.7565392
47	0xbd74ee2f	-0.059797462
48	0xbcdfeb56	-0.027333897
49	0x3dc175ab	0.094462715
50	0xbdf8ec23	-0.121544145
51	0x3e103b23	0.14085059
52	0x3d972b90	0.07381356
53	0x3e83eed5	0.25768152
54	0x3f08a3c7	0.53374904
55	0x3e910a00	0.28327942
56	0xbe738837	-0.2378243
57	0x3f0ef541	0.5584298
58	0x3cd81a14	0.026379623
59	0xb9ef71e7	-0.00045670496
60	0x3dbb7542	0.091532245
61	0x3eed66fc	0.46367633
62	0x3d6c7948	0.05773285
63	0xbc30d15a	-0.010792101

fc2.weight f4 [32, 64]
0	0x3c77d646	0.01512677
1	0xbc33faf8	-0.010985129
2	0xbe2b5d69	-0.16734852
3	0xbdf7bd3a	-0.12096639
4	0xbcd13c4d	-0.025541449
5	0x3e894fcd	0.26818696
6	0xbcdd2148	-0.026993409
7	0x3e5d1581	0.21590234
8	0x3b360593	0.0027774319
9	0xbdd2bee5	-0.102903165
10	0x3e24f41d	0.16108747
11	0x3e70fb62	0.23533395
12	0xbba60e45	-0.005067619
13	0x3d7d0a88	0.06177762
14	0xbd5b5abe	-0.053553335
15	0x3d74f1ce	0.059800915
16	0xbda23644	-0.079205066
17	0xbd007e1e	-0.031370275
18	0xbe0a2997	-0.13492428
19	0xbdadf897	-0.084946804
20	0xbdfd9347	-0.123816065
21	0xbe67f1e9	-0.22650875
22	0xbdbbba85	-0.09166435
23	0x3d46df8b	0.04855303
24	0xbde067c3	-0.10957291
25	0xbe10f689	-0.14156546
26	0xbd863847	-0.06553703
27	0x3a3752ce	0.0006993235
28	0xbcd9ef7f	-0.026603458
29	0x3e5c42d7	0.21509872
30	0xbe665a1c	-0.22495311
31	0xbdf222d9	-0.11823053
32	0x3d29d74e	0.041465096
33	0x3e0222fe	0.12708661
34	0xbe27e614	-0.16396362
35	0xbcaa9d78	-0.02082704
36	0xbc8e0b83	-0.017339474
37	0xbdf82c1b	-0.121177875
38	0xbdbac137	-0.09118884
39	0xbd7bbe70	-0.061460912
40	0xbd2d52b6	-0.042315207
41	0xbc2c0f76	-0.010501733
42	0xbd166915	-0.036721308
43	0xbe944f5d	-0.289668
44	0xbe2a2ee2	-0.16619447
45	0xbdc7b9e6	-0.09752254
46	0xbe108171	-0.14111878
47	0xbb00b6f4	-0.0019640299
48	0xbba8872c	-0.005143067
49	0xbd437430	-0.047718227
50	0xbd011ef9	-0.03152368
51	0xbd750864	-0.059822455
52	0x3dcefe32	0.10107078
53	0x3da7115b	0.08157607
54	0xbe74535e	-0.23859927
55	0xbe0dd15c	-0.13849396
56	0xbd52bebd	-0.051451433
57	0xbd9646ce	-0.07337724
58	0xbcff4b2d	-0.031163776
59	0xbd6c9b15	-0.057765085
60	0xbd48efb5	-0.049056727
61	0xbd2c3a46	-0.04204776
62	0x3d8e228e	0.069401845
63	0xbc1a512c	-0.009418767
64	0xbbeef467	-0.0072923186
65	0x3c9518f4	0.018200375
66	0xbbec8370	-0.007217817
67	0x3c19170a	0.009343872
68	0xbc630911	-0.013857142
69	0xbcb41e44	-0.021987088
70	0xbc766ef6	-0.015041104
71	0xbccec59f	-0.025240717
72	0x3c1a29ba	0.009409362
73	0xbcc3824d	-0.023865843
74	0xbb8de780	-0.0043305755
75	0x3c13061f	0.008973627
76	0xbb1107c4	-0.0022129873
77	0xbb710456	-0.0036776266
78	0xbcde1129	-0.027107792
79	0xbce49a58	-0.027905628
80	0xbc7f5d02	-0.01558614
81	0x3bc016ba	0.005862084
82	0xbbe61388	-0.0070213713
83	0x3a492109	0.0007672464
84	0x3bf31090	0.007417746
85	0xbca31543	-0.0199076
86	0x3ca44344	0.020051606
87	0xbb9583f8	-0.004562851
88	0xba5613a7	-0.00081663806
89	0xbbf92392	-0.0076031173
90	0x3c40e085	0.01177228
91	0xbcb43ab2	-0.022000644
92	0x3c0307c1	0.007997454
93	0xbc7c97a0	-0.01541701
94	0x3c6b0b56	0.014345964
95	0x3c21ae4b	0.009868215
96	0xbcc8e7ab	-0.02452453
97	0xbca43de4	-0.020049043
98	0xbccc27f5	-0.024921397
99	0xbcc3a41c	-0.023881964
100	0xbcad3170	-0.021141738
101	0xbc260226	-0.010132348
102	0xbce8c218	-0.028412864
103	0xbb80f4c5	-0.003935429
104	0xbbbebb5b	-0.0058206744
105	0x3afa3cf9	0.0019091658
106	0x3c02da9f	0.007986694
107	0x3b975266	0.004617977
108	0xb9daa3d9	-0.00041702276
109	0xbc8a5094	-0.016884126
110	0x3c3b516c	0.011432987
111	0x3b48e1fa	0.003065227
112	0xbc27a455	-0.010232051
113	0x3b39646c	0.0028288616
114	0xbc78898a	-0.015169511
115	0xbc692aa8	-0.014231361
116	0xbbfd5dad	-0.0077321143
117	0xbc6fa9e7	-0.01462791
118	0xbc6a9e8c	-0.014320027
119	0xbc6d37ef	-0.014478668
120	0xbbfb0a7c	-0.007661162
121	0x3c93a7f4	0.018024422
122	0xbbb20c16	-0.0054335697
123	0xbc566b6b	-0.013087134
124	0xbcb3f2a6	-0.02196629
125	0x3aca9a29	0.001545732
126	0xba6830ed	-0.0008857388
127	0xbc0c31c5	-0.008556788
128	0x3cc027d8	0.023456499
129	0xbc8c9b14	-0.01716379
130	0xbd9d7c02	-0.07689668
131	0xbcccec1a	-0.025014926
132	0x3c1d6d7b	0.009608622
133	0x3e1a5800	0.15072632
134	0xbc9140b9	-0.017731057
135	0xbe278c22	-0.1636205
136	0xbd8baf44	-0.06820539
137	0x3d20f638	0.039297312
138	0x3d13c8a9	0.036080036
139	0xbe3e6604	-0.18593603
140	0x3cdfa73a	0.02730142
141	0xbdf448d2	-0.11927952
142	0xbbc22095	-0.0059242942
143	0xbd3053e8	-0.04304877
144	0xbd2fe823	-0.042945992
145	0xbc0f0a35	-0.008730461
146	0xbc3bee7e	-0.011470435
147	0x3e128ad4	0.14310771
148	0xbcc1def1	-0.023665877
149	0xbc56cdf7	-0.013110629
150	0xbd774385	-0.060367126
151	0x3d6d09b2	0.057870574
152	0x3d80a029	0.06280548
153	0x3d40bb19	0.04705343
154	0xbcaf8206	-0.021424305
155	0xbaac2d4d	-0.0013136059
156	0xbd80939b	-0.062781535
157	0x3e807aa2	0.2509356
158	0x3e1082a0	0.1411233
159	0x3c0652bf	0.008198439
160	0x3d81df37	0.06341403
161	0x3cd77041	0.026298644
162	0x3c30cc9e	0.010790972
163	0x3bb595b9	0.00554153
164	0x3a177761	0.0005777982
165	0xbd7d265f	-0.06180417
166	0x3e16a517	0.14711414
167	0xbc600c40	-0.013674796
168	0xbd8e5947	-0.06950622
169	0xbc02ce6c	-0.007983785
170	0x3c488e57	0.012240968
171	0xbe8f73ea	-0.28018123
172	0x3da35fc6	0.07977252
173	0xbd26dbfa	-0.04073713
174	0x3e3272a0	0.17426538
175	0x3b3308b7	0.0027318427
176	0xbc94c74c	-0.018161438
177	0xbe52a564	-0.20570904
178	0xbdcaad98	-0.09896392
179	0xbbf09bac	-0.0073427763
180	0xbd197486	-0.03746464
181	0xbd2c5a21	-0.04207814
182	0x3e7036b1	0.23458363
183	0x3d5ecf34	0.054396823
184	0xbc9f1eda	-0.01942389
185	0x3e26c57d	0.16286273
186	0x3d58aa7f	0.052896973
187	0xbc66fc38	-0.01409822
188	0x3cfc4322	0.03079373
189	0xbeb57415	-0.35440126
190	0x3d9ddea2	0.077084795
191	0xbca1a592	-0.01973227
192	0xbcd1cf49	-0.025611537
193	0xbd17e859	-0.03708682
194	0xbe057d5d	-0.13036104
195	0x3e058c24	0.1304174
196	0xbcb7e16a	-0.022446353
197	0xbeab8e06	-0.33506793
198	0x3cad6423	0.021165913
199	0xbe6c190f	-0.23056434
200	0xbdc758c8	-0.097337306
201	0x3e03176c	0.12801903
202	0xbe332eff	-0.17498396
203	0xbeb51b2d	-0.35372296
204	0xba875255	-0.001032422
205	0xbe1c187b	-0.15243714
206	0x3da2edca	0.07955511
207	0xbe502b34	-0.2032898
208	0xbd2c7289	-0.042101417
209	0xbcf2ab7c	-0.029622786
210	0xbb26736d	-0.002539839
211	0x3cf6fac4	0.030148871
212	0x3e3b8b9e	0.18314978
213	0xba1204a4	-0.00055701495
214	0xbdace303	-0.084417365
215	0xbd63a1f8	-0.055574387
216	0x3dd63f60	0.104613066
217	0xbd2ec1d3	-0.042665314
218	0xbcddfb32	-0.027097318
219	0x3cab0137	0.020874603
220	0xbd8821a0	-0.066470385
221	0xbcaade54	-0.020857967
222	0x3e6dd349	0.2322513
223	0xbd5475ff	-0.051870342
224	0xbd8b0ff4	-0.06790152
225	0xbe56b4cb	-0.20967405
226	0xbafb82cc	-0.0019188761
227	0xbd0f2f38	-0.03495714
228	0xbc941fae	-0.018081512
229	0xbc5c47b5	-0.013444831
230	0x3cfca83c	0.03084194
231	0x3ca3be14	0.019988097
232	0xbe519ad2	-0.20469216
233	0xb9b87749	-0.0003518409
234	0x3d04a812	0.032386847
235	0xbe12dec1	-0.14342786
236	0x3d8dcb4e	0.06923543
237	0x3cbf9c82	0.023390058
238	0x3e4fd330	0.20295405
239	0xbd05ae9e	-0.03263723
240	0xbc8fd766	-0.017558765
241	0xbdd821df	-0.105533354
242	0xbdea272f	-0.11433255
243	0xbd8b58c7	-0.06804042
244	0xbde3ddea	-0.11126311
245	0xbe0367eb	-0.1283261
246	0x3e379094	0.17926246
247	0xbcf5cd7c	-0.03000521
248	0xbdac04c2	-0.08399345
249	0x3e055430	0.13020396
250	0x3d811549	0.06302888
251	0xbc466a77	-0.012110344
252	0xbc8d1ed9	-0.017226623
253	0xbe4051fb	-0.18781273
254	0xbca6488c	-0.020298265
255	0xbcad7482	-0.02117372

fc2.bias f4 [32]
0	0x3e90957c	0.28239048
1	0xbc010b81	-0.007876278
2	0x3ccf9fdc	0.025344782
3	0x3dc178fd	0.09446905
4	0xbe2cb163	-0.16864543
5	0xbcb1482d	-0.021640861
6	0xbd208ee3	-0.039198767
7	0x3e1df9bb	0.15427296
8	0x3f088f12	0.5334331
9	0xbbeec3cf	-0.007286526
10	0x3e0d075e	0.13772342
11	0x3bf411f5	0.0074484297
12	0x3f2a14d4	0.6643803
13	0x3f21e7f4	0.6324456
14	0x3d957ef4	0.07299605
15	0x3eb46bef	0.35238597
16	0x3d3e1660	0.046408057
17	0xbdd349dc	-0.10316822
18	0xbc45ff94	-0.01208486
19	0xbc7675e4	-0.015042756
20	0xbd504478	-0.050846547
21	0x3a8c3789	0.0010697703
22	0xbd0aad6d	-0.033856798
23	0xbd60155b	-0.054707866
24	0x3c9d33aa	0.019189674
25	0x3c750715	0.014955302
26	0xbd1fc623	-0.039007317
27	0xbd14bc20	-0.036312222
28	0x3eee1597	0.46500847
29	0x3e7424cc	0.23842162
30	0xbd96e2c6	-0.07367472
31	0xbd277a4f	-0.040888127

fc3.weight f4 [5, 32]
0	0xbee47e62	-0.44627672
1	0x3c403404	0.0117311515
2	0x3e98c9bc	0.2984141
3	0x3ed5058b	0.4160579
4	0x3f25ed88	0.6481557
5	0xbc91075f	-0.01770371
6	0xbe08a0a3	-0.13342528
7	0x3ea95c02	0.3307801
8	0xbef42dfa	-0.47691327
9	0x3d8ebd7f	0.06969737
10	0xbc1fed60	-0.009761184
11	0x3ea23bd6	0.31686276
12	0xbf7bd62e	-0.9837369
13	0xbefd9343	-0.49526414
14	0xbc16a444	-0.009194437
15	0xbf779860	-0.9671688
16	0x3d98018c	0.0742217
17	0x3eacf273	0.33778724
18	0xbe008e05	-0.12554176
19	0x3c6b3023	0.014354738
20	0x3a092810	0.0005232105
21	0x3cb6230d	0.02223351
22	0xbc943e4e	-0.018096115
23	0xbcd83f30	-0.026397318
24	0x3e10ed24	0.14152962
25	0x3e00db41	0.12583639
26	0x3edea0ef	0.43482158
27	0xbc46852b	-0.012116711
28	0xbeeb69f4	-0.45979273
29	0xbe392bf6	-0.18083176
30	0x3e423e77	0.18969141
31	0x3e0d2eab	0.13787334
32	0x3e8474b0	0.25870275
33	0x3bfb87cd	0.007676101
34	0xbe325bb8	-0.174178
35	0xbe482c14	-0.19548064
36	0x3d719e6f	0.058988985
37	0xbdcf78ca	-0.101304606
38	0xbdaabd5a	-0.08336897
39	0xbebf18cd	-0.3732361
40	0xbe978a0e	-0.29597515
41	0xbe1a3c7f	-0.1506214
42	0x3ec015bb	0.3751658
43	0xbcbcbb28	-0.023038462
44	0x3ef9c743	0.48784837
45	0x3ea75fa3	0.32690153
46	0x3e10ef68	0.14153826
47	0xbde9018f	-0.113772504
48	0xbdce4ff9	-0.10073847
49	0xbdbeeced	-0.09322534
50	0xbbb5a606	-0.005543473
51	0x3cca9d1c	0.024733119
52	0x3c465cb3	0.012107062
53	0xbd1a6ce6	-0.03770151
54	0xbc466569	-0.012109139
55	0xbc9c3131	-0.019066425
56	0xbd8dc530	-0.06922376
57	0x3d5ff6d3	0.05467875
58	0xbe578038	-0.21045005
59	0xbce82e9e	-0.028342541
60	0xbef91d2d	-0.48655072
61	0x3e6c962b	0.2310416
62	0xbe14c0b1	-0.14526631
63	0x3d4a9975	0.049462754
64	0xbd9958bf	-0.0748763
65	0xbc753e05	-0.0149684
66	0xbd5a279b	-0.053260427
67	0x3e0a5f5b	0.13512938
68	0x3e422e9f	0.18963097
69	0x3d638e14	0.055555418
70	0xbe3f56a6	-0.18685398
71	0x3ea2daf3	0.3180767
72	0x3ef7f366	0.48427886
73	0xbd9fc128	-0.078005135
74	0xbe8ead3c	-0.27866542
75	0xbdafe475	-0.085884966
76	0x3ee164fc	0.44022357
77	0xbe59e835	-0.21279986
78	0xbdaa6bef	-0.08321368
79	0x3efaf058	0.49011493
80	0xbe57df93	-0.2108138
81	0x3d246523	0.040135514
82	0xbc3b4bec	-0.011431675
83	0x3cafd313	0.021462953
84	0x3caf015b	0.021362951
85	0x3c170f8d	0.009220016
86	0x3cf00eee	0.029303994
87	0xbc3d5c18	-0.011557601
88	0xbe3e5ccc	-0.18590087
89	0xbe01f78d	-0.1269209
90	0x3e31b162	0.17352822
91	0xbd0e32f2	-0.034716554
92	0x3f1404dc	0.57819915
93	0x3ec9aa3f	0.393877
94	0xbdb1f2c9	-0.08688886
95	0xbcbbb2f0	-0.022912472
96	0xbd3055c1	-0.04305053
97	0xba90328a	-0.001100139
98	0xbe4e7f2f	-0.20165704
99	0xbdb167e9	-0.086623974
100	0xbddc2f79	-0.10751242
101	0xbd89097b	-0.066912614
102	0x3e91e2e3	0.28493413
103	0xbee8e68d	-0.45488396
104	0x3e6f66e2	0.2337909
105	0x3e158f7e	0.14605519
106	0x3e8c70c8	0.27429795
107	0xbe964115	-0.2934653
108	0x3ee0f137	0.43934032
109	0x3f1ac121	0.6045094
110	0xbdc65d7d	-0.096858
111	0x3ce0d0c9	0.027443307
112	0x3e2e049a	0.16993943
113	0xbeaed0ce	-0.3414368
114	0xbe25299d	-0.16129155
115	0x3d1238a5	0.03569855
116	0x3cd79267	0.026314927
117	0x3c8ef692	0.017451558
118	0x3b199570	0.002343502
119	0x3c4e6650	0.012597635
120	0xbebe2d5f	-0.3714399
121	0xbdf17780	-0.11790371
122	0xbda3ca69	-0.07997591
123	0x3ce16bf4	0.027517296
124	0xbdd9cab2	-0.10634364
125	0xbc10b1d4	-0.00883146
126	0xbd2d7854	-0.042351082
127	0xbe37234a	-0.17884555
128	0x3ea6edf8	0.3260343
129	0xbce32f16	-0.027732413
130	0x3e10811a	0.14111748
131	0xbe93a4dd	-0.28836718
132	0xbf3e4cee	-0.74336135
133	0x3e2783c0	0.16358852
134	0x3dda4ccd	0.1065918
135	0x3e0caa18	0.1373676
136	0x3d208f4f	0.03919917
137	0x3cc77db6	0.024351936
138	0xbe86c296	-0.26320332
139	0x3db2aa04	0.08723834
140	0xbe8f9967	-0.28046724
141	0xbe6fe332	-0.23426512
142	0x3c8aa27a	0.016923178
143	0x3f1d3d42	0.61421597
144	0x3d95a1de	0.07306264
145	0x3d8fdf0f	0.07024967
146	0x3eb508e8	0.35358357
147	0x3c7a74b8	0.015286617
148	0x3cc41d29	0.023939686
149	0xbcc81959	-0.02442615
150	0xbc78b38a	-0.015179524
151	0xbd1250cb	-0.03572158
152	0x3edbc62f	0.4292464
153	0x3dbc54ee	0.091958866
154	0xbe9bd2c5	-0.30434242
155	0xbc550345	-0.013001268
156	0x3ef829c4	0.48469365
157	0xbedaf1ee	-0.42762703
158	0x3d1fbe6b	0.038999956
159	0x3dbba447	0.09162193

fc3.bias f4 [5]
0	0xbd346c31	-0.044048492
1	0x3e624530	0.22096705
2	0xbe9a895d	-0.30182925
3	0x3e0a8631	0.13527752
4	0xbd2b95d6	-0.04189094
