Assignment_1/1/CNN_Layers/Models/1CNN/model-14.pth (torch_old, 46280 bytes, 8 tensors)

conv1.weight f4 [64, 3, 5, 5]
000000 c4 fe 1f 3e 6d 1b 3c 3e 28 7c 3a 3e 04 d7 28 3e
       0.15624529 0.18369837 0.18211424 0.16488272
000010 4d 61 e7 3d dc 65 d9 3d d6 53 08 3e 79 ad 0a 3e
       0.112978555 0.10615131 0.13313231 0.13542737
000020 fa 9b f1 3d 03 42 94 3d a8 47 8a bc 06 3b 9a bb
       0.11797328 0.07239153 -0.016879871 -0.004706743
000030 10 8f aa bb f3 82 95 bc 2c 4a 1f bd 94 3f 0b be
       -0.0052050427 -0.018250918 -0.038889095 -0.13598472
000040 ea 29 16 be 98 e0 1f be 03 6e 29 be 5c 7f 27 be
       -0.14664426 -0.1561302 -0.16545872 -0.16357177
000050 9c af 38 be ff 0c 53 be bf 17 65 be 62 27 70 be
       -0.1803574 -0.20610426 -0.2237234 -0.23452523
000060 17 8c 65 be 3b f7 02 3e 5f fa 2c 3e 6f d5 35 3e
       -0.22416721 0.12789623 0.16892384 0.177572
000070 19 36 26 3e 93 29 df 3d bb 7f e4 3d 86 16 1d 3e
       0.16231574 0.108966015 0.11157175 0.15340623
000080 51 11 27 3e 41 cb 1a 3e c9 84 d8 3d c9 46 53 3c
       0.163152 0.15116598 0.10572202 0.012895294
000090 15 a7 03 3d 96 be 0d 3d fb c5 e5 3c 22 d1 19 3c
       0.032141764 0.034605585 0.028048506 0.00938824
0000a0 b5 1c bf bd 22 c6 e0 bd 12 7d f9 bd be 4f 02 be
       -0.09331647 -0.10975291 -0.121820584 -0.12725732
0000b0 71 44 eb bd 8a 21 08 be 55 8d 31 be 72 46 4b be
       -0.114876635 -0.13294044 -0.1733907 -0.19851092
0000c0 33 b8 55 be cd 61 40 be 30 3e 1e 3e 90 c9 3a 3e
       -0.20871048 -0.18787308 0.1545341 0.18240952
0000d0 b6 cd 37 3e a5 2f 22 3e ff d7 de 3d 1d a0 1f 3e
       0.17949566 0.15838487 0.10881042 0.15588422
0000e0 f1 8b 3a 3e e0 c1 38 3e 5f 43 21 3e b5 2a e0 3d
       0.18217446 0.18042707 0.15748356 0.10945646
0000f0 a7 3e 7b 3d c2 6b 94 3d 29 6b 81 3d 8d 0f 38 3d
       0.061339047 0.07247116 0.06319267 0.044936705
000100 ea df 91 3c b0 16 67 bd 59 06 96 bd 1b af c0 bd
       0.017806966 -0.05641812 -0.073254295 -0.09408399
000110 e8 b8 e3 bd 6b 13 ed bd 8c 9c 01 be 21 f1 26 be
       -0.111192524 -0.11575969 -0.12657374 -0.16302921
000120 a8 6b 48 be 16 df 5b be af 32 55 be 68 1d bb bd
       -0.19572318 -0.2147182 -0.20820116 -0.09136468
000130 23 24 6a 3b 27 67 ab 3c 80 26 06 3d 65 05 d5 3d
       0.0035727106 0.02092321 0.03275156 0.104014196
000140 b3 71 5a bd d4 03 d2 3c 5a a2 38 3c 94 07 af bb
       -0.05333109 0.025636591 0.011269176 -0.0053414796
000150 a6 74 79 3d 72 cd 23 bd 10 0f 00 3d a1 40 e7 39
       0.06090226 -0.03999085 0.031264365 0.00044107906
000160 60 81 ee bc ec 4a 0d 3d 07 1a 4f bd 04 03 b5 3c
       -0.029114425 0.03449528 -0.05056193 0.022096165
000170 73 4c 01 bb e1 3f cd bc 33 c7 11 3d 01 d5 9d bd
       -0.0019729405 -0.025054874 0.03559036 -0.07706643
000180 be 78 0f 3c 27 7f 69 3c b9 7f 42 3c 73 ac 8d 3d
       0.0087568145 0.014251507 0.011871272 0.06917658
000190 70 43 18 be 6e eb 2a bd b3 ef c0 bb 88 2d a2 3c
       -0.14869475 -0.04172843 -0.0058879494 0.019797102
0001a0 97 5d c5 3d 00 71 e7 bd 94 53 63 bc 85 02 f1 bb
       0.096369915 -0.1130085 -0.013874907 -0.0073550367
0001b0 05 79 94 bb 3b 08 8f 3d ff ca c2 bd e9 cd 44 bb
       -0.004531028 0.06983992 -0.09511375 -0.0030029959
0001c0 c2 3a 2a bc 16 5c 93 bc aa e9 6c 3d db 1b cd bd
       -0.0103899855 -0.017988246 0.057840027 -0.10015079
0001d0 74 26 cb bb 69 f9 95 bb c2 b6 ae bb bc fd 86 3d
       -0.0061996523 -0.004576851 -0.005331845 0.06591365
0001e0 91 f2 f8 bd 0c 01 8a bc 37 86 15 3c 69 2f ed 3c
       -0.12155641 -0.016846202 0.009126238 0.028953271
0001f0 9e 1f c3 3d f9 48 2f be 82 e9 57 bd f7 8e 71 3b
       0.09527515 -0.1711768 -0.052712925 0.0036858895
000200 30 4f 50 3d 21 5f 0a 3e eb 8b 06 be 8f 18 a2 bc
       0.05085677 0.13512851 -0.13139312 -0.019787101
000210 68 95 7a 3c dc d3 3b 3d dd 97 07 3e a8 b9 df bd
       0.01529441 0.04585634 0.13241525 -0.10924083
000220 40 2f 7c 3b e1 09 ee 3c 65 f0 4d 3d e3 5b 09 3e
       0.0038480312 0.029057445 0.050278086 0.13413958
000230 1d e0 d6 bd 9e c4 5c 3c 9c b1 41 3d 3b 7e 92 3d
       -0.10491965 0.013474612 0.047288522 0.07152983
000240 6d e7 17 3e 7b 67 e8 bd 69 96 58 3c bb e4 89 3d
       0.14834376 -0.11347862 0.013219454 0.0673308
000250 c5 7e d8 3d e3 fd 2e 3e ec 96 8b bf 97 6b 0c be
       0.10571054 0.17089038 -1.0905433 -0.13712917
000260 90 43 ae 3e 8e 52 09 be 5f 65 8d bf 32 e2 81 bf
       0.3403592 -0.13410398 -1.1046561 -1.0147154
000270 17 40 0b be a7 09 ab 3e 11 0e ee bd 2b f3 82 bf
       -0.13598667 0.33405802 -0.11623777 -1.0230459
000280 90 b6 2f bf 33 3b fb 3d 46 8b 15 3f fc d7 23 3e
       -0.68637943 0.12267151 0.5841564 0.1600036
000290 eb 09 30 bf 58 52 92 be e5 2e ed 3e 90 32 69 3f
       -0.68765134 -0.28578448 0.4632484 0.9109278
0002a0 10 4f 03 3f d1 a6 92 be 77 af 06 bd c9 b9 27 3f
       0.51292515 -0.28642896 -0.03288218 0.6551786
0002b0 aa 92 89 3f 48 df 34 3f b9 23 1f bd a4 ec 28 bf
       1.0747883 0.706532 -0.038852427 -0.65986085
0002c0 7a c5 3f 3e e7 a8 1d 3f c4 5f 2a 3e fe 9f 39 bf
       0.18727675 0.6158585 0.16638094 -0.72509754
0002d0 be 4c 2f bf 17 e9 aa 3d fb ff fb 3e c4 a8 84 3d
       -0.68476474 0.083452396 0.49218735 0.06477502
0002e0 6a a9 42 bf 0b 71 02 bf fb f6 3a 3e 37 84 14 3f
       -0.76039755 -0.5095374 0.18258278 0.58014244
0002f0 96 7b 34 3e 92 9b 15 bf a7 05 94 be a8 54 b2 3e
       0.1762527 -0.58440506 -0.28910562 0.34830213
000300 81 93 3b 3f 7d f7 b4 3e de 09 b8 be 96 a6 3a be
       0.7327195 0.3534507 -0.35945028 -0.1822761
000310 9c b4 ce 3e 14 31 44 3f 04 2e d3 3e 1d 90 81 be
       0.4037217 0.7663739 0.41246045 -0.25305262
000320 54 f7 2c be bb 3a 09 3f 72 1d 6c 3f b9 74 0f 3f
       -0.16891223 0.5360524 0.9223243 0.5603748
000330 eb 54 25 be 8b 74 ce be c1 37 70 3e 69 26 1d 3f
       -0.16145675 -0.4032329 0.23458768 0.61386734
000340 10 e2 8b 3e 3b d1 c9 be f8 7f e6 be 4e b2 0e 3e
       0.2732091 -0.39417443 -0.45019507 0.13935205
000350 52 2e 04 3f 5c fe 45 3e fb 90 dc be 5b f9 e7 be
       0.5163318 0.19335312 -0.4307936 -0.4530743
000360 05 73 ce 3d 67 be f0 3e f6 3f 28 3e d6 79 dd be
       0.10080532 0.47020265 0.16430649 -0.43257016
000370 d5 f6 12 bf 0b 40 76 bd a1 6e 92 3e eb f6 fa b9
       -0.57407886 -0.06011967 0.28600028 -0.00047867684
000380 ed 97 0f bf 71 9c f8 3e 92 a8 e8 3e c0 c0 ef 3c
       -0.56091195 0.48556855 0.4544111 0.029266715
000390 60 08 cc be bc bb e4 be 8a 14 f2 3e bf e8 c7 3e
       -0.3985014 -0.4467448 0.47281295 0.3904476
0003a0 cf e7 fe 3b 08 c5 b1 be 6d 19 c7 be 80 46 83 3d
       0.0077790986 -0.34720635 -0.38886586 0.06409931
0003b0 1c 8f 3b ba 84 4f c4 bc fa 4f 80 bb 2f 31 f4 3c
       -0.0007154809 -0.023963697 -0.003915784 0.029808609
0003c0 9f 44 c1 be 20 2f d1 be 45 39 78 bd 24 66 b1 3e
       -0.37747666 -0.40856266 -0.06060149 0.3464824
0003d0 44 01 ea 3e d4 ee f8 be 98 b7 08 bf 56 6a d4 bd
       0.4570409 -0.4861971 -0.5340514 -0.103718445
0003e0 70 29 ca 3e 7f 5e 04 3f 87 e7 fb 3e d7 9f f4 3e
       0.3948474 0.5170669 0.4920008 0.47778198
0003f0 9c dd 3a 3d 5c 9e ce be cf f6 f0 be bc f8 f3 3e
       0.0456215 -0.40355194 -0.470633 0.47650707

conv1.bias f4 [64]
000000 c3 37 6f bf c0 ff a6 be 18 77 98 bf 16 b4 5e bf
       -0.9344446 -0.32616997 -1.1911345 -0.8699354
000010 7c 7a 70 be 18 20 6a bf cf 10 92 bf 8c dd f1 bd
       -0.23484224 -0.9145522 -1.141138 -0.11809835
000020 dd ee a3 bf 20 66 f0 be d5 ed 93 bd 59 4b 64 bf
       -1.280727 -0.46952915 -0.07223097 -0.8917747
000030 30 6d b8 bf b7 d4 2e be 69 d8 97 3c a8 fd 99 bf
       -1.4408321 -0.17073332 0.01853581 -1.2030535
000040 01 b7 6e be 08 e2 e1 bf 3f 2b 0b bf ef c6 4b bd
       -0.23311998 -1.7647104 -0.54362863 -0.049750265
000050 0c be b9 bf ec 32 bb bd 14 aa 1d 3e 9c 7d 29 be
       -1.4511123 -0.09140572 0.15396911 -0.16551822
000060 6e 74 a9 be 73 b1 7f bf 95 a5 dc be 16 f9 f2 bd
       -0.3309664 -0.9988014 -0.4309508 -0.118639156
000070 d9 d7 93 be 72 83 34 bf bf 44 86 bf 79 2a 45 bf
       -0.28875616 -0.7051307 -1.048973 -0.77017933
000080 76 6a 38 bf cd 91 6e be 74 0b 7b bf 53 e0 e8 bf
       -0.72037446 -0.23297806 -0.9806435 -1.8193458
000090 1b 6f 00 bf 8b 0b 43 be 6d 7c 3a be ce ec b0 bf
       -0.50169533 -0.19047372 -0.18211527 -1.3822267
0000a0 0e 60 0f 3e fb 85 2e bb b0 c8 ea be 69 4c 03 bf
       0.14001486 -0.0026630152 -0.45856237 -0.5128847
0000b0 46 5b 43 bf b5 b1 e5 be 60 44 af be a1 f2 dc be
       -0.7631115 -0.44862142 -0.34231853 -0.4315386
0000c0 83 00 fa be 0f 38 b4 bf 52 a4 45 bf d6 dd 3a bf
       -0.48828515 -1.4079608 -0.7720386 -0.72994745
0000d0 8b ac b3 be 0d f1 7c be 7d cf 10 bf 8f 37 55 bf
       -0.35092577 -0.24701329 -0.565666 -0.832879
0000e0 41 80 a5 bd 03 59 d3 be 11 09 3c bd 05 4b 58 bf
       -0.08081103 -0.41278848 -0.045907084 -0.8448947
0000f0 9f b5 13 bf 77 24 6a bf c0 14 18 bf fd 94 23 bf
       -0.57699007 -0.9146189 -0.5940666 -0.63899213

fc1.weight f4 [64, 64]
000000 98 a7 0e ba 53 44 16 3a ef aa 73 38 c0 88 6d b9
       -0.00054418435 0.0005732227 5.809491e-05 -0.00022653025
000010 f9 04 94 ba ef 60 1d 3b 31 b9 a7 ba 57 27 19 ba
       -0.0011292986 0.0024014076 -0.001279628 -0.0005842349
000020 b0 56 6b ba e9 4e 3c 3a 0b ce 2d 3a 83 b4 b8 ba
       -0.0008977456 0.00071833894 0.0006630129 -0.0014091883
000030 43 da 8d 3b d9 c8 84 3a 47 ef 82 3a 5f 85 ea ba
       0.0043289973 0.0010130658 0.0009989523 -0.0017892531
000040 73 12 5d 38 36 45 2c bb 43 68 a4 b8 e4 b4 fe b9
       5.2707688e-05 -0.002628637 -7.83955e-05 -0.0004858143
000050 20 50 c6 b9 a1 04 89 b8 34 b5 0b 3a ea 50 81 ba
       -0.000378252 -6.533531e-05 0.00053294306 -0.0009866033
000060 5b aa b3 39 fc 75 be 38 33 ea 18 ba 9b 5c 3b ba
       0.00034268465 9.081882e-05 -0.0005833238 -0.0007147283
000070 c0 5f 91 ba b6 61 ac b9 a3 8f 12 3b b9 17 fc 39
       -0.0011091158 -0.00032879197 0.0022363446 0.0004808286
000080 84 83 a7 b9 ef ac 41 ba 30 b3 8c 39 b8 8e 9f b9
       -0.0003195071 -0.0007388135 0.00026836386 -0.00030433177
000090 0c 24 6b 3a d6 23 33 3a 62 6e b5 ba 78 ed 15 ba
       0.000896991 0.0006833648 -0.0013842101 -0.00057192845
0000a0 a9 9a 22 38 b9 ca a1 39 60 ca ba ba a6 ea d4 ba
       3.876785e-05 0.00030859353 -0.0014250986 -0.0016244247
0000b0 e3 fa bd ba c6 58 91 3a 03 fc 3a 3a 51 5d 22 3a
       -0.0014494326 0.0011089079 0.00071328896 0.0006193715
0000c0 20 10 d2 b9 64 81 da 39 23 14 2f 3b 6f a8 cf 3a
       -0.00040066335 0.00041676604 0.0026714883 0.0015843044
0000d0 5f 8f cf 39 98 a3 16 38 27 b3 3d ba a4 46 5c 39
       0.00039588936 3.5915145e-05 -0.00072364736 0.0002100715
0000e0 63 3b 74 b9 b0 c7 68 3a f5 e8 41 39 92 62 7b ba
       -0.00023291777 0.00088798534 0.00018492698 -0.0009589578
0000f0 41 ed 8e 3a e3 a4 17 3a da e8 1b 3a d5 70 15 ba
       0.0010904447 0.0005784763 0.00059474783 -0.0005700712
000100 b7 fa bf 3b 51 b8 ee 3a 5f 18 3f 3c 9a ac c2 bb
       0.005858745 0.001821289 0.011663525 -0.005940986
000110 5a 03 9f bb 2e 50 aa bb 70 c9 75 3b 90 91 21 bb
       -0.0048526945 -0.0051975464 0.00375041 -0.0024653412
000120 7a 53 ea 3b e1 59 5c 3d c4 ca 85 ba 0a 0f 92 bc
       0.0071510645 0.053796653 -0.0010207524 -0.017829437
000130 7f e9 e6 39 40 9b 9f bb d3 9b 45 3b f0 a0 a9 3b
       0.00044042987 -0.004870802 0.0030152693 0.005176656
000140 24 76 d6 bb 36 67 8d 3c e2 7e 06 3d 87 d6 de b9
       -0.006544845 0.017261129 0.03283585 -0.00042502975
000150 bb 6c f4 3b 24 38 fa 3c da 93 06 3c 39 93 f2 bb
       0.0074592507 0.030544348 0.0082139615 -0.007402804
000160 7b f5 b8 bb eb a0 9f bc e5 a8 20 3b 83 7a 93 ba
       -0.005644498 -0.019485911 0.0024514731 -0.0011251721
000170 42 f7 b5 bb a1 cc 8f bc 9f 24 6f bc 4b b9 92 3b
       -0.005553157 -0.01755363 -0.0145961335 0.004477655
000180 21 30 a9 bc fe 96 59 3d 74 aa bd bb e1 d9 07 bd
       -0.020652832 0.053122513 -0.005788142 -0.03316677
000190 4c 7f 00 bc e1 dd 56 3a 4d 0f bf 3c a7 b3 f7 3b
       -0.00784285 0.00081965147 0.023322726 0.007559258
0001a0 06 bc 18 3b 8e 75 fe ba 25 12 1d 3b 8f d6 ac bc
       0.002330543 -0.0019413696 0.0023967114 -0.021098403
0001b0 13 9c 89 3b 6e 3a 68 bb be 75 67 ba 29 42 4e 3b
       0.0041995137 -0.0035435217 -0.00088294956 0.003147254
0001c0 eb 49 f4 3a 27 c0 07 bc 10 f6 cb ba 37 e8 1f bd
       0.0018637752 -0.008285559 -0.0015561003 -0.039039817
0001d0 00 63 10 3d 21 f6 5b 3b 17 f7 45 3d c5 35 02 bd
       0.035250664 0.0033563452 0.048331346 -0.03178956
0001e0 d3 c8 81 bb 82 71 48 3d b1 d5 c1 3a 28 ed 05 3c
       -0.0039607077 0.048936374 0.0014788416 0.008174218
0001f0 be 41 22 ba 8d ed c3 bb 4c d6 2b 3b 5e 6f b8 bb
       -0.0006189606 -0.005979246 0.002622026 -0.0056285104
000200 4d 64 a0 3d 70 56 1b 3b e6 91 83 bd 91 3d 23 bd
       0.07831631 0.0023702644 -0.06424312 -0.039853636
000210 1b cf 77 3d 54 d3 90 3e c6 3e 45 3c 35 5f 96 3a
       0.060500246 0.2828623 0.012038892 0.0011472466
000220 bd 27 d7 3d 37 c2 6a 3d 9a 0f 6c 3b c0 08 b5 3d
       0.10505626 0.057314124 0.0036020041 0.088395596
000230 21 1e c1 3e 75 56 b4 ba e7 52 03 3c 1a 9c ae bc
       0.377183 -0.0013758676 0.008015371 -0.02131467
000240 05 f0 2f bd 5e 11 81 39 15 21 41 3e e7 4f 7a 3b
       -0.04295351 0.00024617737 0.18860276 0.0038194598
000250 fd 1f f0 3d 2b 9a e1 3d ef 8c 8a 3d 49 c7 eb bc
       0.11724851 0.11015733 0.06765162 -0.02878155
000260 90 02 30 bd 47 99 94 3c cc 16 9a bb 9c f6 88 bc
       -0.042971194 0.018139495 -0.0047024246 -0.016719155
000270 d7 26 88 3c 38 3c 95 3d 96 d1 b4 3e 75 92 61 bc
       0.016620083 0.072868764 0.3531615 -0.013767828
000280 0d 9a f4 bd a2 5a 3a 3e fb 67 0e bd 78 66 fb bd
       -0.11943445 0.18198636 -0.034767132 -0.12275404
000290 72 e1 8a 3c 90 c8 96 3c f4 b9 86 3d eb f5 e1 3d
       0.016953204 0.018406183 0.065784365 0.11033233
0002a0 0d 1c 3e 3d 02 7a 93 3c 5e 52 10 bc 02 67 e5 bd
       0.04641347 0.018002514 -0.0088087 -0.11201288
0002b0 4e 7e 25 bc 3e cb c6 3d 64 6f b7 3d dd da d4 bb
       -0.010100914 0.09706734 0.08956793 -0.006495817
0002c0 80 41 27 3d e0 b3 4b bd d9 02 56 3e 87 ce c1 3e
       0.04083395 -0.04973209 0.20899524 0.3785288
0002d0 24 02 a6 3d 18 9c f0 3a 8c 44 66 3d c6 1e fb bd
       0.08105877 0.0018357066 0.056217715 -0.12261729
0002e0 e9 99 3d 3d b4 be 4b 3d 2a d3 fa ba a5 84 2d bc
       0.04628936 0.049742416 -0.0019136418 -0.010590707
0002f0 f4 ed e5 3d ac 80 45 bd 13 23 ee 3b e5 79 1e bd
       0.112270266 -0.048218414 0.0072673648 -0.038690466
000300 0c 6d ae 3d e0 49 3f 3c 8d 34 fb 3d 4b f1 fd 3d
       0.08516893 0.011675328 0.12265883 0.123995386
000310 a3 07 3b bd 22 f4 ed bd 02 5f 41 3d 24 74 1a bd
       -0.04566158 -0.1161883 0.047209747 -0.037708417
000320 1a d1 00 3e bd 6b 07 3d ed c3 be bc 05 9c 92 be
       0.12579766 0.03306173 -0.023286784 -0.28634658
000330 82 52 10 bd 58 1e 65 bd f3 77 a4 3c c5 ca 05 3d
       -0.035234936 -0.05593714 0.020076727 0.03266408
000340 df b9 0f be 19 5c 06 3d 85 07 41 bd 9e b7 73 3b
       -0.14035748 0.032802675 -0.04712631 0.0037188302
000350 1b 8c 0d 3e a8 91 fb 3d 59 44 08 3e ed c3 a0 bd
       0.13822977 0.12283641 0.13307323 -0.0784987
000360 8e df 28 be 81 2e 78 bd 82 04 5e 3c 32 13 4d bb
       -0.1649153 -0.060591225 0.013550879 -0.003129196
000370 af 5a f5 bd aa 0b 7b be 15 95 be be 50 f3 a6 3c
       -0.11980187 -0.24516168 -0.37223116 0.020379692
000380 de d7 cd be e8 64 30 3e 36 05 29 3e 3b 24 9e be
       -0.40203756 0.17225993 0.16505894 -0.30887017
000390 8e f1 2c be fd 8f 06 bc 0b 21 83 3c 9f a4 0c 3e
       -0.16889021 -0.00821304 0.016006967 0.13734673
0003a0 a8 91 2d 3e 86 a2 1c 3d cb da 2d 3c 07 27 64 be
       0.16950095 0.038240932 0.010611246 -0.22280513
0003b0 50 7f c8 3c 4a c3 0d be 0b 8e 18 bc 5c 13 78 3c
       0.02447477 -0.13844028 -0.009311209 0.015141334
0003c0 f1 a5 34 3d 34 f4 6a 3e 75 de 16 bd 6e b9 83 be
       0.044103567 0.22944719 -0.036833245 -0.2572741
0003d0 aa df 60 3d 66 b4 a5 ba d9 1f 60 bd 9b f3 bf be
       0.054900803 -0.0012642264 -0.054717872 -0.37490544
0003e0 15 90 85 3d f1 94 03 3d bc 25 34 3a 4c 9c 2e 3c
       0.06521622 0.032124463 0.0006872078 0.010657381
0003f0 38 43 11 be 32 90 ef 3d 3f ec 94 bc e8 c4 9c 3d
       -0.14185798 0.11697425 -0.018179057 0.076547444

fc1.bias f4 [64]
000000 aa a8 15 bb a8 a0 82 bd e8 b7 30 bf 3a 75 34 3d
       -0.0022836127 -0.06378299 -0.6903062 0.04405711
000010 da e3 8f 3e 32 77 95 be dd 4e 25 bc e0 97 b8 3d
       0.28103524 -0.291925 -0.010089603 0.09013343
000020 f5 b6 79 be 28 0a ca 3d 03 7a 3a 3e 90 1d 78 3e
       -0.24386199 0.098652184 0.18210606 0.24230027
000030 5c 50 84 be 04 99 bb 3d b8 fd d5 bd f0 cc e9 3e
       -0.2584256 0.09160045 -0.10448784 0.45664167
000040 62 a2 3e be 48 b2 6f be 44 5f f8 3e 90 82 be 3e
       -0.18616632 -0.23407853 0.48510182 0.37208986
000050 80 ee d4 3d a4 54 1c 3f 24 a8 11 bf e0 b2 9b 3e
       0.10397053 0.6106665 -0.5689719 0.30409908
000060 94 e7 2d 3e 01 1a 33 3e e7 bc b0 bc ff 4c 94 b9
       0.16982871 0.17490388 -0.02157445 -0.00028286126
000070 ea 70 09 be 96 08 00 3f 22 25 e2 3e dc 15 cc 3e
       -0.1342198 0.500131 0.44168955 0.39860427
000080 df eb 56 bd 43 a6 3d 3e e3 a3 ae 3e c8 df ca bc
       -0.052471038 0.18520455 0.3410941 -0.02476491
000090 7b 0f e4 3d 86 eb 01 3d 1e c1 00 3f 3f 4e 6f 3e
       0.11135765 0.031718753 0.50294673 0.23369692
0000a0 70 23 43 bf 15 af 70 ba 3e b3 04 bc 5a 35 92 3e
       -0.7622595 -0.00091813627 -0.008099375 0.2855633
0000b0 a8 d7 23 3f b5 88 8b be 29 3d 14 3f 0d ba 2e be
       0.6400094 -0.27252737 0.57905823 -0.1706316
0000c0 63 16 14 3c 50 7a 22 3e 8f 33 c4 bd 16 38 dd 3e
       0.009038541 0.15866971 -0.095801465 0.43206853
0000d0 68 6d 9d 3d 63 3c 1e 3b 66 0c fd 3e ca 5d 7e 3e
       0.07686883 0.002414488 0.49423522 0.24840465
0000e0 6e a0 2e bc be de de 3e c6 e4 19 bc 07 96 00 3d
       -0.010658367 0.43529314 -0.009392923 0.031393077
0000f0 0a e1 07 3d 61 02 ab 3e 53 be 7c 3e 28 27 d6 ba
       0.0331736 0.33400252 0.24681978 -0.0016338574

fc2.weight f4 [32, 64]
000000 59 ab 8f 3a e1 29 02 bd ed 8b 29 bd 12 55 7c bd
       0.00109611 -0.03177822 -0.04139321 -0.061604567
000010 57 1f 7e 3c 81 af 83 3e da 23 0f bc 06 8f fb bd
       0.015510402 0.25719836 -0.008736575 -0.12283139
000020 35 cd 85 bd 2b 4b 33 bd 6c b3 9a 3e 86 64 1e bd
       -0.06533281 -0.043772858 0.30215013 -0.038670085
000030 bd 77 01 bb 55 61 45 bd 29 78 89 bd 36 ae 96 bd
       -0.0019755207 -0.048188526 -0.06712372 -0.07357447
000040 23 9a 66 bc cd ae b6 3c 3f 45 06 bd 3d 74 cb bd
       -0.014074835 0.022300148 -0.032780882 -0.0993428
000050 9e 98 c6 bd 9f 68 2b be c6 de 8d 3d 35 8f 30 3d
       -0.09697078 -0.16739129 0.06927256 0.043105323
000060 1a de 2a bd a7 77 3d bd 18 ec c7 bc 20 7c d1 b7
       -0.04171572 -0.046256687 -0.02440457 -2.4972542e-05
000070 b3 f7 4a bd 5b fb ab 3e fb 06 77 be 67 bc 11 3e
       -0.04955263 0.33590207 -0.24123757 0.14232026
000080 16 61 60 3e a7 58 43 3e 5f 4b bd bd e9 79 15 bc
       0.21912035 0.19076787 -0.092428915 -0.009123304
000090 55 5d 0e 3b 77 96 92 3d 4f 87 26 3d d5 25 30 bd
       0.002172311 0.07157605 0.040656384 -0.04300483
0000a0 1b 68 94 3d 6b ff f1 b9 64 20 b1 bc 72 fe 53 be
       0.07246419 -0.00046157403 -0.02162189 -0.20702532
0000b0 d7 d8 07 be dd 6e 11 bd e5 ae 47 bd c3 d6 75 bd
       -0.13266312 -0.035506118 -0.048750777 -0.060019266
0000c0 a4 88 0b bb 9a 5b 17 be 0f 26 ec bc 59 3d e6 3d
       -0.002129116 -0.14781037 -0.028826742 0.1124217
0000d0 4a 16 51 3e 2d f9 8f 3e 41 05 70 be bd 78 d3 3c
       0.20418659 0.28119794 -0.23439504 0.025814408
0000e0 1d b4 13 bb dd a9 09 be 7b d5 a6 bd 24 d4 50 bc
       -0.0022537776 -0.13443704 -0.08146187 -0.012745891
0000f0 e8 61 0f bc ad e0 8d be e2 fe 22 3d 50 47 bb 3a
       -0.00875137 -0.27710477 0.039793856 0.001428822
000100 3a bc a3 b9 42 28 a1 3a 5e 14 f6 3a 5c fa c2 3a
       -0.00031230022 0.0012295323 0.001877438 0.0014875638
000110 0c 43 72 ba 72 25 f8 ba 22 fe 1c ba 08 2f 19 b9
       -0.0009241558 -0.0018932058 -0.00059887965 -0.00014608738
000120 4f 6b 09 3b 72 86 de b9 b8 b2 5a ba 9f 80 27 3b
       0.0020968502 -0.0004244331 -0.0008342671 0.0025558842
000130 52 9d 46 3a 91 1d 9a 3a 72 17 36 37 41 b3 bb ba
       0.0007576543 0.0011758079 1.0853504e-05 -0.001432039
000140 13 78 73 ba 9b 74 a0 3a 04 75 a8 ba 6e a3 a5 ba
       -0.0009287607 0.0012241782 -0.0012852256 -0.0012637207
000150 00 99 8f 3a 01 12 e0 ba de 88 88 3a 8d 73 05 ba
       0.0010955632 -0.0017095209 0.0010416766 -0.0005090766
000160 53 ec 56 39 eb cd bf ba db bc 8c 39 67 04 7d ba
       0.00020496668 -0.0014633512 0.0002684359 -0.000965184
000170 5b 6e 96 3a 88 77 06 bb 42 44 a4 39 6c 51 09 ba
       0.001147698 -0.0020518024 0.00031331374 -0.0005238268
000180 c8 5f d9 ba 2e b8 12 bb 29 6c 10 bb e2 7f 96 ba
       -0.0016584331 -0.0022387612 -0.0022037125 -0.0011482204
000190 48 a3 ab ba f7 1c a4 b9 d8 33 13 bb 0a f6 1b ba
       -0.0013094926 -0.00031302098 -0.0022461321 -0.00059494434
0001a0 4d 51 ea 3a 67 a7 af 38 10 70 12 3a b9 4a 41 3b
       0.0017877013 8.3758314e-05 0.00055861566 0.0029494
0001b0 34 3b 4f ba aa 7d 0d 3a 62 11 79 ba 14 10 0e b7
       -0.00079052453 0.00053974485 -0.00095011864 -8.467603e-06
0001c0 9c 8c 28 39 4b dd fd 3a e5 c4 89 3a 7a 58 a2 ba
       0.0001607411 0.0019368319 0.001051095 -0.0012385987
0001d0 4d 1d 3d ba 2d 0b 13 bb 7d e2 22 ba 24 5a 6d ba
       -0.0007214144 -0.0022437081 -0.0006213559 -0.00090542645
0001e0 a2 36 b0 b9 7e 58 56 ba 03 3d 8d 38 f1 07 19 ba
       -0.0003361004 -0.00081766385 6.734768e-05 -0.000583767
0001f0 ab d8 f5 b9 9a 09 10 3b bd 57 e6 b9 07 c2 c2 b9
       -0.00046891472 0.002197838 -0.0004393439 -0.00037147125
000200 05 6f 98 3a 17 96 67 3b a1 77 d7 3b fb e5 ac 3d
       0.0011629766 0.0035337263 0.00657554 0.08442303
000210 42 0c 08 3d 20 d3 3d be de c3 ee 3a 7a 24 9a bd
       0.033214815 -0.18537569 0.0018216332 -0.075264886
000220 77 9d 5f 3c 8f 21 8d 3d 64 e9 00 bc ee a3 21 be
       0.013648382 0.068911664 -0.007868145 -0.1578519
000230 fc c8 b1 3c 5c d1 2a bd c2 b1 57 3d 6f 9a 8b bd
       0.021702282 -0.041703567 0.052659757 -0.06816565
000240 27 f7 6b bd ac 1d 87 3c c1 6c a6 3d 36 fe 57 3d
       -0.05760875 0.01649364 0.08126212 0.05273267
000250 fc 9b d3 3d 56 c9 4c bb 13 1a 80 3c fb e9 90 3d
       0.10332486 -0.0031247935 0.015637433 0.07075878
000260 cd 62 2e 3d 0d 86 df 3c 9f 03 8a 3c 8a 87 55 b8
       0.042574693 0.0272856 0.01684743 -5.0909388e-05
000270 dd a2 e9 3a 5f 3a b0 3c 8c a4 b9 3d 4c 81 83 3d
       0.0017825026 0.021512209 0.09064588 0.06421146
000280 1e 3e 8c bd cd 6f c1 bd f0 d1 db 3c 72 53 93 3c
       -0.068477854 -0.094451524 0.026833504 0.017984126
000290 2c 41 68 3d 76 c7 52 bc 42 5d 36 3b 6a 8d 23 3d
       0.056702778 -0.012864938 0.0027826582 0.039929785
0002a0 76 81 45 bd f5 52 b7 b9 dd 9e 05 3c fd 34 25 bd
       -0.048219167 -0.00034966288 0.008155552 -0.040333737
0002b0 48 66 d6 3d 3e 30 1e 3c 0a c4 db 3d b3 35 04 3c
       0.10468727 0.0096550565 0.10730751 0.0080694435
0002c0 ea a5 6c bc f3 07 c0 bc ad 61 0d bd 03 05 9c 3d
       -0.014443854 -0.02344129 -0.03451698 0.076181434
0002d0 5c 73 69 bd b4 2a c1 bd c7 d0 e0 3d 8a c9 86 3d
       -0.05699478 -0.09431973 0.10977321 0.06581409
0002e0 71 63 5f ba 7f ff dd 3d b8 99 9a 3d 3f 7c 11 3c
       -0.0008521593 0.10839748 0.07548851 0.00887972
0002f0 1a 67 c5 3c 82 9c 04 bd d8 72 90 3d e0 f4 90 ba
       0.024097014 -0.03237582 0.07053155 -0.0011059307
000300 02 25 08 bb 90 ea 45 bd b4 7b a3 be 1c 6e 82 bd
       -0.0020774012 -0.0483194 -0.31930315 -0.06368658
000310 3a 77 7f b9 42 59 36 be e9 4d 0e bb ee fd 1a be
       -0.0002436311 -0.17807487 -0.0021713919 -0.15135929
000320 d2 4a de bd 5e a2 b3 3b 81 1d 03 bd f4 67 72 be
       -0.108541146 0.005482002 -0.03201056 -0.23672467
000330 c4 b2 13 be 89 e7 59 be 6d 27 b9 bd 53 7c 88 be
       -0.14423662 -0.2127973 -0.09040723 -0.26657352
000340 15 cd 87 bc 9d 6d 1c be b8 88 24 3c 6d 70 ce 3d
       -0.016577283 -0.15276189 0.010042362 0.10080037
000350 ff 76 82 bb 5f ee 34 3e 75 cf 39 be f5 33 8e 3b
       -0.0039814706 0.17669056 -0.18145545 0.00433969
000360 0b d4 35 3a fe 97 fd 3d 61 ca 27 bd 7b d8 6f 3a
       0.0006936199 0.12382506 -0.040964488 0.00091493846
000370 b4 04 64 bd fd 64 22 bc ba f9 0e 3e 99 1a 36 3c
       -0.055668548 -0.009911773 0.1396245 0.01111474
000380 1e 97 81 bd b7 16 3a be 78 d0 05 3e 48 89 14 bd
       -0.063276514 -0.18172728 0.13067806 -0.036263734
000390 85 96 5d 3d 7c ee 34 3d a7 dd c5 3d 13 00 94 3d
       0.054098625 0.04417275 0.096614175 0.07226577
0003a0 1c 05 d2 be 35 7c 81 b7 08 eb 32 bb e0 c1 29 be
       -0.41019523 -1.5435837e-05 -0.0027300734 -0.16577864
0003b0 34 df 6c 3e e7 7f 12 be 12 ac 86 3e 0d 70 84 bd
       0.2313202 -0.14306603 0.26303154 -0.064666845
0003c0 00 95 a4 bd 12 c9 84 be c9 92 fb bd 90 a6 cd bc
       -0.08036232 -0.25934654 -0.122838564 -0.025103837
0003d0 0f 2f 8b bd d2 6b 75 bd fa b7 3a 3e bd fd ae 3c
       -0.06796085 -0.05991728 0.18234244 0.021361226
0003e0 0d 7f 71 bb 95 93 83 3e ce 72 0d 3d 32 33 9b 3b
       -0.003684941 0.25698534 0.034533314 0.0047363276
0003f0 19 ad 8e 3c 0c af 76 be f5 c8 80 3d 46 b6 36 ba
       0.017416524 -0.24090213 0.062883295 -0.000696991

fc2.bias f4 [32]
000000 24 47 fa 3d 61 8a 4b b9 44 bb ec 3c 07 ff 74 3e
       0.122206 -0.00019411139 0.028897889 0.2392541
000010 db 71 04 3e d4 fb 82 3d 9c 22 4b 3e 07 d4 67 3e
       0.12934057 0.06395689 0.19837421 0.22639476
000020 f2 e6 e8 3e ef e8 8a 3d 14 75 f6 3e 42 2a 8c be
       0.45488697 0.0678271 0.481362 -0.2737599
000030 26 38 04 3f 49 ea 0f 3f c0 1f 92 3e 28 14 89 3e
       0.51648176 0.56216866 0.28539848 0.2677319
000040 df fe 93 3d ef 8b 44 bd 3e 91 10 3e 51 3f 34 3b
       0.07226347 -0.047985014 0.14117905 0.002750356
000050 f1 e2 14 bb 6f 21 02 3d 52 45 d5 ba 03 75 22 bb
       -0.0022718275 0.031770166 -0.0016271269 -0.0024788983
000060 bf a6 e3 bd 93 9b ea bd 17 84 79 3e f5 20 f7 ba
       -0.11115789 -0.11455455 0.24366795 -0.0018854426
000070 ae 81 e8 3e d1 0e 9b 3e 7b bd ab 3c 06 b6 76 3c
       0.45411438 0.30284742 0.020964375 0.015058046

fc3.weight f4 [5, 32]
000000 de 90 b5 be 95 6d 45 3b 4e df 57 3e 79 ce d8 3e
       -0.35462087 0.003012513 0.21081278 0.42345026
000010 a8 d1 dd 3e bb 3b 09 3e b0 53 a9 bb dc e5 e1 3d
       0.43324018 0.13401692 -0.005167447 0.1103017
000020 72 c1 cb be 98 88 a9 3c 8c 21 90 bd 47 87 eb 3e
       -0.39796025 0.020695016 -0.070376486 0.46001646
000030 93 12 56 bf 95 21 3d bf 4d af d3 be b8 d9 92 bf
       -0.8362209 -0.7387937 -0.4134468 -1.1472692
000040 5e b4 cb ba 57 3a 95 bd d2 62 5a be 7c 9d 8e b9
       -0.0015541425 -0.07286518 -0.2132676 -0.00027201686
000050 cd 9b 8b 38 c9 8f 2c 3d 38 7c 46 ba 5b dc 9b ba
       6.657057e-05 0.04212931 -0.00075716106 -0.0011891233
000060 82 25 52 3e e7 72 69 3e bf 17 0b 3f c1 b9 c0 b9
       0.2052212 0.22797738 0.5433311 -0.0003675949
000070 1d 71 08 bf c5 e2 be be bb 52 aa 3e ba 6d 7b 3e
       -0.532976 -0.37282386 0.33266243 0.24553576
000080 73 5e f5 3a 16 c5 96 3a e8 26 15 be 2f f0 ba be
       0.0018720165 0.0011502828 -0.14565623 -0.3651137
000090 10 f6 4a 3e 61 6e 52 be 88 fd 2a be 3c 9d 80 be
       0.19820428 -0.20549919 -0.16698277 -0.2511996
0000a0 7c 98 a4 be 58 6c 88 bd be bb e4 3e 75 1a 1e be
       -0.32147586 -0.0666129 0.44674486 -0.1543978
0000b0 6b 27 cb 3e fc ac 3b 3e 1c e8 51 3e 33 ce 01 be
       0.3967851 0.18327707 0.20498699 -0.12676315
0000c0 96 45 a8 bd 5c dd cf bd 86 b3 d7 3d dd 8d 04 3a
       -0.082163975 -0.10149643 0.10532288 0.00050565397
0000d0 fb ab 0b 3a 64 5a 5c 3d 52 48 fb b9 28 11 51 ba
       0.0005328056 0.05379714 -0.00047928334 -0.0007975274
0000e0 e1 fe 61 bd 2b 63 a7 bd e2 67 ee bd 91 bd 96 ba
       -0.055174712 -0.08173212 -0.11640908 -0.0011500587
0000f0 f0 60 a6 be d1 0a 8d 3e 29 8d 95 be 61 47 33 3e
       -0.32495832 0.27547315 -0.2920926 0.17507698
000100 31 09 40 bd ea a9 66 bb 32 bf be 3d 85 d0 3c 3e
       -0.046883766 -0.0035196492 0.09313811 0.18438919
000110 a9 35 68 3d f5 48 d7 3d a4 25 78 bd de 2f bf 3e
       0.0566918 0.10511962 -0.060582772 0.37341207
000120 08 88 11 3f e1 10 3b bd 2e 41 8e be 11 51 80 bd
       0.5684819 -0.045670394 -0.27784103 -0.06265462
000130 a1 f4 98 3e 85 70 71 be 14 1c 90 be e1 80 14 3f
       0.29874137 -0.23578079 -0.28146422 0.58009154
000140 bf 59 11 be 2e a3 66 3e 7e 94 1d be 0a 8b b8 ba
       -0.14194392 0.22523186 -0.15388677 -0.0014079523
000150 6b 5a 75 3a 15 e4 1c bd 58 57 a5 3a 82 8b 0f ba
       0.00093594816 -0.038303453 0.0012614531 -0.00054758054
000160 62 b2 62 be 04 f8 f1 bd 3e 97 64 3e 21 4c da ba
       -0.2213836 -0.11814883 0.2232332 -0.0016654768
000170 47 76 ca 3e 13 4f bd 3e 77 38 28 3c 1c 1f 4d bd
       0.39543363 0.3697439 0.0102673685 -0.050078496
000180 b8 c4 ac 3b a0 58 2f 3b 40 b1 aa bd 2c 01 54 be
       0.005272474 0.0026755705 -0.08334589 -0.20703572
000190 3e 91 68 be d5 07 36 be 9b b2 6e 3e 20 03 94 be
       -0.22711655 -0.17776425 0.2331032 -0.28908634
0001a0 93 37 f0 3d 46 b8 b3 3d 1a c4 e3 3e 3c ad 7e be
       0.1172935 0.08775382 0.4448555 -0.24870771
0001b0 d7 cc d9 3e cb d4 30 3f 4e 94 70 3e 8f 7b 62 3c
       0.42539093 0.69074696 0.23494074 0.013823404
0001c0 37 ed 1a 3e 7f 38 8a be 93 22 00 be 88 c0 bc 3b
       0.15129553 -0.26996228 -0.12513189 0.005760256
0001d0 82 ae 96 3a 65 de 02 3e 03 39 9c 38 89 7a 0b 3a
       0.0011496099 0.1278015 7.449279e-05 0.00053206884
0001e0 90 42 70 be 88 c6 2b be 3f fb 16 be 9b d3 9a 3a
       -0.23462892 -0.16774952 -0.1474428 0.0011812331
0001f0 8b 23 af bd 49 ad 0c 3d 19 1b 34 be 3d 4c 62 be
       -0.08551701 0.034344945 -0.17588462 -0.22099395
000200 a3 5f ca 3e dc d0 8f bb 03 8f 98 bd db a5 15 bd
       0.3952609 -0.0043889116 -0.07449152 -0.036535125
000210 d9 02 eb be ce 13 15 3e 45 5b 6c ba dd 30 60 3d
       -0.4590061 0.14558336 -0.0009016286 0.0547341
000220 ba 10 07 3d 85 29 8e 3b ca 01 0a bf 8b c9 be 3b
       0.032974936 0.0043384456 -0.5390898 0.0058223656
000230 8f 72 8f be 4f f4 cc 3d 08 dc 81 3e 2c ae 2e 3f
       -0.2801709 0.10007536 0.25363183 0.68234515
000240 7a cf 98 3d 35 f5 60 3e 15 3e c7 3e ce 1f a1 39
       0.07461448 0.21968539 0.38914552 0.0003073201
000250 e6 88 84 3a ee 77 3e be 96 12 38 ba 86 6f c6 ba
       0.00101116 -0.18600437 -0.00070218125 -0.0015139438
000260 13 67 9b 3e fb 3e 10 3e 8d 8a 00 bf a6 d7 2c ba
       0.30352077 0.14086525 -0.5021141 -0.00065934134
000270 02 68 0c 3f c4 e0 9c be b3 fc fb 3d d0 a9 15 be
       0.54846203 -0.30640233 0.12304058 -0.1461556

fc3.bias f4 [5]
000000 c9 d5 2a bd 77 cc 0b 3e 28 9e 57 be 0d 33 b1 3e
       -0.041707788 0.13652216 -0.21056426 0.3460926
000010 9e 4a 6d be
       -0.23172995
