Assignment_1/1/CNN_Layers/Models/1CNN/model-1.pth (torch_old, 46280 bytes, 8 tensors)

conv1.weight f4 [64, 3, 5, 5]
00000000: c778 4f3e 03a7 853e 49ab 323e e5a4 8d3e
00000010: 7dde 673e d880 2c3e 1d69 f43d 1f2a f63d
00000020: 655e ff3d 807a b83d cd6c 9dbc 23c8 55bd
00000030: 0f89 df3a 0169 53bd acc5 0b3d d8bc 99bd
00000040: 7f5b 0bbe 85ad 0fbe f53e 3cbe 372d 26be
00000050: 4e01 24be 14e5 60be 5069 7dbe 5880 7cbe
00000060: bdf0 35be 5cd2 383e de37 393e 11a1 403e
00000070: 04ab 193e 381b 153e d0af f63c 2a79 003e
00000080: 1802 413d b8a5 e03d 7859 bb3d 2dfb a0bd
00000090: f45d a23c a7a7 20bd 7c30 da3b a175 3cbd
000000a0: 1e05 a1bd aeae 07be 6b7a 1ebe edbc 47be
000000b0: 4cfa e2bd 3a3d 1cbe 2107 74be b9b7 2cbe
000000c0: 661a 71be b8fd 4bbe 29b9 1e3e 8bef 4a3e
000000d0: 2abc 503e 29a9 173e 8617 4d3e d59a 3d3e
000000e0: d3d1 e23d a044 323e 21fc ca3d 29c2 a93d
000000f0: c568 8d3c 1979 d83c c703 48bc 28fc 753d
00000100: e590 8e3d fa66 473b c9ad 95bd a9cc b6bd
00000110: 05e1 5abd 58a2 a2bd 3d03 27be c4cb f4bd
00000120: 0213 30be 405d fabd 0ea0 c2bd 73bf 02be
00000130: f314 2fbc 33d9 81bc 8c6b c3bc 3184 d63d
00000140: 69a8 03bd fa8a 0fbd c83c f63c 4806 ecbb
00000150: d6f8 c4bc ab76 3cbd 6901 e6bc cc4d 543c
00000160: 6a81 e5bb 8c4b 873c 6496 333c 1e5b 03bd
00000170: 6f6d 57bd a8c8 19bd 689b 4f3c 6bb6 59bd
00000180: 05f1 4dbb a1ca 383d b1cb b2bc 13d9 c43d
00000190: 5316 31bd 4f42 50bd 1a43 aa3c 26cc 2b3c
000001a0: b7f2 b33d 7da9 b6bd 97bc 383d 2709 4c3d
000001b0: acf8 5e3d e6d6 9ebc d7e1 95bd d32e 18bc
000001c0: f064 30bd b03f 7bbc 403d 6d3d c000 23bd
000001d0: 55fe cebc b9ea 10bc c6ea 833d be82 243d
000001e0: 89f6 02be 7c91 8abc 69d6 4abd fff8 5a3d
000001f0: d38a 9c39 2ea3 91bd 1c3e debb 89d0 933c
00000200: ab3f 953c e532 da3d 1b3a 4ebb f47d 68bd
00000210: db47 52bc 8625 343d 67d7 e83d ad9c afbd
00000220: 53ad a03c 0988 593c 521d 823d a9f8 f83d
00000230: 1367 c1bd a780 793c aafc 4e3d 51d5 8d3d
00000240: 3197 e93d 2f2f 8abd 5f1f 583d 8765 7b3d
00000250: 6cc9 c33d f12c 9a3d d9de 4cbb 250d 38be
00000260: f441 95be e93d 80be b8cb efbd 051c eabc
00000270: cf8c 2ebe 0a3e 6cbe 3067 47be 7897 b1bd
00000280: fd6d e8bc 2e20 983d 64ed a73d 7592 8b3d
00000290: 82ff 023d f7c3 fe3c e1b7 5f3e fced 8e3e
000002a0: 00a7 893e 6e22 da3d 8b5a 00bc 21c1 2e3e
000002b0: ad68 7d3e 004e 823e 48d6 ba3d d570 eabc
000002c0: f940 26be c609 1cbe c0cf 0ebe cb39 48bd
000002d0: 8feb 93bd 6b45 c3bd 9190 35be 84f0 19be
000002e0: a461 4dbd f6b1 58bb 8d2d 033c 9b28 ea3c
000002f0: 3b4f 6d3c 5fb1 9f3d 7011 8eba 75bb 593e
00000300: f445 553e 3951 753e 05c4 873d 59fd 9dbc
00000310: 9fd5 103e 20a6 903e d571 423e 18fa c43c
00000320: 92a0 843d ae5f 63bd a9bf ecbd a3d0 0bbe
00000330: 4a6b f43c 7e16 ccbc c193 eabd 82ed 1dbe
00000340: 2e27 f2bd f19d f2bd 2333 c4bd 1e87 e3bb
00000350: e3f9 5d3d ab30 0abd 9c75 2abc f8b4 dcbc
00000360: 6b41 cc3d 8dd0 1e3e d241 833d a96e 5dbd
00000370: 99ac 9fbd 7e24 293d 15e3 f23d 862a 193c
00000380: a087 b0bd 024b 353e 9342 593e ca01 35bd
00000390: d3e4 72be 695c 79be a98d 5d3e 605b 293e
000003a0: d2f0 c2bc 305b 56bd bcd6 36be 1f9a a73d
000003b0: beab 403c 36b8 ad3d 92d6 623d 12fc 3d3c
000003c0: de32 2dbe 1769 3cbe 9b21 763a 4278 1c3e
000003d0: 2618 893e fb32 1fbe 03ec 44be 1170 f8bc
000003e0: 65c5 533e 4659 583e b79d 453e 5567 433e
000003f0: 5ad8 c43c d34b 46be b6f3 53be 74ea 053e
0.20260917 0.26103982 0.17448153 0.27664867 0.22643466 0.16846025 0.11934111 0.12019753
0.12469176 0.0900774 -0.01921692 -0.05219282 0.0017054396 -0.05161381 0.03412406 -0.07506722
-0.13609122 -0.14031036 -0.18383391 -0.16228186 -0.16016123 -0.21962386 -0.24747205 -0.24658334
-0.17767616 0.18048996 0.18087718 0.18811442 0.15006644 0.14561164 0.03011313 0.1254622
0.047121137 0.10969108 0.09147924 -0.07860408 0.019820191 -0.039222386 0.006658612 -0.046010617
-0.07862304 -0.13250229 -0.15476386 -0.19505663 -0.110828966 -0.15257731 -0.23830844 -0.1686696
-0.23545226 -0.19921005 0.1550032 0.19817941 0.20384279 0.14810623 0.20028505 0.18516095
0.11075177 0.17408991 0.09911371 0.08288986 0.017261872 0.026424931 -0.012207932 0.060054928
0.0696123 0.003042637 -0.073085375 -0.089257546 -0.05343725 -0.07941121 -0.16309829 -0.11952928
-0.17194751 -0.12224817 -0.09503184 -0.12768345 -0.010686147 -0.015850639 -0.023854993 0.10474432
-0.03214303 -0.035044648 0.03005828 -0.007202897 -0.024044435 -0.046011608 -0.028076844 0.012958001
-0.0070039527 0.016515516 0.010961149 -0.032069318 -0.0525946 -0.037544876 0.012671329 -0.053152483
-0.0031424176 0.045115117 -0.021825643 0.09611716 -0.04323418 -0.050844487 0.02078395 0.0104856845
0.087865286 -0.08919046 0.04510173 0.049813416 0.05443637 -0.019389581 -0.07318466 -0.0092885075
-0.04306501 -0.0153350085 0.05791974 -0.039795637 -0.02526776 -0.008845025 0.06441264 0.040163748
-0.12789358 -0.016915075 -0.049520884 0.053460117 0.0002985807 -0.07111202 -0.0067823064 0.018043773
0.018218836 0.106542386 -0.003146774 -0.056760743 -0.0128345145 0.043981098 0.1136921 -0.085748054
0.019613897 0.013277062 0.06353249 0.12156803 -0.09443488 0.015228427 0.050533928 0.069254525
0.114057906 -0.06747281 0.052764293 0.06137612 0.095599025 0.07528103 -0.0031260757 -0.17973764
-0.2915188 -0.25047234 -0.11708778 -0.028577814 -0.17045902 -0.23070541 -0.19472957 -0.086714685
-0.028372759 0.07428013 0.081995755 0.06815044 0.031981952 0.031099303 0.21847488 0.27915943
0.26885223 0.10651098 -0.007834087 0.1706586 0.24746962 0.25450134 0.09122902 -0.028618256
-0.16235723 -0.15238103 -0.13946438 -0.04888324 -0.072226636 -0.09534725 -0.17730929 -0.15033156
-0.050141945 -0.0033065057 0.008006466 0.028583815 0.014484222 0.07797503 -0.0010838937 0.21262915
0.20827466 0.23956765 0.06629185 -0.019285845 0.1414399 0.28251743 0.18988736 0.024045035
0.06475939 -0.05551117 -0.11559994 -0.13653807 0.029836316 -0.024913069 -0.11453963 -0.15422633
-0.11823879 -0.11846531 -0.09580066 -0.0069435975 0.05419339 -0.03373782 -0.010404017 -0.026941761
0.09973415 0.15509243 0.064090386 -0.054060612 -0.07796592 0.041294567 0.11859719 0.009348517
-0.086196184 0.17704394 0.21216802 -0.04419116 -0.23720102 -0.24351658 0.2163607 0.16538763
-0.023796473 -0.052333057 -0.17855352 0.08183693 0.0117596965 0.08482401 0.05538041 0.011595743
-0.16913936 -0.18399464 0.0009389163 0.1528025 0.26776236 -0.15546791 -0.19230656 -0.030326875
0.20680769 0.21127805 0.19298445 0.19082387 0.024028946 -0.19364862 -0.20698437 0.13077718

conv1.bias f4 [64]
00000000: 2ba1 40bf 4ae0 12be f46b 90be 14fa 00be
00000010: 6c95 83be 77a3 22bf 55c9 00be 7d37 96be
00000020: 04d4 84bf faf5 d5be 9745 a7bd 8808 80bf
00000030: 8768 21bf 9609 a9be 903d 4abb b184 20bf
00000040: 7ee0 30be d2bc 06bf 5483 ecbc 56e7 33bd
00000050: 0fbe 93bf 838e 443d 5c1b 213d 6578 edbd
00000060: 213a 82be 368f 81be 1dbc 1ebe 5040 b3bd
00000070: 8391 53be 6283 1fbf b1f0 41bf 3153 b7be
00000080: e8f9 f6be 955f a4bd a34b c6be df17 4bbf
00000090: 9193 a0be 9486 a43c cbc9 19bd 7b98 95bf
000000a0: 100e 5e3d 702e 6dbd 027d 97be 2b1a 90be
000000b0: 8164 1cbe ef47 21be 539a 4ebe 77f0 80be
000000c0: a4a4 c4be 4cbf e8be 62c3 c3be 4ca4 f8be
000000d0: 5894 d73d f55d 26bd 7309 efbe b1bc fbbe
000000e0: 2e80 91be e142 84be 44cd a2bd d07d 23be
000000f0: 2fd0 aebe fba2 adbd 9e81 92be 516d 8abe
-0.7524592 -0.14343372 -0.28207362 -0.12595397 -0.25699937 -0.6353068 -0.12576802 -0.2933921
-1.0377202 -0.41789228 -0.0816757 -1.0002604 -0.6305012 -0.33015126 -0.0030859448 -0.6270247
-0.17273137 -0.52631867 -0.028871216 -0.04392179 -1.1542376 0.047987472 0.039332733 -0.11595229
-0.25434974 -0.25304574 -0.15501447 -0.08752501 -0.20660977 -0.6230985 -0.7575789 -0.35805658
-0.48237538 -0.08026043 -0.3872958 -0.793333 -0.31362584 0.020083703 -0.03754596 -1.1687158
0.05421263 -0.057905614 -0.2958756 -0.28144965 -0.15272714 -0.15750097 -0.20176058 -0.2518346
-0.3840686 -0.45458448 -0.38235003 -0.4856285 0.10526341 -0.04061695 -0.46686897 -0.49167398
-0.28418106 -0.25832275 -0.079493076 -0.15965962 -0.34143206 -0.08478352 -0.28614515 -0.27036527

fc1.weight f4 [64, 64]
00000000: 77e8 22bd fa40 483d b737 b23c f7df 55bc
00000010: 4867 4fbd 027d d3bb 91ab 8bbd 4385 09bd
00000020: 92e7 81bd db33 493d b4af 1f3d da86 8dbd
00000030: cf85 043d 0d87 753d 1f89 6f3d d4ae 5bbd
00000040: 7f7f c53c e0f0 a7bd 1f7f 233c bb51 ecbc
00000050: b662 0dbd a5de edbb 0385 c43c 80d3 49bd
00000060: 4948 9d3c f2c8 9a3c e147 7fbc 3267 20bd
00000070: b228 82bd a321 84b7 7a99 f8bc 1055 753d
00000080: 2b3c a33c 2b5c 3bbd 8fd7 403c fd40 cd3c
00000090: 7e5c 603d 81cf 503d 1cdd 8abd 5711 3abd
000000a0: 9103 68bb 14d3 673c 9e9b 85bd bcd0 8dbd
000000b0: 5e08 53bd 5a95 1a3d 6574 14bc 5b80 603d
000000c0: a073 e2bc b622 9f3c 732b 073d d1ec d9bc
000000d0: f72c c83c ecc7 193c 2d6a f8bc 6b0e 513d
000000e0: cd52 c2bc a3f2 6b3d 0e90 363c 6a4e ebbc
000000f0: c5e1 db3c 34d5 143d 028c 873d 12a2 f8bc
00000100: c4ca 393d 3a96 21bd 6647 47bb 5656 eebc
00000110: 88c4 bdbb 6005 f8bb 3c74 39bd 8b9e 43bb
00000120: 4ad4 383c 180d 2a3d 40d1 51bc 42a7 b7ba
00000130: 36a5 e3bc e208 91bd ecf6 7c3d 0eb7 36bc
00000140: 6773 adbd b0d0 0fbd a9c9 ef3c f885 29bd
00000150: 5856 dabc 0f4d 833d de84 98bd 1b89 62bc
00000160: 1dcb 053d 5d14 2abd c998 423d 2fca 66bd
00000170: 26c6 6a3c 6e10 07bd bd2d 913c 28a0 713d
00000180: d6f0 64bd c8eb 033d 8390 4fbd 37b2 8cbd
00000190: d02b 9cbb e2a2 8ebc 46ee 623d 8521 e13b
000001a0: ff5f 47bc 2df0 aabc cce7 143d 4d7d 92bd
000001b0: 2c4f 953d 968a 17bd 3f24 86bd fdbd a93d
000001c0: 9335 41bd 1448 49bd f782 29bd fe94 e33c
000001d0: 58b9 ba3c 5c83 1a3d 11a2 193d 8692 183b
000001e0: 3df8 13bd d847 bd3d 5a06 703d fc43 9c3d
000001f0: 2ffa 273c 80a6 203c e3a3 53bd f215 84bc
00000200: 4f27 333e 5ce4 f13c 5e1d 59bd 70ba 133d
00000210: 3055 33bd 3432 8d3b d27e 81bd e598 67bd
00000220: 4d3b a53e 5efa 113e 7c16 cc3c ed03 77be
00000230: 2c5b 3d3d 9148 0bbd 49c9 2dbd 39c6 5cbc
00000240: f88e f5bd d142 42be 5073 80bd db80 21bd
00000250: 243c 2b3e 6000 efbc 326f 25bd ed28 85bd
00000260: fbb3 1bbe cb45 8c3d a497 953d 45a5 9a3c
00000270: e12d fbbd 19cd 06be 747e 4e3d cb41 403d
00000280: 2952 70be f871 97bd 30a2 1f3e 1da4 663c
00000290: 0fd9 a4bd b00e 1fbd 7cb2 353c 1309 7f3e
000002a0: 06ff e1bd 185f 82bd b244 51bc e995 c9bd
000002b0: f0cd 193d 9528 813b 0e57 dfbc 5b00 b13c
000002c0: 7df5 cf3d eb3b 523e 94b4 b23c b80c 9d3d
000002d0: ef3a a1bd 3d2d 713d 367b e93d 6ca5 29be
000002e0: 8908 373c 00f5 2c3d e49a 763c 820a d73d
000002f0: 4e62 5cbd 0844 d23d 048d 483d b581 c83d
00000300: 6486 233e 458e 593d adda 193d b148 283d
00000310: 69ea d7bd b138 d5bd 4cb9 b43b afa6 ddbd
00000320: ddcd bc3e 2fd5 7c3e d7f9 88bc eaeb 6ebe
00000330: 95d2 cbbd 3a0f 04be 99f2 b93c e059 b3bd
00000340: 83b2 aabd 4f11 93be b48b 7e3d bd87 ddbc
00000350: 1e13 8d3e c4d3 df3d 9484 903c f5cc e8bc
00000360: e3f1 55bd f059 8cbd 3913 db3d 58ed 963c
00000370: 85d3 4bbd b736 6dbe b2a4 40bd 9948 e23c
00000380: 72e9 aabe df6a 45bd 4886 923c 8c05 17be
00000390: 199f 94bd e0e5 d73d be30 a63c 4da8 a13e
000003a0: 85c0 2b3c 1658 c5bc e611 eebd 9bf0 33be
000003b0: a11a 6a3e d510 5cbd 20d5 3ebd cc21 5d3e
000003c0: 7c19 013d 9ce7 913d 2f50 8dbd f5f4 bebd
000003d0: b6c6 3a3e a6da fe3d e65c a53e c613 8ebe
000003e0: e7de aabc 4f2e 813e 88b2 383d eafe 503d
000003f0: 15bb e7bc d894 253d 431c 543d e627 a03c
-0.039772477 0.04889009 0.021755083 -0.013053886 -0.050635606 -0.006454111 -0.06819833 -0.033574354
-0.06342997 0.04912172 0.038985923 -0.069104865 0.032354172 0.059943248 0.05848038 -0.053633526
0.024108646 -0.0820024 0.0099790385 -0.028847566 -0.034517966 -0.0072592073 0.023989206 -0.049273968
0.019199507 0.018894646 -0.015581102 -0.039160915 -0.06355418 -1.575129e-05 -0.03034662 0.059895575
0.019926151 -0.045742195 0.011770143 0.025055403 0.054775707 0.05097914 -0.067804545 -0.045426693
-0.0035402516 0.014149446 -0.06523822 -0.069245785 -0.05152165 0.03774009 -0.009060954 0.05480991
-0.027643025 0.019425731 0.03300042 -0.02660218 0.024435503 0.009386044 -0.030324066 0.05103914
-0.023721123 0.057604443 0.011142744 -0.028723914 0.026841054 0.03633614 0.06618501 -0.030350719
0.045359388 -0.039449908 -0.0030407547 -0.029093903 -0.0057912506 -0.007569 -0.045276865 -0.0029849138
0.011281082 0.041516393 -0.012806237 -0.0014011639 -0.02778874 -0.070817724 0.06175892 -0.011152042
-0.08469277 -0.03511113 0.029270964 -0.04138753 -0.0266525 0.06411182 -0.074472174 -0.013826634
0.032664407 -0.041523326 0.04750899 -0.05634516 0.014329469 -0.032974653 0.017722005 0.058990628
-0.05589374 0.03220728 -0.050674926 -0.06869929 -0.004765965 -0.017411653 0.055403017 0.006870451
-0.012168883 -0.020866478 0.03635387 -0.071528055 0.072904915 -0.0369974 -0.06549882 0.082881905
-0.047170233 -0.049141005 -0.041384663 0.027781006 0.022793457 0.03772293 0.037508074 0.0023280694
-0.03612541 0.09242219 0.058599807 0.076301545 0.0102525195 0.009805322 -0.051669966 -0.016123746
0.17495464 0.029527836 -0.053006522 0.036066473 -0.043782413 0.004308963 -0.06323017 -0.056542296
0.32271805 0.14255664 0.024913065 -0.24122591 0.046229526 -0.03400475 -0.04242829 -0.013474994
-0.1199016 -0.18970801 -0.06271994 -0.039429527 0.1672216 -0.029174984 -0.040389247 -0.065019466
-0.15205376 0.068492495 0.07304314 0.018877635 -0.1226461 -0.13164176 0.050413564 0.046937745
-0.23468842 -0.07394785 0.15589213 0.014077214 -0.08049213 -0.038832366 0.011089917 0.24905805
-0.1103497 -0.06365794 -0.012772726 -0.09843046 0.037549913 0.0039416053 -0.02726319 0.021606615
0.10154245 0.2053067 0.021814622 0.076684415 -0.07872569 0.058881033 0.11400454 -0.1656701
0.0111714685 0.042225838 0.015051577 0.10500051 -0.05380469 0.10266882 0.048962608 0.09790365
0.15969235 0.053114194 0.03756206 0.04108495 -0.10542757 -0.10411204 0.005515253 -0.10822808
0.3687581 0.24690698 -0.016720695 -0.23332182 -0.09952275 -0.12896433 0.022698687 -0.08757377
-0.0833483 -0.28724143 0.06214495 -0.027042264 0.27553648 0.10929063 0.017641343 -0.028418044
-0.052232634 -0.06853092 0.10697026 0.018423721 -0.049762268 -0.23165403 -0.047032066 0.027622508
-0.3338123 -0.048197623 0.017886296 -0.1474821 -0.07256908 0.10541892 0.020286914 0.31573716
0.010482912 -0.024089854 -0.116245076 -0.17572252 0.2286172 -0.05372699 -0.04658997 0.21594924
0.031518444 0.07124254 -0.069000594 -0.093240656 0.18239865 0.12444048 0.32297438 -0.2774946
-0.020858241 0.25230643 0.045092136 0.051024355 -0.02828745 0.04042515 0.051784765 0.019550275

fc1.bias f4 [64]
00000000: 331e afbd d656 fcbd 6a97 0cbf e2da 47be
00000010: ec58 6a3d 1e53 303d 9c80 6abc bde6 12be
00000020: b747 1ebe d1e5 5c3e 01ae c43d ae24 243e
00000030: c8e7 a3bd a155 483e e96c b5bd c447 0e3d
00000040: a955 453e 2b6e cfbd f852 933e 57eb 083f
00000050: f42d d03d 87f6 b53e a6de 8cbe cf92 893d
00000060: 854a a83c 900e 053f 0481 83bc 7dee 70bb
00000070: cc42 4abe 85e3 4b3d e7f3 bc3e 8888 c83e
00000080: decf 613e 20fe 243e ddc6 7b3e 2c74 43bd
00000090: 060e 413d bc44 963e c6ad 423e c88f a33d
000000a0: 10c9 debe fd7a 5fbd 9109 ec3c 59a7 783e
000000b0: 4eec 0a3f 94e9 0ebe 937c 383f 014c bbbd
000000c0: 2c17 0dbd a0cc 103d a79f 50bd 08a1 013e
000000d0: c7ff d63c a330 ea3d 575b 563f 0e48 943e
000000e0: 6c5a 0ebf 953d 023f 5a54 193e 9fe2 903e
000000f0: a6f5 95bd b827 173d ac0b 363d aee6 13bd
-0.08550682 -0.1232125 -0.5491854 -0.19517091 0.05721371 0.043048017 -0.014312889 -0.14345832
-0.15457045 0.21572043 0.09603501 0.16029617 -0.08003193 0.19563915 -0.088586636 0.03473641
0.19270958 -0.10128435 0.28774238 0.534841 0.10165015 0.35539648 -0.27513617 0.06717455
0.020543346 0.51975346 -0.01605273 -0.0036763244 -0.19752043 0.049777526 0.36904833 0.39166665
0.22051951 0.16112566 0.24587579 -0.047718212 0.047132514 0.29349315 0.19011602 0.079864085
-0.43512774 -0.05456065 0.028813155 0.24282588 0.5426682 -0.1395629 0.72065085 -0.09145356
-0.034445927 0.035351396 -0.050933506 0.12659085 0.026245011 0.11435058 0.83733124 0.28961223
-0.5560672 0.50875217 0.14973584 0.28297898 -0.07322244 0.036903113 0.044444725 -0.036108665

fc2.weight f4 [32, 64]
00000000: c1a6 253d d634 aabc 8719 04bd 5ead bcbd
00000010: 741d b6bc c5e7 643d cb8a 82bd 776b 2c3e
00000020: 5ae3 dc3c 3e35 ebbd bc1b 1d3e 97fc fb3d
00000030: 4f20 10bd 28f9 b73d 01e3 9dbd d005 4abb
00000040: 72dc 76bd 43d4 e33b 0bca 0dbe e205 a9bc
00000050: bd72 18be 6dd7 f0bd a375 7abd 560b ad3d
00000060: 929b c8bd 9587 e1bd 7ea4 c4bd a224 873a
00000070: 603a db3c 7c51 733e c6c5 99bd 584e 61bd
00000080: 6266 543c 2a92 2b3e 6068 38be c58e a23c
00000090: 5b92 e93c 5b3b aabd 376a 26bd c471 85bc
000000a0: 6e36 eebc 404f d6bc 7ac2 99bb 6395 7fbd
000000b0: 068f aabd d5b5 4ebd c5fb 2ebe 00bc 193d
000000c0: 8755 8bbc 5581 28bd adaf 5dbd e88b 47bd
000000d0: 6242 013e 7117 2c3e bd84 42be e59f b0bd
000000e0: 3f5f 01be 7e86 a9bc ffd0 0cbd 1bc4 efbd
000000f0: 7e02 70bd 46d2 abbd f3ef 053e 2978 c2bc
00000100: be9d 98bc 7e2c 433d 4436 b3bc d71e 053d
00000110: c86b 0ebd b852 61bd ad80 1cbd e5d2 82bd
00000120: 1685 c13c 1b62 4abd 22a9 38bc 4381 df3c
00000130: 4dcb c4bb a4be ffbb 0fde 8cbd 47a4 8dbd
00000140: d7e3 27bd b582 a13c 5c59 7cbc f52a 073c
00000150: 6812 073d be7b 4dbd a2c0 4a3d c75f 24bc
00000160: 03c1 583b 7dbb 7cbc 553b 013d f137 66bd
00000170: 2563 ab3c e300 20bd 2e4a 443d f5b9 d03c
00000180: 56c8 83bd 7dd3 52bd 3d66 55bd b5ac 7bbd
00000190: e38c 54bd 57f5 adbc bc5b 8ebd 50d5 17bc
000001a0: 8472 8fbc 97d2 9f3b dffd b73c bb43 5d3b
000001b0: 54c8 d63a 8537 20bd 39f7 073d 943d 3b3c
000001c0: be81 d0bc 5c47 563c 8b88 13bd 2047 05bd
000001d0: a4dd a0bc f201 0dbd 1f9b 9cbc bedc 11bd
000001e0: d355 a0bc 9a6b 463d 6eb0 e5bb c0bb febc
000001f0: 4227 5fbd 98fe 303c f014 00bb 4914 b3bc
00000200: 51e2 703d a563 b63b 06ed 593d ae89 6a3d
00000210: ee61 9b3b 87c7 513d 77cc aebc 9fd5 4cbe
00000220: d76e afbd ffba 853d 9bfa 6e3c 7885 3fbe
00000230: a1b2 c43d 7ba4 41be a413 323b 87c0 c6bd
00000240: 9dc7 9db9 2edd 633c 3ae2 b3bb 95bd 2e3e
00000250: 3cb0 24bd 56f9 15bd 66c2 cbbb 33c7 a4bc
00000260: a323 dc3d d93e 863c d515 4dbd 75bc 58bb
00000270: 3538 8fbd 5b5a a33d c79c 2a3e 3e3d 423d
00000280: 0986 a23d 9209 03bd cf83 92bd d93f 493d
00000290: 468a 07bd 10cf 9cbd 0b77 c43d dbdd 13bd
000002a0: 7239 83bd be3b a7bc 66bb 413d 3902 f0bd
000002b0: a673 963d 2450 d53b ea74 6f3e e3fb 87bb
000002c0: 4e05 0cbc c03d 1cbe 9325 aebd eb02 35bd
000002d0: bd6c 72bc 9687 1c3d b8c7 433e 83d3 c03d
000002e0: 3941 4bbd 4cb2 1a3e e628 403d 36cb 0d3d
000002f0: 3ad7 883d 642f aebe 9756 9e3d 77bc 56bd
00000300: d622 89bd 84ce 0bbd 817a e4bd 9131 92bb
00000310: 3fae 72bd a407 0dbe cdc6 6b3d c877 0fbe
00000320: e25d ccbd 102d b83d aca7 d6bd 4680 92be
00000330: 5942 b1bd 9742 3abe fbd0 16bd c475 a5bd
00000340: cff5 6c3c f2dd 983b 6d0a ad3d 1917 9b3d
00000350: 0324 b23d 1114 863d cd30 e0bd 9d37 b3bd
00000360: 5e41 493d 0cd5 623c 85de dabc 4e13 553d
00000370: e6a7 9cbd dd36 52be 47a2 383e 15b7 8e3b
00000380: d865 533c 14ba cfbd b1ea 23bd c001 0fbc
00000390: 86d7 80bc 012d 82bd e6f8 42bc dc8b 13bc
000003a0: 20d9 56be 997b 63ba 458b ce3c 6505 f3bd
000003b0: 0968 093e fb62 81bb 9f13 443e 0a0b 0bbd
000003c0: e81a ebba 4d92 dabd 63b4 d3bd c5fb efbd
000003d0: 9dd9 14bd fcc7 92bd cece 663e 1864 123d
000003e0: fcba 5bbe fd49 0a3e cf44 1ebc 357d 413c
000003f0: bde0 36bd 31c5 24be 9cc2 30bd f7e6 63bd
0.040442232 -0.020777147 -0.032250907 -0.09212755 -0.022230841 0.055885095 -0.06374129 0.1683787
0.026963878 -0.114847645 0.15342611 0.12304037 -0.035187062 0.0898307 -0.07709313 -0.0030826218
-0.060268827 0.006952794 -0.13846605 -0.020632688 -0.14887519 -0.11759839 -0.061147343 0.08449428
-0.09795298 -0.11012188 -0.09601687 0.00103106 0.026761234 0.23761553 -0.075084254 -0.055006355
0.012963863 0.16754976 -0.18008566 0.019843468 0.02851217 -0.083121024 -0.040628638 -0.0162896
-0.029078688 -0.026160836 -0.004692373 -0.062398326 -0.08328061 -0.050466377 -0.1708823 0.037532806
-0.017008556 -0.041138966 -0.054122616 -0.04871741 0.1262298 0.16805817 -0.18995948 -0.086242475
-0.1263399 -0.020694014 -0.034379 -0.11707326 -0.058596127 -0.08389716 0.13079815 -0.023738937
-0.018629905 0.047649853 -0.021876462 0.032500114 -0.034770757 -0.055010527 -0.038208652 -0.06387881
0.02362303 -0.049409967 -0.011270793 0.027283316 -0.0060056807 -0.0078047086 -0.06878292 -0.06916099
-0.04098877 0.019715646 -0.015402164 0.008249988 0.032976538 -0.050166838 0.049500115 -0.010032601
0.0033074028 -0.01542556 0.031550724 -0.056205694 0.0209213 -0.039063346 0.047922306 0.025479296
-0.064346954 -0.051471222 -0.052099455 -0.061444003 -0.051892173 -0.021235151 -0.06951091 -0.009267166
-0.01751066 0.004877399 0.022459922 0.0033762294 0.0016386607 -0.039115448 0.033194754 0.011428256
-0.02545249 0.013078537 -0.03601889 -0.032538533 -0.019636936 -0.034425683 -0.019116936 -0.035610907
-0.019572174 0.04844246 -0.0070095574 -0.031095386 -0.0544808 0.010802887 -0.001954373 -0.021860259
0.058809582 0.005566078 0.05320456 0.057260208 0.0047418987 0.051215675 -0.02133773 -0.20003365
-0.08566063 0.06529807 0.014586116 -0.18703258 0.09604383 -0.189104 0.0027172351 -0.097046904
-0.00030094097 0.013907714 -0.005489615 0.17064507 -0.040207133 -0.03661474 -0.0062182425 -0.020114517
0.10748985 0.01638739 -0.05006965 -0.0033071314 -0.069931425 0.07976218 0.16661368 0.047421686
0.079357214 -0.03199155 -0.07154047 0.049133155 -0.033090852 -0.076566815 0.09593018 -0.03610025
-0.06407441 -0.02041423 0.047297858 -0.11719174 0.07346277 0.0065097976 0.23384443 -0.0041499003
-0.008546187 -0.15257931 -0.085032605 -0.044192236 -0.014796433 0.038215242 0.19119155 0.09415343
-0.049622748 0.15107077 0.046914004 0.034617625 0.06681676 -0.3402053 0.077313595 -0.052425828
-0.066960976 -0.034132496 -0.11156178 -0.004461475 -0.059248205 -0.13772446 0.057562638 -0.14010537
-0.09978844 0.0899297 -0.104811996 -0.2861349 -0.08655233 -0.18189465 -0.036820393 -0.08079103
0.014462902 0.00466513 0.08449254 0.07572765 0.08698275 0.06546796 -0.10946808 -0.08750842
0.049134605 0.01384474 -0.026717434 0.052020364 -0.076492116 -0.20528741 0.18030654 0.004355321
0.012902699 -0.101429135 -0.04001874 -0.008728445 -0.01572777 -0.0635624 -0.011900162 -0.009005513
-0.20981264 -0.000867778 0.025212893 -0.11866263 0.13418593 -0.003948567 0.1914811 -0.033946075
-0.0017937096 -0.10672436 -0.103371404 -0.11717943 -0.036340345 -0.0716705 0.22539827 0.035739988
-0.21458048 0.13504787 -0.00965996 0.011809637 -0.04464792 -0.16090848 -0.043154344 -0.055640187

fc2.bias f4 [32]
00000000: 99b9 d63d 7b21 13bc a48c ebbd 8b56 503d
00000010: 9d31 31be bc00 9d3d 75e5 8f3c 7aef 933e
00000020: cfbe 9c3e 902f 34bd 675d 643e 4c80 c2bb
00000030: b394 303f 4567 133f 9157 4039 d1f0 0d3f
00000040: 320d 8abc b713 25be 9a2c 49bc bea1 01bd
00000050: 5974 fdbd a9b6 43bd 3a8c 97bd 51a9 fbbd
00000060: 1f79 a2bd 3131 cfbc 6a87 93bb 0f65 8bbd
00000070: 53e6 033f c12c 8d3e 8966 51bb a7e5 96bd
0.10484619 -0.00898015 -0.115014344 0.050863784 -0.17304082 0.07666156 0.017565468 0.28893644
0.30614325 -0.04399067 0.22301255 -0.0059357043 0.68976897 0.5757945 0.00018343168 0.5544558
-0.016851995 -0.16120802 -0.0122787 -0.03164839 -0.12375707 -0.04778162 -0.07399793 -0.12288154
-0.07933258 -0.025292011 -0.0045022266 -0.06806385 0.5152332 0.27573207 -0.0031951985 -0.073680215

fc3.weight f4 [5, 32]
00000000: 0d81 fbbe d319 fe3c f5b5 9c3e 3e0a 993e
00000010: 6cd9 db3e 7fa9 9a3c 2177 edbd 6e58 d33e
00000020: 9a19 f8be 0cda 543d dfc4 9e3d 8cc1 7e3e
00000030: 8cca 83bf c313 debe e9c5 6c3d f337 6fbf
00000040: 468e 9a3d db38 c93e 17a0 3fbd 3c5a 183d
00000050: c47a 563a 53c6 dabc 453a 4abd 756f 94bd
00000060: a5da 17bd 1bd8 7d3d 279b 0d3f 781c eebc
00000070: e624 ccbe 58a9 74be a877 353e 8cd7 8f3d
00000080: b543 543d 9830 b23c 2ba0 2ebe 56f5 2dbe
00000090: 57b0 153d 2b13 20be 406d 56bd 301f b0be
000000a0: 4d52 46be f63c 3e3c e7f7 c83e 959f e5bd
000000b0: 446c b23e 16c8 a63e 32ae 4e3d f478 0c3d
000000c0: 7af6 24bd ad80 2f3b da67 14bd 5a53 803d
000000d0: e811 e83c f62b 48bd cd52 f6bc 8226 30bd
000000e0: 711e d3bd 7481 ecbc 6165 edbd 5f6d 9bbd
000000f0: 1156 17bf 0ce8 d8bc 18d5 08be 9176 323d
00000100: 0ca2 dcbc 926f 10bd c6a2 a63d cd9e 2c3e
00000110: 6e6f 093e 7605 b03d b3ae 96bd 5a8e 9b3e
00000120: 4cdf fc3e a5b5 a5bd d4e7 7fbe a5f4 9c3c
00000130: 586b 173f 4a32 81be 7f7a 96bd 46c6 f23e
00000140: aa40 f0bd 5af1 273d 9e8a 5b3d 8bf2 723d
00000150: 4684 653d 8de9 f5ba 94f5 9a3d 1912 21bd
00000160: c73e a4bd f754 013d d7c9 df3d 2d8a afbd
00000170: d10f f03e d75c b43e 9616 bcbc 9262 133d
00000180: 1f4f 533e fb70 62bc 4530 3dbe 5d74 6dbe
00000190: 7cf8 9fbd 72a8 dfbd 5874 e83d 1bfc 0abf
000001a0: 3f01 383c bc89 f0bb 6c10 d83e 83a8 3dbe
000001b0: d0f3 d23e 3df4 263f 5197 16bd 9ce1 a03c
000001c0: 4449 1bbd 8aad 58be 2f24 9ebe c47d b83d
000001d0: 69e2 8b3d c1a0 0d3d aa8d b43b a28e 173d
000001e0: 8ed9 97be e459 aebd 6ba7 7fbe cdec 963d
000001f0: 7d75 04be b966 92bd 845b 10be ef76 9ebd
00000200: 56f7 9f3e 142e 87bd 16f8 b3bb 3c78 ebbd
00000210: 643f cfbe 3c79 7b3e 957a c73d a98f 813d
00000220: 5f6b 083e 012e 5d3d dbcc c8be 0d4b 0a3d
00000230: 9073 70bd b2b1 a3be 9e1f 9dbd a545 093f
00000240: 19bf 093e 9926 43be 6d4f ee3e 5c32 123d
00000250: 60e9 7c3d 3d04 153c 25d9 16bd 530f b2bd
00000260: 0ab3 bf3e eb8d ba3d 8337 86be d79d 1bbd
00000270: f02a 2d3f 44aa 863b 1150 583b 1d9d ff3d
-0.49121895 0.031018173 0.30607572 0.29890627 0.42939317 0.01887965 -0.11594988 0.41278404
-0.48457032 0.05196576 0.07752394 0.2487852 -1.0296187 -0.43374452 0.05780593 -0.93444747
0.07546668 0.3930119 -0.046783533 0.03719543 0.00081817457 -0.026705896 -0.049371976 -0.07247821
-0.03707375 0.061973672 0.5531487 -0.02906631 -0.398719 -0.23892725 0.17721426 0.07023534
0.051822383 0.021751687 -0.17053287 -0.1698812 0.036545124 -0.15632312 -0.052350283 -0.34398794
-0.19367333 0.011611214 0.39251634 -0.112120785 0.34848225 0.32574528 0.050459094 0.034295037
-0.04027412 0.0026779578 -0.036231853 0.06265898 0.02832885 -0.04887005 -0.03006878 -0.043005474
-0.103085406 -0.028870322 -0.11591602 -0.0758922 -0.591157 -0.026477836 -0.13362539 0.043570105
-0.026932739 -0.03526265 0.08136515 0.16857453 0.13421413 0.085947916 -0.0735754 0.30382043
0.49389112 -0.080912866 -0.24990779 0.019159624 0.5914817 -0.2523368 -0.07347583 0.47416896
-0.11731084 0.041001655 0.053598993 0.05931334 0.05603435 -0.001876162 0.075663716 -0.0393239
-0.08019786 0.03157517 0.1092717 -0.08571277 0.46887067 0.3522708 -0.022959989 0.035982676
0.20635651 -0.013820882 -0.18475445 -0.2318892 -0.078110665 -0.109208 0.11350316 -0.5429093
0.011230766 -0.007340638 0.4220003 -0.18521313 0.4120164 0.6521643 -0.0367654 0.019638829
-0.03791167 -0.2115995 -0.3088698 0.09008363 0.06830294 0.034577135 0.0055100517 0.03700126
-0.2965817 -0.08513239 -0.24966209 0.07369385 -0.12935443 -0.07148499 -0.1409741 -0.077375285
0.3124339 -0.066005856 -0.0054922206 -0.11497542 -0.4047805 0.24557966 0.097401775 0.06326229
0.13322209 0.05399895 -0.39218792 0.03376298 -0.05870396 -0.31971508 -0.07672046 0.53621894
0.13451804 -0.19057693 0.46544972 0.035692558 0.061746 0.009095249 -0.03682818 -0.08694329
0.37441283 0.091091 -0.26214227 -0.037992325 0.6764364 0.0041096527 0.0033006708 0.12481139

fc3.bias f4 [5]
00000000: d364 a6be b0db db3e 2636 9dbe 7756 cd3d
00000010: fadb b23c
-0.32498798 0.42941046 -0.30705374 0.100262575 0.021833409
