Assignment_1/1/CNN_Layers/Models/1CNN/model-7.pth (torch_old, 46280 bytes, 8 tensors)

conv1.weight f4 [64, 3, 5, 5]
0.15234278 0.19763596 0.19034672 0.19100825 0.14028594 0.10715955 0.1331821 0.13990021
0.12767933 0.08636866 -0.023219857 -0.011247093 -0.0011952716 -0.01826629 -0.020709887 -0.1348504
-0.14736402 -0.15329908 -0.1655773 -0.15655527 -0.18982871 -0.2136573 -0.22805619 -0.23383048
-0.2098429 0.11469633 0.16380322 0.17860122 0.16252913 0.118373595 0.08171991 0.14050448
0.14284134 0.14384666 0.105629794 -0.0141956685 0.022367593 0.019649515 0.022689948 0.00273151
-0.10195544 -0.11750924 -0.12688392 -0.13437453 -0.107895635 -0.14661166 -0.18474938 -0.18988813
-0.20293875 -0.17441614 0.11638281 0.15949868 0.16596784 0.14530803 0.11471312 0.12464977
0.1468846 0.16123278 0.13652134 0.09834142 0.02819518 0.046626206 0.039096843 0.037915085
0.020111568 -0.0669221 -0.08425506 -0.098020904 -0.10327699 -0.10659817 -0.14807206 -0.16377671
-0.19076683 -0.19366679 -0.17887735 -0.12355705 -0.021790959 0.005560871 0.02550118 0.101536974
-0.065299295 0.0037584614 0.010311875 -0.00063761335 0.05020874 -0.04776917 0.017352711 0.004787069
-0.01716262 0.035399098 -0.047005385 0.012790372 -0.0014429188 -0.013308632 0.039501745 -0.08313901
0.0036329224 0.027397823 0.024363799 0.08490586 -0.16048244 -0.06833329 -0.017916614 0.011804349
0.08662071 -0.12499455 -0.022504302 -0.010100372 -0.0009167921 0.04990833 -0.102284476 -0.015694229
-0.021871414 -0.020529762 0.05031896 -0.1032618 -0.019642087 -0.009303014 0.004616891 0.05715052
-0.14025909 -0.030360859 -0.0018148057 0.036846366 0.08230834 -0.14707477 -0.04082792 0.013765711
0.05670176 0.13478936 -0.09649965 -0.015673602 0.01901005 0.052424032 0.12918082 -0.088221066
0.015222237 0.032776684 0.055190273 0.12683503 -0.091122076 0.019598307 0.052179668 0.07323119
0.1365679 -0.10463935 0.01844622 0.06929498 0.10812049 0.15383169 -0.59973496 -0.37803864
-0.28529108 -0.3998767 -0.6503653 -0.4645276 -0.26718673 -0.16946672 -0.27246535 -0.502934
-0.16899613 0.02969229 0.13461189 0.040557172 -0.18380933 0.14364871 0.324373 0.43341425
0.35071856 0.12870912 0.28958127 0.44614363 0.54856354 0.47142482 0.262962 -0.2810633
-0.057017088 0.05267977 -0.06516346 -0.32120204 -0.24560969 -0.03708829 0.053430118 -0.050511386
-0.2799106 -0.07641647 0.09533775 0.19552559 0.103545345 -0.09518405 0.08386363 0.24842857
0.3387271 0.2685864 0.063873135 0.12371281 0.2534596 0.3562577 0.2723755 0.08822264
0.044655938 0.239933 0.32837707 0.22636959 0.025897004 -0.07849004 0.09171888 0.18166816
0.105124235 -0.09165042 -0.10251545 0.059923444 0.16456774 0.08931712 -0.071346305 -0.1005513
0.03529107 0.1361253 0.073656365 -0.08414743 -0.21077782 -0.102117874 -0.00781808 -0.070717
-0.20980553 0.44918397 0.446832 0.020166963 -0.4039407 -0.43181035 0.4394252 0.3703852
-0.007323359 -0.33836517 -0.37964442 0.04139333 -0.021270754 -0.020241952 0.009938362 0.046696838
-0.39227432 -0.42380932 -0.057880793 0.3636195 0.4865609 -0.4620842 -0.5214533 -0.09157473
0.41586462 0.5218201 0.4684952 0.46640036 0.043070316 -0.39994067 -0.4401637 0.43901473
00000000: bfff 1b3e 1561 4a3e 40ea 423e ab97 433e
00000010: 1ea7 0f3e 7776 db3d e360 083e 0042 0f3e
00000020: 5fbe 023e 0de2 b03d 9237 bebc ba45 38bc
00000030: a9aa 9cba 30a3 95bc c8a7 a9bc 3916 0abe
00000040: 98e6 16be 6ffa 1cbe 198d 29be 0650 20be
00000050: 7562 42be fbc8 5abe 9087 69be 4271 6fbe
00000060: 0fe1 56be e9e5 ea3d 08bc 273e 3de3 363e
00000070: 096e 263e db6d f23d c55c a73d 68e0 0f3e
00000080: 0045 123e 8a4c 133e 6f54 d83d f394 68bc
00000090: 3e3c b73c 05f8 a03c 45e0 b93c 2203 333b
000000a0: 04ce d0bd afa8 f0bd dced 01be 7a99 09be
000000b0: 63f8 dcbd 5e21 16be f12e 3dbe 0972 42be
000000c0: 2dcf 4fbe 259a 32be 1c5a ee3d 9f53 233e
000000d0: 79f3 293e a1cb 143e b6ee ea3d 6148 ff3d
000000e0: eb68 163e 351a 253e 40cc 0b3e 3a67 c93d
000000f0: 94f9 e63c 1ffb 3e3d 0324 203d d94c 1b3d
00000100: 04c1 a43c 740e 89bd eb8d acbd 2fbf c8bd
00000110: e382 d3bd 2450 dabd 34a0 17be 15b5 27be
00000120: 6158 43be 9650 46be a02b 37be 7b0b fdbd
00000130: f482 b2bc f837 b63b dae7 d03c 9ef2 cf3d
00000140: a3bb 85bd 8550 763b 23f3 283c 8225 27ba
00000150: aea7 4d3d 9ba9 43bd 4627 8e3c d8dc 9c3b
00000160: 9f98 8cbc a5fe 103d b888 40bd b58e 513c
00000170: 5220 bdba 730c 5abc 95cc 213d c944 aabd
00000180: 5316 6e3b 6671 e03c 9796 c73c 20e3 ad3d
00000190: 8255 24be 53f2 8bbd ddc5 92bc 0767 413c
000001a0: 3366 b13d 25fd ffbd f15a b8bc 087c 25bc
000001b0: e054 70ba ad6c 4c3d 867a d1bd 2f91 80bc
000001c0: ae2b b3bc 082e a8bc 411b 4e3d ec7a d3bd
000001d0: 71e8 a0bc ab6b 18bc 4a49 973b aa16 6a3d
000001e0: 14a0 0fbe 56b7 f8bc c6de edba 37ec 163d
000001f0: 4691 a83d c59a 16be 2d3b 27bd 9489 613c
00000200: 1b40 683d 3906 0a3e 9ca1 c5bd ed65 80bc
00000210: f7ba 9b3c 95ba 563d fa47 043e 3fad b4bd
00000220: b166 793c d840 063d 320f 623d 0be1 013e
00000230: 369e babd a18c a03c 59ba 553d 3cfa 953d
00000240: 75d8 0b3e 284d d6bd 871c 973c 87ea 8d3d
00000250: 476e dd3d 0e86 1d3e 3b88 19bf 488e c1be
00000260: ac11 92be a4bc ccbe 577e 26bf 90d6 edbe
00000270: b3cc 88be af88 2dbe 9480 8bbe 48c0 00bf
00000280: 520d 2dbe 3f3d f33c b3d7 093e 471f 263d
00000290: 8338 3cbe a618 133e 3814 a63e 79e8 dd3e
000002a0: 6291 b33e 53cc 033e ff43 943e f06c e43e
000002b0: a96e 0c3f 985e f13e f5a2 863e 87e7 8fbe
000002c0: c08a 69bd bec6 573d 6c74 85bd 9874 a4be
000002d0: 1b81 7bbe e4e9 17bd 8ad9 5a3d 07e5 4ebd
000002e0: 7150 8fbe 3d80 9cbd 7040 c33d dc37 483e
000002f0: 950f d43d dbef c2bd b2c0 ab3d 0f64 7e3e
00000300: a36d ad3e 2884 893e ebcf 823d 245d fd3d
00000310: 75c5 813e 6967 b63e cd74 8b3e 12ae b43d
00000320: 25e9 363d ffb0 753e 0a21 a83e 6ecd 673e
00000330: f425 d43c 63bf a0bd 1cd7 bb3d 3807 3a3e
00000340: 604b d73d 37b3 bbbd 9ff3 d1bd 4972 753d
00000350: 7284 283e e5eb b63d 031e 92bd d7ed cdbd
00000360: 5e8d 103d 6e64 0b3e 26d9 963d 7d55 acbd
00000370: 24d6 57be 2d23 d1bd 6717 00bc 13d4 90bd
00000380: 43d7 56be 71fb e53e 2ac7 e43e 3035 a53c
00000390: 51d1 cebe 3f16 ddbe 57fc e03e 21a3 bd3e
000003a0: caf8 efbb 333e adbe c160 c2be 0d8c 293d
000003b0: 0140 aebc 73d2 a5bc 83d4 223c 2f45 3f3d
000003c0: 2ed8 c8be 89fd d8be 6914 6dbd 562c ba3e
000003d0: 831e f93e 4d96 ecbe f77d 05bf 888b bbbd
000003e0: 35ec d43e 0196 053f 9ade ef3e 07cc ee3e
000003f0: 806a 303d 06c5 ccbe 235d e1be 8ac6 e03e

conv1.bias f4 [64]
-0.9524442 -0.31791008 -0.6456201 -0.79882425 -0.41472638 -0.8272183 -0.7079377 -0.15698649
-1.3074094 -0.5087138 -0.07787195 -0.70991015 -1.2284247 -0.21453245 0.010217495 -1.1596571
-0.2154671 -1.3642279 -0.37723616 -0.050721306 -1.4846609 0.17677619 0.30174163 -0.13653316
-0.27623737 -0.7265573 -0.42038032 -0.094836965 -0.36307642 -0.6277828 -1.0497986 -0.7515155
-0.56422114 0.2675579 -0.95131063 -1.8369335 -0.5122983 -0.1866284 -0.023838814 -1.4025333
0.020322874 -0.029727956 -0.44185582 -0.38343307 -0.75462765 -0.42998108 -0.43016854 -0.42808306
-0.4968121 -1.3759638 -0.65890753 -0.69793713 -0.16769981 -0.20204109 -0.7336027 -0.5847801
-0.24201135 -0.41000587 -0.0814908 -0.6601272 -0.52583134 -0.83738726 -0.59570384 -0.6047427
00000000: 62d3 73bf 1cc5 a2be 5c47 25bf bf7f 4cbf
00000010: 0457 d4be 94c4 53bf 683b 35bf 11c1 20be
00000020: 3159 a7bf 113b 02bf 547b 9fbd acbc 35bf
00000030: 053d 9dbf 65ae 5bbe 4867 273c a56f 94bf
00000040: 68a3 5cbe 059f aebf 1925 c1be 25c1 4fbd
00000050: 5e09 bebf d104 353e e17d 9a3e 59cf 0bbe
00000060: fc6e 8dbe a9ff 39bf 173c d7be e239 c2bd
00000070: 27e5 b9be 60b6 20bf cd5f 86bf 5263 40bf
00000080: cc70 10bf 59fd 883e 1889 73bf a320 ebbf
00000090: fb25 03bf 841b 3fbe 9e49 c3bc 3686 b3bf
000000a0: 287c a63c 0b88 f3bc ed3a e2be 5751 c4be
000000b0: 472f 41bf 7b26 dcbe 0d3f dcbe b42d dbbe
000000c0: 285e febe 951f b0bf 2aae 28bf 02ac 32bf
000000d0: 80b9 2bbe dce3 4ebe 63cd 3bbf 26b4 15bf
000000e0: d3d1 77be 4aec d1be a6e4 a6bd 19fe 28bf
000000f0: e29c 06bf 035f 56bf 0c80 18bf 6bd0 1abf

fc1.weight f4 [64, 64]
-0.0059328033 0.0072400374 0.0032505644 -0.0025011555 -0.007848697 0.0022565713 -0.010527145 -0.0051176827
-0.009530287 0.0068991585 0.005947815 -0.010770084 0.009572303 0.009100953 0.008863002 -0.009035644
0.0033175854 -0.013904046 0.0015360406 -0.0044085677 -0.0050530997 -0.0013289723 0.003259293 -0.007890516
0.0037267588 0.0025420245 -0.0026942857 -0.0060789636 -0.009838363 -0.0016635276 -0.00060628535 0.0086501865
0.0022408469 -0.007359488 0.00129563 0.0044269245 0.007960241 0.007608217 -0.01051804 -0.0067569376
-0.0013351174 0.0018825721 -0.010347848 -0.011536385 -0.008315657 0.0057669133 -2.6232985e-05 0.008099128
-0.004149888 0.0021398943 0.0075141233 -0.002476562 0.0032730333 0.0012666134 -0.005629196 0.0066802623
-0.0039340514 0.00831022 0.0016910248 -0.0047999583 0.00372299 0.0049979957 0.009682334 -0.0050470037
0.0037871604 -0.0069139726 0.0008497113 -0.015672283 -0.0076694563 -0.0057919533 -0.0021369832 -0.003589699
-0.0018486767 0.046649966 -0.0019682131 -0.011126207 -0.0017147711 -0.0139314495 0.010664225 -0.0038984395
-0.027662156 -0.0029092932 0.024145933 -0.0064202677 -0.00856533 0.010151342 -0.012982963 -0.011779625
-0.012338664 -0.017878689 0.0062928586 -0.009774155 -0.00029469063 -0.021685112 0.008932091 0.008037007
-0.046376392 0.0032317846 -0.018250315 -0.0337213 -0.004930746 -6.562308e-05 0.0131851 -0.0032596418
-0.0021123104 -0.0034462567 0.0064358073 -0.039225496 0.009309578 -0.0034702516 -0.009459872 0.012675472
-0.0088571245 -0.024025792 -0.008770316 -0.010126424 0.020091636 0.0076086116 0.06690472 -0.038862806
-0.0085579865 0.047468647 0.00830062 0.012063708 0.006608075 -0.009916394 -0.00830116 -0.012980036
0.16195457 0.021378042 -0.030311642 0.06954606 0.06072214 0.2684833 -0.00021282089 0.016138388
0.23297222 0.1248468 0.0005630068 -0.029746061 0.35381746 0.017064815 -0.0008970955 0.03328208
-0.07908126 0.13272004 0.06158822 0.0036567657 0.23602057 0.072174884 0.124745525 -0.04064736
-0.052146733 0.0653554 0.027259644 0.018572452 -0.025857056 0.062688224 0.31731665 0.028361345
-0.16083424 0.098673396 0.12780266 0.20282044 -0.042747874 0.017859342 -0.009756109 0.23836467
0.11939444 0.028663246 0.0032647208 -0.08337257 0.035874736 0.06025549 0.11238429 0.021773338
0.0856688 0.17377673 0.18840641 0.47106266 0.055407632 0.027760047 0.18028198 -0.092584394
0.06813504 0.093269154 0.010752719 0.04279313 0.112754546 0.07826999 0.03629321 0.06537789
0.12840332 0.009155408 0.03843671 0.08651338 -0.08290546 -0.19977061 0.051533937 -0.040460974
0.21469128 0.056447722 -0.017131774 -0.22293875 -0.040913567 -0.04494411 0.018901724 0.011350007
-0.18997279 -0.048823543 -0.012272306 0.0010912855 0.2144036 0.14645855 0.26489136 -0.0951121
-0.23317677 -0.075617075 0.018341908 0.0056547727 -0.08594724 -0.17457864 -0.39806157 0.01941264
-0.52961576 0.19711657 0.14893338 -0.27593926 -0.13203286 0.012743809 0.012545959 0.22435308
0.22789203 0.065236986 0.0032026945 -0.2793018 0.031246047 -0.106232345 -0.03559479 0.027277328
0.06007973 0.2075886 -0.06885851 -0.25983533 0.104816206 0.026945047 0.10177342 -0.45096546
0.12079099 0.06664954 -0.0012726283 0.004627835 -0.11542729 0.084498994 0.014519858 0.06836179
00000000: f667 c2bb d63d ed3b 6c07 553b 6dea 23bb
00000010: d297 00bc fce2 133b 0c7a 2cbc 3cb2 a7bb
00000020: ec24 1cbc 5612 e23b e3e5 c23b 0275 30bc
00000030: 26d5 1c3c 2a1c 153c 2036 113c 3d0a 14bc
00000040: d96b 593b cccd 63bc f854 c93a bf75 90bb
00000050: 7994 a5bb e930 aeba dd99 553b 3947 01bc
00000060: a33c 743b 1898 263b 9d92 30bb 0b32 c7bb
00000070: 1631 21bc b90a daba 1fef 1eba 83b9 0d3c
00000080: 2cdb 123b dc27 f1bb 21d2 a93a bc0f 913b
00000090: ac6b 023c 5a4e f93b db53 2cbc 4d69 ddbb
000000a0: 1bff aeba a3c0 f63a 058a 29bc 1b03 3dbc
000000b0: 653e 08bc 60f8 bc3b e80e dcb7 34b2 043c
000000c0: c9fb 87bb 783d 0c3b 0939 f63b d14d 22bb
000000d0: 6380 563b 7e04 a63a 1e75 b8bb 1ae6 da3b
000000e0: 37e9 80bb 9727 083c 60a5 dd3a f848 9dbb
000000f0: 68fd 733b 3ac6 a33b a7a2 1e3c 5661 a5bb
00000100: 0232 783b 9b8e e2bb 29bf 5e3a 2963 80bc
00000110: 1050 fbbb 6dca bdbb a10c 0cbb 2841 6bbb
00000120: 4c4f f2ba 0914 3f3d 23fd 00bb b24a 36bc
00000130: 2cc2 e0ba bc40 64bc 00b9 2e3c f67c 7fbb
00000140: bf9b e2bc d7a9 3ebb b1cd c53c 1c61 d2bb
00000150: 9955 0cbc d051 263c 7eb6 54bc 54ff 40bc
00000160: 1c28 4abc 5476 92bc 5334 ce3b c723 20bc
00000170: b580 9ab9 faa4 b1bc e857 123c a7ad 033c
00000180: 2cf5 3dbd 59cc 533b af81 95bc 591f 0abd
00000190: 1892 a1bb 1f9f 89b8 5106 583c b79f 55bb
000001a0: b06e 0abb 98da 61bb 77e3 d23b eaaa 20bd
000001b0: 3387 183c 296d 63bb 94fd 1abc c8ac 4f3c
000001c0: 791d 11bc bdd1 c4bc 5fb1 0fbc 4de9 25bc
000001d0: 3797 a43c a951 f93b 5805 893d 9b2e 1fbd
000001e0: cc36 0cbc 7c6e 423d 53ff 073c dca6 453c
000001f0: 8d88 d83b 5f78 22bc 9701 08bc 38aa 54bc
00000200: 6bd7 253e 0121 af3c 1f50 f8bc 2a6e 8e3d
00000210: c7b7 783d a576 893e ac28 5fb9 a734 843c
00000220: 4590 6e3e aeaf ff3d bf96 133a 03ae f3bc
00000230: 9027 b53e 83cb 8b3c 0f2b 6bba ca52 083d
00000240: 5bf5 a1bd c3e7 073e ee43 7c3d 59a6 6f3b
00000250: 60af 713e 6dd0 933d 957a ff3d d97d 26bd
00000260: d097 55bd 0dd9 853d 9e4f df3c 4125 983c
00000270: 2dd2 d3bc af62 803d 5477 a23e 0d56 e83c
00000280: bbb1 24be 4715 ca3d b3de 023e 29b0 4f3e
00000290: 6518 2fbd c14d 923c 16d8 1fbc de15 743e
000002a0: 1285 f43d 2fcf ea3c edf4 553b 3dbf aabd
000002b0: 63f1 123d 76ce 763d bc29 e63d 005e b23c
000002c0: 2073 af3d 87f2 313e 9ced 403e 202f f13e
000002d0: 1df3 623d 0a69 e33c d79b 383e e39c bdbd
000002e0: 628a 8b3d e603 bf3d 2c2c 303c d947 2f3d
000002f0: dbeb e63d 044c a03d 30a8 143d d8e4 853d
00000300: 297c 033e 9000 163c d06f 1d3d ed2d b13d
00000310: 56ca a9bd ab90 4cbe 4015 533d 68ba 25bd
00000320: 08d8 5b3e ba35 673d ef57 8cbc 0e4a 64be
00000330: fc94 27bd 5117 38bd cad7 9a3c 61f5 393c
00000340: 3a88 42be 32fb 47bd c811 49bc 7709 8f3a
00000350: 9e8c 5b3e 3bf9 153e d79f 873e 22ca c2bd
00000360: e4c5 6ebe 20dd 9abd c541 963c ac4b b93b
00000370: 1b05 b0bd bec4 32be bace cbbe 4207 9f3c
00000380: e694 07bf edd8 493e fe81 183e e947 8dbe
00000390: 9f33 07be 69cb 503c 918d 4d3c d0bc 653e
000003a0: 875c 693e f89a 853d 4ce4 513b a500 8fbe
000003b0: b6f7 ff3c 5890 d9bd d8cb 11bd b474 df3c
000003c0: 2a16 763d 1b92 543e b105 8dbd 2309 85be
000003d0: e1a9 d63d dcbb dc3c 956e d03d f2e4 e6be
000003e0: 4461 f73d 8e7f 883d 52ce a6ba 18a5 973b
000003f0: 2565 ecbd cf0d ad3d b3e4 6d3c 4401 8c3d

fc1.bias f4 [64]
-0.012988264 -0.09134964 -0.8690782 0.089327626 0.23012425 -0.034483857 -0.0077334284 0.16235921
-0.24194288 -0.0394684 0.37664783 0.39753136 -0.22340362 0.16992576 -0.116954364 0.15725926
-0.05006125 -0.22567572 0.51798934 0.3784437 0.19294353 0.676194 -0.69639516 0.23930323
0.15252209 0.2627542 -0.07828244 -0.0019211766 -0.09395663 0.41426888 0.43502805 0.50207585
0.028945817 0.19943368 0.33275992 -0.04649894 0.041377693 0.16689478 0.35814726 0.32567102
-0.81672055 -0.00818042 -0.013224278 0.59619504 0.6999072 -0.1249044 0.7866078 -0.11833562
-0.019103872 0.16096233 -0.07425247 0.25177315 -0.15739249 0.08325288 0.4963468 0.2942175
-0.095292844 0.6995214 0.15839595 -0.0038690185 0.058296442 0.3643051 0.24126033 -0.0057093417
00000000: bacc 54bc 8515 bbbd e97b 5ebf 67f1 b63d
00000010: b1a5 6b3e f23e 0dbd b368 fdbb 7e41 263e
00000020: e0bf 77be 9ea9 21bd fcd7 c03e 3b89 cb3e
00000030: ebc3 64be 0501 2e3e c585 efbd 9208 213e
00000040: 060d 4dbd 8917 67be f39a 043f 5fc3 c13e
00000050: fd92 453e 0d1b 2d3f f446 32bf e80b 753e
00000060: c02e 1c3e b887 863e 8b52 a0bd fdcf fbba
00000070: 556c c0bd 0d1b d43e ffbb de3e 0b88 003f
00000080: c71f ed3c 5838 4c3e 825f aa3e ac75 3ebd
00000090: a87b 293d 77e6 2a3e 145f b73e 5abe a63e
000000a0: 9914 51bf 2b07 06bc a4aa 58bc 3da0 183f
000000b0: 1e2d 333f e1cd ffbd 215f 493f f259 f2bd
000000c0: b97f 9cbc 4fd3 243e ae11 98bd 69e8 803e
000000d0: 7f2b 21be 7c80 aa3d 2b21 fe3e ada3 963e
000000e0: e528 c3bd d613 333f 8c32 223e 5c8f 7dbb
000000f0: 40c8 6e3d 3386 ba3e f30c 773e 6e15 bbbb

fc2.weight f4 [32, 64]
0.005987137 -0.04463029 0.034436163 -0.1004959 -0.007156247 0.4342109 -0.017761076 -0.031649157
-0.043469347 -0.092262186 0.3722672 0.012420468 -0.033806264 -0.035275098 -0.08030947 -0.025758626
0.012067678 0.0071881614 -0.08482103 -0.032847576 -0.18220797 -0.20296322 0.09195462 -0.02555095
-0.103093594 -0.0886424 0.0020831595 2.5714377e-05 -0.033296812 0.23846638 -0.22236785 0.01834492
0.20770003 0.18409343 -0.18883155 0.020045113 0.0020584646 0.03002949 -0.082095146 -0.0705991
4.2788164e-05 -0.0041107032 -0.019327 -0.31866172 -0.25795758 -0.073768094 -0.15054527 0.0044799973
-0.024799302 -0.1490958 -0.012273136 0.009975795 0.19310376 0.27773288 -0.22631942 0.009082368
-0.020108595 -0.14435501 -0.072718464 -0.02603783 -0.0094621265 -0.12654467 0.08798157 7.129951e-05
-0.0028544425 0.007152562 -0.0027906413 0.004007768 -0.005489793 -0.008498724 -0.005883107 -0.009774699
0.0051432396 -0.009059022 -0.0017185616 0.0031488014 -0.0006905519 -0.0014479894 -0.010337683 -0.010894373
-0.00646693 0.0022496928 -0.0028813465 0.00023296164 0.0029502795 -0.008319956 0.007551137 -0.0015969605
-0.00011271805 -0.003268915 0.0046198852 -0.008611744 0.0037247846 -0.0057241414 0.005487196 0.003845008
-0.009750128 -0.007853158 -0.009779653 -0.009396985 -0.00836963 -0.004046294 -0.011065508 -0.0016791855
-0.0013730747 0.00074730645 0.003177805 0.0036217351 -0.0008528032 -0.006618237 0.0038896766 0.0011910938
-0.0039896816 0.0011290008 -0.0057747583 -0.00572559 -0.0030192453 -0.0056511895 -0.0054340917 -0.0059577683
-0.0029988147 0.0062728166 -0.002080574 -0.0051227137 -0.008596518 0.0004080296 -0.00026375422 -0.003349833
0.009478836 0.008961556 -0.019795638 -0.013747523 0.0060702935 -0.009428835 -0.008632111 -0.14626268
-0.08503782 0.055421628 0.07926501 -0.24607567 0.10854173 -0.12945908 0.026545476 -0.069800295
-0.053598884 0.11076372 -0.019943446 0.09394285 0.053435847 -0.019265449 0.08672126 0.09895531
0.08487752 0.004249759 0.009043574 -0.00034236556 -0.06537957 0.15885739 0.17236345 -0.032873087
0.002322166 -0.0136091355 -0.0183671 0.028197683 0.016897326 -0.05086692 0.04563152 0.0017919036
0.107791856 -0.0031251032 0.00037496258 -0.2490887 0.040336903 0.011995402 0.17438751 0.022416882
-0.030446 -0.24665433 -0.11745286 0.01998029 -0.03484494 -0.04394124 0.13529839 0.049981207
-0.0076031173 0.12133903 0.050671663 -0.0027271686 0.022658877 -0.31357896 0.13060862 -0.007697379
-0.010246515 -0.024183236 -0.26449057 0.26331952 -0.022957426 -0.19007255 0.009228458 -0.11549271
0.007984985 0.092193 -0.1951639 -0.31925502 -0.064874634 -0.22674663 0.0793803 -0.27227747
-0.012595101 -0.15970509 0.025144018 0.1923122 0.111319296 0.1588822 -0.13496101 -0.01600121
0.10354597 0.06807136 -0.012826843 0.0083750915 -0.0028953853 0.07038457 0.15133154 -0.005146152
0.04639173 -0.29495764 -0.0060438886 -0.0199526 -0.03315542 0.021059465 0.13727556 0.0522916
-0.32511416 -0.00013772139 0.019879468 -0.08184287 0.08917014 0.005723508 0.2482054 -0.093454905
-0.049893077 -0.1115879 -0.095789075 -0.04662199 -0.15781137 -0.08151514 0.16444634 0.06582754
-0.032877672 0.29111692 0.08630054 -0.00055346935 0.010469527 -0.13821678 0.055235483 -0.007984675
00000000: bf2f c43b 40ce 36bd ef0c 0d3d cbd0 cdbd
00000010: f37e eabb e450 de3e ad7f 91bc 8ca2 01bd
00000020: ea0c 32bd f5f3 bcbd ce99 be3e 387f 4b3c
00000030: 7078 0abd 9f7c 10bd 4b79 a4bd c103 d3bc
00000040: 83b7 453c ab8a eb3b a6b6 adbd 2e8b 06bd
00000050: ba94 3abe 97d5 4fbe b452 bc3d 3a50 d1bc
00000060: bc22 d3bd 268a b5bd 9e85 083b 34b5 d737
00000070: 3d62 08bd 8830 743e 66b4 63be 1648 963c
00000080: 51af 543e fd82 3c3e 0f5d 41be a635 a43c
00000090: 4ee7 063b 6800 f63c 8021 a8bd 4396 90bd
000000a0: 7177 3338 14b3 86bb a853 9ebc a127 a3be
000000b0: 0413 84be ba13 97bd 8a28 1abe f1cc 923b
000000c0: e827 cbbc 92ac 18be 4315 49bc 8471 233c
000000d0: febc 453e 0133 8e3e 47c0 67be 36ce 143c
000000e0: c8ba a4bc cdd1 13be 6bed 94bd 4a4d d5bc
000000f0: 0907 1bbc ed94 01be ae2f b43d a286 9538
00000100: 9911 3bbb 0a60 ea3b 31e3 36bb 9853 833b
00000110: b9e3 b3bb 3b3e 0bbc 14c7 c0bb 0f26 20bc
00000120: 9f88 a83b 4b6c 14bc 5c41 e1ba 1f5c 4e3b
00000130: 2706 35ba 76ca bdba 635f 29bc 507e 32bc
00000140: 8ae8 d3bb 956f 133b f9d4 3cbb 2a47 7439
00000150: 7a59 413b 6d50 08bc 876f f73b 1a51 d1ba
00000160: 0b63 ecb8 4b3b 56bb 6862 973b 4618 0dbc
00000170: 841b 743b 9491 bbbb f0cd b33b 88fc 7b3b
00000180: 00bf 1fbc 88aa 00bc d63a 20bc d0f5 19bc
00000190: c620 09bc c696 84bb 1b4c 35bc 1e18 dcba
000001a0: bef8 b3ba e3e6 433a b942 503b a25a 6d3b
000001b0: a78e 5fba ccdd d8bb f2e9 7e3b 7a1e 9c3a
000001c0: e0bb 82bb fbfa 933a 2f3a bdbb bb9d bbbb
000001d0: 88de 45bb 9d2d b9bb 7710 b2bb 6239 c3bb
000001e0: c387 44bb 338c cd3b 3d5a 08bb 70dc a7bb
000001f0: 69d8 0cbc ceec d539 7e48 8ab9 df88 5bbb
00000200: 1f4d 1b3c 7dd3 123c 762a a2bc 4a3d 61bc
00000210: 50e9 c63b 667b 1abc b36d 0dbc e2c5 15be
00000220: 4f28 aebd ca01 633d b255 a23d 43fb 7bbe
00000230: 204b de3d ec90 04be e675 d93c 75f3 8ebd
00000240: 818a 5bbd 17d8 e23d 7060 a3bc 1c65 c03d
00000250: 8cdf 5a3d 93d2 9dbc ea9a b13d 15a9 ca3d
00000260: 44d4 ad3d 9041 8b3b 802b 143c 877f b3b9
00000270: b9e5 85bd 83ab 223e 0b80 303e eea5 06bd
00000280: 7b2f 183b daf8 5ebc 9a76 96bc d4fe e63c
00000290: 436c 8a3c d559 50bd 1ee8 3a3d 4fde ea3a
000002a0: fac1 dc3d 88ce 4cbb a096 c439 1c11 7fbe
000002b0: 4f38 253d 5d88 443c a492 323e 9ca3 b73c
000002c0: e469 f9bc f492 7cbe 208b f0bd b5ad a33c
000002d0: 91b9 0ebd bbfb 33bd a98b 0a3e 18b9 4c3d
000002e0: 9223 f9bb 9980 f83d 178d 4f3d 4cba 32bb
000002f0: 1c9f b93c 6c8d a0be 44be 053e 4c3a fcbb
00000300: 00e1 27bc ec1b c6bc 4f6b 87be d1d1 863e
00000310: 3611 bcbc 61a2 42be f532 173c 7187 ecbd
00000320: 74d3 023c afcf bc3d 0cd9 47be 6575 a3be
00000330: fedc 84bd 4530 68be 2492 a23d f467 8bbe
00000340: af5b 4ebc bb89 23be d4fa cd3c 7ded 443e
00000350: 5ffb e33d 04b2 223e 3833 0abe f814 83bc
00000360: e90f d43d ff68 8b3d ae27 52bc ae37 093c
00000370: 81c0 3dbb c925 903d a8f6 1a3e 0da1 a8bb
00000380: 4105 3e3d b004 97be d00b c6bb a373 a3bc
00000390: facd 07bd e684 ac3c f791 0c3e b72f 563d
000003a0: 5d75 a6be 4e69 10b9 44da a23c 3c9d a7bd
000003b0: d69e b63d 448c bb3b 8e29 7e3e 4965 bfbd
000003c0: af5c 4cbd 3288 e4bd 102d c4bd b3f6 3ebd
000003d0: 4e99 21be 69f1 a6bd 9f64 283e 97d0 863d
000003e0: bdaa 06bd 470d 953e 56be b03d b316 11ba
000003f0: 6188 2b3c b388 0dbe 9a3e 623d 27d2 02bc

fc2.bias f4 [32]
0.24372037 -0.003974909 -0.17012177 0.19019853 -0.10758686 0.055463955 0.22494872 0.012244452
0.40506873 0.0826143 0.26347142 -0.18091401 0.4262774 0.5937507 0.21801339 0.24268351
0.13970526 -0.27784932 0.007710748 -0.00234265 -0.020267917 0.050286043 -0.012517587 -0.021827767
-0.16615222 -0.057861187 -0.035947766 -0.015690615 0.35996103 0.20230931 -0.03921754 -0.079661414
00000000: d591 793e f43f 82bb 6734 2ebe 67c3 423e
00000010: 8056 dcbd 2c2e 633d f558 663e f49c 483c
00000020: 2b65 cf3e b031 a93d bae5 863e 8641 39be
00000030: 0841 da3e 0c00 183f e73e 5f3e 0782 783e
00000040: e50e 0f3e 4442 8ebe 71aa fc3b 2587 19bb
00000050: e708 a6bc bdf8 4d3d 9116 4dbc 25d0 b2bc
00000060: cf23 2abe daff 6cbd f73d 13bd 9b89 80bc
00000070: d04c b83e 2c2a 4f3e 92a2 20bd 8625 a3bd

fc3.weight f4 [5, 32]
-0.3641001 0.004751384 0.24998628 0.40919405 0.7092945 0.092703864 -0.016350448 0.27478153
-0.54694843 0.06396225 -0.030086616 0.30491582 -0.93535775 -0.60705817 -0.29615024 -1.0640179
0.09480948 0.18949474 -0.18469971 0.0051896865 0.0005912246 0.004370766 -0.00692288 -0.010605395
0.13720804 0.1711835 0.535465 -0.003894111 -0.3053953 -0.24030903 0.26130792 0.12994991
0.065263495 0.0028966623 -0.20834306 -0.2675892 -0.074404284 -0.20519212 -0.042322252 -0.23608834
-0.17452651 -0.078032255 0.46055174 -0.10223678 0.31348115 0.56596035 0.25880742 0.096926324
-0.15827729 -0.105124496 0.19846047 0.007734873 0.004755478 0.042481747 -0.0043033552 -0.0071261427
-0.11408203 -0.038355067 -0.30776113 -0.011266397 -0.61746913 0.094291635 -0.23302823 0.13876332
-0.07463368 -0.005737324 -0.07016333 0.23100382 0.096962355 0.116648525 -0.2834243 0.43830758
0.52966493 -0.16097328 -0.26493925 -0.049888037 0.46816468 -0.30759948 -0.10962015 0.45697504
-0.30782664 0.0442783 0.0007971153 0.0066052554 0.008351622 -0.02648768 0.011360028 -0.004878806
-0.1588774 -0.055236224 0.14556955 -0.014300313 0.560508 0.5518792 -0.071463495 -0.122948036
-0.07456768 -0.0006400315 -0.13748044 -0.13680814 -0.04361401 -0.10957255 0.28155565 -0.39395952
0.19449876 0.12829646 0.32741064 -0.24253505 0.4965602 0.70602435 0.060322553 -0.12042568
0.1603414 -0.29585814 -0.33904207 0.018137746 0.010257121 0.05044917 0.0007406798 0.0047578802
-0.35433844 -0.15380439 -0.12324138 0.01069892 -0.15314625 -0.0017705496 0.020948885 -0.1269313
0.45607406 -0.010819114 0.17008437 -0.24334712 -0.6702685 0.118416235 0.05579624 -0.099440806
-0.008803677 0.051240794 -0.4546399 0.09041432 -0.30245388 -0.36160606 0.074583046 0.65043885
0.21317282 0.17249666 0.34396672 0.0059911427 0.009021772 -0.07598974 -0.00625168 -0.013518882
0.46825245 0.087035045 -0.24471614 -0.004982149 0.5194988 -0.40110454 0.0043005785 0.011384299
00000000: 546b babe 7fb1 9b3b 67fc 7f3e e281 d13e
00000010: 5394 353f 86db bd3d 60f1 85bc 2ab0 8c3e
00000020: d004 0cbf a4fe 823d 3578 f6bc ed1d 9c3e
00000030: 9b73 6fbf 2a68 1bbf 01a1 97be bd31 88bf
00000040: 792b c23d e90a 423e ec21 3dbe 3f0e aa3b
00000050: 69fc 1a3a a538 8f3b 54d9 e2bb 40c2 2dbc
00000060: 4480 0c3e ba4a 2f3e 3c14 093f 5734 7fbb
00000070: c65c 9cbe 9213 76be 27ca 853e 9711 053e
00000080: dea8 853d eed5 3d3b e257 55be 7401 89be
00000090: 4661 98bd e21d 52be 195a 2dbd 24c1 71be
000000a0: 14b7 32be 60cf 9fbd 70cd eb3e 8461 d1bd
000000b0: 9a80 a03e c7e2 103f 6882 843e 4f81 c63d
000000c0: 7113 22be 834b d7bd 3939 4b3e d174 fd3b
000000d0: d7d3 9b3b 5701 2e3d 2903 8dbb 6b82 e9bb
000000e0: d7a3 e9bd 341a 1dbd de92 9dbe b296 38bc
000000f0: 7512 1ebf f91b c13d f49e 6ebe f917 0e3e
00000100: 8bd9 98bd 2900 bcbb cbb1 8fbd 448c 6c3e
00000110: 3394 c63d 6ce5 ee3d fd1c 91be da69 e03e
00000120: 1f98 073f 2ed6 24be 1ea6 87be 6657 4cbd
00000130: 48b3 ef3e ae7d 9dbe 8780 e0bd a2f8 e93e
00000140: 749b 9dbe 2a5d 353d 81f5 503a e670 d83b
00000150: 3ed5 083c b1fc d8bc 691f 3a3c 64de 9fbb
00000160: c2b0 22be 613f 62bd 2f10 153e dc4b 6abc
00000170: 747d 0f3f f547 0d3f 745b 92bd 2ecc fbbd
00000180: f1b6 98bd c9c7 27ba acc7 0cbe 6f17 0cbe
00000190: 9ba4 32bd 9367 e0bd 1028 903e 10b5 c9be
000001a0: af2a 473e 2660 033e 5ea2 a73e 1c5b 78be
000001b0: 233d fe3e 03be 343f c814 773d bda1 f6bd
000001c0: 8930 243e b87a 97be ec96 adbe 9c95 943c
000001d0: 7c0d 283c caa3 4e3d 2e2a 423a fee7 9b3b
000001e0: d96b b5be e67e 1dbe fa65 fcbd 864a 2f3c
000001f0: 5fd2 1cbe c911 e8ba ff9c ab3c 47fa 01be
00000200: 8a82 e93e a742 31bc 992a 2e3e fd2f 79be
00000210: b796 2bbf 3684 f23d 998a 643d 9fa7 cbbd
00000220: 4c3d 10bc dee1 513d 90c6 e8be 252b b93d
00000230: 3cdb 9abe 6e24 b9be ffbe 983d 2983 263f
00000240: fa49 5a3e f7a2 303e 681c b03e 5951 c43b
00000250: 0ed0 133c 82a0 9bbd e5da ccbb 4d7e 5dbc
00000260: c9be ef3e 6e3f b23d de96 7abe 4c41 a3bb
00000270: e0fd 043f 935d cdbe deeb 8c3b 3685 3a3c

fc3.bias f4 [5]
-0.3685379 0.4369905 -0.23298796 0.4547037 -0.30250832
00000000: 00b1 bcbe 38bd df3e 6594 6ebe ecce e83e
00000010: 5fe2 9abe
