Assignment_1/1/CNN_Layers/Models/1CNN/model-0.pth (torch_old, 46280 bytes, 8 tensors)

conv1.weight f4 [64, 3, 5, 5]
000000 23 dc 3f 3e ec 30 4b 3e 79 c3 62 3d ab fc 61 3e
       0.18736319 0.19842881 0.0553622 0.22069041
000010 d6 0b 63 3e 5b f2 11 3e c9 d7 c2 3c ff 2a 04 3c
       0.22172484 0.14252608 0.023784535 0.008066892
000020 f1 e8 0b 3d a7 ef 16 3d 12 e3 8a bd 94 69 ec bd
       0.034157697 0.036849644 -0.067815915 -0.11543575
000030 04 df 1f bd 45 4a df bd f3 81 f7 3b a0 d9 c7 bd
       -0.039031044 -0.10902838 0.007553333 -0.097583055
000040 a5 46 09 be ce 2c f2 bd c0 b1 44 be 5d 86 59 be
       -0.13405855 -0.11824952 -0.19208431 -0.21242662
000050 34 b2 59 be 53 fe 6a be 61 2f 76 be 2b 45 85 be
       -0.21259385 -0.2294858 -0.24041511 -0.26029333
000060 6a 47 6d be 40 2a 62 3e da 1a 1d 3e e7 b3 0c 3e
       -0.23171774 0.2208643 0.15342274 0.13740502
000070 8d 32 dd 3d 1d 55 2a 3e c8 12 9a 3b 77 36 ac 3d
       0.108006574 0.1663403 0.004701946 0.08408826
000080 d7 3f 2d bd dc e9 71 3d cc 14 a0 3d fa 99 e1 bd
       -0.04229721 0.059060916 0.07816467 -0.11015697
000090 f7 dc be 3c e1 59 69 bd 6c 35 7a 3b d0 30 9a bd
       0.023298724 -0.05697048 0.0038178815 -0.075288415
0000a0 cb a1 9b bd d9 b5 cc bd 74 17 e0 bd a2 59 3b be
       -0.07599219 -0.09995622 -0.10941973 -0.18295911
0000b0 62 5c fd bd f4 f5 3e be 1c 58 71 be dc 3b e5 bd
       -0.12371136 -0.18648511 -0.23568767 -0.11193058
0000c0 d8 f7 67 be c9 38 7d be 68 31 81 3e 9f 5d 82 3e
       -0.22653139 -0.24728693 0.25233006 0.25462052
0000d0 ac 51 76 3e cd 6b 3c 3e 50 98 9e 3e 05 9f 8b 3e
       0.24054593 0.18400498 0.3097558 0.2726976
0000e0 f2 b5 01 3e d5 3c 49 3e e8 e2 dd 3d 34 6a 00 3e
       0.12667063 0.19652112 0.108342946 0.12540513
0000f0 af d6 7f 3d c2 8b 96 3d c1 a6 ab 3c 28 fb f3 3d
       0.062460598 0.073508754 0.020953538 0.11913139
000100 8d 3f 02 3e b4 df 87 3d 48 5c c3 3b 76 33 49 3b
       0.12719555 0.06634465 0.0059619285 0.003070084
000110 c4 ad 18 3d c6 29 3c bd a7 2e 30 be 88 3b 52 bd
       0.03727509 -0.045938276 -0.17205296 -0.051326305
000120 9e 53 c5 bd 90 b9 3d bd 9b 51 8d bd 9f 11 c7 bd
       -0.09635089 -0.046319544 -0.06900331 -0.09720158
000130 cf 8b 73 3c 24 f5 a0 bc b9 7f 5b bd b5 1a b9 3d
       0.014864876 -0.019648142 -0.053588603 0.09038297
000140 f0 fd ab 3b 11 9a 1c bd 68 4c 35 3d 0f 08 38 bc
       0.0052487776 -0.038232867 0.04426232 -0.01123239
000150 55 0a 81 bd 16 f6 f8 bc 8d 9f 28 bd 7f 8c 9e 3c
       -0.06300799 -0.03039078 -0.041167784 0.019354103
000160 32 5e 18 bb 18 77 78 3b 59 fd 53 3d cd 09 35 bd
       -0.0023249504 0.0037912782 0.051755283 -0.0441988
000170 92 3a 97 bd 76 13 5a bd ea 71 38 bc de 39 5d bc
       -0.07384218 -0.053241216 -0.011257628 -0.013502566
000180 73 68 41 3c 11 d1 68 3d f2 4a 5b bd f7 a7 9d 3d
       0.011804688 0.056840006 -0.05353827 0.076980524
000190 55 31 ad 3c e1 ac 2f bd 77 91 b6 3c 99 da 96 bc
       0.021141687 -0.04288948 0.02228616 -0.018414782
0001a0 a3 d5 60 3d 5a 31 93 bd 72 a6 85 3d c8 06 70 3d
       0.05489124 -0.071871474 0.065258875 0.058600217
0001b0 13 03 64 3d e1 3c 9a bd c2 23 8a bd f7 14 bd bc
       0.055666994 -0.07531143 -0.067451015 -0.023081286
0001c0 af 6d 94 bd 23 67 0d bd d9 52 1b 3d 07 2e 8f bc
       -0.07247483 -0.034522187 0.037920807 -0.017478002
0001d0 c5 3d 2e bd 05 55 f2 bc 27 8d 84 3d b9 f7 4a 3b
       -0.042539377 -0.029581556 0.06472235 0.0030970408
0001e0 ca 1d eb bd 89 aa 57 bc 31 f8 af bd 7d fa f9 3c
       -0.11480291 -0.013163217 -0.08592261 0.03051495
0001f0 37 ef 98 bd 62 bd 0a bb 0a 45 de 3c 1b e6 ab 3c
       -0.074675016 -0.002117001 0.02713253 0.020983746
000200 74 8d 40 bc 52 a3 98 3d 0f e1 7b 3d e2 f8 83 bd
       -0.011752475 0.07453026 0.06149393 -0.06443955
000210 86 b9 d8 bc cd 96 0b 3d 4d bd c5 3d 44 77 8c bd
       -0.026455652 0.03407936 0.09655247 -0.068586856
000220 2b e6 d2 3c d8 7c 89 3b 53 ee 83 3d d0 0f e7 3d
       0.025744518 0.0041957907 0.06441941 0.11282313
000230 55 9d 9d bd 7f 47 ae 3c c5 67 4f 3d 5c c4 7e 3d
       -0.07696024 0.021274326 0.05063607 0.06219898
000240 53 42 bc 3d 0c 41 9b bc 87 7f b6 3d 0a de 83 3d
       0.09192338 -0.018951915 0.08911043 0.06438835
000250 c1 ac a3 3d 13 a1 8f 3c 59 8a a8 bc 4c f0 e4 bd
       0.079919346 0.01753286 -0.020573782 -0.111786455
000260 a5 0e 3a be 4d 72 29 be ce 6c f6 bd ab 70 62 bc
       -0.18169649 -0.16547509 -0.120324716 -0.013820807
000270 5a e9 d9 bd d4 05 0c be 72 0b f0 bd b0 7b 85 bd
       -0.106402114 -0.13674098 -0.11720933 -0.06517732
000280 b8 b6 24 bd d8 df 92 3d 07 ab 7a 3d 10 22 44 3d
       -0.040213317 0.07171601 0.06119826 0.047884047
000290 9f 89 b8 3c a1 82 4a 3c 1b 24 f7 3d 94 78 ef 3d
       0.02252656 0.012360246 0.120674334 0.1169292
0002a0 8f ba 12 3e 85 ab 6e 3d ff 93 32 bb 65 50 90 3d
       0.14328979 0.058269043 -0.0027248857 0.07046584
0002b0 ae 86 9c 3d 01 a4 0a 3e 3a af 97 3d df fa ad bd
       0.076428756 0.13539125 0.07406469 -0.084951155
0002c0 b4 32 f7 bd 75 5b ce bc 55 7c 3a bd a8 cf 5b bd
       -0.12070218 -0.025190094 -0.04552873 -0.053664833
0002d0 92 14 b6 bd 5c 47 a9 bc d2 28 a5 bd f7 ea 91 bd
       -0.08890642 -0.02066391 -0.080644265 -0.07124894
0002e0 12 7f c9 bc 64 b8 c1 ba 88 c4 71 bc 64 e8 df bb
       -0.024596725 -0.0014779684 -0.014756329 -0.006833123
0002f0 9f d0 98 bc 25 a8 c5 3d 65 f5 95 bb 72 88 10 3e
       -0.018654166 0.09651212 -0.0045763724 0.1411455
000300 4f 4b 4c 3d 4d 99 09 3e 2e 3f 17 3d 10 c8 f6 3c
       0.049876507 0.13437386 0.036925487 0.030124694
000310 3d 05 a8 3d 79 64 36 3e d5 47 d0 3d cb e8 18 3d
       0.08204124 0.17811765 0.10169951 0.037331384
000320 5d d4 87 3c c9 7c a0 bc 5a b1 dc bc eb 09 ad bd
       0.016580755 -0.019590752 -0.026940037 -0.08449157
000330 60 ec 06 3d bf 6c e3 bc bc 15 70 bd d2 31 7a bd
       0.03294027 -0.027761815 -0.058614478 -0.06108267
000340 40 b7 00 bd 9b e5 dc bd c9 b4 c9 bd 8b 25 10 3b
       -0.03142476 -0.10785981 -0.09848935 0.0021995034
000350 43 ec 96 3d b8 ea 0c bd de 1d d6 3c eb b8 ba 3c
       0.07369282 -0.034403533 0.026137289 0.022793254
000360 a3 29 92 3d 6c 5a 9d 3d 2b 6f bf bb d8 8f 28 bd
       0.07136848 0.07683262 -0.0058421097 -0.041152805
000370 da c9 0c 3d 2b 02 6e 3d 82 a4 ab 3d ae 1a 97 bc
       0.03437219 0.058107536 0.08380987 -0.018445339
000380 ba fd f8 bb 4e a1 fe bc e3 7c 56 3d f0 36 cc bd
       -0.007598606 -0.031082775 0.052365195 -0.09971416
000390 b5 c9 23 be 6c 79 07 be 28 f9 8e 3d c2 05 f3 3c
       -0.15994914 -0.13229913 0.069811165 0.029665831
0003a0 77 0e 94 bd 1c 44 55 3d 9b 87 a6 bd fe 6c a8 3d
       -0.072293214 0.052066907 -0.081313334 0.082239136
0003b0 5a fa d4 bb 77 2f b8 3d 0e ac 27 3d e5 45 c4 bc
       -0.006499571 0.08993428 0.04093557 -0.02395911
0003c0 37 9f 87 bd e4 d9 c0 bd 49 ed 75 b9 4a c0 cd 3c
       -0.06622165 -0.09416559 -0.00023453416 0.025116105
0003d0 c8 e5 fb 3d 74 a8 11 bc 03 9b 6c bd 3a b3 e5 bc
       0.12299687 -0.00889026 -0.05776502 -0.028039563
0003e0 62 4a 92 3d cf 36 7d 3a b3 1c 86 3d 77 c5 c7 3d
       0.07143094 0.0009659351 0.06548443 0.0975446
0003f0 d1 9c 87 3d f7 a5 f7 bc 57 1d 63 bc 3a 00 c7 3c
       0.06621707 -0.030230505 -0.013861976 0.0242921

conv1.bias f4 [64]
000000 5c c7 f8 bd ae 71 9b b9 b4 90 06 be 7c e5 9e 3b
       -0.121474 -0.00029648602 -0.13141137 0.004849134
000010 62 0f 1f be b8 08 e3 be 31 2b 18 3c bb e1 4d be
       -0.15533212 -0.4434259 0.009287641 -0.2010564
000020 37 df cf be 86 5a 4f be fe 18 18 bd f8 51 0b bf
       -0.40599987 -0.20249376 -0.03713321 -0.5442195
000030 5c 59 e6 be 2d ae 7f be d3 85 a7 bc ba 62 84 be
       -0.4499005 -0.24968787 -0.020449555 -0.25856572
000040 80 e6 28 be ea d9 c1 be 57 a7 7b 3c 48 a4 9c bc
       -0.16494179 -0.37861568 0.015359721 -0.019121304
000050 0b 28 6d be b3 8b 94 3d 04 82 89 3c c1 d7 cb bd
       -0.23159806 0.07253208 0.01678563 -0.09953261
000060 50 47 80 be 5a f1 16 be 83 db 0a bd 25 7a 9d bd
       -0.25054407 -0.14740506 -0.03390075 -0.07689313
000070 80 55 0a bd 51 25 b7 be 08 56 f8 be 73 98 4e be
       -0.033772945 -0.35770658 -0.48503137 -0.20175342
000080 5a c5 c9 be 3a c0 03 bd c0 36 b4 bd 6c e5 e1 be
       -0.3940838 -0.032165743 -0.08799505 -0.44120347
000090 c4 25 ad be 1c a7 c4 3d 59 34 11 bc fa 1d bf be
       -0.33817875 0.09602186 -0.008862578 -0.37327558
0000a0 a9 f8 58 3c e3 a7 4d bd 30 99 49 be a7 d7 85 be
       0.013242879 -0.050208937 -0.19687343 -0.26141092
0000b0 eb 40 3c 3e ec 2a ae bd 50 7b 1b be e2 92 88 bd
       0.18384139 -0.085042804 -0.15183759 -0.06668641
0000c0 53 7b 40 bd 8a c8 20 bd 49 9c 88 be fa 92 be bd
       -0.04699261 -0.03925375 -0.26681736 -0.09305377
0000d0 75 04 1b 3e f9 63 22 3d 9e 97 b0 bd 38 5e cc be
       0.15138419 0.039646123 -0.08622669 -0.39915633
0000e0 b8 ef f6 bd e8 7b 80 bd 7c f7 5d bd 43 8c 9f bd
       -0.120574415 -0.06273633 -0.054191098 -0.07790425
0000f0 15 f2 11 be cc 27 e2 bc 43 05 a6 bd f7 54 8d bc
       -0.14252503 -0.027606867 -0.08106472 -0.017252428

fc1.weight f4 [64, 64]
000000 fd 9e 36 bd ef c0 8c 3d d9 d9 15 3d 61 a4 4a bc
       -0.044585217 0.06872737 0.03658471 -0.012368293
000010 ca 4b 88 bd 01 cb 82 bc e2 ac a3 bd 51 e2 31 bd
       -0.066550806 -0.01596594 -0.07991959 -0.043428723
000020 5d fd a0 bd 47 05 9d 3d d3 5f 6a 3d b2 92 a8 bd
       -0.07860825 0.07667022 0.05722029 -0.08231105
000030 22 6c 03 3d 02 cf ad 3d 31 5a a7 3d 98 d4 9f bd
       0.032085545 0.08486749 0.081714995 -0.07804221
000040 08 4d 20 3d b2 b1 d6 bd b3 f6 e3 3c ca 2d 23 bd
       0.039135963 -0.104831114 0.027827596 -0.03983859
000050 79 ac 11 bd 02 10 66 3c ee 5a 83 3d 2b 92 7f bd
       -0.035564873 0.0140419025 0.06413828 -0.062395256
000060 3a 2e 08 3d a8 04 de 3c 33 83 8b bc b0 e3 3d bd
       0.03324721 0.02710183 -0.017030334 -0.046359718
000070 94 06 a9 bd 7d 64 fc 3b 37 0f 4d bd ff 1a aa 3d
       -0.08253208 0.007702409 -0.050063338 0.0830593
000080 ab 48 29 3d 21 84 54 bd 3f 9d 9f 3c 21 e1 1f 3d
       0.041329067 -0.05188382 0.01948416 0.03903306
000090 b5 5b 97 3d 96 21 af 3d 9d 0a bc bd e5 ce 56 bd
       0.073905386 0.08551328 -0.09181712 -0.052443404
0000a0 a1 bc 20 3d cd d4 07 3d ae 67 ab bd 4a d6 b3 bd
       0.03924239 0.033161927 -0.08369385 -0.08781107
0000b0 37 9d 36 bd 65 45 6a 3d d2 29 43 bc 3f 75 ac 3d
       -0.044583526 0.057195086 -0.011911826 0.084208004
0000c0 b8 2e 07 bd 61 36 0a 3d 98 64 21 3d 22 d8 cf bc
       -0.03300354 0.033743266 0.039402574 -0.025371615
0000d0 b1 33 74 3d cc c8 08 3d 93 e7 97 bc b0 85 9e 3d
       0.05961961 0.03339462 -0.01854304 0.077403426
0000e0 b8 64 60 3b 79 b6 c0 3d 6d bb 93 3c 38 7a 12 bd
       0.003423972 0.09409804 0.018033708 -0.035761088
0000f0 67 18 30 3d da 5b 6b 3d e1 d6 b9 3d b2 ca 03 bd
       0.042992022 0.057460643 0.09074188 -0.032175727
000100 13 ce 67 3d a4 84 75 bd d2 1a 25 3c cd e3 11 bd
       0.056593012 -0.05994095 0.010077195 -0.03561764
000110 ea d3 ec 3b 6d 30 77 bc b0 7b 62 bd 3c a1 d4 3a
       0.0072274106 -0.015087229 -0.05529374 0.0016222368
000120 66 b9 54 ba ca b0 34 3c 72 52 87 bc 77 14 f2 3c
       -0.0008114785 0.011028478 -0.016518805 0.029550774
000130 94 d0 0f bd 43 31 bd bd e9 ae b1 3d 21 33 ac bc
       -0.035111025 -0.092379116 0.086759396 -0.021020474
000140 b7 9d db bd fd f4 0b bd 0c 54 d7 3c a8 5c 71 bd
       -0.10723441 -0.034169186 0.026285194 -0.058926255
000150 af 63 5e bd 74 61 b3 3d 90 a7 b9 bd bd cc 98 bc
       -0.054294284 0.08758822 -0.09065163 -0.018652314
000160 45 d5 27 3d 98 69 4a bd e2 13 5d 3d 8c 88 9e bd
       0.040974874 -0.04941711 0.05397404 -0.07740888
000170 b4 9a f5 3c 75 f8 b0 bc a3 d8 0b 3a 01 44 9f 3d
       0.029980995 -0.021602849 0.00053347106 0.077766426
000180 51 60 65 bd 1c 6e 4a 3d 61 98 81 bd 21 67 93 bd
       -0.056000058 0.049421415 -0.06327892 -0.07197405
000190 b8 1a 22 bb a1 b9 f4 bc 44 2f 91 3d d9 89 12 bc
       -0.0024735164 -0.029873671 0.07089093 -0.008943998
0001a0 31 53 80 ba 19 b3 a6 bc 5c e7 65 3d d6 27 ad bd
       -0.0009790418 -0.020349072 0.056128845 -0.08454864
0001b0 f8 f5 95 3d 12 3a 54 bd d1 9a b1 bd 38 4b aa 3d
       0.073223054 -0.051813193 -0.08672107 0.08315128
0001c0 08 09 8c bd 9a 36 6f bd b4 ea 80 bd 83 ec 4b 3d
       -0.0683766 -0.05840168 -0.06294766 0.049786102
0001d0 d2 71 94 3c 6c 54 d4 3c dd cd 59 bc 82 10 a3 3c
       0.01812068 0.025919162 -0.013293711 0.019905332
0001e0 f2 02 af bc e6 eb b2 3d fd 65 a2 3d 13 f6 ad 3d
       -0.02136371 0.087364 0.07929609 0.084942006
0001f0 4d 1f 97 3c 16 7b 3f 3c 1a 94 97 bd ca bb 45 bc
       0.018447543 0.011687061 -0.07401295 -0.012068698
000200 68 43 2a 3e c7 83 19 3d 3a 9b 0d bd 8b e8 c0 3c
       0.16627276 0.03747919 -0.034571864 0.023548385
000210 5c c5 45 bd c6 54 97 bd 1f 25 0c bd ac cd 29 bd
       -0.04828392 -0.07389216 -0.03421509 -0.04145591
000220 0d 1d 89 3e 96 cc 16 3e f1 1e 73 3d 25 52 33 be
       0.26779976 0.14726481 0.05935568 -0.17511804
000230 40 65 04 3c 78 04 a9 bc 0e 9b 5f bd 68 11 38 3d
       0.0080807805 -0.020632014 -0.05459123 0.044938475
000240 09 5e a2 bd f3 66 07 be 1f d3 2d bd 37 52 73 bd
       -0.07928092 -0.13222866 -0.04243767 -0.059404578
000250 f7 d6 7c 3d 6f f6 0b 3d e6 e8 de 3d d8 93 43 bd
       0.061728444 0.034170564 0.108842656 -0.047748417
000260 ca 23 02 be bf 67 a9 3d b9 98 be 3d 5a 55 58 3d
       -0.12708965 0.08271741 0.09306473 0.052815773
000270 37 00 dd bd ea 88 4f bd 5f c1 32 3c f3 ed 95 3d
       -0.107910566 -0.05066768 0.010910361 0.07320776
000280 c0 ce 0c be ba c4 21 bd 10 5b bf 3d 80 2b 1f 3b
       -0.13750744 -0.039494254 0.09343541 0.0024287403
000290 01 a1 bc bd b1 27 53 3c 91 43 8a 3b be 40 08 3e
       -0.092103966 0.012887881 0.0042194803 0.13305947
0002a0 1a cc a4 3d 14 16 96 bc 8b a0 39 3d b7 85 3b bd
       0.08046742 -0.018321075 0.04531912 -0.045781817
0002b0 68 12 b8 3d c8 53 24 3d 42 e8 5d bd 4e 5e 70 3c
       0.08987886 0.040118963 -0.054176576 0.0146709215
0002c0 d9 a2 c6 3d af 9c f7 3d 4f 92 62 bc 36 d0 c9 3d
       0.096990295 0.12090432 -0.013828828 0.09854166
0002d0 94 17 c6 bb 3d c0 e9 3d 36 f7 ef 3d 3f 23 d6 bd
       -0.006045291 0.1141362 0.117170736 -0.104559414
0002e0 83 df 39 3e 7c c7 ee 3c c7 12 9c 3c 00 22 f6 3d
       0.18151669 0.029147856 0.019051922 0.12018204
0002f0 00 8f 92 bd 12 cb da 3d d2 a8 a5 3d ba 01 fb 3d
       -0.07156181 0.10683264 0.080888405 0.12256189
000300 bc 75 7e 3d 3c 60 29 3d d6 e0 81 3d 64 7c 6c 3d
       0.062124 0.041351542 0.06341712 0.057735816
000310 bf 4f 15 bd ee 93 c8 bd b5 06 01 3d 5d 57 cf bd
       -0.036453005 -0.0979384 0.031500537 -0.10124085
000320 5d 49 4c 3e 2c e6 21 3e a1 f6 7d bc 7f 01 03 be
       0.19949861 0.1581046 -0.015500695 -0.1279354
000330 76 27 8b bd 62 51 07 be c1 48 1c 3d 49 1f 07 be
       -0.06794636 -0.13214639 0.03815532 -0.13195528
000340 fe 55 83 bd 7d 3b 91 be f7 9d ed 3c b4 fc 61 bd
       -0.06412886 -0.28365698 0.029005988 -0.055172637
000350 cc 95 87 3d f8 25 fd 3d 28 a8 1a 3d 61 43 27 bd
       0.06620368 0.123607576 0.037758023 -0.040835742
000360 df 2c 54 bd f6 fa 60 bd 50 d0 d0 3d 37 49 22 3b
       -0.051800605 -0.054926835 0.101959825 0.0024762878
000370 e5 5c 13 3c 8c 02 1d be 71 2e 95 bd 0a b9 34 3b
       0.008994316 -0.15333003 -0.072842486 0.0027576112
000380 be 32 8b be bb fb 2f bd fb 60 ad bc 4b e2 1d bd
       -0.2718715 -0.04296468 -0.021164408 -0.038545888
000390 b8 78 47 bd 59 38 e2 3d 3c 84 24 bc cb 6c b7 3d
       -0.04869911 0.11045904 -0.010041293 0.089562975
0003a0 ce 23 a1 3d b3 4f 0b bd 5d 69 ed bd ce 6d 26 be
       0.07868157 -0.034011554 -0.11592362 -0.16252825
0003b0 7d 00 31 3e 35 7c ae bd a1 b3 5f bd 4f d2 3b 3e
       0.17285343 -0.08519784 -0.054614667 0.18341945
0003c0 a4 da 36 bd d0 05 88 3d 79 38 a6 bd e3 0e 10 be
       -0.044642106 0.06641734 -0.0811624 -0.14068179
0003d0 c1 fe 29 3e f9 4e 6c 3d 59 ab 2b 3e 18 10 84 be
       0.16601087 0.0576925 0.16764583 -0.2579353
0003e0 c9 ff 3b 3d 8e 4f 48 3e 64 e8 a5 3d 6e a0 42 bc
       0.045898233 0.19561598 0.081009656 -0.01187907
0003f0 25 81 f1 bc d8 94 fc 3c 35 36 2a 3d 33 86 00 3c
       -0.029480526 0.030832693 0.041555602 0.007844496

fc1.bias f4 [64]
000000 09 d9 9f bd f4 8a 14 be 11 8e 47 be 93 a7 3c be
       -0.07805068 -0.14506131 -0.19487788 -0.184233
000010 b5 65 6c 3d 24 d5 fe 3d 3d fc 7b bc 38 0b 32 3d
       0.057714183 0.12442997 -0.0153799625 0.04346773
000020 f8 63 e3 bd ac 6f 35 3e 4e 3f b9 3d 06 54 86 3c
       -0.11103052 0.1771838 0.090452775 0.016397487
000030 e2 c2 8b 3c 04 6d 26 3e 06 02 c3 bc eb 08 d3 bc
       0.0170607 0.16252524 -0.023804676 -0.025761088
000040 ac 69 db 3d 8c 88 d8 bd 90 9d 6c 3e b0 0a e6 3e
       0.10713515 -0.10572919 0.2310698 0.4493003
000050 dc bb b5 3d 47 23 70 3e c5 1b 81 be a8 42 bb 3c
       0.08873722 0.23450957 -0.252165 0.022858933
000060 f7 b2 29 3c cc 48 db 3e 69 41 d4 bc e0 e1 06 bb
       0.01035761 0.42828977 -0.025910096 -0.002058141
000070 9b 44 2a bd 88 26 83 bd 7b 1e bd 3e a2 c8 d9 3e
       -0.041569334 -0.06403834 0.36937317 0.42535883
000080 7b 49 7e 3e 74 9d b5 3d 71 a1 b8 3e 63 1c fd 3b
       0.24832718 0.088679224 0.3606067 0.007724331
000090 ef f5 04 3e fc 6f 8a 3e b0 9a b7 3d bb be af 3c
       0.12984441 0.27038562 0.08965051 0.021453252
0000a0 5b 5d 45 be 72 70 93 bd 48 e2 e8 3a 25 4b 3b 3d
       -0.19273894 -0.071991816 0.0017767632 0.04572596
0000b0 05 13 e4 3e 7f 23 0d bd 52 74 ff 3e bf 22 13 bd
       0.4454576 -0.03445768 0.49893433 -0.03592181
0000c0 90 0d 83 bd 90 2f 59 3d f7 b4 59 bc 82 ce 27 3e
       -0.06399071 0.053023875 -0.013287774 0.1638737
0000d0 52 9c bd bd 5e d4 4c 3e e6 65 46 3f 59 75 47 3e
       -0.09258331 0.20002887 0.77499235 0.19478358
0000e0 c5 7d 4e be 5c 7c c8 3e 32 c9 5a 3d 78 a7 b4 3e
       -0.20165165 0.3915738 0.05341453 0.3528402
0000f0 9a a5 31 3d 57 18 23 be 3b 11 a3 3d d4 2f 4a bd
       0.04337082 -0.15927254 0.07962271 -0.04936202

fc2.weight f4 [32, 64]
000000 ab 8e 65 3d 0b cf 06 bd 1f ff 5a bd a7 15 10 be
       0.056044262 -0.032912295 -0.05346596 -0.1407076
000010 9e 64 22 bd 76 ea b4 bd bf 85 b2 bd 3f a7 c7 3d
       -0.039646737 -0.088337824 -0.08716916 0.097486965
000020 f2 39 41 3d 7a ca 01 be 01 f1 ff 3d 0a b6 cc 3d
       0.0471744 -0.12674895 0.1249714 0.09995659
000030 b1 c6 b2 bd 76 40 1a 3e 35 2a c4 bd 33 b2 4f 3c
       -0.08729304 0.15063652 -0.09578363 0.012676763
000040 03 60 d1 3b ca 7f a9 3a 63 65 ed bd 95 d0 0b bc
       0.0063896193 0.0012931761 -0.115916036 -0.008533617
000050 9a c8 2a be 48 1c 9d bd 95 0c 0b bd 05 c7 ab 3d
       -0.16678086 -0.0767141 -0.033947546 0.08387569
000060 44 fc fb bd 27 19 c9 bd 5c 5c bb bd 88 43 bb 3a
       -0.12303975 -0.098192506 -0.091484755 0.0014287094
000070 50 bb 91 bd 38 38 1b 3e cc c4 aa bc 71 49 8c bd
       -0.07115805 0.15158165 -0.020845793 -0.06849945
000080 cb 77 05 bc 1e bb 2f 3e 39 11 08 be f6 fb e8 3c
       -0.008146237 0.17161223 -0.1328782 0.028440457
000090 aa 0f 97 3c 1e 3a 2c 3c f3 67 85 bd ff 01 cf 3c
       0.018440086 0.010511903 -0.06513967 0.025269506
0000a0 82 63 9f bd c7 5b 10 bd 41 50 42 bc 15 73 f9 39
       -0.077826515 -0.035243776 -0.011859954 0.00047578724
0000b0 4a 4b 3a bd 0f 3b 21 bd 19 df 47 be 31 00 be 3d
       -0.045481957 -0.039362963 -0.19518699 0.0927738
0000c0 db 4a 80 bc ef ab 3b 3c 0c a7 b9 bd 35 af 24 bd
       -0.015660694 0.011454566 -0.09065065 -0.040206153
0000d0 45 8c 1a 3e cd 14 1b 3e da 48 2f be cf 3e 8e bd
       0.15092571 0.15144654 -0.17117634 -0.069455735
0000e0 f2 04 ac bd 4f 56 bb 3b 95 6b 18 bd 0a 63 87 bd
       -0.08399381 0.005717076 -0.037211973 -0.06610687
0000f0 42 26 46 bd 87 33 d6 3a 3b 7d c5 3d 7e ec 04 bd
       -0.04837633 0.0016342261 0.096430264 -0.0324521
000100 eb 6f ce bc 3e 1e 88 3d ea 62 c4 bc 94 11 53 3d
       -0.025199851 0.06646393 -0.023972947 0.051530436
000110 03 75 43 bd 22 74 96 bd 3c f4 55 bd d8 5d b6 bd
       -0.047719013 -0.07346369 -0.052234873 -0.08904618
000120 08 8e 00 3d ec 3b 8d bd 90 bf 7f bc 6f 96 16 3d
       0.03138545 -0.06896195 -0.015609637 0.03676456
000130 20 00 29 bb 3d 2a 19 bc 65 06 b7 bd bb 60 be bd
       -0.0025787428 -0.009348449 -0.089367665 -0.092957936
000140 39 c6 61 bd b3 19 fa 3c 12 c1 a9 bc f6 52 87 3c
       -0.05512068 0.030529832 -0.020721946 0.016519051
000150 ee f5 3a 3d 88 ca 8b bd cf d1 87 3d 7c 32 6c bc
       0.045644693 -0.06825739 0.06631815 -0.014416333
000160 e9 0e 0c 3c 2f 0b ac bc c7 d3 2a 3d 72 51 9d bd
       0.008548477 -0.021001427 0.041705873 -0.0768155
000170 ee bf f0 3c 18 bd 61 bd 7f 63 8b 3d 34 ab 0e 3d
       0.029388394 -0.055111974 0.06806087 0.03483124
000180 0e e0 b3 bd 52 6e 90 bd fd 6f 93 bd 5a 06 ac bd
       -0.087829694 -0.07052292 -0.071990944 -0.08399649
000190 d4 aa 91 bd 9e eb ee bc 4c d8 bc bd 8d d6 4b bc
       -0.07112661 -0.029165085 -0.09220943 -0.01244129
0001a0 71 5d a5 bc ed 7b da 3b 96 04 fb 3c f9 5e 06 3c
       -0.020186158 0.006667605 0.030641835 0.008201354
0001b0 17 fb 16 3b 28 29 52 bd 2c aa 4e 3d 54 e3 76 3c
       0.0023037845 -0.05130878 0.050455257 0.015068848
0001c0 7c dd 0c bd 49 ac 99 3c 3c 27 4d bd 4c 99 36 bd
       -0.03439091 0.01875891 -0.050086245 -0.04457979
0001d0 cc 8f e0 bc 5e c3 40 bd ba 31 d1 bc f2 16 48 bd
       -0.027412318 -0.047061317 -0.025536407 -0.048850007
0001e0 db 19 ba bc 98 35 8c 3d 99 56 0d bc b7 9e 2e bd
       -0.022717407 0.0684616 -0.0086266035 -0.04263183
0001f0 58 6f 91 bd 09 95 8b 3c e2 0f 2a bb 05 cf f4 bc
       -0.07101315 0.017038839 -0.0025949408 -0.02988387
000200 47 35 b6 3d f6 a1 be 3c ae 44 90 3d 84 9f 2b 3e
       0.088968806 0.023270588 0.070443496 0.16760069
000210 21 2b da 3b 41 e6 9a bc 4c 1a ee bc 6b c3 b9 bd
       0.0066579734 -0.018908622 -0.029065274 -0.09070476
000220 8b af a5 bc 3f 6e 00 3e aa 72 68 bc 81 de d2 bd
       -0.020225307 0.12542056 -0.014187494 -0.102963455
000230 14 bc fb 3d 94 b0 27 be 24 c7 3b 3c 95 41 08 3d
       0.122917324 -0.16375953 0.011461053 0.03326567
000240 6e e7 ad bc 2b 61 a8 3d f9 a1 b3 bc 08 aa 61 3e
       -0.021228518 0.08221658 -0.02192782 0.22037518
000250 72 f8 b9 3d 36 7b 98 bd 08 1f 83 bd 93 f6 d4 bc
       0.0908059 -0.074453756 -0.06402403 -0.025996482
000260 b7 0f fb 3d 78 5f 38 3c 8e 2c 92 bd 18 a5 84 bb
       0.12258857 0.01125323 -0.071374044 -0.004048001
000270 ab 15 9e 3c 23 f0 13 3d 89 5f 43 3e c7 ba 87 3d
       0.019297441 0.036117684 0.19079413 0.06627422
000280 aa ea 1f 3d 16 54 9f bd 67 d4 7d 3d e5 41 5d 3d
       0.039042152 -0.0777971 0.06197014 0.05401792
000290 71 64 63 bd 1e 60 f6 bd f2 3e f2 3d 92 9c 71 bd
       -0.05551571 -0.12030052 0.11828412 -0.058987208
0002a0 ed 71 a1 bc e7 e0 e5 bc 19 be 8a 3d 0e dd 23 be
       -0.019707644 -0.028061343 0.067745395 -0.16002294
0002b0 df b8 c0 3d 10 93 c8 3c e4 44 60 3e 35 da 97 3c
       0.09410261 0.024484187 0.2190128 0.018536666
0002c0 a6 8a 40 3c 18 51 d4 bc 4d bd 07 3d 02 50 7b bd
       0.011751806 -0.025917575 0.033139516 -0.0613556
0002d0 4f fc 38 bd e0 59 17 3d fd b0 8d 3e 0f 17 be 3d
       -0.045162495 0.036950946 0.27674094 0.09281742
0002e0 a6 7f 36 bc bd 27 22 3e db 28 18 3e b2 7f b2 3c
       -0.011138832 0.15835471 0.14859335 0.021789405
0002f0 89 4b c2 3d dd 75 2e be fc ed 8d 3d d5 c6 92 bd
       0.094870634 -0.17037149 0.069301575 -0.071668305
000300 f1 c4 cf bd 47 14 e2 bc 3f 3c f5 bd da 5f 4b bc
       -0.101449855 -0.02759756 -0.11974382 -0.0124129895
000310 f3 3a 36 bd 87 43 18 bc c4 ff 9d 3d c5 51 7c bd
       -0.044489812 -0.0092934435 0.07714799 -0.06160142
000320 ab 4a e1 bd 00 ef 1b 3d c2 4b 28 bd 62 a7 10 be
       -0.1100057 0.038069725 -0.041087873 -0.14126351
000330 f2 e3 ed bd 4a 4e 2e be 83 96 7a bd c3 9d ca bd
       -0.11615743 -0.17022052 -0.061178695 -0.09893372
000340 f4 f7 04 bc 8f 61 16 3d 90 d1 df 3d 0d b4 2f 3d
       -0.008115757 0.036714133 0.10928643 0.04289632
000350 f5 ee 55 3d e5 57 87 3d 72 ce 86 39 68 15 43 bd
       0.05222984 0.066085614 0.00025712285 -0.047627836
000360 20 66 3a 3d f5 ea 3c 3d 8a e4 60 bc 37 f9 95 3d
       0.04550755 0.04612251 -0.013726363 0.073229246
000370 e6 dc 2a bd 74 f1 9a bd 27 fb 52 3d ba 86 8f 3d
       -0.04171457 -0.07565585 0.05150905 0.07008119
000380 f2 f0 67 3d 74 a0 76 3a b6 27 d8 bd 8f b8 36 bc
       0.056626268 0.00094080647 -0.10554449 -0.011152401
000390 b9 43 d8 3c 7a 43 5d 3c fc 8f b2 bb b7 69 11 bd
       0.02639948 0.013504857 -0.005449293 -0.03550121
0003a0 04 a1 f0 bd 52 ac b9 ba 1f 3b 1e 3d ed 56 03 be
       -0.11749461 -0.0014165735 0.0386306 -0.12826128
0003b0 b1 8a 26 3e 2c b7 9e 3c 88 a1 42 3e 71 2d 19 3d
       0.16263844 0.019374453 0.19006932 0.037396852
0003c0 d7 85 5a 3c 29 a7 90 bd 93 12 a7 bd ed bd 7b bd
       0.013337574 -0.07063133 -0.081578396 -0.061460424
0003d0 d7 08 57 bc ba 59 77 3c 27 90 85 3e bd 9c 61 3b
       -0.013124666 0.015097076 0.26086542 0.0034425699
0003e0 21 92 60 be f3 d1 12 3e 4e a0 4e bd 26 50 97 3d
       -0.21930744 0.14337902 -0.050445847 0.07388334
0003f0 8e 18 8b bd 7f e6 38 be da bc 22 bc 9c c6 9b bd
       -0.06791793 -0.18056677 -0.009932721 -0.07606241

fc2.bias f4 [32]
000000 2a 34 66 3d cf 30 b9 bb 88 b8 81 bd cd 46 5a 3e
       0.05620209 -0.0056515704 -0.06334025 0.21316071
000010 bd 74 28 bd 28 15 c2 bb 44 f5 45 bd c2 e2 ab 3e
       -0.041126955 -0.005922932 -0.048329607 0.3357144
000020 cd b6 db 3e 98 ca 2f bd 61 f2 c4 bd 1a ef e6 3d
       0.42912903 -0.042917818 -0.096165426 0.11276074
000030 c0 1f 0d 3f cc 34 df 3e e8 3a 25 3b 49 31 b4 3e
       0.5512657 0.43594968 0.0025212113 0.35193852
000040 67 05 23 3d 77 9e b8 bd d2 56 25 be 4f 6f 47 bd
       0.039800074 -0.090146 -0.161464 -0.048690137
000050 00 e2 fb bd 92 69 7f bd 50 23 b4 bd 4c 10 25 be
       -0.122989655 -0.06235654 -0.08795798 -0.16119498
000060 a4 60 52 be c8 b8 75 bd 36 f1 17 3e 1f 00 b4 bd
       -0.20544678 -0.059990674 0.14838108 -0.087890856
000070 bb ef bb 3e 31 f9 24 3e 3a 56 3a 3d e4 e2 a5 bd
       0.36706337 0.16110684 0.04549239 -0.080999166

fc3.weight f4 [5, 32]
000000 66 88 ff be e7 2b 31 3d 9b a8 be 3e 62 ec 73 3e
       -0.4990875 0.04325476 0.3723801 0.23820642
000010 2c 5b de 3e db dd 11 3c 72 b7 f1 bd de fa 5b 3e
       0.43428934 0.008902992 -0.118025675 0.21482417
000020 0d e1 0d bf a9 e9 75 3d 15 45 ae 3d 15 c2 82 3e
       -0.55421525 0.06003729 0.0850927 0.25538698
000030 5a 3a 66 bf 93 3e f8 be 9c 40 cb 3d 1d 03 4f bf
       -0.8993279 -0.4848524 0.09924433 -0.80864125
000040 2f d2 f6 3b ad aa b2 3e 60 25 81 bc ef b2 4d 3d
       0.00753238 0.3489584 -0.015764892 0.050219472
000050 bf d2 f5 b9 97 94 12 bd f8 56 89 bd bc ab d5 bd
       -0.0004688706 -0.035786238 -0.06706041 -0.10433146
000060 90 95 cb 39 25 85 9e 3d 2a ce ec 3e 27 87 21 bd
       0.0003883061 0.07740239 0.4625104 -0.039435532
000070 24 9c 0b bf 0b e4 f1 bd f5 5f 36 3e db 19 05 3e
       -0.54535127 -0.11811074 0.17810042 0.12998144
000080 54 b6 48 3e 64 e6 f7 3c 44 9d 19 be 27 22 44 be
       0.19600803 0.030261226 -0.15001398 -0.19153653
000090 c2 3e d6 3d 0b 6a bf bd d7 3c 55 3d ec 52 cd be
       0.10461189 -0.09346398 0.052059975 -0.40102327
0000a0 ac 23 51 be 26 4b 2d 3c df 34 a3 3e de 36 23 be
       -0.20423764 0.010576999 0.31876275 -0.15938899
0000b0 27 f3 0c 3f 88 52 bc 3e 59 fd c0 3d 30 c9 01 3e
       0.5505852 0.36781716 0.09423322 0.12674403
0000c0 cf 74 84 bd 59 31 ba bd ae 9f 51 3d 6d c4 ad 3d
       -0.06467592 -0.090914436 0.051177673 0.08484731
0000d0 1d 1c c4 3c b4 17 8c bd 55 f0 27 bd 9c 04 6d bd
       0.023939187 -0.068404585 -0.041000683 -0.057865724
0000e0 56 cd 0a 3d a1 fe 5e bd ef d4 36 be 55 55 d4 bd
       0.03388723 -0.05444205 -0.17854665 -0.10367838
0000f0 76 74 ca be 33 14 47 be 55 0c 04 be 33 f2 95 3d
       -0.39541978 -0.19441299 -0.1289533 0.073215865
000100 52 85 85 bc e2 d6 41 bd 92 0b 22 3e 45 bf 41 3e
       -0.016298924 -0.04732407 0.15824726 0.1892062
000110 13 20 09 3e 8e 75 8c 3d 64 2f d2 bd 53 f6 01 3f
       0.13391142 0.06858359 -0.10262945 0.50766486
000120 c7 80 fc 3e ac 4d f9 bd 95 4c f9 bd 99 2c 7e 3c
       0.49317 -0.12173018 -0.1217281 0.015513563
000130 93 c2 32 3e 49 77 20 be e0 b9 c4 bd 99 21 b2 3e
       0.17457037 -0.15670504 -0.09605765 0.34791258
000140 4b 62 87 bd 8f 45 28 3e f8 58 ee bd 60 cb af 3d
       -0.06610545 0.16432784 -0.11638063 0.085837126
000150 73 76 b0 3d cc 54 66 b9 69 b4 dd 3d 18 96 47 bd
       0.086163424 -0.00021966099 0.10825426 -0.048727125
000160 68 06 ae be 3e ff 8e 3d 04 f6 7b 3e aa 9f f3 bd
       -0.33989263 0.06982277 0.24605566 -0.11895688
000170 b9 c2 20 3f 29 64 a9 3e 6b 2b e4 bc b7 2c 24 bd
       0.62797123 0.3308423 -0.027852735 -0.040081706
000180 bb 54 e5 3d 24 8a a4 bc ca 1d 07 be ae dc 4d be
       0.11197802 -0.020085402 -0.13194957 -0.20103714
000190 83 11 1c be 76 01 9c bd 5d 31 7d 3d 28 01 b5 be
       -0.15241055 -0.07617466 0.061814655 -0.35352445
0001a0 52 45 12 be a5 31 04 bd 55 a3 c5 3e eb 09 b1 bd
       -0.14284256 -0.032273907 0.38601175 -0.0864447
0001b0 82 03 aa 3e 69 ff dc 3e bf 7e c8 bd d5 2b e0 3c
       0.332058 0.43163612 -0.097898 0.02736465
0001c0 28 db e2 3c 62 93 19 be c3 45 51 be cf 20 fd 3d
       0.027692392 -0.14997628 -0.20436768 0.12359773
0001d0 7c 5a cb 3d 7a 0b 43 3d db 65 b7 3b 46 d2 4a 3d
       0.09929368 0.047618367 0.005596859 0.04951694
0001e0 e7 1f 6f be 7e 72 f9 bd b5 ea 48 be 51 be cf 3d
       -0.23352014 -0.12180041 -0.19620784 0.10143722
0001f0 08 55 bf bd 0a ea 30 bd bd d4 da bd 9d f9 43 3c
       -0.0934239 -0.043191947 -0.10685108 0.011961368
000200 4e e8 8e 3e 77 fb ba bd 73 4f 59 be b0 47 d1 bd
       0.2791161 -0.09129994 -0.21221714 -0.102187514
000210 17 5f b8 be 6c 2d 55 3e 61 fa 83 3d 77 fd e9 bd
       -0.36010048 0.20818108 0.0644424 -0.11425298
000220 c2 08 b5 3e 52 e0 fc 3d d3 24 a7 be f4 5a 9c bc
       0.35358244 0.12347473 -0.32645282 -0.019086339
000230 48 68 4f 3e d2 b9 48 be d1 58 db bd 4e e4 f7 3e
       0.20254624 -0.19602135 -0.107103 0.4841637
000240 8a 43 ec 3d 0f 9e 66 be f8 18 eb 3e fc 6f 38 3d
       0.115363196 -0.22521232 0.45917487 0.04502867
000250 91 b2 ae 3d ef e4 2d 3c 98 3a 5c bd fe ac f2 bd
       0.085301526 0.010613664 -0.053766817 -0.11849402
000260 25 48 b0 3e 5b 98 00 3e f4 9f 92 be 82 c8 51 bd
       0.34430042 0.12558119 -0.2863766 -0.05121661
000270 b1 3c e2 3e 2f 03 53 3d cc 77 98 bd 8f 9c c1 3d
       0.4418693 0.051516708 -0.074447244 0.09453689

fc3.bias f4 [5]
000000 27 57 37 be e5 b3 00 3f aa 46 b1 be 80 9d c5 3d
       -0.1790434 0.502745 -0.34624225 0.09649181
000010 ad 76 3c be
       -0.18404646
