Assignment_1/1/CNN_Layers/Models/1CNN/model-6.pth (torch_old, 46280 bytes, 8 tensors)

conv1.weight f4 [64, 3, 5, 5]
0.158915 0.21203846 0.2065605 0.2191471 0.170697 0.10191071 0.13233718 0.14873116
0.14490211 0.10656725 -0.045609143 -0.026329877 -0.0016302727 -0.012468123 -0.0063591427 -0.1621181
-0.1678495 -0.16209322 -0.16779236 -0.1549253 -0.21849822 -0.23596391 -0.24142732 -0.23913252
-0.20840576 0.119776234 0.17036037 0.1900782 0.17649661 0.13660492 0.07092417 0.13968341
0.1453501 0.15688892 0.12180957 -0.033682752 0.015873663 0.019980034 0.033459857 0.012714239
-0.11926183 -0.12819934 -0.12821071 -0.13077928 -0.09955006 -0.1621873 -0.19514152 -0.18711396
-0.19819303 -0.16819629 0.12900017 0.1747161 0.1850166 0.16554365 0.14256567 0.13219266
0.15364668 0.17832689 0.15572786 0.120880574 0.025530495 0.051303335 0.050765235 0.060574062
0.0452263 -0.06576762 -0.07799738 -0.082513146 -0.079665236 -0.08515723 -0.1480251 -0.15093276
-0.1715705 -0.16689998 -0.15222819 -0.12501022 -0.016862532 0.009963308 0.027261078 0.10662648
-0.06139769 0.0063025877 0.01618392 0.0019338733 0.049420144 -0.04475175 0.018891126 0.008201786
-0.01503574 0.038224865 -0.04136419 0.012272249 -0.0036060086 -0.013853456 0.04282034 -0.081720285
0.003121046 0.028722398 0.023312356 0.092832975 -0.1530184 -0.062135655 -0.008539326 0.01794415
0.09307907 -0.12034593 -0.0125966 -0.0012305838 0.006232365 0.05026523 -0.09732223 -0.010981198
-0.020721449 -0.01883579 0.055179503 -0.0974951 -0.018133136 -0.008757504 0.009147507 0.060975004
-0.14035514 -0.030199703 -0.0055386643 0.039381247 0.08364381 -0.15199961 -0.043058578 0.012038619
0.05264464 0.13266806 -0.0977719 -0.022428801 0.013270096 0.048159126 0.12728629 -0.094589464
0.010710696 0.02612267 0.05071963 0.12592876 -0.098924525 0.012724349 0.0455764 0.06824712
0.13618463 -0.11141616 0.012562766 0.062378727 0.10461271 0.15276347 -0.5005167 -0.37086192
-0.31623515 -0.38427955 -0.542686 -0.38156402 -0.2646798 -0.19898137 -0.25994626 -0.40935454
-0.12790035 0.017655697 0.10099516 0.042102136 -0.12201596 0.14185686 0.28587356 0.38234648
0.3321738 0.1527513 0.26016954 0.38617858 0.47974426 0.43382165 0.26189637 -0.21109988
-0.07241238 0.007063577 -0.068989456 -0.24026139 -0.18014976 -0.0410028 0.01727202 -0.04789394
-0.20102613 -0.030674774 0.0873746 0.16781728 0.10840236 -0.02960156 0.10343266 0.23721701
0.31197226 0.27376997 0.10521621 0.13355696 0.23504266 0.33272716 0.27141967 0.11785863
0.06388179 0.18228386 0.23630545 0.16493587 0.03831423 -0.048102625 0.053362317 0.111177504
0.0638483 -0.07686599 -0.08023238 0.032820117 0.11529744 0.058503464 -0.054940555 -0.08112083
0.015540285 0.09808672 0.0519292 -0.07440175 -0.18375525 -0.10973907 -0.030202527 -0.078877695
-0.1885857 0.4950888 0.4789787 0.031088855 -0.40400454 -0.42979032 0.4694394 0.37787032
-0.017024992 -0.34449384 -0.38192415 0.062827766 -0.025891524 -0.03447341 -0.004896875 0.043200403
-0.37686747 -0.42865765 -0.07142608 0.3517294 0.4903084 -0.4389542 -0.5105908 -0.08756894
0.42238134 0.52905744 0.5015141 0.48106873 0.041569944 -0.41173822 -0.44784823 0.4536715
00000000: 9dba 223e 9c20 593e 9984 533e 1968 603e
00000010: 32cb 2e3e 90b6 d03d 6683 073e fb4c 183e
00000020: 3861 143e ee3f da3d a7d0 3abd c1b1 d7bc
00000030: e0ae d5ba 1947 4cbc 5b60 d0bb 4a02 26be
00000040: bde0 2bbe c4fb 25be c3d1 2bbe bda4 1ebe
00000050: ffbd 5fbe 86a0 71be b938 77be 28df 74be
00000060: 5268 55be 3e4d f53d f372 2e3e dca3 423e
00000070: 87bb 343e 29e2 0b3e b140 913d 2b09 0f3e
00000080: a8d6 143e 7da7 203e 4c77 f93d edf6 09bd
00000090: 7c09 823c 2bad a33c 340d 093d 624f 503c
000000a0: 8c3f f4bd b046 03be ab49 03be 01eb 05be
000000b0: e7e0 cbbd 6d14 26be 2ed3 47be cd9a 3fbe
000000c0: 1df3 4abe a63b 2cbe 9f18 043e c7e8 323e
000000d0: fe74 3d3e 4684 293e bcfc 113e 835d 073e
000000e0: 8e55 1d3e 539b 363e 2077 1f3e 3c90 f73d
000000f0: 5425 d13c 7223 523d 35ef 4f3d 821c 783d
00000100: 363f 393d 2db1 86bd 17bd 9fbd a7fc a8bd
00000110: 8727 a3bd ea66 aebd e493 17be 1e8e 1abe
00000120: 2db0 2fbe d4e7 2abe b5e1 1bbe ae02 00be
00000130: 4b23 8abc 253d 233c a052 df3c fc5e da3d
00000140: 257c 7bbd f085 ce3b 2494 843c 057a fd3a
00000150: c76c 4a3d 9c4d 37bd 90c1 9a3c c960 063c
00000160: 7758 76bc ad91 1c3d 7f6d 29bd 8b11 493c
00000170: c952 6cbb 9bf9 62bc 6164 2f3d f75c a7bd
00000180: 768a 4c3b 3c4b eb3c 8ef9 be3c 371f be3d
00000190: dbb0 1cbe f581 7ebd 87e8 0bbc 9cff 923c
000001a0: 3da0 be3d ed77 f6bd f861 4ebc 8a4b a1ba
000001b0: de38 cc3b eae2 4d3d e150 c7bd 7cea 33bc
000001c0: 07c0 a9bc 844d 9abc e703 623d 83ab c7bd
000001d0: f18b 94bc a27b 0fbc 6ddf 153c edc0 793d
000001e0: 42b9 0fbe 5e65 f7bc af7d b5bb 3b4e 213d
000001f0: 724d ab3d c9a5 1bbe 315e 30bd a13d 453c
00000200: e8a1 573d 23da 073e a23c c8bd 9bbc b7bc
00000210: d16a 593c 8142 453d 5657 023e 1fb8 c1bd
00000220: ea7b 2f3c 36ff d53c 63bf 4f3d 78f3 003e
00000230: f198 cabd ca79 503c 52ae 3a3d 25c5 8b3d
00000240: fc73 0b3e 282e e4bd 0fd4 4d3c d680 7f3d
00000250: 303f d63d 076e 1c3e dd21 00bf 9de1 bdbe
00000260: 93e9 a1be 4ac0 c4be 78ed 0abf 5c5c c3be
00000270: 1c84 87be c6c1 4bbe ad17 85be eb96 d1be
00000280: 4ff8 02be aea2 903c 8dd6 ce3d 4a73 2c3d
00000290: 81e3 f9bd ed42 113e 055e 923e ebc2 c33e
000002a0: af12 aa3e d66a 1c3e f134 853e 33b9 c53e
000002b0: 0aa1 f53e df1d de3e 4817 863e 912a 58be
000002c0: f14c 94bd 9475 e73b 584a 8dbd 1507 76be
000002d0: 2e79 38be 8df2 27bd 0d7e 8d3c 702c 44bd
000002e0: cbd9 4dbe aa49 fbbc 74f1 b23d 4bd8 2b3e
000002f0: 0e02 de3d f97e f2bc 81d4 d33d 04e9 723e
00000300: d4ba 9f3e 942b 8c3e 997b d73d 28c3 083e
00000310: 06af 703e 375b aa3e 85f7 8a3e de5f f13d
00000320: 75d4 823d 9fa8 3a3e 0efa 713e f3e4 283e
00000330: 62ef 1c3d 4207 45bd 7292 5a3d 08b1 e33d
00000340: e6c2 823d eb6b 9dbd e050 a4bd 636e 063d
00000350: 1021 ec3d 54a1 6f3d 5909 61bd ad22 a6bd
00000360: ae9c 7e3c b1e1 c83d b6b3 543d f25f 98bd
00000370: 562a 3cbe e1be e0bd 4a6b f7bc a18a a1bd
00000380: 9c1c 41be 477c fd3e b23c f53e 0eae fe3c
00000390: afd9 cebe 7a0d dcbe 5c5a f03e 3878 c13e
000003a0: ff77 8bbc 7f61 b0be 908b c3be d8ab 803d
000003b0: 761a d4bc fe33 0dbd f775 a0bb e8f2 303d
000003c0: c6f4 c0be 0479 dbbe d647 92bd e015 b43e
000003d0: b409 fb3e 9bbe e0be 14b6 02bf 5857 b3bd
000003e0: 5e42 d83e 4f70 073f 3a63 003f a44e f63e
000003f0: 3f45 2a3d 5acf d2be 5d4c e5be a147 e83e

conv1.bias f4 [64]
-0.9722946 -0.33120728 -0.7429976 -0.8046793 -0.5474373 -0.7709672 -0.7198604 -0.16678473
-1.3307306 -0.50422555 -0.08257294 -0.83420587 -1.1442343 -0.24560843 0.0007590557 -1.1928148
-0.20458241 -1.4554042 -0.47659677 -0.052278925 -1.5074736 0.10787682 0.21108621 -0.12537262
-0.3540701 -0.63523304 -0.4292179 -0.09577895 -0.3922999 -0.65167207 -0.9978048 -0.7732143
-0.56335074 0.2200995 -0.9410219 -1.6997664 -0.55852073 -0.19914661 -0.041232973 -1.4289165
0.018202221 -0.023087204 -0.4527011 -0.35603085 -0.76839304 -0.4115072 -0.35275248 -0.4401634
-0.50366205 -1.3695501 -0.60856885 -0.64520156 -0.17528526 -0.23002075 -0.7134398 -0.5578842
-0.29085225 -0.40192124 -0.09254451 -0.6760542 -0.5377699 -0.8534964 -0.6180248 -0.6139737
00000000: 4de8 78bf 0094 a9be 1735 3ebf 76ff 4dbf
00000010: da24 0cbf 1b5e 45bf c548 38bf 9ec9 2abe
00000020: 6155 aabf ed14 01bf 001c a9bd 848e 55bf
00000030: 4576 92bf c780 7bbe 5efb 463a 28ae 98bf
00000040: 0d7e 51be af4a babf 7e04 f4be 6d22 56bd
00000050: e5f4 c0bf 86ee dc3d fc26 583e ae61 00be
00000060: ad48 b5be a29e 22bf 73c2 dbbe c127 c4bd
00000070: 88db c8be fbd3 26bf 2370 7fbf 5ff1 45bf
00000080: c137 10bf c361 613e d0e6 70bf f291 d9bf
00000090: 37fb 0ebf 17ed 4bbe e8e3 28bd bce6 b6bf
000000a0: d31c 953c 6021 bdbc 70c8 e7be ad49 b6be
000000b0: 68b5 44bf 12b1 d2be f99b b4be 195d e1be
000000c0: ffef 00bf 6b4d afbf 2bcb 1bbf ee2b 25bf
000000d0: fb7d 33be 8f8a 6bbe fea3 36bf 80d1 0ebf
000000e0: 96ea 94be 9fc8 cdbe fa87 bdbd e311 2dbf
000000f0: 4aab 09bf bd7e 5abf e036 1ebf 612d 1dbf

fc1.weight f4 [64, 64]
-0.008316437 0.010106964 0.004496469 -0.0034863728 -0.010451978 0.0017836593 -0.014259613 -0.006847614
-0.013306959 0.009591981 0.008137925 -0.014603493 0.011692422 0.01249789 0.012146024 -0.011621276
0.0050791116 -0.017845903 0.0022395647 -0.0060382592 -0.0072293566 -0.00181566 0.004372687 -0.010499461
0.004059907 0.004127316 -0.0034216861 -0.008312645 -0.013422656 -0.00097121246 -0.0026947549 0.012289117
0.0040203067 -0.00996055 0.0017908389 0.0061581847 0.010933381 0.010528356 -0.014300752 -0.009535433
-0.0012682742 0.0027945084 -0.0138802845 -0.014829731 -0.01090815 0.007938348 -0.0005056238 0.011331938
-0.0057829157 0.003006184 0.009524614 -0.0040180865 0.004577053 0.0017983424 -0.0074438998 0.010461842
-0.005252268 0.011501794 0.00231006 -0.0061507532 0.0055736043 0.006895583 0.013649797 -0.0068244953
0.012204775 -0.0062989346 0.0048377938 -0.012393961 -0.00980748 -0.0026789063 -0.0016441293 -0.003600626
0.0067832097 0.067519285 -0.0025774254 -0.011390252 -7.653552e-05 -0.017877668 0.014659095 0.006276079
-0.028677203 0.012711525 0.038379557 -0.008424875 -0.000893324 0.024919922 -0.0047632786 -0.0073195663
-0.003922224 -0.019586753 0.012581401 -0.011320521 0.00020210433 -0.019396 0.027027205 0.018492436
-0.0371148 0.021463512 -0.015457594 -0.036528505 -0.0055793403 0.0028995427 0.01762646 0.0054714377
0.000880762 -0.003372421 0.012829875 -0.03338656 0.01979698 -0.0015957915 -0.012177816 0.021522231
-0.008473578 -0.018671235 -0.010347904 -0.0009752541 0.034919534 0.012388537 0.097545445 -0.0214307
-0.007426393 0.0681078 0.012112256 0.022368971 0.013413175 -0.003415964 -0.005799954 -0.009927633
0.16241136 0.018601539 -0.045875367 0.02276155 0.054422867 0.20563437 -0.02352361 0.017439306
0.24016362 0.16475834 0.0010360699 -0.055232126 0.30738562 0.009447477 -0.005626097 0.019486574
-0.095920466 0.03253052 0.08034553 0.0013279857 0.23196888 0.08167373 0.13320306 -0.0483039
-0.072542116 0.06449841 0.027292171 0.0070566735 -0.036867313 0.004061882 0.25635648 0.025091344
-0.1834386 0.09247757 0.099856906 0.19378996 -0.06390965 0.020055022 -0.0065286853 0.24168566
0.08622843 0.0045205965 0.0004844755 -0.11753519 0.033403683 0.021184042 0.099644884 0.021093093
0.08637028 0.12924556 0.14034502 0.34639257 0.054559473 0.023436178 0.2418691 -0.13923614
0.038322266 0.11879039 0.011277562 0.024011454 0.05772156 0.035216983 0.029402556 0.048617296
0.14383422 0.027440952 0.06006552 0.118006416 -0.10969973 -0.24144655 0.05974875 -0.0469728
0.24383523 0.02044152 -0.021118743 -0.24598485 -0.05946702 -0.05864616 0.011560227 0.060639
-0.17358395 -0.05226675 0.039591003 5.1188206e-05 0.23845142 0.10284055 0.21251316 -0.0957907
-0.21265215 -0.1069824 0.04174175 0.014802927 -0.105889045 -0.1661828 -0.39774466 0.054388665
-0.51186734 0.115963615 0.18339816 -0.30815622 -0.16804466 0.021792667 0.019268446 0.24748972
0.17251617 0.042615477 0.018891234 -0.30790925 0.072736576 -0.08921468 -0.023922596 0.05429837
0.06502701 0.25864732 -0.08879242 -0.14233506 0.061998155 0.03209656 0.031244535 -0.48295525
0.055509873 0.027576955 -0.0012494036 0.013124571 -0.1102919 0.119125634 0.039163884 0.09258485
00000000: aa41 08bc ae97 253c 1e57 933b a17b 64bb
00000010: c63e 2bbc adc9 e93a 27a1 69bc f361 e0bb
00000020: 6e05 5abc af27 1d3c ee54 053c 7d43 6fbc
00000030: 9391 3f3c f3c3 4c3c 1e00 473c 2a67 3ebc
00000040: ad6e a63b 9231 92bc a9c5 123b 97dc c5bb
00000050: 3de4 ecbb 71fb edba c248 8f3b ee05 2cbc
00000060: f808 853b 703e 873b 5e3e 60bb c331 08bc
00000070: b3ea 5bbc f798 7eba 7c9a 30bb 4b58 493c
00000080: c7bc 833b 9331 23bc 95ba ea3a 99ca c93b
00000090: ec21 333c 207f 2c3c b44d 6abc 813a 1cbc
000000a0: 383c a6ba 1224 373b 226a 63bc 66f8 72bc
000000b0: 19b8 32bc d80f 023c d78b 04ba 98a9 393c
000000c0: 9d7e bdbb 6603 453b 200d 1c3c 27aa 83bb
000000d0: 1afb 953b 5cb6 eb3a f5eb f3bb 2568 2b3c
000000e0: 381b acbb 0572 3c3c 6064 173b 428c c9bb
000000f0: c8a2 b63b 58f4 e13b 66a3 5f3c 04a0 dfbb
00000100: 89f6 473c 4b67 cebb 5b86 9e3b 0a10 4bbc
00000110: 8daf 20bc 9790 2fbb d37f d7ba 7bf8 6bbb
00000120: b045 de3b 8d47 8a3d 06ea 28bb 2e9e 3abc
00000130: b281 a0b8 3074 92bc b32c 703c 91a7 cd3b
00000140: 74ec eabc 0044 503c e233 1d3d 7d08 0abc
00000150: f52d 6aba dd24 cc3c 4715 9cbb f9d8 efbb
00000160: 0086 80bb 6674 a0bc 3822 4e3c b579 39bc
00000170: f8eb 5339 5ce4 9ebc 2868 dd3c 737d 973c
00000180: b005 18bd 3fd4 af3c d941 7dbc ea9e 15bd
00000190: e6d2 b6bb 4106 3e3b 5e65 903c bf49 b33b
000001a0: f0e2 663a d603 5dbb 6534 523c 58c0 08bd
000001b0: 472d a23c e129 d1ba 7685 47bc 644f b03c
000001c0: c3d4 0abc 6bf4 98bc 418a 29bc 32a8 7fba
000001d0: c907 0f3d 4af9 4a3c e8c5 c73d 6f8f afbc
000001e0: 1a59 f3bb 1a7c 8b3d 7c72 463c 223f b73c
000001f0: efc2 5b3c 5ede 5fbb 8a0d bebb 83a7 22bc
00000200: 2a4f 263e 4162 983c cfe7 3bbd 6e76 ba3c
00000210: 83ea 5e3d d191 523e 96b4 c0bc e0dc 8e3c
00000220: 74ed 753e 69b6 283e bdcc 873a 153b 62bd
00000230: a661 9d3e 97c9 1a3c 1f5b b8bb 4fa2 9f3c
00000240: f371 c4bd b93e 053d 328c a43d ce0f ae3a
00000250: 4089 6d3e 8e44 a73d 6266 083e 4fda 45bd
00000260: f690 94bd be17 843d d593 df3c ab3b e73b
00000270: 2e02 17bd 8919 853b 2841 833e 5d8c cd3c
00000280: 54d7 3bbe e164 bd3d c781 cc3d e070 463e
00000290: 10e3 82bd 6e4a a43c 95ee d5bb 727c 773e
000002a0: 8898 b03d 8321 943b 3301 fe39 4ab6 f0bd
000002b0: 4dd2 083d 288a ad3c 9e12 cc3d 6ccb ac3c
000002c0: e7e2 b03d f358 043e 9bb6 0f3e 5e5a b13e
000002d0: c179 5f3d 3afd bf3c 89ac 773e eb93 0ebe
000002e0: cff7 1c3d 6048 f33d 86c5 383c abb3 c43c
000002f0: 716d 6c3d af3f 103d a1dd f03c ee22 473d
00000300: 4749 133e d9cb e03c 4307 763d 59ad f13d
00000310: 41aa e0bd c43d 77be 1bbb 743d 8d66 40bd
00000320: f1af 793e f974 a73c 3701 adbc 74e3 7bbe
00000330: b193 73bd f536 70bd 1b67 3d3c 9a60 783d
00000340: febf 31be a915 56bd 2d2a 223d ebb2 5638
00000350: 9c2c 743e 119e d23d 0d9d 593e ea2d c4bd
00000360: 7cc1 59be 9719 dbbd 66f9 2a3d fa87 723c
00000370: 5bdc d8bd d32b 2abe 30a5 cbbe a6c6 5e3d
00000380: bd09 03bf 557e ed3d bacc 3b3e a7c6 9dbe
00000390: e613 2cbe 8986 b23c dcd8 9d3c f26d 7d3e
000003a0: 14a8 303e 918d 2e3d cac1 9a3c 48a6 9dbe
000003b0: eaf6 943d 30b6 b6bd 52f9 c3bc f867 5e3d
000003c0: e22c 853d 6c6d 843e cdd8 b5bd 48c0 11be
000003d0: c7f1 7d3d af77 033d 8af4 ff3c e945 f7be
000003e0: 525e 633d 11e9 e13c 07c3 a3ba 7108 573c
000003f0: b8e0 e1bd 24f8 f33d 4f6a 203d 209d bd3d

fc1.bias f4 [64]
-0.017590262 -0.09111779 -0.9266889 0.10205823 0.19106868 0.014267548 -0.017042585 0.0035840897
-0.25740343 -0.054944996 0.19991288 0.21726258 -0.22560462 0.16689445 -0.11564497 0.15743916
0.015099756 -0.23789811 0.4347639 0.3348808 0.18019924 0.679268 -0.78530073 0.15190616
0.15203217 0.35804564 -0.07973603 -0.0027296992 -0.084588 0.28753513 0.39294177 0.5027421
0.14841256 0.05313016 0.44347125 -0.030273382 0.033868335 0.17273074 0.17255598 0.31802565
-0.87932056 -0.011182967 -0.021784997 0.48902553 0.66658175 -0.15332091 0.8572376 -0.10961945
0.024155376 0.19714864 -0.16880205 0.3080353 0.0042936 0.036507335 0.5128186 0.26311436
-0.13026927 0.6388922 0.123801224 -0.010935771 0.041542627 0.5352938 0.18873289 -0.00914336
00000000: 7419 90bc f79b babd 7c3b 6dbf e803 d13d
00000010: 82a7 433e 6fc2 693c e49c 8bbc 0ce3 6a3b
00000020: 62ca 83be 010e 61bd f6b5 4c3e 157a 5e3e
00000030: e604 67be 61e6 2a3e 45d7 ecbd bb37 213e
00000040: f864 773c 909b 73be 6099 de3e 7f75 ab3e
00000050: 2686 383e 82e4 2d3f 7809 49bf 4a8d 1b3e
00000060: 52ae 1b3e c251 b73e a54c a3bd c1e4 32bb
00000070: 793c adbd ce37 933e aa2f c93e b5b3 003f
00000080: 76f9 173e 039f 593d aa0e e33e e2ff f7bc
00000090: 86b9 0a3d 54e0 303e 84b2 303e 42d4 a23e
000000a0: 271b 61bf c338 37bc 7376 b2bc 8e61 fa3e
000000b0: 1aa5 2a3f 2800 1dbe ec73 5b3f 2a80 e0bd
000000c0: 7fe1 c53c 55e1 493e 72da 2cbe ceb6 9d3e
000000d0: 54b1 8c3b b788 153d 1448 033f edb6 863e
000000e0: 4f65 05be 708e 233f 7f8b fd3d f32b 33bc
000000f0: 9a28 2a3d 0409 093f 3243 413e 08ce 15bc

fc2.weight f4 [32, 64]
0.0086641535 -0.05339908 -0.11887165 -0.076893434 -0.032910656 0.377357 -0.020618787 0.048049394
-0.00396138 -0.07123882 0.31392974 0.036860164 -0.10489139 -0.012355502 -0.05477587 0.06583203
-0.10869451 -0.1006037 -0.12145342 -0.1354089 -0.11881073 -0.15258633 -0.018492924 0.08003873
-0.09911623 -0.1398117 0.006823186 4.5813114e-05 -0.015959673 0.18972085 -0.12845063 -0.08645847
0.17163067 0.28397304 -0.15709601 0.011009569 -0.008937687 -0.008722017 -0.09280472 -0.08898489
-0.02943288 -0.0056195003 -0.024554178 -0.47315392 -0.26176062 -0.12719116 -0.14126903 0.02390647
0.006259899 -0.13419682 0.09643743 -0.037143134 0.17232919 0.33810142 -0.18376091 -0.070701085
-0.027489254 -0.091770485 -0.084650345 -0.035449047 -0.03305663 -0.18153735 0.11317543 0.0007481793
-0.0039021408 0.009758031 -0.00387956 0.005409648 -0.007505344 -0.011772985 -0.008046517 -0.013505377
0.005478558 -0.012491733 -0.0023164263 0.004740366 -0.0010101654 -0.0019946513 -0.014420483 -0.01497646
-0.008213224 0.0029535333 -0.0038062138 0.00032929785 0.0038442079 -0.010741978 0.009862664 -0.0022582319
-0.00035970222 -0.00421546 0.006235537 -0.011772601 0.004327521 -0.008372019 0.007841115 0.0052562803
-0.013333303 -0.010753746 -0.013359478 -0.012885899 -0.011443648 -0.0054299943 -0.015183622 -0.0020331047
-0.003602538 0.0010215995 0.0043243314 0.0021965036 -0.00025264022 -0.009127628 0.0057655987 0.00154716
-0.0054756696 0.0013893631 -0.008085793 -0.007823967 -0.0041271793 -0.0076992568 -0.0076412447 -0.007875243
-0.0040995046 0.009271237 -0.0028911878 -0.007002961 -0.011751293 0.0004942847 -0.0001599923 -0.004579357
0.012541799 0.009872384 0.0873671 0.046654858 0.005412978 0.08606011 -0.0055017318 -0.11841836
-0.07892676 0.0662348 0.038344443 -0.17646602 0.18205675 -0.08950706 0.06511137 -0.07387197
-0.11271925 0.17395261 -0.024936393 0.1281969 0.06274522 0.022442985 -0.040125787 0.096111394
0.07850588 -0.009705726 -0.013522359 -0.00049785286 -0.046342254 0.1460885 0.20914038 -0.08359701
-0.040976536 -0.06856692 -0.013239888 0.012076404 0.0048456257 -0.09996853 0.18699148 0.004402342
-0.025099553 -0.0042721457 0.0007587005 -0.22060367 0.017953418 0.03078923 0.16262268 0.011121447
-0.035963275 -0.12862147 -0.098354615 0.0039379676 -0.087543055 -0.1413048 0.1517921 0.03058359
-0.010393771 0.17462233 0.08366712 -0.0059042135 0.05474981 -0.3080172 0.07238245 -0.010621794
-0.013743859 -0.031672303 -0.24912176 0.15815637 -0.05268895 -0.2550011 0.011067291 -0.13047469
-0.037561856 0.11049019 -0.17864348 -0.3093803 -0.025097141 -0.14743039 0.06687677 -0.13107236
-0.009984692 -0.085374914 2.2633489e-05 0.13582133 0.1947257 0.17543812 -0.08008428 -0.0087065715
0.12864393 0.010570616 -0.021267427 0.01114604 -0.03297961 0.0781128 0.19849701 -0.03539463
-0.022521328 -0.32007354 0.0587078 -0.04146676 -0.06550815 0.0213151 0.10372232 0.04136698
-0.20821358 -0.00018827095 0.025631445 0.040836643 0.09592562 0.0057034437 0.25780132 -0.076201215
-0.030809112 -0.087770596 -0.029134197 -0.12520236 -0.1674657 -0.17229834 0.2260064 -0.011623191
-0.04494511 0.23815311 0.10227653 -0.0037721759 -0.018446514 -0.04937287 -0.008327123 -0.010853845
00000000: 18f4 0d3c feb8 5abd fb72 f3bd 4e7a 9dbd
00000010: 53cd 06bd f034 c13e bbe8 a8bc 71cf 443d
00000020: 77ce 81bb a9e5 91bd 66bb a03e affa 163d
00000030: 4cd1 d6bd bb6e 4abc aa5c 60bd f1d2 863d
00000040: 3a9b debd 5009 cebd 92bc f8bd a1a8 0abe
00000050: 0a53 f3bd 973f 1cbe 797e 97bc 58eb a33d
00000060: 73fd cabd cc2a 0fbe 0895 df3b 7527 4038
00000070: dcbd 82bc 2f46 423e 9088 03be 2311 b1bd
00000080: f3bf 2f3e ea64 913e c7dd 20be 7b61 343c
00000090: 606f 12bc cae6 0ebc 6710 bebd b63d b6bd
000000a0: 391d f1bc c923 b8bb d825 c9bc 3b41 f2be
000000b0: 7d05 86be 663e 02be d4a8 10be 80d7 c33c
000000c0: d71f cd3b e46a 09be fd80 c53d 6623 18bd
000000d0: 1077 303e a11b ad3e d22b 3cbe bbcb 90bd
000000e0: 2531 e1bc 2af2 bbbd 295d adbd 0533 11bd
000000f0: 6466 07bd ede4 39be 85c8 e73d 7721 443a
00000100: 0fbb 7fbb 26e0 1f3c 3740 7ebb 6b43 b13b
00000110: 64ef f5bb 7ae3 40bc 8ad5 03bc a845 5dbc
00000120: 7a85 b33b 20aa 4cbc 2fcf 17bb 1255 9b3b
00000130: 8767 84ba b2b8 02bb e443 6cbc d35f 75bc
00000140: c290 06bc 1190 413b ac71 79bb 9ca5 ac39
00000150: 1bef 7b3b 1fff 2fbc 0397 213c d8fe 13bb
00000160: 6a96 bcb9 d721 8abb 7a53 cc3b dee1 40bc
00000170: e1cd 8d3b cb2a 09bc 0578 003c e03c ac3b
00000180: ed73 5abc 7b30 30bc b6e1 5abc 611f 53bc
00000190: 237e 3bbc 18ee b1bb bac4 78bc d63d 05bb
000001a0: 8f18 6cbb 31e7 853a 1fb3 8d3b 37f3 0f3b
000001b0: cc74 84b9 0c8c 15bc 59ed bc3b 13ca ca3a
000001c0: 3f6d b3bb 4a1b b63a 467a 04bc 1930 00bc
000001d0: 4a3d 87bb 0c4a fcbb 6863 fabb 2a07 01bc
000001e0: 2355 86bb 63e6 173c 157a 3dbb 1879 e5bb
000001f0: 7f88 40bc e292 013a 9bc3 27b9 6e0e 96bb
00000200: 1e7c 4d3c c8bf 213c 86ed b23d 2a19 3f3d
00000210: 5a5f b13b 4840 b03d df47 b4bb 5385 f2bd
00000220: 5aa4 a1bd 1ca6 873d 100f 1d3d 82b3 34be
00000230: 166d 3a3e 7a4f b7bd 1c59 853d 304a 97bd
00000240: 5ad9 e6bd a220 323e 6847 ccbc 0c46 033e
00000250: 9180 803d 5ada b73c f05a 24bd 0dd6 c43d
00000260: b1c7 a03d c404 1fbc e28c 5dbc 5782 02ba
00000270: 60d1 3dbd 3998 153e e528 563e e934 abbd
00000280: 03d7 27bd d06c 8cbd 1dec 58bc 1cdc 453c
00000290: 0ec8 9e3b 4dbc ccbd b27a 3f3e 8541 903b
000002a0: 949d cdbc 5bfd 8bbb 87e3 463a eee5 61be
000002b0: 0c13 933c b239 fc3c 8f86 263e bb36 363c
000002c0: 3a4e 13bd 59b5 03be 256e c9bd 110a 813b
000002d0: c649 b3bd 35b2 10be 636f 1b3e 708a fa3c
000002e0: a34a 2abc 32d0 323e ab59 ab3d 2278 c1bb
000002f0: 5641 603d 6eb4 9dbe 403d 943d 0807 2ebc
00000300: ec2d 61bc d1ba 01bd c619 7fbe bef3 213e
00000310: 5ed0 57bd 818f 82be 9553 353c 289b 05be
00000320: 76da 19bd ae48 e23d 51ee 36be 1867 9ebe
00000330: 8598 cdbc fef7 16be b0f6 883d d537 06be
00000340: d596 23bc 0bd9 aebd 0cdd bd37 bf14 0b3e
00000350: 2d66 473e 0da6 333e 3a03 a4bd 02a6 0ebc
00000360: 3cbb 033e 6130 2d3c 0739 aebc e19d 363c
00000370: a115 07bd 9bf9 9f3d cd42 4b3e f6f9 10bd
00000380: a67e b8bc aee0 a3be 9777 703d 0dd9 29bd
00000390: 2329 86bd 019d ae3c 5e6c d43d 6c70 293d
000003a0: f135 55be 996a 45b9 09f9 d13c 5344 273d
000003b0: a774 c43d f4e3 ba3b 89fe 833e 620f 9cbd
000003c0: 6463 fcbc 12c1 b3bd d7aa eebc 0c35 00be
000003d0: 217c 2bbe fa6e 30be 396e 673e 326f 3ebc
000003e0: 5d18 38bd 69de 733e 5b76 d13d 9c36 77bb
000003f0: 251d 97bc 353b 4abd 7c6e 08bc 53d4 31bc

fc2.bias f4 [32]
0.20554306 -0.0053638527 -0.09820277 0.24089417 -0.0573334 0.049045667 0.16943462 -0.09223308
0.36235756 0.10084062 0.3385921 -0.039184567 0.5917391 0.51682574 0.028879436 0.37871492
0.14090762 -0.18994142 -0.02116635 -0.008568436 -0.027373495 0.025257686 -0.018101068 -0.029554224
-0.06948495 0.006535684 0.19636145 -0.021433134 0.22355065 0.13453409 -0.06955431 -0.04834463
00000000: e179 523e 42c3 afbb 891e c9bd f6ac 763e
00000010: 6dd6 6abd 1ce4 483d 4580 2d3e b2e4 bcbd
00000020: ee86 b93e 8785 ce3d f25b ad3e ff7f 20bd
00000030: 377c 173f b14e 043f 9194 ec3c ece6 c13e
00000040: 164a 103e 0180 42be 0e65 adbc a062 0cbc
00000050: 613e e0bc 35e9 ce3c b148 94bc b31b f2bc
00000060: 204e 8ebd 4b29 d63b fa12 493e 8a94 afbc
00000070: 76ea 643e 4ec3 093e 7d72 8ebd 0505 46bd

fc3.weight f4 [5, 32]
-0.34865305 0.006412724 0.21315098 0.42013797 0.5670348 0.052617755 0.02156757 0.27258387
-0.4380734 0.0959748 -0.15318906 0.30729562 -0.9247767 -0.5199679 -0.21266887 -1.1934899
0.19146526 0.11919467 -0.22827485 0.008170602 0.00027973985 0.02130098 -0.009335448 -0.014496477
0.34743032 0.15369447 0.4294634 -0.0051967795 -0.29497308 -0.19908194 0.23747921 0.13368164
0.04333652 0.0037334412 -0.04254418 -0.16672507 -0.07146148 -0.1538638 -0.17256513 -0.21195202
-0.23923326 -0.11273371 0.46422517 -0.11300398 0.31247956 0.45948088 0.17553492 0.0062808613
-0.18850578 0.08159158 0.081810646 0.012815801 0.0065191397 0.013796375 -0.0064336257 -0.009736098
-0.14586326 -0.06849333 -0.13250802 -0.0153437015 -0.43155983 0.14096059 -0.20541304 0.08934089
-0.21986254 -0.0075398227 -0.03654577 0.19507135 0.16390257 0.08535954 -0.18921052 0.40245283
0.3535317 -0.13121475 -0.23028333 0.0007034876 0.45968032 -0.22735752 -0.099923015 0.55587846
-0.25844434 0.09704416 0.040925235 0.011565714 0.011425472 -0.018847948 0.015573019 -0.0066591147
-0.069476485 -0.015019889 0.20915952 -0.019585293 0.4936577 0.4705229 -0.016719956 -0.04514571
0.008501036 -0.0007294048 -0.23663825 -0.23476687 -0.15416032 -0.11610191 0.23234716 -0.49551916
0.2588684 0.09589079 0.311076 -0.29014617 0.3729412 0.62837267 -0.019645482 0.036723144
0.13180652 -0.35998666 -0.22339359 0.019077154 0.014047956 0.03347677 0.0011890004 0.006506219
-0.54048926 -0.19114596 -0.18919392 0.014646384 -0.18854542 -0.09740648 -0.049887177 -0.21120664
0.5276663 -0.014930049 0.10816213 -0.22403476 -0.48075217 0.14976518 0.101373896 0.010014909
0.056549206 0.05822548 -0.3394759 0.09606667 -0.16510019 -0.3463737 0.14021908 0.6218086
0.12671368 0.06938467 0.3555672 0.008053926 0.012808914 -0.05680146 -0.008343799 -0.018500447
0.3785436 0.13576038 -0.3096531 -0.0069797104 0.4268834 -0.31091356 0.010025631 0.07464018
00000000: a782 b2be d421 d23b 4044 5a3e 531c d73e
00000010: 3129 113f b785 573d 79ae b03c 1d90 8b3e
00000020: 284b e0be 708e c43d 98dd 1cbe da55 9d3e
00000030: 2abe 6cbf 9e1c 05bf dec5 59be 47c4 98bf
00000040: 780f 443e 561c f43d e2c0 69be fddd 053c
00000050: 0caa 9239 657f ae3c b5f3 18bc a282 6dbc
00000060: 63e2 b13e 1562 1d3e a0e2 db3e bf49 aabb
00000070: b606 97be 23dc 4bbe c02d 733e d7e3 083e
00000080: a381 313d c0ac 743b ce42 2ebd fab9 2abe
00000090: 655a 92bd 798e 1dbe eab4 30be f309 59be
000000a0: 90f9 74be eee0 e6bd ecae ed3e a16e e7bd
000000b0: 52fd 9f3e 1441 eb3e 6dbf 333e afcf cd3b
000000c0: a907 41be 7c19 a73d 578c a73d 5ef9 513c
000000d0: 829e d53b 310a 623c 2ad1 d2bb 2884 1fbc
000000e0: 2e5d 15be 3b46 8cbd 2fb0 07be 2664 7bbc
000000f0: 69f5 dcbe f957 103e cc57 52be 5bf8 b63d
00000100: a523 61be 9e10 f7bb 04b1 15bd c9c0 473e
00000110: 13d6 273e fcd0 ae3d 67c0 41be 4c0e ce3e
00000120: 1b02 b53e 295d 06be 65cf 6bbe 416a 383a
00000130: 385b eb3e 69d0 68be 70a4 ccbd 0d4e 0e3f
00000140: d152 84be 17bf c63d 38a1 273d 1f7e 3d3c
00000150: e731 3b3c 0367 9abc fa25 7f3c b434 dabb
00000160: b049 8ebd fb15 76bc ea2d 563e 5671 a0bc
00000170: b4c0 fc3e 61e8 f03e 4af8 88bc b5ea 38bd
00000180: ee47 0b3c 8735 3fba 4c51 72be ba66 70be
00000190: 34dc 1dbe d7c6 edbd 6aec 6d3e b0b4 fdbe
000001a0: 668a 843e 6462 c43d 5a45 9f3e 0a8e 94be
000001b0: 26f2 be3e 08dd 203f 90ef a0bc 026b 163d
000001c0: 4af8 063e 2c50 b8be 4ac1 64be b147 9c3c
000001d0: 6629 663c f01e 093d 3cd8 9b3a 1f32 d53b
000001e0: 815d 0abf c4bb 43be 0dbc 41be 63f7 6f3c
000001f0: 0d12 41be 0c7d c7bd 7f56 4cbd 8e46 58be
00000200: 2315 073f 2a9d 74bc 1b84 dd3d 5e69 65be
00000210: 2625 f6be 0b5c 193e 1e9d cf3d 9315 243c
00000220: 24a0 673d d77d 6e3d c9cf adbe 9abe c43d
00000230: 0610 29be e557 b1be 9795 0f3e d92e 1f3f
00000240: 3bc1 013e 8d19 8e3d e70c b63e 9df4 033c
00000250: 7bdc 513c a6a8 68bd 6eb4 08bc 408e 97bc
00000260: 77d0 c13e c504 0b3e da8a 9ebe 0eb6 e4bb
00000270: 7690 da3e 1030 9fbe 8b42 243c f3dc 983d

fc3.bias f4 [5]
-0.34370092 0.35924348 0.05278778 0.26696867 -0.3521682
00000000: 91f9 afbe c3ee b73e 0038 583d 1eb0 883e
00000010: 644f b4be
