Assignment_1/1/CNN_Layers/Models/1CNN/model-2.pth (torch_old, 46280 bytes, 8 tensors)

conv1.weight f4 [64, 3, 5, 5]
0	0x3e2e18c0	0.17001629
1	0x3e7b483b	0.24539272
2	0x3e47d204	0.19513708
3	0x3e86759b	0.262616
4	0x3e4c1f1d	0.19933744
5	0x3e0d6c87	0.13810931
6	0x3e068e8b	0.13140313
7	0x3e13c413	0.14430265
8	0x3e11d99c	0.14243168
9	0x3dc703f1	0.09717549
10	0xbce01e86	-0.027358305
11	0xbd25f1a5	-0.040513653
12	0x3b82d1a7	0.0039922777
13	0xbd0cc0a1	-0.034363393
14	0x3cdee337	0.027207954
15	0xbdc428ef	-0.0957812
16	0xbe1950c7	-0.1497222
17	0xbe1f9ae0	-0.15586424
18	0xbe39cdb4	-0.18144876
19	0xbe17b103	-0.14813618
20	0xbe262878	-0.16226375
21	0xbe644288	-0.22291005
22	0xbe7f521b	-0.24933665
23	0xbe76cdb2	-0.24101904
24	0xbe2ba40f	-0.16761802
25	0x3e1d4445	0.15358074
26	0x3e3fe46f	0.18739484
27	0x3e529471	0.20564438
28	0x3e2eb095	0.17059548
29	0x3e104eba	0.14092532
30	0x3d3a4f9f	0.04548609
31	0x3e139c0f	0.14415
32	0x3dca761d	0.098858096
33	0x3e0f3755	0.13985951
34	0x3ddbd4fe	0.107339844
35	0xbd639dea	-0.05557052
36	0x3cd187a3	0.025577372
37	0xbc5e067e	-0.013551353
38	0x3cafe341	0.021470668
39	0xbc842104	-0.016129024
40	0xbda0fc51	-0.078606255
41	0xbe05e657	-0.13076149
42	0xbe1bd803	-0.1521912
43	0xbe32c882	-0.174593
44	0xbdbcd0e7	-0.092195325
45	0xbe09163f	-0.13387392
46	0xbe5f72d0	-0.21821141
47	0xbe348940	-0.17630482
48	0xbe5e00db	-0.21680014
49	0xbe27c44f	-0.1638348
50	0x3df218a2	0.118211046
51	0x3e368233	0.17823105
52	0x3e457ac0	0.19285107
53	0x3e14db00	0.14536667
54	0x3e2454c3	0.16047959
55	0x3e14a659	0.14516582
56	0x3ded7f81	0.11596585
57	0x3e2fb482	0.17158702
58	0x3de39a5c	0.11113426
59	0x3da682f2	0.081304446
60	0x3b783e5e	0.003787897
61	0x3c9aeef5	0.018912772
62	0xbbe3ddd8	-0.006953936
63	0x3d390d03	0.045178425
64	0x3d5135b2	0.0510766
65	0xbcf5dd2a	-0.030012686
66	0xbdc4d6ee	-0.09611307
67	0xbde85255	-0.113438286
68	0xbdaa2258	-0.08307332
69	0xbdb01771	-0.08598221
70	0xbe2193ce	-0.1577904
71	0xbe13a2ba	-0.14417544
72	0xbe439551	-0.19099928
73	0xbe18b094	-0.14911109
74	0xbddcd217	-0.10782259
75	0xbe11f122	-0.14252141
76	0xbca3237a	-0.019914377
77	0xbc081f06	-0.008308178
78	0xbb1e4173	-0.0024147897
79	0x3def9853	0.116989754
80	0xbd4aa3bd	-0.04947256
81	0xbcae2b7f	-0.021260975
82	0x3cd797b5	0.026317457
83	0xbb154d89	-0.002278181
84	0x3c10ff31	0.008849905
85	0xbd4397e1	-0.047752265
86	0xbc0a2705	-0.008432155
87	0x3c6660d0	0.014061168
88	0xbc0333c9	-0.008007952
89	0x3d01bf6f	0.031676706
90	0xbc1680f7	-0.009186021
91	0xbc6595b6	-0.014012745
92	0xbd058fa6	-0.032607697
93	0xbccd00bc	-0.025024764
94	0x3d0e3538	0.034718722
95	0xbd8f0739	-0.069837995
96	0xbb2274da	-0.0024788887
97	0x3d2e914c	0.042619035
98	0x3b24ab78	0.0025126617
99	0x3de80371	0.113287814
100	0xbdcfb5a4	-0.10142067
101	0xbd881a51	-0.066456445
102	0x3baae1c7	0.005214903
103	0x3c524745	0.012834375
104	0x3dc58bbf	0.09645795
105	0xbde4a323	-0.11163928
106	0x3cb2e0cd	0.021835709
107	0x3cfa90b6	0.030586582
108	0x3d17907c	0.037003025
109	0x3c0cfb05	0.00860477
110	0xbdb3a0d6	-0.087709114
111	0xbc10bda9	-0.008834281
112	0xbd0e44fa	-0.03473375
113	0xbc89e3f3	-0.016832327
114	0x3d7ceb8b	0.06174807
115	0xbd876741	-0.06611491
116	0xbcb8fa9f	-0.022580443
117	0xbbed9a65	-0.0072510713
118	0x3d45cbdd	0.048290122
119	0x3d663905	0.05620672
120	0xbe13a387	-0.1441785
121	0xbcd73c45	-0.026273856
122	0xbd0a4807	-0.033760097
123	0x3d63dfd9	0.0556334
124	0x3d33a871	0.04386181
125	0xbe019b72	-0.12656954
126	0xbd0f1a1a	-0.034937
127	0x3c28afe6	0.010295844
128	0x3d07b887	0.033134963
129	0x3e02d4c8	0.12776482
130	0xbd60dabb	-0.054896098
131	0xbd5a79c8	-0.053338796
132	0xbbc7c2c2	-0.006096215
133	0x3d44b021	0.048019532
134	0x3e03def0	0.12878013
135	0xbdd2f172	-0.10299958
136	0x3c4f2292	0.01264252
137	0x3c916179	0.017746674
138	0x3d7f9cf8	0.062405556
139	0x3e094eb5	0.1340893
140	0xbde2102e	-0.11038242
141	0x3c1b5b83	0.009482267
142	0x3d49c912	0.04926402
143	0x3d989ada	0.074514106
144	0x3e0bb288	0.13642323
145	0xbdcfef73	-0.10153093
146	0x3cef8322	0.029237334
147	0x3d7972ff	0.060900684
148	0x3ddc88f7	0.107683115
149	0x3df9ccc8	0.12197262
150	0xbd900264	-0.07031706
151	0xbe80ec53	-0.251803
152	0xbeb9e997	-0.36311027
153	0xbea362eb	-0.31911406
154	0xbe322253	-0.17395906
155	0xbdd20ae8	-0.102559865
156	0xbe7500d2	-0.23926094
157	0xbe978448	-0.2959311
158	0xbe8350ca	-0.25647575
159	0xbe15a1b1	-0.14612462
160	0xbdad93e4	-0.084754735
161	0x3c25d79f	0.010122209
162	0x3d22dc3d	0.039760817
163	0x3d0496b3	0.03237028
164	0xbc406346	-0.011742419
165	0xbc919d50	-0.017775208
166	0x3e3ff38c	0.1874525
167	0x3e931de1	0.28733733
168	0x3e8a4470	0.2700534
169	0x3dafb362	0.085791364
170	0xbd41f157	-0.0473493
171	0x3e235d66	0.15953597
172	0x3e8cea23	0.27522382
173	0x3e8756d6	0.26433438
174	0x3d87b07c	0.066254586
175	0x3b719b60	0.0036866292
176	0xbe12f8f0	-0.14352775
177	0xbe27d8c5	-0.16391285
178	0xbe103e6d	-0.14086314
179	0xbcf10d44	-0.02942527
180	0xbd6653e1	-0.056232337
181	0xbdd6b73b	-0.10484167
182	0xbe34e4e3	-0.17665438
183	0xbe13cc4b	-0.144334
184	0xbd2a1875	-0.04152723
185	0xbc0166bb	-0.007898028
186	0x3c9b19ea	0.018933255
187	0x3d690544	0.056889787
188	0x3d482e3f	0.04887223
189	0x3d9eb780	0.077498436
190	0xbb8245ad	-0.003975591
191	0x3e5d7c55	0.2162946
192	0x3e8800e4	0.2656318
193	0x3e8e981d	0.27850428
194	0x3db3e766	0.0878437
195	0xbd126ea6	-0.035750054
196	0x3e1b054c	0.1513874
197	0x3e9e7ba3	0.30953702
198	0x3e66a935	0.22525485
199	0x3ce801d3	0.028321182
200	0x3e0b76c0	0.13619518
201	0x3bc657d9	0.0060529527
202	0xbd818695	-0.063244976
203	0xbd8b4b03	-0.06801417
204	0x3dbd12b5	0.09232084
205	0x3c9d7a5c	0.019223385
206	0xbd9d0524	-0.07666996
207	0xbdf3b5df	-0.118999235
208	0xbda998d9	-0.082811065
209	0xbd65f17a	-0.056138493
210	0xbd840698	-0.0644657
211	0x3c4db365	0.012554978
212	0x3d99028e	0.074711904
213	0x3c3c32e8	0.011486746
214	0x3c680afb	0.014162774
215	0xbd301ac6	-0.042994283
216	0x3dcda8d3	0.10041966
217	0x3e3d0d1b	0.1846203
218	0x3ddebb10	0.10875523
219	0xbd0224e3	-0.03177346
220	0xbdff82f3	-0.124761485
221	0x3c7dfb2c	0.015501779
222	0x3defd06a	0.11709674
223	0x3cbc3388	0.02297379
224	0xbdde96ff	-0.10868644
225	0x3ec1cd99	0.3785217
226	0x3ec31836	0.3810441
227	0xbafb3fb8	-0.001916877
228	0xbeaedd12	-0.34153038
229	0xbebcd2c6	-0.36879557
230	0x3eb8ceff	0.36095425
231	0x3e93158d	0.2872738
232	0xbc816260	-0.01579398
233	0xbe474734	-0.19460756
234	0xbe9b59f9	-0.3034208
235	0x3d83dc3e	0.06438492
236	0xbc3ec445	-0.011643474
237	0x3d1900b0	0.03735417
238	0x3cf7daa5	0.030255625
239	0x3ca86a23	0.020558422
240	0xbe9f8c61	-0.31161788
241	0xbea9964e	-0.33122486
242	0xbd1de435	-0.038547713
243	0x3e84273c	0.25811183
244	0x3ecdd0f4	0.4019848
245	0xbeac69c6	-0.3367445
246	0xbebfbe30	-0.3744979
247	0xbd7fd3d4	-0.062457874
248	0x3eab4b00	0.33455658
249	0x3ecd8282	0.40138632
250	0x3eca6339	0.39528826
251	0x3ebf3415	0.37344423
252	0x3d6f8191	0.058473174
253	0xbe9864d1	-0.29764417
254	0xbea86fcc	-0.32897794
255	0x3e9b8ea6	0.3038227

conv1.bias f4 [64]
0	0xbf5f58db	-0.8724496
1	0xbe819c6a	-0.25314647
2	0xbeb65770	-0.35613585
3	0xbede602e	-0.43432754
4	0xbf08f4d0	-0.53498554
5	0xbf3e8168	-0.7441621
6	0xbe783ecc	-0.24242705
7	0xbecd95c4	-0.40153325
8	0xbf9d5abb	-1.2293314
9	0xbf034fbb	-0.51293534
10	0xbdccd52e	-0.10001598
11	0xbf861a7d	-1.0476834
12	0xbf3fdf5b	-0.7495019
13	0xbee0c62a	-0.43901187
14	0xbb7ebf4d	-0.0038871348
15	0xbf63bb75	-0.8895791
16	0xbe28e9b0	-0.16495395
17	0xbef904af	-0.48636386
18	0xbe42da8f	-0.19028686
19	0xbd5ed3af	-0.054401096
20	0xbfaf2514	-1.368319
21	0x3cfb6038	0.03068553
22	0x3e48c4e6	0.19606361
23	0xbdd09990	-0.1018554
24	0xbe8868c8	-0.26642442
25	0xbed213b9	-0.41030672
26	0xbea43365	-0.3207046
27	0xbdd529be	-0.10408352
28	0xbeba8dc3	-0.3643628
29	0xbf25c193	-0.64748496
30	0xbf6941ce	-0.91116035
31	0xbf11b747	-0.56920284
32	0xbed94d71	-0.42441896
33	0x3c3a9df7	0.011390201
34	0xbf2a19d1	-0.6644564
35	0xbf82ee85	-1.022904
36	0xbf01574e	-0.5052384
37	0xbdb8b692	-0.090191975
38	0xbd46c7ca	-0.048530377
39	0xbfad0060	-1.351574
40	0x3dc3ada1	0.095546015
41	0xbd62dc10	-0.05538565
42	0xbeb3ccf3	-0.351173
43	0xbe85e627	-0.26152155
44	0xbf065c55	-0.5248464
45	0xbdfca504	-0.12336162
46	0xbe79d93c	-0.24399275
47	0xbeb30cd5	-0.34970728
48	0xbee71583	-0.451336
49	0xbf5f5aa9	-0.8724771
50	0xbeeb92c9	-0.46010426
51	0xbf45fe87	-0.773415
52	0xbd5365b8	-0.05161068
53	0xbdf7fd62	-0.12108876
54	0xbf1cc0fd	-0.61231977
55	0xbf0240f2	-0.5088035
56	0xbe8f4325	-0.27980915
57	0xbea6f2ee	-0.32607216
58	0xbde05f9d	-0.10955737
59	0xbe642765	-0.22280653
60	0xbefc3d0e	-0.4926533
61	0xbedb6b29	-0.42855194
62	0xbee8e6de	-0.45488638
63	0xbef0e3a2	-0.4704867

fc1.weight f4 [64, 64]
0	0xbcee68db	-0.029102733
1	0x3d129f78	0.035796613
2	0x3c8172a6	0.015801739
3	0xbc1e768a	-0.009671817
4	0xbd1746c4	-0.03693272
5	0xbb9c2639	-0.0047652987
6	0xbd4bef1b	-0.049788576
7	0xbcc8f1c1	-0.02452934
8	0xbd3e1991	-0.0464111
9	0x3d165675	0.036703546
10	0x3ce8f101	0.028435232
11	0xbd4f65d5	-0.050634224
12	0x3cc3f1fe	0.023919102
13	0x3d33c1cb	0.043885987
14	0x3d2e794f	0.042596158
15	0xbd1f412a	-0.038880505
16	0x3c963019	0.018333482
17	0xbd73e5fb	-0.0595455
18	0x3c062f7c	0.008190032
19	0xbcacd90c	-0.02109959
20	0xbccedb86	-0.025251161
21	0xbba63db4	-0.0050732736
22	0x3c8c3ff1	0.017120333
23	0xbd130893	-0.03589685
24	0x3c6f03bc	0.014588293
25	0x3c638517	0.013886712
26	0xbc397ef9	-0.011321777
27	0xbce9be6c	-0.028533183
28	0xbd3f89fe	-0.04676246
29	0xb9046740	-0.00012626965
30	0xbcaa5288	-0.020791307
31	0x3d343f6c	0.044005796
32	0x3c7d8fc9	0.015476176
33	0xbd08d8e6	-0.033409975
34	0x3c09ff6b	0.008422713
35	0x3c981cf9	0.018568503
36	0x3d22befb	0.039732914
37	0x3d1c2945	0.038125295
38	0xbd4b34e3	-0.049610984
39	0xbd0811ab	-0.033219974
40	0xbb4444dd	-0.0029948272
41	0x3c2117fa	0.009832377
42	0xbd43f715	-0.047843058
43	0xbd4cfeb6	-0.0500476
44	0xbd170d97	-0.036878195
45	0x3ce1f481	0.027582409
46	0xbbd4bff1	-0.0064926078
47	0x3d2509e0	0.04029262
48	0xbca5b34d	-0.020227099
49	0x3c635377	0.01387488
50	0x3cc8cb85	0.024511108
51	0xbca068a9	-0.019581156
52	0x3c9b1722	0.018931929
53	0x3bff8777	0.007798131
54	0xbcaaa26c	-0.020829402
55	0x3d1dc159	0.03851447
56	0xbc8e91b3	-0.01740346
57	0x3d30f9be	0.043206923
58	0x3c052487	0.008126385
59	0xbca81bae	-0.020521011
60	0x3c9d6cdb	0.019216945
61	0x3cdc2e40	0.026877522
62	0x3d46f808	0.048576385
63	0xbcb6bf75	-0.02230809
64	0x3d12fe9b	0.035887342
65	0xbced5521	-0.028971257
66	0xbba7b4ea	-0.005118002
67	0xbc901768	-0.017589286
68	0xbc6c6020	-0.014427215
69	0xbbb8e13a	-0.0056420835
70	0xbcf0fc25	-0.029417107
71	0xbba746e1	-0.005104885
72	0x3c35c4b1	0.011094258
73	0x3d5c688e	0.05381065
74	0xbc092d70	-0.00837265
75	0xbc19d691	-0.0093895355
76	0xbcab264e	-0.020892289
77	0xbd5cba51	-0.053888623
78	0x3d406148	0.046967775
79	0xbc506cd5	-0.01272126
80	0xbd8f60dd	-0.07000897
81	0xbd170ced	-0.03687756
82	0x3d47bb0f	0.048762377
83	0xbcf72c57	-0.03017251
84	0xbc8000e6	-0.015625428
85	0x3d556264	0.052095786
86	0xbd4b16c6	-0.049582265
87	0xbc6e190f	-0.014532342
88	0x3c94d31f	0.018167077
89	0xbd0f84e9	-0.035038862
90	0x3d14a149	0.036286626
91	0xbd22edd4	-0.03977759
92	0x3c305e24	0.010764632
93	0xbce7ab48	-0.028279915
94	0x3c2210c6	0.009891694
95	0x3d30940f	0.04310995
96	0xbd8429a7	-0.06453257
97	0x3cb7f972	0.022457812
98	0xbd05af07	-0.032637622
99	0xbd814098	-0.063111484
100	0xbbcc0f5b	-0.0062274165
101	0xbbe65c5b	-0.0070300526
102	0x3d2ffdcb	0.042966645
103	0x3be5243e	0.006992846
104	0xbaf24b17	-0.0018485513
105	0xbc54964c	-0.012975287
106	0x3cf66878	0.030079111
107	0xbd7eeca4	-0.062237397
108	0x3d6a74a6	0.05724015
109	0xbc8994e2	-0.016794626
110	0xbd448de1	-0.04798687
111	0x3d89bb61	0.06725193
112	0xbd086607	-0.033300426
113	0xbd070b16	-0.032969557
114	0xbd007f0c	-0.03137116
115	0x3d1b119f	0.0378586
116	0x3ccea5d1	0.025225552
117	0x3cfd471b	0.030917695
118	0x3d76ae9a	0.060225107
119	0xbc3c2ef8	-0.011485808
120	0xbcdce54c	-0.026964806
121	0x3da67ec2	0.08129646
122	0x3d2f991e	0.042870633
123	0x3d6f903c	0.058487162
124	0x3c9fafc6	0.019492995
125	0x3c4a457b	0.012345667
126	0xbd20e8ce	-0.03928452
127	0xbbe6df5a	-0.0070456685
128	0x3e25afe5	0.1618038
129	0x3c73ddba	0.014884407
130	0xbd8cb04b	-0.06869563
131	0x3d2a6fa1	0.041610364
132	0x3cabe295	0.020982066
133	0x3e20dac5	0.15708454
134	0xbdb0a52f	-0.08625256
135	0xbd8ada2c	-0.06779894
136	0x3e963387	0.29336187
137	0x3e300de9	0.17192806
138	0x3c96feba	0.01843201
139	0xbe539df8	-0.20665729
140	0x3e3488fa	0.17630377
141	0xbd5631cd	-0.052293587
142	0xbd066d90	-0.03281933
143	0xbd36bb02	-0.04461194
144	0xbdd3e1cd	-0.103458025
145	0xbe2a3922	-0.16623357
146	0x3d78959b	0.06068955
147	0xbcd49c05	-0.025953302
148	0x3e3a1ce2	0.1817508
149	0xbcbc2266	-0.022965621
150	0xbd611e3c	-0.054960474
151	0xbd693e2e	-0.056944065
152	0xbde6632b	-0.112493835
153	0x3df93f74	0.12170306
154	0x3d35a69a	0.044348337
155	0x3caea39b	0.021318248
156	0xbdf2f270	-0.118626475
157	0xbdf5c57d	-0.120005585
158	0x3e25bf76	0.16186318
159	0x3c885d4f	0.016646056
160	0xbe13e7af	-0.14443849
161	0xbd88483a	-0.06654401
162	0x3e2f2b25	0.17106302
163	0x3e22c059	0.15893687
164	0xbe05987c	-0.1304645
165	0xbc824ba1	-0.015905203
166	0x3c3056e2	0.010762902
167	0x3e81452b	0.25248083
168	0xbdeb099e	-0.11476444
169	0xbd7d892d	-0.0618984
170	0xbca0f8bb	-0.019649854
171	0xbd9a3b65	-0.0753086
172	0x3cd05a73	0.025433755
173	0x3d2345a1	0.039861325
174	0x3ca5e1b6	0.020249229
175	0x3ceca826	0.028888773
176	0x3dbd2650	0.09235823
177	0x3e578748	0.210477
178	0x3dd02948	0.10164124
179	0x3ebd3c6e	0.36960167
180	0xbd24198c	-0.040063426
181	0x3d3d0fee	0.04615777
182	0x3e3532ed	0.17695208
183	0xbdf4ea0c	-0.119587034
184	0xbc9d70a1	-0.019218745
185	0x3d92e9ce	0.07173501
186	0x3c4115b3	0.011784959
187	0x3d8b4a61	0.06801296
188	0xbd236f26	-0.03990092
189	0x3db0bc1b	0.08629628
190	0x3cbbf58a	0.02294423
191	0x3e129976	0.14316353
192	0x3e605ba5	0.2190996
193	0x3d0e5722	0.034751065
194	0x3cf23e89	0.029570835
195	0x3dbd81df	0.092532866
196	0xbe2d5fd8	-0.16931093
197	0xbe067889	-0.13131918
198	0x3cbc37b9	0.02297579
199	0xbdd498ff	-0.10380744
200	0x3eda1d51	0.42600492
201	0x3e112679	0.14174832
202	0xbc910038	-0.0177003
203	0xbe9054af	-0.28189608
204	0xbdf04156	-0.11731212
205	0xbde42781	-0.11140347
206	0x3ca448c2	0.020054225
207	0xbd8ba826	-0.06819181
208	0xbdd6655a	-0.1046855
209	0xbe87c01e	-0.2651376
210	0x3e013666	0.12618408
211	0xbc5c75db	-0.013455833
212	0x3ebdde81	0.3708382
213	0x3de956eb	0.113935314
214	0x3ddd9d3e	0.10821007
215	0xbd20e375	-0.03927942
216	0xbdb02928	-0.086016
217	0xbd9de825	-0.07710294
218	0x3d9157d1	0.07096828
219	0x3ce09a2e	0.027417269
220	0xbda34bd9	-0.07973451
221	0xbe810aa3	-0.25203428
222	0xbe128959	-0.14310206
223	0x3c9a56c3	0.0188402
224	0xbec36aa9	-0.38167313
225	0xbc8766c6	-0.016528498
226	0x3e0122bf	0.12610911
227	0xbe43641f	-0.19081162
228	0xbe146d6d	-0.14494868
229	0x3da9a43a	0.08283277
230	0x3c8385cb	0.016055008
231	0x3ecf506c	0.40491045
232	0x3db0fa89	0.08641536
233	0x3b7692f7	0.003762422
234	0xbd9dd0ba	-0.07705827
235	0xbe229b43	-0.1587954
236	0x3e1820f7	0.14856325
237	0xbd651078	-0.05592391
238	0xbcfed01f	-0.0311051
239	0x3e023223	0.12714438
240	0x3d9e461a	0.077282146
241	0x3e41b5b9	0.18916978
242	0xbdab2038	-0.083557546
243	0xbdacb952	-0.084337845
244	0x3e381d33	0.17979889
245	0x3dd5c10e	0.10437213
246	0x3e4f9b2b	0.20274036
247	0xbe7fc5cf	-0.24977802
248	0xb8e2861b	-0.00010801499
249	0x3e263fd3	0.16235285
250	0x3cf89de8	0.030348733
251	0x3cc8aa2a	0.024495203
252	0xbcaa4c43	-0.020788318
253	0x3da69675	0.08134166
254	0x3d0dc9e3	0.034616362
255	0x3dc0a087	0.09405618

fc1.bias f4 [64]
0	0xbd7db73a	-0.061942317
1	0xbdcf8f96	-0.10134809
2	0xbf11e295	-0.5698636
3	0xbd8652b6	-0.065587446
4	0x3d3fc391	0.046817366
5	0xbd8f4dfb	-0.069972955
6	0xbc199f28	-0.009376325
7	0xbdfde4c4	-0.12397149
8	0xbe634aff	-0.22196577
9	0x3e481509	0.19539274
10	0x3e0f8b32	0.14017943
11	0x3dc1471a	0.0943739
12	0xbe42fa5c	-0.19040817
13	0x3e4be006	0.19909677
14	0xbdd6437d	-0.10462091
15	0x3e00f832	0.12594679
16	0x3e5046a5	0.20339449
17	0xbdceb41c	-0.10092947
18	0x3eb08afb	0.34481034
19	0x3f06e2ee	0.5269002
20	0x3e348f8a	0.17632881
21	0x3ef1034d	0.4707283
22	0xbed3089a	-0.412175
23	0x3d6196ea	0.055075563
24	0x3e005a80	0.12534523
25	0x3f038aa0	0.513834
26	0xbd03d418	-0.03218469
27	0xbb9f8a8e	-0.004868812
28	0xbe74ab0b	-0.23893373
29	0x3bb10494	0.005402157
30	0x3ed8b936	0.42328805
31	0x3ea8adac	0.32945
32	0x3e1fba19	0.15598334
33	0x3e3f86ee	0.18703815
34	0x3e106420	0.14100695
35	0xbb9b2005	-0.0047340416
36	0x3de33354	0.110937744
37	0x3ea8159f	0.32828996
38	0x3e88e350	0.26735926
39	0x3e336408	0.17518628
40	0xbf27dfe2	-0.65575993
41	0xbd21ec2e	-0.03953188
42	0x3cf41836	0.0297967
43	0x3ee45241	0.44594005
44	0x3f2281f5	0.6347955
45	0xbdccb799	-0.09995956
46	0x3f58a8d8	0.84632635
47	0xbe17fea2	-0.14843228
48	0xbd140dc5	-0.036145944
49	0x3db09488	0.0862208
50	0xbdd881c0	-0.10571623
51	0x3d692aa9	0.05692545
52	0x3d729b1d	0.05922996
53	0x3d0cd294	0.03438051
54	0x3f41ac83	0.75653857
55	0x3ebcbb81	0.36861804
56	0xbed91b8a	-0.42403823
57	0x3f1e9477	0.6194529
58	0x3e29282b	0.16519229
59	0x3eb95ef4	0.36205256
60	0x3d272b78	0.04081294
61	0x3e650fec	0.22369355
62	0x3de27d88	0.110590994
63	0xbcd51a51	-0.026013525

fc2.weight f4 [32, 64]
0	0x3ce97fdc	0.02850335
1	0xbca684e6	-0.020327043
2	0xbdee8c54	-0.11647859
3	0xbdfdf137	-0.12399524
4	0xbc163493	-0.009167808
5	0x3de75fdc	0.112975806
6	0xbd3cfd52	-0.046140023
7	0x3e1bc089	0.15210165
8	0x3cb1fcf3	0.02172706
9	0xbe13b92b	-0.14426105
10	0x3e4c0c23	0.19926505
11	0x3e8b2273	0.2717472
12	0xbd925dcb	-0.07146796
13	0x3e7234b0	0.23652911
14	0xbd82bffd	-0.06384275
15	0x3b821176	0.0039693667
16	0xbd170be0	-0.03687656
17	0xbc8a30ce	-0.016868975
18	0xbdcb72ab	-0.099339806
19	0xbce8f139	-0.028435336
20	0xbe26cdb3	-0.16289406
21	0xbdf9a989	-0.121905394
22	0xbe5dcacd	-0.21659394
23	0x3db6ba0e	0.08922206
24	0xbe10cd48	-0.14140809
25	0xbdf3da45	-0.11906866
26	0xbd9497f6	-0.07255547
27	0x3a8b18df	0.001061227
28	0xbc602ce2	-0.013682576
29	0x3e46ce01	0.19414522
30	0xbe48b978	-0.19602
31	0xbca571ed	-0.020195926
32	0x3d0972fd	0.033556927
33	0x3e38c7a9	0.18044914
34	0xbe46b909	-0.19406523
35	0x3d585f16	0.052825056
36	0x3c0731f9	0.0082516605
37	0xbd7c5a55	-0.061609585
38	0xbd5fd857	-0.054649677
39	0xbd2b4aff	-0.04181957
40	0x3ca88ae5	0.020574043
41	0xbca0c5fc	-0.019625656
42	0xbd594ddc	-0.053052768
43	0xbdedae98	-0.11605567
44	0xbdc1129b	-0.09427377
45	0xbe002397	-0.12513576
46	0xbe20ada6	-0.15691242
47	0x3cfad968	0.030621246
48	0xbccb71fa	-0.024834622
49	0xbdc035f2	-0.09385289
50	0xbd14bf18	-0.036315054
51	0xbc802cfe	-0.015646454
52	0x3e4cb238	0.1998986
53	0x3e46a334	0.19398195
54	0xbeb5f445	-0.35537925
55	0xbda00bfc	-0.07814786
56	0xbdc85d98	-0.097834766
57	0xbda9ce19	-0.08291263
58	0xbd658daf	-0.056043323
59	0xbdcbba61	-0.09947658
60	0xbd3aee13	-0.0456372
61	0xbd0d06a3	-0.034430157
62	0x3dd59c09	0.10430152
63	0xbc8df08a	-0.017326612
64	0xbc5f4794	-0.013627905
65	0x3d1054e0	0.035237193
66	0xbc7410f6	-0.014896622
67	0x3cba7735	0.02276192
68	0xbcd0f9e1	-0.025509777
69	0xbd24d837	-0.04024526
70	0xbce4ab76	-0.02791379
71	0xbd41877b	-0.047248345
72	0x3c918988	0.017765775
73	0xbd19b60d	-0.037527133
74	0xbc018b53	-0.007906753
75	0x3c8ebe2e	0.01742467
76	0xbb73c45a	-0.0037195892
77	0xbbd87dfc	-0.0066068154
78	0xbd48acad	-0.0489928
79	0xbd53995c	-0.051659927
80	0xbcf27f8f	-0.02960184
81	0x3c6d77b2	0.01449387
82	0xbc43c039	-0.011947685
83	0x3c0047f2	0.007829653
84	0x3cc48599	0.023989486
85	0xbd14b649	-0.036306653
86	0x3d13fb75	0.03612848
87	0xbbdcd246	-0.0067389337
88	0x3b79f779	0.003814189
89	0xbc3dd181	-0.011585594
90	0x3cba9ef5	0.022780875
91	0xbd28680f	-0.041114863
92	0x3c7a9b7e	0.015295861
93	0xbcf1cbaa	-0.02951606
94	0x3d1a7bfa	0.03771589
95	0x3c996eee	0.018729653
96	0xbd3e87f7	-0.046516385
97	0xbd1a40f6	-0.037659608
98	0xbd22b8c0	-0.039726973
99	0xbd38c112	-0.045106
100	0xbd1d2e2f	-0.038374122
101	0xbc7bd984	-0.015371684
102	0xbd519a53	-0.051172566
103	0xbbcc81bb	-0.006241051
104	0xbc5d87e6	-0.01352117
105	0x3b69d294	0.0035678493
106	0x3c849126	0.016182493
107	0x3b4f7146	0.003165321
108	0x3af9b313	0.0019050561
109	0xbce533ed	-0.027978862
110	0x3ce511db	0.027962616
111	0x3bfd723f	0.0077345665
112	0xbc9d47f7	-0.019199355
113	0x3bbf7fee	0.005844108
114	0xbce886a2	-0.02838451
115	0xbccf3e6c	-0.02529832
116	0xbc66cf24	-0.014087472
117	0xbccc62d3	-0.024949467
118	0xbc83fc07	-0.016111387
119	0xbcd80a71	-0.026372166
120	0xbc6a9299	-0.014317178
121	0x3d1b4ecb	0.03791694
122	0xbbaae083	-0.005214752
123	0xbcbf62e3	-0.023362583
124	0xbd1faec8	-0.038985044
125	0x3b913f12	0.0044325674
126	0xba802b8c	-0.0009778603
127	0xbc82ff66	-0.015990924
128	0x3d326abc	0.04355882
129	0x3bec4ea7	0.0072115245
130	0xbcc25c92	-0.023725782
131	0x3da8731f	0.082250826
132	0x3ba59375	0.0050529786
133	0xbb897291	-0.0041945656
134	0xbcb60b1f	-0.0222221
135	0xbe552a2d	-0.2081687
136	0xbd54be4e	-0.0519393
137	0x3ddb59c9	0.107104845
138	0x3d2ff7f8	0.04296109
139	0xbe58c182	-0.21167567
140	0x3dc0c5de	0.0941274
141	0xbe4c4e28	-0.19951689
142	0x3cfd38af	0.030910818
143	0xbc184c7b	-0.009295578
144	0xbc679979	-0.014135712
145	0x3ccbd054	0.024879612
146	0xbc86e607	-0.016467107
147	0x3e536bd7	0.20646606
148	0x3d05c3fb	0.032657605
149	0xbd303a4d	-0.04302435
150	0x3cc714aa	0.024301846
151	0x3d12559d	0.03572618
152	0x3dea2d8d	0.11434469
153	0x3cdb41d9	0.026764797
154	0xbd0f99c0	-0.035058737
155	0xbb1d0a5d	-0.0023962476
156	0xbdb3138d	-0.087439634
157	0x3e17e1b9	0.148322
158	0x3e746b83	0.23869137
159	0x3ce5f710	0.02807191
160	0x3dadadb5	0.084803976
161	0x3bd49dec	0.0064885523
162	0x3cc46f79	0.023978936
163	0x3d3afce4	0.04565133
164	0xbc546665	-0.012963866
165	0xbd327498	-0.043568224
166	0x3e0a7f6f	0.13525175
167	0xbcecd17f	-0.02890849
168	0xbde9549a	-0.113930896
169	0xbc74737f	-0.014920115
170	0x3d3984d6	0.045292698
171	0xbe2f0759	-0.17092647
172	0x3d619199	0.055070493
173	0x3cad7759	0.021175073
174	0x3e8e3320	0.2777338
175	0x3b9a6eac	0.0047129
176	0xbc272386	-0.010201341
177	0xbe082cfb	-0.13298409
178	0xbd86a89b	-0.06575128
179	0xbc4bc0e2	-0.012436124
180	0xbbeaf732	-0.0071705813
181	0x3d1c6ba8	0.038188607
182	0x3eb9ab2a	0.362634
183	0x3dc5af09	0.09652526
184	0xbd14aead	-0.036299396
185	0x3e29a4b8	0.16566741
186	0x3db0a57b	0.08625313
187	0x3c207412	0.009793298
188	0x3d49547c	0.049152836
189	0xbe93f525	-0.28897968
190	0x3da7d25b	0.08194419
191	0xbd1d14ba	-0.038349845
192	0xbd452072	-0.048126645
193	0xbcc753b2	-0.024331901
194	0xbe2c97e8	-0.16854823
195	0xbc579d39	-0.013160043
196	0xbd391821	-0.045189027
197	0xbe1649fc	-0.1467666
198	0x3d2eea5f	0.042703982
199	0xbe01beac	-0.12670392
200	0xbdba9d0d	-0.09111986
201	0x3d72bce6	0.05926218
202	0xbde94df9	-0.11391825
203	0xbe805dfb	-0.250717
204	0xbd6618d8	-0.056176037
205	0xbe36af9c	-0.17840427
206	0xba1677be	-0.0005739889
207	0xbd903873	-0.07042017
208	0xbd22ad17	-0.039715853
209	0x3c1f73cc	0.009732198
210	0x3db8f1ac	0.0903047
211	0x3e2f0e80	0.17095375
212	0x3db89db6	0.09014456
213	0x3d5c98a9	0.053856526
214	0xbe08317a	-0.13300124
215	0xbd77f99d	-0.060540784
216	0x3d390e12	0.045179434
217	0x3c911c56	0.017713707
218	0xbb9d48f8	-0.0047999583
219	0x3d20059e	0.039067857
220	0xbdc9f486	-0.09861092
221	0xbe2f1a00	-0.17099762
222	0x3e0ca330	0.13734126
223	0xbc8fb988	-0.017544523
224	0x3ce0c157	0.027435942
225	0xbe173ae9	-0.14768566
226	0x3d2aad29	0.041669045
227	0xbaf62b77	-0.0018781264
228	0x39aa8592	0.00032524444
229	0xbcb57dda	-0.022154737
230	0x3d63d20c	0.05562024
231	0x3c97126d	0.018441403
232	0xbe8a5385	-0.27016845
233	0xba2c5d77	-0.00065752066
234	0x3cae997a	0.021313418
235	0xbe451bb5	-0.1924885
236	0x3dd31fd0	0.10308802
237	0xbd1e1638	-0.03859541
238	0x3ea178f5	0.31537595
239	0xbc8c0e9f	-0.017096816
240	0xbc9725b6	-0.0184506
241	0xbe065186	-0.13117036
242	0xbddce689	-0.107861586
243	0xbd7765f7	-0.060399976
244	0xbd426fe3	-0.047469985
245	0xbd9fad16	-0.077966854
246	0x3e7025ee	0.23451969
247	0x3d912d5c	0.0708873
248	0xbe20bc02	-0.1569672
249	0x3e35b72f	0.1774566
250	0x3bed42d2	0.0072406316
251	0x3caf4e72	0.02139971
252	0xbcd1dc54	-0.025617756
253	0xbe245444	-0.1604777
254	0xbd5de02f	-0.054168876
255	0xbd26b64c	-0.040701196

fc2.bias f4 [32]
0	0x3dc8c90d	0.098039724
1	0xbc181f75	-0.009284844
2	0x3c560682	0.013063075
3	0x3e4d2cb4	0.20036584
4	0xbe8bc661	-0.2729979
5	0x3cd84a27	0.026402546
6	0x3b4f101e	0.00315953
7	0x3e32f14e	0.17474863
8	0x3ee0351f	0.43790528
9	0xbcc829dc	-0.024434023
10	0x3d217fa3	0.039428364
11	0xbc084fda	-0.008319819
12	0x3e97299c	0.29523933
13	0x3f0dfdce	0.554654
14	0xbcdde163	-0.027085012
15	0x3e319452	0.17341736
16	0xbbc817fc	-0.006106375
17	0xbe26599b	-0.1624512
18	0xbd89fe1b	-0.0673792
19	0xbce2b635	-0.027674774
20	0xbdc02dcb	-0.09383734
21	0xbd20c5db	-0.03925119
22	0xbd72fa73	-0.05932088
23	0xbdbff4bd	-0.09372852
24	0xbd69d732	-0.057089992
25	0xbc05a15f	-0.00815615
26	0xbd861d1a	-0.065485194
27	0xbd70531a	-0.058673
28	0x3f1dfd02	0.61714184
29	0x3e5f06cf	0.21779941
30	0xbd36de67	-0.044645693
31	0xbd2a0d64	-0.041516677

fc3.weight f4 [5, 32]
0	0xbf20140e	-0.625306
1	0x3cc6c1dc	0.024262361
2	0x3eca9cd0	0.39572763
3	0x3eba75b6	0.3641793
4	0x3eed48e1	0.46344665
5	0xbca4a2c5	-0.020097146
6	0xbe06206a	-0.13098302
7	0x3ec83f80	0.39110947
8	0xbeaf6248	-0.3425467
9	0x3d28d321	0.041216973
10	0xbd4a588d	-0.049400855
11	0x3e94b6fb	0.29045853
12	0xbf709929	-0.93983704
13	0xbeb30194	-0.34962142
14	0x3d088bfc	0.033336625
15	0xbf8606fc	-1.0470881
16	0x3db0dc60	0.08635783
17	0x3ebab428	0.36465573
18	0xbbc5605e	-0.0060234508
19	0x3cdd09da	0.026982237
20	0xb7044735	-7.884392e-06
21	0xbc346cf1	-0.011012302
22	0xbd0dfeff	-0.03466701
23	0xbd3849a2	-0.044992097
24	0x3dba1bb9	0.09087319
25	0x3d83d4bb	0.064370595
26	0x3eda7be0	0.42672634
27	0xbca993e2	-0.020700399
28	0xbe9b6c82	-0.30356222
29	0xbe811eae	-0.2521872
30	0x3e4f5207	0.20246135
31	0x3def235a	0.11676665
32	0x3e417f2d	0.1889617
33	0x3c8def85	0.017326126
34	0xbe33348a	-0.17500511
35	0xbe4e5578	-0.20149791
36	0x3d767ed2	0.06017954
37	0xbdd36d39	-0.10323567
38	0xbd43cdac	-0.047803566
39	0xbe93cdb9	-0.2886789
40	0xbe994f7b	-0.2994345
41	0xbd304e20	-0.043043256
42	0x3ec802d9	0.39064673
43	0x3c8e2289	0.017350452
44	0x3ebb8809	0.36627224
45	0x3e7896ba	0.24276248
46	0x3d3e334d	0.046435643
47	0x3e62f59d	0.22164007
48	0xbe14ee62	-0.14544061
49	0x3c9b1388	0.018930212
50	0x3c8b1d5c	0.016981773
51	0x3d3eea7d	0.046610344
52	0x3cbcdac4	0.023053534
53	0xbd127d8c	-0.035764262
54	0xbcb642a9	-0.022248583
55	0xbd0e3c62	-0.034725554
56	0xbe3659d0	-0.17807698
57	0x3c851b7c	0.016248457
58	0xbe848f8e	-0.25890774
59	0xbd67fe15	-0.056638796
60	0xbf0a762d	-0.5408657
61	0x3da36469	0.07978136
62	0xbd288723	-0.0411445
63	0x3cdfe8b3	0.02733264
64	0xbdffc657	-0.12489002
65	0xbd03a9cb	-0.03214435
66	0xbcdb68a1	-0.02678329
67	0x3e0d1e23	0.13781027
68	0x3e351734	0.17684633
69	0x3d974e77	0.07388013
70	0xbe178523	-0.14796881
71	0x3e9c5ecd	0.30541077
72	0x3ee7e1cc	0.45289457
73	0xbd96e7cb	-0.0736843
74	0xbe8d9aff	-0.27657315
75	0xbdda97f4	-0.10673514
76	0x3f035a1f	0.5130939
77	0xbe132e31	-0.1437309
78	0xbd97ef96	-0.07418744
79	0x3ede0f57	0.43371078
80	0xbe3371f5	-0.1752394
81	0x3c20c902	0.009813549
82	0xbcb4f070	-0.022087306
83	0x3d3178ae	0.04332798
84	0x3d242732	0.040076442
85	0xbbcfaa71	-0.006337457
86	0x3d601f99	0.054717634
87	0xbce96c1d	-0.028493935
88	0xbe6d5cb4	-0.23179895
89	0xbca2e659	-0.019885229
90	0x3e4cc191	0.19995715
91	0xbd7df650	-0.06200248
92	0x3ec54754	0.38530982
93	0x3efd00a6	0.49414557
94	0xbd83164d	-0.06400738
95	0x3b27fd61	0.0025633203
96	0x3eb5dc8c	0.35519826
97	0xbbcfdac9	-0.00634322
98	0xbe8fe614	-0.28105223
99	0xbe77c2a6	-0.24195346
100	0xbe330b84	-0.17484862
101	0xbdeb6890	-0.11494553
102	0x3e6fbddf	0.23412274
103	0xbefc80de	-0.49317068
104	0x3de13066	0.109955594
105	0x3d82f9f1	0.06395329
106	0x3ec04e83	0.375599
107	0xbea630de	-0.32459158
108	0x3edbdded	0.42942753
109	0x3f356a3c	0.70865226
110	0xbcdd9466	-0.027048301
111	0xbc9d634e	-0.019212391
112	0x3e025a2a	0.12729707
113	0xbecb5e52	-0.39720398
114	0xbec354a5	-0.38150516
115	0x3d873e6e	0.066037044
116	0x3d4a13a3	0.049335133
117	0x3cc352ac	0.023843132
118	0x3b7a46e5	0.003818923
119	0x3cc845c0	0.024447322
120	0xbe63d177	-0.22247873
121	0xbdcf9da5	-0.1013749
122	0xbe52181c	-0.2051701
123	0x3d577b51	0.052607838
124	0xbdf4e855	-0.11958376
125	0xbdc796d4	-0.09745565
126	0xbe2ddc2f	-0.16978525
127	0xbdc74bb3	-0.09731235
128	0x3e7a4719	0.24441184
129	0xbd476d23	-0.048688065
130	0x3dda59ab	0.10661634
131	0xbdc1b0ae	-0.09457527
132	0xbee13373	-0.43984565
133	0x3e67ebba	0.22648516
134	0x3d8f502d	0.06997714
135	0x3be68202	0.007034541
136	0x3d4c92a1	0.049944524
137	0x3d07321f	0.033006784
138	0xbe83ce78	-0.2574346
139	0x3e01c231	0.12671734
140	0xbe3450cc	-0.17608947
141	0xbef4f954	-0.47846472
142	0xbd13e204	-0.036104217
143	0x3f018648	0.5059552
144	0x3df0e436	0.11762278
145	0x3cedfc42	0.02905095
146	0x3ef8a7ac	0.48565423
147	0x3cd0bd76	0.025480967
148	0x3d38425c	0.04498516
149	0x3b95718f	0.0045606564
150	0xbcdf95eb	-0.027293166
151	0xbd8730fa	-0.066011384
152	0x3edfdba1	0.4372225
153	0x3dbd0e63	0.0923126
154	0xbe0c83ea	-0.13722196
155	0xbcda21f6	-0.026627522
156	0x3f1907dc	0.5977762
157	0xbe5711dd	-0.21002908
158	0xbc57535a	-0.013142431
159	0x3dc265c8	0.094920695

fc3.bias f4 [5]
0	0xbe9c4e34	-0.30528414
1	0x3f09688f	0.5367517
2	0xbe84c3e0	-0.2593069
3	0x3e5f043d	0.2177896
4	0xbe7ed5c2	-0.2488623
