Assignment_1/1/Max_Pooling_New/Models/with/model-0.pth (torch_old, 882610 bytes, 10 tensors)

conv1.weight f4 [64, 3, 5, 5]
000000 ea f7 0c bd 8e 12 41 3d 7f a0 a1 3d a4 9d 10 bd
       -0.034416117 0.047136836 0.0789194 -0.035306588
000010 cd 8e 86 bd 62 81 67 bd 89 ce c2 ba 9e a5 bf 3c
       -0.06570206 -0.056519873 -0.0014862578 0.023394402
000020 85 b9 84 bd 35 13 9a bc 32 fd db bd 1e 22 8e 3c
       -0.064806975 -0.018807987 -0.107416525 0.017350253
000030 22 7f 86 3d 74 30 e2 3d 6b 70 f7 3d 75 65 ab bc
       0.065672174 0.11044398 0.12081989 -0.020922402
000040 7b ff 01 be 52 f4 51 3d d5 fa ba 3d 44 30 1a 3c
       -0.12695114 0.051258393 0.09129874 0.0094109215
000050 dc 79 31 bd ad c4 04 bd c4 82 10 3d f7 6d 39 3c
       -0.043329105 -0.032414127 0.035280958 0.011317722
000060 ca 5c b3 3d 0e 1a 8f 3d 62 44 72 bd e9 ab b8 3c
       0.087579325 0.069873914 -0.059147246 0.02254291
000070 11 50 58 3d 56 37 79 bd 35 e9 a7 bd 39 3e e6 3c
       0.052810732 -0.060843788 -0.081987776 0.028105842
000080 36 1f a3 3d ca 78 ee bc 8c 09 01 3d 24 ed 8c 3a
       0.079649374 -0.029110331 0.031503245 0.0010751826
000090 71 c5 66 bd 0b 3e c9 bc 8b bb 9e 3b a8 f2 6f 3d
       -0.05634064 -0.024565717 0.004844134 0.058581024
0000a0 ad 45 8d bd a8 3d 60 bc 0c 5f 04 bd 34 b1 01 3e
       -0.06898055 -0.013686575 -0.032317206 0.12665254
0000b0 bb 87 d3 3d d0 75 c1 bd c5 d6 da bd c1 99 8c 3d
       0.10328623 -0.09446299 -0.10685495 0.06865264
0000c0 ca 16 fa 3d 41 be 7e 3c 82 1e 30 bd bc 16 b3 3c
       0.12211378 0.01554829 -0.042997845 0.021861427
0000d0 c1 d7 93 3d 5f bf 8b 3d c9 57 f4 bc c6 cd ad 3c
       0.07218886 0.068236105 -0.029827015 0.021216284
0000e0 93 19 ce bd c6 22 df bc d9 0e 74 3b 3e 1b 78 3b
       -0.10063472 -0.027238261 0.0037240295 0.0037858034
0000f0 52 ae c3 3c 37 44 ed bd f9 56 73 bd 89 6a a3 bb
       0.023886833 -0.115852766 -0.059409115 -0.004987065
000100 17 bf 1e 3e 3e 3a 13 be f2 08 d8 bd b0 05 dc 3b
       0.15502582 -0.14377686 -0.10548581 0.006714545
000110 25 fe ac 3c 43 9f 91 3d 3d d3 b3 bd 10 46 c8 bd
       0.02111728 0.07110455 -0.08780525 -0.09778988
000120 d9 16 a8 bc a9 f2 d7 3d d3 49 15 3e eb 7f fa bb
       -0.020518707 0.105443306 0.14578943 -0.0076446435
000130 ce 2b ae 3b e8 cb dd bc 48 f9 c5 3b 3f b0 27 3d
       0.0053152805 -0.02707477 0.0060416795 0.040939566
000140 5e 35 fa 3c fb 50 8f bd 49 01 10 3d 87 10 ad 3d
       0.030543026 -0.06997868 0.035157476 0.08450418
000150 16 57 b1 3d f1 c8 af 3d 95 4e de bb ab 92 57 bd
       0.086591884 0.085832484 -0.00678427 -0.052630108
000160 29 6b a4 3b 72 65 07 3d 80 37 84 bd 49 04 c1 3b
       0.0050176573 0.03305573 -0.06455898 0.0058904034
000170 f7 71 23 bd 73 4e 24 3d 85 ee 24 bd 1f 82 1c 3d
       -0.039903607 0.040113878 -0.040266532 0.03821003
000180 2f 61 8b 3c e7 2f 31 bc 87 75 f4 3a 8b 47 80 3d
       0.017014114 -0.010814643 0.0018650749 0.06263646
000190 d1 f5 ca bd f4 b1 40 3c 25 91 40 bd 45 91 cd ba
       -0.09910167 0.011761177 -0.04701342 -0.0015683552
0001a0 5b b9 a8 bd 12 52 a1 bd 16 e4 86 bd 07 3d ac bd
       -0.08238479 -0.07876982 -0.06586473 -0.084100775
0001b0 ad 29 a6 3c 28 fa a0 3b 51 30 18 3d 91 c9 ad bd
       0.020283544 0.0049126334 0.037155453 -0.08485711
0001c0 f9 5a 18 bb a2 ee 96 bd 8c 46 31 bd f3 92 a4 bd
       -0.0023247583 -0.07369734 -0.04328017 -0.08035841
0001d0 1f 01 36 3d 3e 0c 33 3d 62 e9 36 bd 8d 1d f2 3c
       0.044434663 0.043712847 -0.044656165 0.029555107
0001e0 f7 4c 90 bd 2e e6 58 bd e2 00 8f bd 60 da 49 3d
       -0.0704593 -0.05295389 -0.0698259 0.049280524
0001f0 70 dc 85 bc c7 f3 5d 3d 88 15 94 3d b4 2d 8e 3d
       -0.016340464 0.054187562 0.07230669 0.06942311
000200 42 e7 a8 bc 2a 65 b3 3d b7 fc 15 bb c7 33 5a bb
       -0.020618085 0.0875953 -0.0022886225 -0.0033295022
000210 d1 16 af b9 61 94 94 bb 85 3c 09 3d 55 76 03 3d
       -0.000333956 -0.0045342897 0.03350498 0.032095272
000220 38 56 8a bd 92 e3 1b 3d e5 f3 56 bd ce 0d d7 3d
       -0.06754726 0.038058825 -0.05247869 0.1050068
000230 7c 76 81 3c 25 77 b1 3b 8c 46 14 3c 34 96 03 bd
       0.015803568 0.0054158145 0.009050023 -0.032125667
000240 ac 1f 2b bc f7 f1 4a bd 0b f6 49 3d aa db 99 3d
       -0.010444563 -0.049547162 0.04930691 0.07512601
000250 03 32 92 bb 56 bc ef bc fa eb c5 bd 83 fb cf bd
       -0.0044615283 -0.02926461 -0.096641496 -0.10155394
000260 f1 68 3b be 34 da 3b bd 19 30 23 be 42 95 c2 3b
       -0.1830175 -0.04586239 -0.15936317 0.005938203
000270 71 1a 35 bd 34 2e 73 bd a9 fa 7d bd a8 5c 01 be
       -0.04421467 -0.059370235 -0.062006626 -0.12633002
000280 b9 49 e6 bd 0d 76 52 bd 02 67 14 3b 49 d9 3e 3b
       -0.1124453 -0.051382113 0.0022644405 0.0029121211
000290 22 9a 17 bd e0 f4 7c bd 84 ae c9 bb 1f d5 08 bd
       -0.037012227 -0.06175697 -0.006154837 -0.033406373
0002a0 d4 a3 08 bd aa 6b b0 bd ad 74 aa bd 08 37 3d bc
       -0.033359364 -0.08614285 -0.083230354 -0.011548765
0002b0 e5 bb 80 bc 9a 8e b5 3c 0f b8 e8 bd 5f 2e 05 3e
       -0.015714595 0.022162724 -0.113632314 0.1300597
0002c0 21 d0 a4 3d 68 19 22 3d d4 f9 ac 3d 8d b8 33 3c
       0.0804751 0.03957501 0.084460884 0.010969293
0002d0 27 61 ef 3d 80 b5 8f bb d2 77 0d 3e 50 02 00 3d
       0.11688452 -0.00438565 0.13815239 0.031252205
0002e0 3f a7 b2 3d f1 07 5b 3d 6e 21 89 3d 46 90 8a 3d
       0.08723306 0.05347437 0.06695829 0.06765799
0002f0 3e 68 4d 3d 5a 9a fd 3d 9e 6b e1 3d 0b a9 99 3d
       0.05014824 0.12382956 0.110068545 0.075029455
000300 c6 57 47 3e 61 42 04 3e 4f bc 2f 3d 48 74 82 3c
       0.19467077 0.12915947 0.042904194 0.015924588
000310 19 1e e9 3d 88 6a 55 3e 8c 55 aa 3d 88 c0 47 3d
       0.11382694 0.2084142 0.08317098 0.048767596
000320 83 91 4a bc f4 68 82 3c 2c d8 0a be c9 fa 92 bd
       -0.012363794 0.015919186 -0.13559026 -0.0717674
000330 a0 96 c1 bd 59 eb 0e bc 79 83 c9 bd e9 71 a6 bc
       -0.094525576 -0.008723103 -0.098395295 -0.020317988
000340 77 65 e2 bd 9f b3 b9 bd 9f 35 81 bd 48 92 96 3d
       -0.11054509 -0.09067463 -0.063090555 0.0735212
000350 db 4e 3a 3d 6e 88 45 bd cc d3 b7 bd bf 6f 5b bd
       0.04548536 -0.048225813 -0.08975944 -0.053573366
000360 c5 e4 43 bd 26 69 96 3d b2 1f 9f 3d f3 f4 2e bd
       -0.047825594 0.07344274 0.07769717 -0.04271407
000370 fe 49 d9 bd 2b 53 92 bc a1 76 a2 bc 0e 61 61 3d
       -0.10609816 -0.017861923 -0.019831957 0.0550242
000380 d9 26 b4 bd 96 7e c0 bd ea e1 a3 bd bf b2 93 bd
       -0.08796472 -0.09399144 -0.08002074 -0.072118275
000390 5c 05 07 3d 24 ea 99 bc 05 72 4d bc c2 c7 ca bd
       0.032964095 -0.018788405 -0.012539391 -0.09901382
0003a0 5b 11 3d 3d 8b 67 99 bd 25 14 c1 3d ef 83 08 be
       0.04615913 -0.074904524 0.094276704 -0.13331579
0003b0 7e 8d a5 bc 50 ab ad 3c 6c a4 19 bd 60 ca 96 3d
       -0.02020907 0.021199852 -0.03751032 0.07362819
0003c0 6d 48 99 3c 4b fc 0f be a3 13 2b bd 49 38 4d bb
       0.018711293 -0.14061086 -0.041766774 -0.0031314066
0003d0 ff be 76 bc ed 09 c2 bd c1 aa 30 39 98 23 db 3c
       -0.015060185 -0.094745494 0.00016848279 0.02675037
0003e0 2b a0 e3 3c 00 33 e4 3d 5c e9 c3 bc f1 8e a0 bd
       0.027786335 0.1114254 -0.023914985 -0.07839764
0003f0 ee 71 95 bc 77 20 d0 3d b0 b0 a7 3c 50 e1 05 bd
       -0.018242802 0.10162442 0.020469993 -0.032685578

conv1.bias f4 [64]
000000 d1 ce cb bd 9b de 5a bd 68 70 f6 bd 42 ff 9b bd
       -0.099515565 -0.05343495 -0.120331585 -0.07617046
000010 70 a6 09 3d eb 6a 74 be 4b 17 06 be 45 97 92 bd
       0.033605993 -0.23868911 -0.13094823 -0.071577586
000020 20 d5 12 be 3a 47 df be 00 b1 ac be 2d fb 29 be
       -0.14339113 -0.4360903 -0.3372879 -0.16599722
000030 a3 9a a9 3d b8 9c 20 be ee 2b ba bd 2e f9 07 3e
       0.08281448 -0.15684783 -0.0909041 0.13278648
000040 fc 3b cd be 60 58 71 bf fb 18 a7 bd 05 54 17 be
       -0.40084827 -0.94275475 -0.081590615 -0.14778145
000050 21 c8 55 be 8e b4 1e be a6 ae 4c be a5 44 95 be
       -0.20877124 -0.15498564 -0.19988498 -0.29153934
000060 d2 0b 83 3d 9b f5 6e be 0d 1e f5 bd ec 79 8b be
       0.06398739 -0.23335879 -0.11968622 -0.27241457
000070 fb 51 5d be 18 59 fa be 13 f1 23 be 7c b6 0b bf
       -0.21613304 -0.48896098 -0.16009931 -0.54575324
000080 c3 9f c2 bd d0 18 70 be d7 2a 3e be 08 89 1c bf
       -0.095031284 -0.23446965 -0.1857103 -0.61146593
000090 c7 75 2b 3e 2a 7c 98 be 04 7c c6 be 57 c9 0b be
       0.16744147 -0.2978223 -0.3876649 -0.13651024
0000a0 05 8c 44 3d 21 6f ff 3d 72 77 a5 3c 19 a8 96 bd
       0.047985096 0.12472368 0.020198558 -0.07356281
0000b0 1d 22 2c bd f2 cf 6f be c6 be ce bd 07 5b 23 be
       -0.04202472 -0.23419169 -0.10094981 -0.15952693
0000c0 bb 1c 0a 3e 59 5c b3 bd 36 8d d0 be e3 7c 01 bf
       0.13487522 -0.08757848 -0.40732735 -0.50581187
0000d0 de 69 97 bd fc f0 41 bd 1e f8 9a be 89 ce 4d be
       -0.073932394 -0.04734896 -0.30267423 -0.20098318
0000e0 25 ce 56 be ae e9 35 be 0f 29 bc bd 35 25 8d be
       -0.20977075 -0.17764923 -0.09187519 -0.2756745
0000f0 12 30 c2 bd 3c a0 8f be 59 c5 14 be 59 ed 6a 3c
       -0.09481825 -0.28051937 -0.14528407 0.014338815

conv2.weight f4 [128, 64, 5, 5]
000000 54 ad 81 3c c1 f3 ac 3c de 84 2e bb ec 21 d5 bc
       0.01582972 0.021112325 -0.0026629488 -0.026017152
000010 af dd a1 bc 0b 20 1e 3d af 08 b4 3b 2a c1 62 3c
       -0.019759027 0.038604777 0.005494199 0.013839999
000020 90 04 a2 bb f9 cc 35 bb 9c 3e 14 3d 51 be 83 3c
       -0.0049443915 -0.0027740581 0.03619252 0.01608196
000030 01 a9 51 3c 5c 1b f4 bb 05 4c 19 bd 9f b8 05 3d
       0.012796641 -0.0074495506 -0.037426013 0.03264677
000040 4b 76 8b 3c a3 66 56 3c 0b d5 0c bc 3f 1b 9b bc
       0.01702418 0.013085994 -0.008595715 -0.01893389
000050 fb 50 e6 3c 28 1d 44 bb 32 b1 0d 3c 88 1b 5b bc
       0.028114786 -0.0029924605 0.008648204 -0.013373263
000060 2c c5 2f bd 19 88 ac 3a 03 63 7a bb ba 6e 92 3b
       -0.042912647 0.0013163119 -0.0038205988 0.004468766
000070 32 57 0f bc aa 32 0f 3c 9f 8f d7 bb b5 da 9e 3b
       -0.008748816 0.008740107 -0.0065784003 0.0048478493
000080 92 71 ea 3b a8 0f 8a bc bb dc 2d 3b 57 8c cd 3b
       0.007154652 -0.016853169 0.002652927 0.0062728333
000090 87 b6 97 3b 95 ee 65 bc 26 d2 85 3c 1f 93 7e bc
       0.0046299133 -0.014033933 0.016335558 -0.015538006
0000a0 45 a1 aa 3c 57 ec 91 3b f0 78 06 3b 1a eb 86 bb
       0.020828852 0.0044532227 0.0020518862 -0.0041173818
0000b0 35 bd df bb ec cb 6a 3c e3 3a 82 bb 8f e4 2a 3b
       -0.006827975 0.014330845 -0.003974305 0.0026076173
0000c0 f9 79 2a bc 1b 69 09 bb f9 e7 c1 bc 62 ee b5 bc
       -0.010405057 -0.0020967189 -0.023670183 -0.022208396
0000d0 7f 80 a9 bc 2a 24 6e bc c4 3b 8f bc a9 b8 dc bc
       -0.020691155 -0.014534989 -0.017484553 -0.026943522
0000e0 22 15 e5 bc c0 2b fe bc 58 e7 e7 bc c8 ae aa 3b
       -0.027964178 -0.031026721 -0.028308555 0.005208824
0000f0 c0 eb 72 bc b7 6e dc bb ef 14 ec bc df 52 71 bb
       -0.014826715 -0.0067270654 -0.028818576 -0.0036823077
000100 84 bd 95 bc 01 73 a6 bb 47 58 c9 bc c5 66 2c bc
       -0.018278845 -0.0050796275 -0.024578227 -0.010522549
000110 f9 e4 a6 bc cb 7f 4e bc 89 5d d0 bc e3 8d 97 bc
       -0.020372855 -0.01260371 -0.025435226 -0.018500274
000120 74 07 f9 bc 7c 21 24 3b 0a 13 80 bc c6 14 35 3d
       -0.030399062 0.0025044372 -0.015634079 0.044209264
000130 c0 71 b6 3c 43 78 76 3c d3 b4 db bc 5d 3c 0d bd
       0.022271037 0.015043321 -0.026819622 -0.034481395
000140 ec 95 23 3c 0a 8d d8 3c 8a 2a 3b 3c d8 9e 78 bc
       0.009984475 0.02643444 0.011423716 -0.01517459
000150 3d 26 12 bd 99 55 f7 3c 89 e9 ed 3c 0e 76 62 3c
       -0.035680998 0.030192183 0.029042022 0.013822092
000160 7f 87 e4 bc c2 6f 23 bc fa 64 e9 3a e1 2e f1 3c
       -0.02789664 -0.009975376 0.0017806583 0.029441299
000170 88 38 4c bc bf 93 16 bd 8a d0 27 bd 8e 8c 7f 3c
       -0.01246465 -0.036761995 -0.040970363 0.015597476
000180 33 82 b7 3c 9a 72 68 bc f0 35 28 bd 32 4c bf bc
       0.022400951 -0.014187479 -0.041067064 -0.023351762
000190 41 20 65 bc e4 cb dd bc 71 d7 51 bc 1f d9 76 3c
       -0.013984741 -0.027074762 -0.012807713 0.015066414
0001a0 10 80 93 bc 61 3f 85 bc f9 7d b4 3b cb cf 6c bc
       -0.0180054 -0.016265573 0.005508181 -0.014453839
0001b0 61 75 aa ba 9b 28 51 bc 74 53 9d bb 20 06 cf bc
       -0.0013004952 -0.012766029 -0.004801208 -0.025271475
0001c0 73 85 7c bc 4d 54 59 bc 79 91 55 3b f7 56 e1 3b
       -0.015412676 -0.013264728 0.003258793 0.006876822
0001d0 41 4c db bb b4 f3 02 3c 72 4f 23 bc dc fa 02 bc
       -0.00669244 0.007992674 -0.009967672 -0.00799438
0001e0 58 de 98 bc 2e 93 f7 3b 96 77 8b 3c 6a 1f d9 3b
       -0.01866071 0.007555387 0.017024796 0.0066260593
0001f0 b3 6f 7d 3c 1a e6 89 bc fe 76 2c bc e7 f0 2a bc
       0.015468526 -0.016833354 -0.010526417 -0.010433412
000200 c5 51 f4 bc 57 72 1b bc ff 70 9c bb 59 e3 f1 bc
       -0.029824147 -0.00948771 -0.0047742124 -0.029527353
000210 5f 5d 3c bd b2 ee 19 bd 63 d2 1f bd cc 97 8a 3b
       -0.045987483 -0.037581153 -0.039019 0.0042295214
000220 7d 30 7e bc 50 60 11 bd b4 98 99 bc e9 40 1d bd
       -0.01551449 -0.03549224 -0.018749572 -0.03839198
000230 48 94 80 bc 7e 89 79 bc f9 e4 aa bc 15 0d 2f bd
       -0.015695706 -0.015230535 -0.020861136 -0.042737085
000240 85 93 29 bd 85 5e c4 bc 88 d7 73 bc 74 c3 50 bd
       -0.04140045 -0.023970852 -0.01488293 -0.05096765
000250 d2 61 67 bd ad 02 40 bd 75 45 78 bd 03 38 46 bd
       -0.056489773 -0.04687755 -0.060613114 -0.04839326
000260 56 53 42 bc f4 ea 37 3c c5 95 7d 3c f2 7e 7c bd
       -0.011860689 0.011225451 0.015477602 -0.061644502
000270 c1 93 01 bd d0 07 c4 bb a1 86 30 3d 96 1e bc 3b
       -0.03163505 -0.0059823766 0.043097142 0.005740951
000280 58 b5 50 bd e9 ad 51 bd 02 55 b8 3b 6e 31 0e 3d
       -0.050954193 -0.051191244 0.005625368 0.03471511
000290 97 1b cb 3c cc ba 46 bd 44 55 9c bc 37 af 0d 3c
       0.02479343 -0.048517987 -0.019083627 0.0086477315
0002a0 e4 bf 17 3d d6 94 8d 3c a3 c7 30 bd 3d 27 1b bd
       0.037048236 0.017282885 -0.04315914 -0.037879217
0002b0 b1 3e 46 3b 21 39 4a 3d cc 54 d0 3c a2 e0 ac bc
       0.003024977 0.04937089 0.02543106 -0.021103207
0002c0 51 91 38 3b 6d fa 82 bb 5d 94 5d 3c d7 66 80 3c
       0.0028162787 -0.0039971382 0.013524142 0.015674038
0002d0 8a 43 b9 bb 70 ff a6 3b 2a e5 92 3c ac 96 6a 3c
       -0.0056538032 0.0050963685 0.01793154 0.01431815
0002e0 e2 47 24 3c fb a4 a1 bc 02 65 75 3c b3 51 d4 3c
       0.010026904 -0.01973199 0.014977695 0.025917863
0002f0 2d 4b 8b 3c eb db da bb a2 57 a5 bb 9b d2 7c 3c
       0.01700362 -0.0066790483 -0.005045847 0.015431072
000300 66 02 55 bb 85 8c 83 3a 6c fb 22 3c ad ec 66 b9
       -0.003250265 0.0010036385 0.009947639 -0.00022022678
000310 c2 43 66 bc 1d 9b ed 3b 6a 0f 89 3c 51 bc 61 3c
       -0.014054241 0.007251157 0.016730983 0.013777808
000320 3c f1 6a bc a9 14 a7 bc 90 9d 84 bc bf a1 c5 3a
       -0.014339741 -0.020395594 -0.016188413 0.0015078111
000330 7c 07 33 3b b5 7d 3f 3b 96 8f 92 bc 41 94 99 bc
       0.0027317693 0.0029219214 -0.017890733 -0.01874745
000340 e5 39 bb 3c fa d6 e7 3c 2b be 0e bc dc 20 3c 3c
       0.022854755 0.028300751 -0.008712332 0.011482444
000350 3d e3 25 bc c7 9c b0 bb 1d c8 5c 3b 0d f3 21 bc
       -0.010124979 -0.005389783 0.0033688613 -0.009884608
000360 10 93 37 bc 8c d6 a5 3b 19 85 47 ba 13 cc 43 3b
       -0.011204496 0.0050609764 -0.00076110807 0.0029876276
000370 d4 e0 9d bc 32 3e 28 3b 5c 26 47 3c 67 5e 7e 3c
       -0.019272245 0.0025671837 0.012155142 0.015525437
000380 1e 7d b0 3c b8 59 a0 3c 89 6a 8b bc 96 78 57 bc
       0.021544036 0.019574031 -0.017018573 -0.0131513085
000390 15 65 4e 39 8b 1c d7 bc c1 b6 b4 3c 8d b3 56 bb
       0.00019683347 -0.026258728 0.0220598 -0.003276083
0003a0 5c 61 93 bb be 0b bc bc 60 43 51 bb 35 ab 6f bc
       -0.00449769 -0.022954818 -0.0031931028 -0.014628221
0003b0 84 53 ad bb 30 a6 84 bc 74 fd bd bc 31 70 d3 bc
       -0.005289497 -0.016192526 -0.023192145 -0.025810333
0003c0 d3 7a 88 3c 6a 38 04 3c 78 21 bf bb d0 6e c6 bb
       0.01666013 0.008070091 -0.005832847 -0.0060556903
0003d0 51 a0 91 bc 69 ea 80 3c 4b 71 d5 bc 18 5a b6 bb
       -0.01777664 0.015736775 -0.026054999 -0.005564939
0003e0 55 a6 92 3b 4e 3e dd bc 3d 1f 3d bc b2 e5 ce bc
       0.0044753947 -0.027007248 -0.011543092 -0.025256012
0003f0 9c 12 8f bc c7 6a dd 3b c4 b3 fe bb 0f cf 1b bc
       -0.017464928 0.0067571136 -0.0077728946 -0.009509816

conv2.bias f4 [128]
000000 53 41 52 bd 7c 8b 80 bc d6 da 5d bc 45 4b d6 bd
       -0.05133183 -0.015691511 -0.013540944 -0.10463575
000010 26 ef 6a 3d 62 3f e8 3c 98 d5 e7 3c 7d 7f 3e bc
       0.057356976 0.028350536 0.028300092 -0.011627075
000020 67 97 95 3d 98 e0 1b bd 47 fa 5d 3d ec 50 d2 bc
       0.07304268 -0.038055986 0.05419376 -0.025673352
000030 0b 87 74 bc d9 d6 f2 3d 6d fe 50 3e b9 fe 9f 3c
       -0.014924775 0.11857385 0.20409556 0.01953064
000040 d0 61 02 bd d0 c2 c5 3c 1b a3 64 3d 14 40 43 bb
       -0.031831563 0.024140745 0.055819612 -0.0029792832
000050 01 79 c1 3d 8a a9 ac 3c 37 f5 1e bc e8 fb a2 bc
       0.09446908 0.021076936 -0.009702018 -0.019895509
000060 c6 a9 88 38 8e 91 9b 3d 4b a2 42 bc 8a 57 36 3e
       6.516608e-05 0.07596122 -0.011879514 0.17806831
000070 b9 2c 92 3c 93 7e 36 3c 2f b7 cd bd a4 40 cc bc
       0.017843591 0.011138576 -0.10044705 -0.024933167
000080 28 da 0b 38 52 cc 7c bc 73 aa 11 3d 19 42 28 3c
       3.3343356e-05 -0.015429573 0.035562944 0.010269665
000090 54 94 fe bb 99 51 36 3c c6 e1 7b 3c d9 06 71 3c
       -0.007769147 0.011127853 0.015373653 0.014711105
0000a0 8f a7 c7 3c f0 49 ba 3c aa 49 e1 3d b6 81 5f 3c
       0.02437189 0.022740334 0.110003784 0.013641765
0000b0 5a 4d eb bb 5b 44 b5 3b 48 e8 23 bc 56 fb 45 3b
       -0.007180852 0.0055318302 -0.010004111 0.0030209622
0000c0 88 6a 33 bb 9f 84 ed 3c f0 bf 29 3d f5 6f 08 3e
       -0.002737673 0.028993903 0.04144281 0.13323958
0000d0 75 0d a6 bd 65 98 12 3c a7 56 71 3d f2 26 69 bc
       -0.081080355 0.0089474665 0.05892053 -0.014230477
0000e0 26 e4 81 3d 71 f1 3f bc 2e 34 64 3d 0e 59 bb 3c
       0.06342344 -0.011715279 0.055713825 0.022869613
0000f0 a5 76 45 3b 0c 56 f8 3c 06 cc 53 3d 11 63 44 3c
       0.0030130532 0.030314468 0.051708244 0.01198651
000100 cb 9a 70 bc 08 c5 c9 bc 40 f3 88 bd 96 53 c0 bb
       -0.014685343 -0.024630085 -0.06687021 -0.005869339
000110 0b 35 c1 3a 75 cf 8a 3d ae f7 47 3b 97 b3 8f bb
       0.001474054 0.067778505 0.0030512619 -0.0043854224
000120 d2 de 7f bc 4f 6c 0c bd 8c 66 15 3c eb a9 6d 3d
       -0.015617089 -0.03428298 0.009118687 0.058023375
000130 29 78 cb 3c d2 8b 3f 3d ff 7f f8 3c 48 c0 96 bc
       0.02483757 0.046764202 0.03033447 -0.018402234
000140 32 ba 8f bd d4 04 07 3d 65 0d 82 bc 0d bf 78 3d
       -0.07017936 0.03296359 -0.015875528 0.060729075
000150 bf c2 33 3b 6d 76 70 bb eb cb 57 3c 62 9f 1f 38
       0.002742931 -0.003669168 0.013171176 3.805699e-05
000160 9d 35 88 3d 3a d2 43 bb 69 81 9d bd 98 cc 36 3b
       0.06650851 -0.0029879943 -0.07690699 0.0027892943
000170 f8 68 88 bb 41 0d e1 3b f8 cb a8 3c e2 89 4b 3c
       -0.004162904 0.006868035 0.020605072 0.012423011
000180 85 5e c7 ba f3 e8 73 3d 55 b7 11 3c 4d 52 91 3b
       -0.0015210664 0.05954833 0.008893807 0.00443486
000190 4c 79 3e bb 96 8e b5 bb 66 05 92 3c 83 ca 8b bc
       -0.0029063998 -0.005540679 0.01782484 -0.017064339
0001a0 a4 01 9b 3a 32 72 bd 3b 9f 09 ef bb b1 ec 29 3c
       0.001182605 0.0057814354 -0.007294848 0.010371373
0001b0 3f f0 95 bd a3 07 84 3b 9c d9 4d 3b 6e 7d 90 bb
       -0.07321214 0.0040292307 0.0031410223 -0.0044094836
0001c0 1b 01 03 3d 2f d3 de bc df f6 82 3d 4b 38 34 3c
       0.031983476 -0.02720031 0.06394743 0.010999749
0001d0 dc e7 65 3c 6e 09 a5 3d 40 de bd bc fb 95 ab 39
       0.01403233 0.08058439 -0.023177266 0.00032727406
0001e0 e2 1a 71 bd ed 57 55 3d b3 cc 09 3e 99 00 aa 3c
       -0.058863528 0.052085806 0.13456993 0.020752238
0001f0 25 76 7a bd 97 58 db bb 07 01 a6 3c f6 75 95 3d
       -0.061147828 -0.0066939103 0.020264162 0.0729789

fc1.weight f4 [64, 128]
000000 be 6a 3e 3d 92 8e 7d 3d bf c0 32 bd a9 33 3d bd
       0.046488516 0.061903544 -0.04364085 -0.046191845
000010 8d c4 77 bd a6 4c 65 3c 9a c3 ae 3c 3c d2 34 3d
       -0.06049018 0.013995325 0.021333504 0.044145808
000020 db e1 e6 3b 2b 74 7f bc a9 6e a5 39 d3 07 30 bd
       0.007045967 -0.015591661 0.000315537 -0.04297621
000030 a7 9f 2e 3d 11 e2 82 bd 57 29 3e bd b3 68 9a bc
       0.042632725 -0.06390775 -0.046426143 -0.018848753
000040 9a 12 be bc 39 14 80 3c 5e a2 7f bd 1d d6 3a 3c
       -0.02320223 0.015634643 -0.062410705 0.011403588
000050 00 55 56 bd b5 96 97 3c f2 91 67 bd ff f1 62 3d
       -0.052327156 0.01850448 -0.05653567 0.055406567
000060 0f 2e 97 3c ad c8 ea 3c ee be 71 bd 1f d2 05 bd
       0.01845458 0.028660143 -0.059019975 -0.03267109
000070 45 3a e8 bc bc 5a 56 bd 27 7b 87 bd 14 4b 32 bd
       -0.028348098 -0.052332625 -0.06615286 -0.04352863
000080 9d 5b e6 3c 31 78 48 bd d1 91 70 3d 8c 8a 8f bc
       0.028119856 -0.04894275 0.05873281 -0.017522119
000090 13 1c e1 bc 3e 7a bd bc 5a 3f a6 3c f9 37 77 3b
       -0.027479207 -0.023129579 0.02029388 0.0037722571
0000a0 a4 f7 4e 3c ec e3 91 3c 82 1a 9e 3c 52 11 92 3c
       0.012632284 0.017808877 0.01929975 0.017830525
0000b0 78 c7 a0 bc 59 33 20 3d cc d5 d8 bb 22 15 4a bb
       -0.019626364 0.03911147 -0.0066172834 -0.003083535
0000c0 4f fb 5a 3d 61 13 c5 bb 63 af 82 bd 0a f2 70 bd
       0.053462323 -0.006014273 -0.063811086 -0.058824576
0000d0 22 e9 10 bd 7e 50 b0 bc 5e c1 0f bd ec 63 59 bc
       -0.035378583 -0.021522757 -0.03509652 -0.013268452
0000e0 d8 47 75 bc 0e aa 17 3d eb 94 22 3d 8b 66 ef bc
       -0.014970742 0.03702741 0.0396928 -0.029223701
0000f0 93 56 73 3c 3c e4 fe bc d9 99 c9 bc fe 6e 07 bd
       0.014852184 -0.03111469 -0.024609493 -0.033064835
000100 06 f7 3e 3d 33 70 06 3d 02 33 da b8 34 7c 0e bd
       0.0466223 0.032821845 -0.00010404551 -0.034786418
000110 01 b1 5a bc fc d1 01 3d d8 c3 63 bc 08 ea 54 3a
       -0.013347865 0.031694397 -0.013901673 0.00081220316
000120 fe d3 2d 3d ed 84 dd 3b be 31 79 bd ec b4 6c bd
       0.0424385 0.0067602308 -0.060838453 -0.057789728
000130 2e c1 20 3d 0a fb 89 3a b2 7a 97 bc 71 38 30 3d
       0.03924673 0.0010527086 -0.018491123 0.043022577
000140 31 eb 68 bd 53 a0 30 bd e4 ad b1 3c 68 f9 26 bc
       -0.05686492 -0.043121647 0.021689363 -0.010191299
000150 36 8d e0 3c de 8c 2e 3d 5f af 05 3d c8 4d 68 3c
       0.027411085 0.04261481 0.03263795 0.014178701
000160 a3 dd 1f 3d 66 85 30 bd df ed 61 3c dc 8f d1 3b
       0.03902973 -0.04309597 0.013789623 0.006395323
000170 28 9c e1 bb 15 d1 89 bb e2 0b 63 3d a3 0e 4f bd
       -0.0068850704 -0.0042058327 0.055431254 -0.050551068
000180 c0 10 65 bc a7 ce cf bc 3d 99 7f 3d 83 ff 56 3d
       -0.013981044 -0.025367094 0.062402 0.05248977
000190 35 66 76 bd 67 0d b4 bc 0a 4a dd bc 0e a2 f8 3c
       -0.060156066 -0.021979047 -0.027012844 0.030350711
0001a0 b8 d8 ee bb b3 37 58 3d df 7b 88 bc ba 9d 2a bd
       -0.0072890185 0.052787494 -0.016660629 -0.041654326
0001b0 c3 1e 77 bd 92 d6 20 bd c1 b4 03 3d 3a 39 ec 3c
       -0.06033207 -0.03926713 0.032154802 0.028835882
0001c0 5a 1b 47 3d 0c 76 6d bd bb 4f 33 3d 6c cb b0 bc
       0.04861007 -0.057973906 0.04377721 -0.021581374
0001d0 3f 3d 42 bd 05 b7 ac bc 38 ea 24 3c d9 58 25 bc
       -0.04742169 -0.021083364 0.010065608 -0.010091984
0001e0 35 68 4f bc f9 a2 32 bc 76 80 1e 3d 39 38 74 3d
       -0.012659122 -0.0109031135 0.03869673 0.05962393
0001f0 ac ba 37 39 db 24 0d 3c 7c 2a f1 38 6a 70 a5 bb
       0.0001752178 0.008614744 0.00011499689 -0.005048801
000200 aa bb 96 bd 26 b1 23 bd 47 d0 64 3c ff ee fe bd
       -0.07360013 -0.039963864 0.013965673 -0.12447929
000210 e3 c2 59 3d 6e 3c 55 bd ba 62 57 bd da ec f8 bc
       0.053164374 -0.052059583 -0.052584387 -0.030386377
000220 59 f8 28 3d 3b a8 7a 3d 91 d9 2d bd 7f 11 d6 bd
       0.041252468 0.061195593 -0.042443816 -0.10452556
000230 23 d9 1a 3b 02 dc 1d bd 83 10 8c bc e2 97 c7 bd
       0.0023627959 -0.038539894 -0.017097717 -0.09745766
000240 3b 2b 67 bd 31 91 b4 bc 32 d0 49 bd 81 bf 55 3d
       -0.056437712 -0.022041889 -0.049270816 0.052184585
000250 33 1f bf 3d db 3c a9 bc 9e be 1e 3d 8d b5 3e 3c
       0.09332123 -0.020658901 0.038756005 0.011639965
000260 31 ea a9 bc fc 37 33 be aa f5 af 3c 83 60 11 3d
       -0.020741554 -0.17501825 0.021479446 0.03549243
000270 44 9a 40 bd 96 1d cf bd db 59 0a 3d 7b d6 09 3d
       -0.04702212 -0.10113065 0.0337771 0.03365181
000280 d9 d9 40 3d ee 6f cf 3c d6 d4 85 bd a8 7a 80 bb
       0.047082756 0.025321927 -0.06534736 -0.0039208718
000290 fa 6a 23 bd 61 55 de bc d7 dc 28 3b 12 5b 8b bd
       -0.039896943 -0.027140321 0.0025766396 -0.0680448
0002a0 45 eb c2 bd dd 38 81 bd 7a 32 eb bd 10 3b c6 bd
       -0.0951753 -0.06309674 -0.11484237 -0.09679234
0002b0 42 4b 19 3b 72 f4 54 bd 3b 68 cd bc a9 a0 e8 3c
       0.0023390804 -0.051990934 -0.025074115 0.028396921
0002c0 15 ef 81 bd e5 c0 46 bd 8d d6 f7 bb 87 f7 40 be
       -0.063444294 -0.048523802 -0.0075634182 -0.18844424
0002d0 2a ce 09 3d fc 70 81 bd 0d c8 47 3d 0d 7c 46 3c
       0.03364388 -0.06320378 0.048774768 0.012114537
0002e0 8d b0 92 bd 3f 35 98 3d cc 1f 02 be 3f a5 bb 3c
       -0.07162581 0.07432031 -0.12707442 0.022905944
0002f0 08 09 08 3d ed 16 e6 3c 40 c2 04 3d 5b d5 25 bd
       0.033211738 0.028087104 0.032411814 -0.040486675
000300 fb 2a 44 bd dd 98 8a bd 32 4f 36 be 67 bb ce bc
       -0.047892552 -0.067674376 -0.17803648 -0.025235845
000310 98 d2 ed ba 46 2b 94 3d 53 b6 15 3c af 67 e6 bd
       -0.0018144427 0.07234816 0.009137708 -0.11250245
000320 f9 00 1b 3d e0 d2 c4 ba 92 5b f5 bd ca de 3b bd
       0.037842724 -0.0015016459 -0.11980356 -0.045866765
000330 ea 20 1d be 0d 94 fc bc aa f0 7b bc 35 a1 8e 3c
       -0.15344587 -0.030832315 -0.015377203 0.017410854
000340 59 f1 e6 bd 71 9c c0 bb 4e fa 07 bd 13 14 e0 3d
       -0.11276502 -0.0058780243 -0.033197694 0.10941329
000350 78 60 5f bc e1 1a 34 3c c5 5b 20 bd 29 c3 6e bd
       -0.01363384 0.010992737 -0.03915002 -0.058291588
000360 48 8d 19 be c7 9b 62 bd 88 13 e4 bd 90 9c 6d bd
       -0.14995301 -0.055324342 -0.11136538 -0.058010638
000370 0a 7c a7 bc 80 35 6a 3b 94 b9 34 bd 12 dd 92 bc
       -0.020444889 0.0035737455 -0.044122294 -0.01792768
000380 ae 52 45 bd ce 37 f2 bd 27 99 7b 3c 2b 76 1d bd
       -0.048174553 -0.1182705 0.015356339 -0.038442772
000390 ac af d5 3d aa 53 84 3d ef 46 67 bd 08 2a 1d bd
       0.104338974 0.0646127 -0.056464132 -0.038370162
0003a0 7f 6c 46 bd 76 bc 84 3b b1 e6 bd 3c 82 27 ca bb
       -0.048443314 0.0040507866 0.023181291 -0.0061692605
0003b0 e3 2c 32 be 12 f5 5e bd 01 48 7d 3b 47 a2 41 bd
       -0.17399935 -0.054432936 0.0038647654 -0.0472739
0003c0 b7 52 7d bd 23 ad 58 3d fa 8d be 3c 09 93 d2 bc
       -0.06184646 0.05289949 0.02326106 -0.025704877
0003d0 89 f1 77 3d cb 8a 90 3d ba a3 9e bd 28 0a 8c bd
       0.06053308 0.07057723 -0.07746072 -0.06837875
0003e0 6d f8 8d 3d 8e 5e 53 be 3c 6e e6 3c 92 c6 c8 bd
       0.06932149 -0.20641539 0.028128736 -0.09803499
0003f0 62 51 d8 bd e0 0b 5e 3b cb 04 98 bd e9 62 9d 3d
       -0.105623975 0.003388159 -0.07422789 0.07684881

fc1.bias f4 [64]
000000 62 2e ec 3b a4 de d7 3d 2d 24 41 3e d8 0d 03 3f
       0.0072076777 0.10540512 0.18861456 0.51193
000010 40 79 be 3d 6a 71 f1 3e d2 44 42 bd d2 d4 8a bd
       0.0930047 0.4715684 -0.047428913 -0.067788735
000020 26 46 c6 3e 9a 2b d8 3d dc b7 1f 3e 17 dd fd bd
       0.38725394 0.10555191 0.1559748 -0.12395685
000030 24 90 fc bc 54 62 9c bd 4e 19 07 3f 8f ed 08 3e
       -0.03083045 -0.07635942 0.52772987 0.13371871
000040 cd 26 16 be 1b 18 2a bd dc 6e 11 3d 76 b6 ce 3c
       -0.14663239 -0.041526895 0.035506114 0.025233489
000050 03 33 e2 bd dd 6d 05 bd b3 4c e5 bc 23 79 f9 bc
       -0.11044886 -0.032575477 -0.027990675 -0.03045327
000060 5d eb 3c bc 29 8b 0e 3f a6 7b aa 3e b3 d2 a4 3e
       -0.011530724 0.5568109 0.3329746 0.32192
000070 bb 6c bf bb 8b c9 a4 bd 67 51 ad 3b c0 8c 14 bf
       -0.005841819 -0.08046254 0.005289245 -0.5802727
000080 59 fb a6 3e 18 75 47 3f cd 06 6b bd b4 ee 25 3e
       0.32613638 0.77913046 -0.057379533 0.1620434
000090 5a 0b ec bb ea f5 16 bd 99 c1 46 be 99 c9 9f bd
       -0.0072035016 -0.036855616 -0.19409789 -0.078021236
0000a0 9a 44 39 3e 6f 64 aa bd 3e 35 a3 bd 84 4d 92 3d
       0.18092576 -0.083199374 -0.079691395 0.07143691
0000b0 8a 04 a9 3e 35 56 9e 3d ff 20 44 3e 12 85 80 3e
       0.33011276 0.077312864 0.19153212 0.25101525
0000c0 83 7b 11 3f 65 db a4 bd 7a 7c a4 bd 2a 17 f4 bc
       0.5682909 -0.08049659 -0.080315545 -0.029796202
0000d0 95 8d c2 3e d4 c4 fd bc c1 c4 d2 3e 44 99 9f bd
       0.37998644 -0.030977644 0.41165736 -0.07792905
0000e0 a7 1f ec 3c 02 92 c7 bd c3 15 89 3e 5c a5 c3 bd
       0.028823687 -0.09744646 0.26774415 -0.09553024
0000f0 e7 ff ad 3d b5 79 35 bd 53 d9 16 bd 5c e2 1f 3d
       0.08496075 -0.044305522 -0.03682835 0.039034232

fc2.weight f4 [32, 64]
000000 49 00 0f bd 2a fd 96 bd ea 7e f1 3b 56 3e 5d 3d
       -0.03491238 -0.07372506 0.0073698657 0.054014526
000010 45 db 71 3d 17 57 5f bd af c7 8c bd 70 aa 80 bd
       0.059047002 -0.054526415 -0.06874024 -0.062825084
000020 6b 48 3e bc 82 5a 8c 3c be 13 d1 bc 12 66 37 bd
       -0.0116139455 0.017133001 -0.02552211 -0.044775076
000030 4d dd 79 3d f7 ad 87 3d d0 62 b4 bc 97 cb 6e bd
       0.061002064 0.06624978 -0.022019774 -0.058299627
000040 4b 03 cd 3b c1 0a 5d 3d f8 6c be 3b 27 1b a5 bd
       0.006256496 0.053965334 0.00581133 -0.080618195
000050 8b 1d 1b 3d b1 3f bc 3a a3 2a 8f 3d 3f fc 91 bd
       0.03786997 0.0014362243 0.06990554 -0.0712819
000060 50 e0 91 3d e5 e8 a6 bd 41 85 a0 3c 58 fe 44 bd
       0.07122862 -0.0814989 0.01959479 -0.048094124
000070 a8 e7 b5 bc 5f 85 61 3a 1d 52 92 3c 02 5f 2a 3e
       -0.022205189 0.00086029427 0.01786142 0.16637805
000080 bc df a0 bd 92 37 17 3d 76 a8 03 bd f5 7b 9a 3d
       -0.07855174 0.03691823 -0.03214308 0.07543174
000090 12 14 8f bd e5 cd 42 bd fb f9 12 3d 34 57 99 3d
       -0.0698625 -0.047559638 0.03588293 0.07487336
0000a0 17 1b 3b bd 18 e3 8a 3d 6a 79 7b bd a5 be fe 3c
       -0.04568013 0.06781596 -0.061395086 0.031096766
0000b0 4e b0 01 bd e1 1e 83 bd 34 e1 b2 bd a8 75 4d bc
       -0.031662278 -0.06402374 -0.0873436 -0.0125402585
0000c0 c4 6d 54 bc f0 b3 88 3d 7a 56 c1 3c 35 60 2d 3d
       -0.012965623 0.06674945 0.023600806 0.04232808
0000d0 68 7a 9a bc 14 d7 5e bd 9c 71 74 3d 6a 03 95 3c
       -0.018857196 -0.054404333 0.05967866 0.018190105
0000e0 fc fe e2 bb 9d fb 96 bd 4c 3b 68 3d bd f4 1e 3d
       -0.006927369 -0.0737221 0.056697175 0.03880762
0000f0 17 9c 36 bd c1 a5 f1 bc 53 c6 a3 3d 6f d9 ad 3d
       -0.044582453 -0.029497983 0.07996812 0.08488738
000100 83 0f 84 3c e1 7d a1 bd ad 85 5e 3d 94 52 cf 3d
       0.016120678 -0.078853376 0.054326702 0.101231724
000110 4b 95 69 3d f3 c6 55 3e b0 b6 50 3a cc 1d 30 bd
       0.057027142 0.20876674 0.0007961793 -0.042997167
000120 e2 88 48 3d 55 b8 a6 bd 37 00 eb 3d 54 e4 9e 3d
       0.048958667 -0.08140627 0.1147465 0.07758394
000130 79 08 a6 3d 15 db 93 3b f2 ab 98 bd 85 da ef 3c
       0.08107085 0.0045122006 -0.07454671 0.029279003
000140 c8 86 12 be 43 27 0e bd 2e 73 21 bd eb 0b 0b bd
       -0.14309227 -0.03470541 -0.039416485 -0.033946913
000150 50 ed 12 be 63 24 ca 3b 4f 3a 84 3d ec 76 1b bd
       -0.1434834 0.0061688884 0.06456434 -0.03795521
000160 9b 5e 2d bd 92 63 27 3b bc 2c 02 3e cd 9e 92 3d
       -0.04232655 0.0025541526 0.12712377 0.07159195
000170 f8 10 67 bc e1 a5 dd 3c 95 a5 c0 bd 88 21 b8 bd
       -0.014103167 0.027056636 -0.09406582 -0.089907706
000180 8d 50 b0 3d 30 ac 83 3e 9d 2b 34 ba a6 34 fa 3d
       0.08609114 0.25717306 -0.0006872954 0.12217073
000190 aa 36 9d bd c5 47 f8 bb c5 20 54 be 2f a0 25 be
       -0.07676442 -0.007576915 -0.20715626 -0.16174386
0001a0 12 a9 3b bd be 07 04 be e1 06 66 3d 04 68 bb 3d
       -0.045815535 -0.12893578 0.056158904 0.09150699
0001b0 e3 9a 56 3e 36 8a 20 be ca 43 85 bd 7b 64 80 3d
       0.20957522 -0.15677723 -0.0650707 0.06269165
0001c0 b3 b9 bf bd 79 ec 76 3d 5f 0d fe 3d 15 ca 89 3d
       -0.09361591 0.06028411 0.12404894 0.06727997
0001d0 73 fd 11 bd dd 38 28 3d 5a 48 3d 3d 1d 1f 1a 3d
       -0.0356421 0.041069854 0.046211578 0.03762733
0001e0 6d d5 95 3d 58 01 97 be aa c5 70 3c 7c 46 b2 bd
       0.07316098 -0.29493213 0.014695564 -0.0870485
0001f0 2e 6a be 3d 9c be b8 bc ae e8 94 bd 89 ce c6 bd
       0.09297596 -0.022551827 -0.07270943 -0.09707362
000200 74 3b 6b bd 5c ab 0c 3c 1f cd 05 3d 4e e0 71 bd
       -0.057429746 0.008585777 0.03266632 -0.059051804
000210 b8 7a 99 3d 3d ee 88 bd a5 f1 17 bd eb 46 35 bb
       0.0749411 -0.06686065 -0.037095685 -0.0027660679
000220 b2 1c f4 bc 7b 46 8d bd 30 48 71 3d 12 94 b5 bd
       -0.02979884 -0.06898209 0.058906734 -0.08866133
000230 e2 5a 57 3c 31 a3 70 3d 90 6c d9 bc 2f c2 1c 3c
       0.013144227 0.05874938 -0.026541024 0.009567781
000240 27 db 7b bc 75 29 da bb f3 58 1c bd ac 0f 74 bd
       -0.015372074 -0.006657774 -0.038170766 -0.05958526
000250 a8 cb df bc 23 b7 eb bc c3 bd d5 3c e3 73 b7 3d
       -0.02731879 -0.02877385 0.026091462 0.089576505
000260 01 c1 73 3c 25 4e 84 bd a8 50 ed bc a3 6b cc 3c
       0.014877559 -0.064602174 -0.028969124 0.024953669
000270 d8 9c 3f 3d d1 67 75 bd 4a 84 2d 3d 9f 20 51 3d
       0.046780437 -0.05991346 0.04236249 0.0510565
000280 cc bd 22 3c a8 5e 79 bc 59 d8 f7 bc 17 90 6c bd
       0.009932946 -0.015220322 -0.03025453 -0.057754602
000290 cc ed e2 39 a3 c9 74 3c b2 b7 b3 bd 0f 31 b9 bc
       0.00043283252 0.014940652 -0.087752715 -0.0226064
0002a0 ad 7d 4e bd 86 34 b7 bd 7c 24 6e 3d 36 e2 9d 3d
       -0.050412823 -0.08945565 0.058140263 0.07709162
0002b0 84 5b ba bd bd a5 fc 3b a6 24 21 3d 72 61 3e bd
       -0.090994865 0.007710187 0.03934159 -0.04647965
0002c0 6e a8 8a bd 49 7b 98 3c 62 51 2b bd 0c b7 9c 3d
       -0.06770407 0.018613474 -0.04182566 0.07652101
0002d0 57 be 42 bd a0 96 9c 3d 1d 9e 9d 3d bb b3 11 bd
       -0.047544803 0.07645917 0.07696173 -0.035571795
0002e0 cc 34 ae bd ae 1e e3 bc 8f c9 12 3c 02 67 a6 bd
       -0.08506164 -0.02772459 0.008959188 -0.08125116
0002f0 75 d9 47 bd c0 8f aa 3d dc c8 8d bd fc 40 a8 bc
       -0.048791368 0.083281994 -0.069230765 -0.0205388
000300 8e 15 a4 bc 33 71 d3 3c 66 5f 1b bc 49 a8 a1 bc
       -0.02002981 0.025810814 -0.009483194 -0.019733565
000310 6a 8f c2 3d c6 1c 33 3c ee a3 eb bd e8 c9 4d 3d
       0.0950001 0.010932153 -0.115058765 0.05024138
000320 14 66 2f bd 89 8a 5e 3d a8 ca a9 bd fc af b3 3d
       -0.04282196 0.054331336 -0.08290607 0.08773801
000330 1a f0 06 3d d9 69 03 bd c8 f5 17 be 3f f8 a1 bd
       0.032943822 -0.032083366 -0.14839852 -0.07908677
000340 5c 3a 09 bd a9 5d 41 3d a9 df a6 3c e7 5a 89 bc
       -0.03350292 0.047208462 0.020370321 -0.016766978
000350 2f 08 89 bd 30 d8 db 3a 0f 64 98 bd 6e 10 f8 3c
       -0.06691014 0.0016772803 -0.0744096 0.030281272
000360 32 ca f1 3c 53 13 a8 bd 9f cc 08 3e 30 e4 f7 bd
       0.02951536 -0.08206811 0.13359307 -0.1210407
000370 7d f3 0f bd f2 34 08 3d ca 8a 47 3a b8 e8 5e 3a
       -0.035144318 0.033253618 0.0007611929 0.0008503306
000380 26 91 97 3d 85 91 c7 bd 05 08 05 bd 69 bf c8 bd
       0.07400732 -0.097445525 -0.03247835 -0.098021336
000390 df c6 8a 3c 9e cc 80 3b f8 da 91 bd a2 f5 90 bd
       0.016940532 0.0039306423 -0.07121843 -0.07078101
0003a0 05 9b 59 bd fe 28 ff 3c 75 d2 15 3c c4 d4 29 3d
       -0.053126354 0.031147476 0.009144415 0.041462675
0003b0 45 91 ee bd 3c 1a 50 3c 48 1d 1a 3e c4 35 de bb
       -0.11648802 0.012701567 0.15050232 -0.0067813117
0003c0 af f2 65 be 0c e0 03 3c 0d 30 0d bd d2 99 8b 3d
       -0.22455858 0.008049022 -0.034469653 0.06816448
0003d0 0b ec 13 be 30 cc 36 bc 02 ac 7d bc 63 95 8a bd
       -0.14445512 -0.0111570805 -0.015482904 -0.067667745
0003e0 3c a0 01 bc dc 81 83 b8 be e4 82 3d 6c cc 3e 3d
       -0.007911738 -6.270755e-05 0.06391285 0.04658167
0003f0 01 6d 6c bd 8f 8d 79 bd 44 a7 69 bb f5 52 ad bd
       -0.05772114 -0.060926016 -0.0035652677 -0.084630884

fc2.bias f4 [32]
000000 9b 26 44 bb 87 0d eb 3d 45 68 38 bd d6 81 8b 3e
       -0.0029930237 0.114771895 -0.045021314 0.27247494
000010 25 10 cc 3e 32 ae 63 3f e6 d6 41 3d bc 1c bc bc
       0.39856067 0.88937676 0.047324084 -0.02296292
000020 43 ae 88 3e 11 06 64 bd 8a 9b 0d 3e 12 78 9b 3e
       0.2669545 -0.055669848 0.13828865 0.30365044
000030 a4 95 ba bd 97 77 2c 3e 1d de 14 bd bb c7 b6 bc
       -0.09110573 0.16842495 -0.036344636 -0.022312036
000040 37 18 17 bd ad 98 0d 3d 62 55 d5 3e 8b 06 9d 3c
       -0.036888327 0.03456943 0.41666704 0.019168159
000050 d8 d7 7b 3d 5d da c4 bd 8f 44 3c bd 7c 15 9f 3d
       0.06148514 -0.09611962 -0.04596382 0.0776777
000060 90 99 17 3e 0f 55 c6 3e 5f 30 c4 3d 3f 57 63 3e
       0.14804673 0.3873677 0.095795386 0.2220125
000070 cf 44 cc 3d 58 5c 26 bc 4f b1 99 bd 89 0a 8d bd
       0.09974062 -0.010153852 -0.07504522 -0.06886775

fc3.weight f4 [5, 32]
000000 14 3c ee 3d 6a d9 ed 3d b4 e2 08 bd 08 d0 6b 3e
       0.11632553 0.11613734 -0.033419326 0.23028576
000010 79 a3 77 bf ed 93 03 bf 71 b3 88 3d 18 37 c6 3b
       -0.96733814 -0.5139759 0.06674851 0.006049048
000020 ae 0a ae be 76 84 bc bd 08 bc 2e 3e ba a4 0a bf
       -0.33992523 -0.092049524 0.17063916 -0.541576
000030 50 5c a9 bc 37 a6 14 be 2e c7 0d bd 40 7f f6 3d
       -0.0206739 -0.14516531 -0.03461378 0.1203599
000040 5d 65 15 bd bc ad 03 be 9d c7 12 bf 1e 6a 05 3f
       -0.03647362 -0.12859243 -0.57335836 0.52115047
000050 0d 72 27 3e 2e 75 ed 3d 58 de cd 3a 33 8a 41 be
       0.163521 0.11594616 0.0015706522 -0.18900375
000060 85 52 f9 3d a6 b8 6c bf f9 8a 30 bd db 4d 17 3f
       0.121739425 -0.9246925 -0.043101285 0.59103173
000070 82 a8 e5 be 27 d0 a9 bd 68 1e eb 3d 78 0e b3 bd
       -0.44855124 -0.08291655 0.11480409 -0.08742994
000080 2d 3d cf 3d 61 bf 15 be dc ec 86 3d b9 2c ec 3d
       0.1011909 -0.14623787 0.06588146 0.11531968
000090 17 ad 30 3e 09 3a de be 7b 2b 0f 3e 0e 81 e6 bc
       0.17253529 -0.43403652 0.1398143 -0.02813771
0000a0 81 1b ac bd ea 50 38 bd dc d1 8a 3c f8 a4 04 3e
       -0.084036835 -0.04499904 0.016945772 0.12953556
0000b0 e2 75 f1 bb 03 3a ec bd de 33 ce bd 54 1e 59 be
       -0.007368789 -0.11534502 -0.10068487 -0.21202976
0000c0 62 37 45 bc de 3f 30 3e e2 34 65 bd 37 7c c5 be
       -0.01203713 0.17211863 -0.055958636 -0.3857133
0000d0 b2 4a b8 bc bd 50 44 3b f3 7c 7f 3d d5 28 17 3a
       -0.022496555 0.002995535 0.06237502 0.00057662773
0000e0 f3 b1 fe bd 02 0d b6 3d ff 68 0b 3e c9 25 7d be
       -0.12436285 0.088892 0.13614272 -0.24721445
0000f0 2d 51 9b 3e 3f 17 67 3d 68 b8 a3 3d 61 f5 14 ba
       0.3033537 0.056418654 0.07994157 -0.0005682316
000100 d7 04 06 3d f6 03 a5 3e 55 f3 01 be f2 b1 04 3d
       0.03271946 0.32229584 -0.1269048 0.032396264
000110 80 f8 92 3e 93 b2 19 3f b8 27 76 bd 9e 9c b8 bd
       0.28705215 0.6003811 -0.060096473 -0.09014247
000120 65 7d 29 3e 70 78 2c 3d e7 59 7c 3d d5 88 86 3e
       0.1655174 0.042107046 0.061609175 0.2627627
000130 59 9c 5b bd ce f3 83 bb 03 e2 e0 bd 52 23 a0 bd
       -0.0536159 -0.0040268665 -0.10980608 -0.07819237
000140 72 0c b2 3d 52 33 49 be 0e 5b 5b 3e ec 95 e0 3d
       0.0869378 -0.19648483 0.21421453 0.10966095
000150 2e dd 17 3c ec 80 c5 3d 2b 04 39 3d 0c d4 8e be
       0.009269042 0.096437305 0.04516999 -0.27896154
000160 d3 48 e0 bd 99 ba ca 3e 93 cf 05 be 70 5e 56 3e
       -0.1095139 0.39595488 -0.13067465 0.20934463
000170 8e 4e 0d be 77 9f ae bc ea d0 00 3e 05 77 e0 bd
       -0.13799497 -0.021316273 0.12579694 -0.10960201
000180 10 36 c9 3d 2f 59 c8 bd c5 e0 42 bd 98 4a b7 bd
       0.09824765 -0.097826354 -0.04757764 -0.089497745
000190 0e 3e 8f 3e 04 3f c6 be 98 41 8e 3e 00 0e f4 bc
       0.2797703 -0.38719952 0.2778442 -0.029791832
0001a0 60 f4 63 bc e1 69 48 bd 3f 41 37 3e 82 29 61 3e
       -0.013913244 -0.0489291 0.17895983 0.2198849
0001b0 96 8f 19 3d 0a 8e 20 be 9e cd c0 bd d7 9a 10 be
       0.03749045 -0.15679184 -0.09414218 -0.14121567
0001c0 de 4a ab bd 32 8f 7b 3e 08 a5 1b bd c4 8a ef bc
       -0.08363889 0.24566343 -0.037999183 -0.029240973
0001d0 6b 28 25 3e d1 28 db bd 99 d5 c6 3a 22 62 ac bd
       0.161287 -0.107011445 0.0015169858 -0.08417155
0001e0 a7 12 45 be fe 52 88 3e 48 e1 96 3e 97 08 c8 be
       -0.19245397 0.26625818 0.2946875 -0.39069054
0001f0 a6 4d b2 3e 10 0a 8c bd 56 99 ef 3d 98 b0 2d bd
       0.34824866 -0.06837857 0.116991684 -0.04240474
000200 04 60 d1 bd 4d 98 c8 bd 39 b4 6b 3c 12 d7 17 be
       -0.10223392 -0.09794674 0.01438623 -0.14828137
000210 86 27 df 3d 0c 39 2c 3f 6e d6 a2 be 37 28 9d 3d
       0.1089621 0.67274547 -0.31804222 0.07673686
000220 3f a4 61 3e c4 f3 e8 bd ed 09 c1 be f1 0f 1a 3a
       0.22035311 -0.113746196 -0.37702885 0.0005877009
000230 0d e6 fc bc 8f 32 70 3e 19 72 a1 3d 72 13 3c be
       -0.030871416 0.23456787 0.078830905 -0.18366793
000240 9d 82 cc bd 67 5d 4c be 9d c4 d3 3e 53 71 83 3c
       -0.0998585 -0.19957505 0.41360942 0.016045248
000250 67 d5 b8 be 41 04 99 bd 39 ca df 3d c5 fb c1 3e
       -0.36100313 -0.074715145 0.10927243 0.37887397
000260 a1 e5 80 3e f8 a2 65 3e 75 20 63 be a8 b6 8e be
       0.25175193 0.22425449 -0.2218035 -0.2787373
000270 65 f7 67 be db c5 be bd be 53 d5 3d 09 3d da 3d
       -0.22652967 -0.09315082 0.10416363 0.10656173

fc3.bias f4 [5]
000000 df 73 50 be bb 63 55 3e 7c 6b 9b be 61 a0 32 3e
       -0.20356701 0.20838825 -0.30355442 0.17443992
000010 36 5c 23 bd
       -0.03988286
