Assignment_1/1/Max_Pooling_New/Models/with/model-10.pth (torch_old, 882610 bytes, 10 tensors)

conv1.weight f4 [64, 3, 5, 5]
00000000: cf8d b03e 033d a63e 10f0 fc3d 8b93 9dbd
00000010: 212c febd 6839 5a3e e27b 173e 956c 0a3d
00000020: 1e6c 34bd 9b94 31bd 9753 70bd 1bd9 ebbd
00000030: 6af3 65bc 1a6f fd3d b98c 0e3e 22c8 81be
00000040: 99cd 96be 4f26 b5bc a98c 833e 6b1b 7d3e
00000050: 4956 8bbe 5110 96be a06c d5bc 1367 5f3e
00000060: 9697 263e 7b8b e43d 4c84 3d3d 72d3 32be
00000070: 37ea b4be a604 afbe dc31 dabc 8e08 fabd
00000080: 50ac 7fbe 383f 9abe 8bc7 66be 6d54 82be
00000090: b25f aebe 6dd7 75be 8b42 80bd 2662 1a3d
000000a0: f850 c5be bde1 d9be 32f9 13be c8cc 433e
000000b0: 9080 8a3e cf19 a2be a7d5 a9be 98de fdbc
000000c0: f729 8c3e 069e 963e 5698 a73e 19ff 663e
000000d0: 261c 72bd 6b85 a3be f8d5 c7be 4b38 833e
000000e0: c44c d73d 2a46 c4bd caa2 73be 877b 84be
000000f0: 0bae 963d 2912 82bd 3b6f 52bd e73c 563c
00000100: a419 913c a130 1fbd 3d18 05be b38c 6b3d
00000110: 92f9 883e 613b 7f3e 98b2 043d 4bf2 11bd
00000120: 4d94 243e 7f6c b53e 6bec 943e 7fe6 dfbc
00000130: 222e fbbb 8516 163d 3cf6 963d 936a 863d
00000140: 5849 ddbc aa29 debb 21d7 643d d9eb d03d
00000150: 61a2 b43d 89b4 b9bc c1c2 b03b 208e 8a3d
00000160: b2ff e83d 5aee c03d e5ac d1bc a658 743c
00000170: 7f13 983d 371d e73d 3906 aa3d 16be 85bc
00000180: 48ef 983c 40a4 873d 0018 b73d 6cb6 843d
00000190: 34e1 2fbd a509 95bd 46cb 92bd 1ce3 59bd
000001a0: e42a 69bd 78ab 96bd 3b9c e6bd 6211 d4bd
000001b0: 3fb1 97bd 4fc3 94bd edae afbd dd9f 02be
000001c0: 31e7 e0bd 6d76 b1bd 0d05 b0bd de91 b4bd
000001d0: 2456 e1bd 31ac c2bd 715d a1bd d1a0 a6bd
000001e0: 1cdb 84bd 1dbd a7bd 7d97 92bd ed07 64bd
000001f0: 4839 8ebd f065 9a3d c02e 533d d8dd 5f3d
00000200: 82a0 6d3d ba00 4f3d 5f97 673d 36b0 e73c
00000210: b32a 1a3d 75b0 543d a05f 283d bf01 453d
00000220: f3b9 963c 1d54 163d e8e4 453d c2f0 203d
00000230: 8d45 433d 6994 ef3c ba60 333d 6ece 573d
00000240: 983a 0a3d b9b4 663d 64ce 493d 2c5b 793d
00000250: c6e8 783d 0872 1a3d b04c 0bbe f6c4 d4bd
00000260: ad03 c3bd 56a2 b6bd e1ed c1bd 324a 17be
00000270: 1cce e2bd 8c3a bfbd 24c8 c2bd 9ae9 d7bd
00000280: be54 29be c508 f2bd 82f3 b8bd dcc3 b7bd
00000290: e230 d3bd 7dd4 2fbe 8a1a fdbd 0c71 bcbd
000002a0: 4215 adbd b2f1 c5bd 8548 36be 1f6e 07be
000002b0: f2ab c5bd 67ca a0bd 6e2c afbd cf83 f63d
000002c0: d0b0 203e a3d6 2f3e c975 333e 25f0 293e
000002d0: 421a e03d 7eaf 1c3e 28c5 3b3e 01bc 363e
000002e0: 28f7 273e f895 bc3d 7c61 173e 7f0f 393e
000002f0: 53b1 393e bb4d 253e ca4d 9a3d 4f98 033e
00000300: a06a 313e c023 373e 73a8 1d3e 5cbd 453d
00000310: 845a cb3d 35c9 123e f98f 1e3e 462c 133e
00000320: e02d 20bd a337 083b cdd6 543c 1461 943c
00000330: a299 8f3c cd7e 7abd cd81 85bc 15e3 5c3c
00000340: d6c2 653c a3e8 283c 9d93 a9bd d738 bbbc
00000350: a50c 4e3c 716f 963c 5ae6 293c e364 cabd
00000360: 46c3 35bd a027 a93b 91f4 c63c b279 8b3c
00000370: 815c dfbd 1f69 6abd f902 3cbc 491f a33c
00000380: b48e b33c 8460 323e 465d 8f3c d701 66bd
00000390: ef04 1bbd dcdb 0a3a 90fb 8e3d efda a1bd
000003a0: c7b8 bcbd 5df1 4ebc 892b a73d 2d3b 2ebd
000003b0: d1a1 0cbe a4fe c0bd ce51 143d 3442 0a3e
000003c0: 201e 98bd a58f 0ebe b588 8cbd 2de0 7f3d
000003d0: 9c6b ed3d bca6 30bd 8c71 bcbd 2ccd 43bd
000003e0: 4b3b ec3c a162 043d f14b ecbd 5eca 6cbe
000003f0: cd89 78be 6cbc 19be b191 e0bc 4a62 38be
0.3448319 0.32468423 0.12350476 -0.07694157 -0.12410761 0.21310961 0.14793351 0.03379496
-0.04404842 -0.04335461 -0.058673467 -0.11516019 -0.014035085 0.123747066 0.13920869 -0.25348002
-0.29453734 -0.022112994 0.25693253 0.2471749 -0.27214268 -0.29309323 -0.026052773 0.21816663
0.16268763 0.11159416 0.046268746 -0.17463472 -0.35334942 -0.34183234 -0.026635103 -0.12208663
-0.24968076 -0.30126357 -0.22537057 -0.25455037 -0.34057385 -0.2400796 -0.06262692 0.037691258
-0.38538337 -0.42555037 -0.14450529 0.19121087 0.2705121 -0.31660315 -0.33170816 -0.03098993
0.27375767 0.29417437 0.3273341 0.2255825 -0.059108876 -0.31937727 -0.39030433 0.25628886
0.10512689 -0.09583695 -0.23792568 -0.25875494 0.07357415 -0.0635112 -0.05137561 0.013076044
0.017712422 -0.038864736 -0.12997527 0.057507228 0.26752907 0.24924995 0.032396883 -0.03563146
0.16072197 0.35434338 0.29086623 -0.027331589 -0.0076654116 0.03664257 0.07371184 0.06563296
-0.027012512 -0.006779869 0.055869225 0.10201234 0.08820034 -0.022669094 0.00539431 0.067653894
0.11376895 0.09420462 -0.025595138 0.014913714 0.074255936 0.11284869 0.08301968 -0.016325992
0.018668786 0.06623125 0.089401245 0.06480107 -0.04293938 -0.0727723 -0.071676776 -0.053195104
-0.05692567 -0.07356924 -0.11260267 -0.10354878 -0.07406854 -0.07263815 -0.08578286 -0.12756296
-0.10981596 -0.08665166 -0.08594713 -0.088168845 -0.11002758 -0.09505499 -0.07879151 -0.08136142
-0.06487104 -0.08190367 -0.071578 -0.05567162 -0.06944519 0.07538974 0.051558256 0.054654926
0.0580144 0.050537802 0.056540843 0.028282266 0.037638377 0.051926095 0.04110682 0.04809737
0.018399214 0.03670131 0.048314005 0.039292105 0.04767375 0.029245572 0.043793418 0.0526871
0.033747286 0.056324694 0.049269095 0.060877964 0.060768865 0.037706405 -0.13603473 -0.1038913
-0.095221855 -0.08917682 -0.094692 -0.14774397 -0.110744685 -0.09337339 -0.0951083 -0.10542603
-0.16536233 -0.11818079 -0.090308204 -0.08972904 -0.10312058 -0.17170902 -0.123585775 -0.092012495
-0.0845132 -0.0966524 -0.17801102 -0.13225602 -0.096519366 -0.07851105 -0.08553396 0.12036859
0.15692449 0.17171721 0.175254 0.16595514 0.10942508 0.1530132 0.18336928 0.17845155
0.16402876 0.09208292 0.14783281 0.18072318 0.1813405 0.16142933 0.07534368 0.1285107
0.1732583 0.17884731 0.1539629 0.04827629 0.09929374 0.14334567 0.15484609 0.14372358
-0.03910625 0.0020785115 0.012990666 0.018112697 0.017529313 -0.061156083 -0.016297245 0.013481875
0.014023503 0.010309371 -0.08280108 -0.022854252 0.012576257 0.018363686 0.0103698615 -0.09882524
-0.04437568 0.0051621944 0.02428654 0.017025802 -0.109063156 -0.057229158 -0.011475318 0.019912379
0.021918632 0.1741963 0.01750053 -0.0561541 -0.037846502 0.0005297044 0.069815755 -0.079030864
-0.09214931 -0.012630788 0.081626005 -0.042536903 -0.13733603 -0.09423569 0.036210828 0.13501817
-0.07427621 -0.13921984 -0.06862012 0.06246965 0.115927905 -0.04312776 -0.09201345 -0.04780309
0.028836867 0.032320622 -0.11537922 -0.23124072 -0.24271317 -0.15013283 -0.027413221 -0.18006244

conv1.bias f4 [64]
00000000: e2cb 76be f83a 3abe e3d2 31bf c7ac e1be
00000010: 5dce 30be 8e36 e5be 369b 5fbf 0c06 0ebf
00000020: 5d8c 64bf 6069 f4bf 2d63 71be c5fe 08bf
00000030: 148a 05bf e8a2 a5be b666 b6be 0c23 acbe
00000040: d4a7 b2be 7f8e a1bf 6182 9bbe 3cf1 43bf
00000050: 5eba 2cbf 5b2f 0dbf 5782 8bbe c3d8 20bf
00000060: 92c9 1bbb b11e 8ebe 6393 2cbe dda0 d6bf
00000070: 74d5 f0be 270e 05bf 6c55 0cbf c03e 61bf
00000080: d9f3 4ebe 9b26 04bf d04e 0fbf 5ac9 87bf
00000090: 85d8 d83d c8f2 3cbf a061 08bf 88c2 3abe
000000a0: e3e4 06be be36 613e 78e7 74be 00c6 e9be
000000b0: 1908 35be f0bc 05bf 1bb1 b1be 8188 28bf
000000c0: 23bf acbe 3406 8fbe 03be 08bf cc70 58bf
000000d0: ce95 81be 052f 3cbe c9da 44bf 5286 f4be
000000e0: 3315 38bf adba d7be 6c4c 34be eded d9be
000000f0: 2db2 54be 62c7 bcbe ee84 f7be a43e 79be
-0.24101213 -0.18186557 -0.6946241 -0.4407713 -0.17266221 -0.44768184 -0.8734621 -0.55477977
-0.8927668 -1.9094658 -0.23572989 -0.5351375 -0.52163815 -0.3235085 -0.35625237 -0.3362049
-0.34893668 -1.2621611 -0.3037291 -0.7653997 -0.67471874 -0.55150384 -0.2724788 -0.6283075
-0.0023771268 -0.2775779 -0.16853099 -1.6767842 -0.47037852 -0.5197472 -0.54817843 -0.87986374
-0.20210208 -0.5162141 -0.55979633 -1.0608323 0.10588173 -0.73807955 -0.53273964 -0.1823827
-0.13173251 0.21993539 -0.23916423 -0.45658875 -0.1767887 -0.5224142 -0.34705433 -0.6583329
-0.33739576 -0.2793442 -0.53414935 -0.84547114 -0.25309604 -0.18377312 -0.7689634 -0.47758728
-0.7190735 -0.4213461 -0.17607278 -0.42564335 -0.20771094 -0.36870867 -0.48343605 -0.24340302

conv2.weight f4 [128, 64, 5, 5]
00000000: 88ab 32bc c529 d2bb 4a06 6bbc 56a9 3bbd
00000010: 3335 50bd 7713 84bc 3dce cfbc 2607 09bd
00000020: d75d 8abd 7f1c 95bd 2b80 69bc 2b14 10bd
00000030: 951f 07bd 2a7a 57bd 9a0e 8abd 26d5 a7bb
00000040: d9f1 bfbc b3c5 21bc 134c 09bb 4a0d a8bc
00000050: 2802 d03b a940 69bb 4a34 89b8 6146 d13c
00000060: 38e7 d63b e022 84bb a4be bbbb 7740 dbbb
00000070: fa3d e5bb 8fc5 e5bb 7832 37bc ddf0 11bc
00000080: 9af2 08bc b6fa 17bc 559d 05bc 2347 88bc
00000090: b412 50bc 121b 39bc f66a 0bbc 889b fbbb
000000a0: 71e0 85bc 396b 75bc 4eb3 45bc 731f 07bc
000000b0: e9f6 b0bb fd9a 4bbc 3516 6abc 6037 1dbc
000000c0: 9a0e 8dbb 5e5a 23bb b415 b23c 3459 a6ba
000000d0: e8e9 a6bb ad65 dcbb cc67 00bb 0955 9f3c
000000e0: 50de 09bb da8a c5bb 2fa2 08bc 2d7f f1ba
000000f0: 6019 9d3c dc30 28ba 8709 b8bb 206d debb
00000100: 5333 7fbb 20a1 b83c 331c 573b aae6 b5ba
00000110: 9222 bebb d803 85bb ebf6 d03c ed78 123c
00000120: 1bf0 34ba 5f86 2bbb 7553 26bb 8aba 99bc
00000130: 2e15 abbc 1b18 13bd 0ebe 6abd c7ec 09bd
00000140: c7fc c43c 5b51 983c ced0 98bc 3122 47bd
00000150: a898 28bd 9a2f 343d fe0f c13c 9702 eabc
00000160: 6938 53bd 75bf 4cbd 08a7 c93c 1016 91bb
00000170: 5f63 e6bc 9899 17bd d96d 19bd 65dc 833c
00000180: 2009 0abc 1df2 05bc fb4f a2bb 4890 0fbc
00000190: fb59 afb9 79f3 c2bb 4b3e 26bc dd84 d3bb
000001a0: efe6 8db8 6a28 a0ba 025b 3fbb 6d74 c5bb
000001b0: 1bf6 3abc 99d4 36bc 348b 48bb d2e1 91bb
000001c0: 58f5 babb fd42 8cbc e0a2 9cbc 7064 90bb
000001d0: 4901 54bb 5e7f d0bb b4f1 aabc 797b 9dbc
000001e0: 8107 cebb ff04 b7ba a2e1 8ebb 36a5 96bc
000001f0: 4cfc 5bbc 662e a83c 034f f13c c620 bebb
00000200: 8da2 33bd 600c 40bd 51bf 35bb 52e8 3fbc
00000210: 129f 00bd b975 8cbd e2d1 93bd bfea e23b
00000220: 7188 a5bc 314f a1bc fdb2 2fbd e846 9dbd
00000230: d1fb cbba a63e 4fbc 7d54 4a3b 58e8 513c
00000240: b464 11bd 0168 b639 acd8 11bb 125e bc3b
00000250: fbc3 343d 43c1 203b d362 59bd 0425 a1bd
00000260: ce24 33bd f587 363d 99cd 3c3d afdc 3dbd
00000270: 4444 7fbd b082 ecbc 41dd 503d 63ee 263d
00000280: cade 2dbd 3390 61bd 2704 0ebc fcaf 573d
00000290: 26f2 2e3d 8071 2abd 7cf3 13bd 7977 ffbb
000002a0: af85 2d3d cf23 7c3d 0d96 14bd 2053 ccbc
000002b0: 85cf 38bc 3a67 3d3c b208 9e3d 0430 86bc
000002c0: 7ddd a5bc 2a84 1dbc 311e 30bc 23a8 11bb
000002d0: f851 9ebc acca 1ebc b5dd e338 a771 03bc
000002e0: 1a0c ecba ea85 e3bc 081d 86bc 8406 06bb
000002f0: a235 ecbb 5fa2 81bb 68b0 febc e021 e3bc
00000300: 51ad 0abc 260d 71bb 875a c6ba 7cab c1bc
00000310: 2230 c2bc 8142 0abc c3e3 a33b 8af8 ca3b
00000320: 26e8 94bc 51e4 22bd c1a1 33bd 8b7c 00bd
00000330: 5fed 223b 7efa a73c 765f 9abc abb2 05bd
00000340: 3139 febc 7d38 8e3b 2dc2 1f3d 3982 6cbb
00000350: 35a5 fabc a411 a9bc e138 ef3b 0e27 7a3c
00000360: ec8a bdbb ce28 86bc 9c70 40bc 5279 d53b
00000370: f3a9 a3ba c8ee d0bb c5e7 26bc a6d9 6ebc
00000380: 1a4e a83c 86e2 d2bd 5762 22bd e5e1 ebbb
00000390: 89ec 53bb 2a6c 22bc 6cb1 d7bd d120 17bd
000003a0: 3e83 dcbb 4c95 55b9 ccd9 47bd 74e1 c6bd
000003b0: 4b4c 0cbd e76d f3bb fb1b f6bb 4349 87bd
000003c0: 0332 b3bd 0d29 01bd 5386 23bc 87b0 8cbc
000003d0: 68d2 aabd 1a96 c1bd ce06 31bd 2116 7abc
000003e0: b7b2 fdbc 96ca dbbd 1c92 883b 1ca7 f2bc
000003f0: d931 12bd 0308 aabc aab3 9d3b 1862 52bc
-0.010905154 -0.0064136707 -0.014344761 -0.04581579 -0.050831985 -0.016122563 -0.025366897 -0.033454083
-0.0675618 -0.07280826 -0.014251749 -0.035175484 -0.032989103 -0.05260674 -0.06741066 -0.005121845
-0.023430752 -0.009873795 -0.0020949885 -0.02051415 0.0063479133 -0.003559152 -6.542409e-05 0.025546255
0.006558325 -0.0040324777 -0.0057295132 -0.0066910344 -0.0069959136 -0.007012076 -0.011181466 -0.008907524
-0.008358622 -0.009276083 -0.008155187 -0.016635483 -0.012699772 -0.011297958 -0.008509388 -0.007678453
-0.016342374 -0.014979177 -0.012066675 -0.008247244 -0.0054005277 -0.012427089 -0.014287521 -0.009595722
-0.004304719 -0.002492569 0.021738864 -0.001269138 -0.0050938018 -0.006725988 -0.0019593118 0.019449728
-0.002103705 -0.0060285153 -0.008339449 -0.0018424742 0.019177139 -0.0006415972 -0.00561637 -0.006787911
-0.0038940504 0.022537768 0.0032823205 -0.0013877947 -0.005802461 -0.004059296 0.025508365 0.008939964
-0.00069022336 -0.002617262 -0.0025379334 -0.018765707 -0.020884123 -0.03591166 -0.057310157 -0.033673074
0.024046315 0.01859348 -0.018654253 -0.04861659 -0.04116121 0.04399071 0.023567196 -0.028565688
-0.05156747 -0.049987275 0.02461578 -0.004427679 -0.028123556 -0.037011713 -0.037458275 0.016096303
-0.008425027 -0.0081754 -0.004953382 -0.008762427 -0.00033445642 -0.0059494344 -0.010146688 -0.0064550475
-6.766419e-05 -0.0012219076 -0.0029198532 -0.006025842 -0.011411215 -0.011159086 -0.003060055 -0.0044519687
-0.005705517 -0.017121786 -0.019120634 -0.0044065043 -0.0032349399 -0.0063628396 -0.020867206 -0.019223915
-0.0062875156 -0.0013963281 -0.0043603936 -0.018389326 -0.0134268515 0.020529937 0.029456621 -0.0058022467
-0.043856192 -0.0468868 -0.0027732442 -0.011713104 -0.0314017 -0.06858391 -0.07217766 0.0069249566
-0.020206662 -0.019691082 -0.042895306 -0.0767954 -0.0015562718 -0.012649214 0.0030873113 0.012811743
-0.03549643 0.00034791234 -0.002225439 0.0057485187 0.044132214 0.0024529255 -0.05307276 -0.07868388
-0.04373627 0.044563252 0.04609451 -0.04635304 -0.062320963 -0.02887091 0.050992254 0.040754687
-0.042448796 -0.05506916 -0.008667982 0.052658066 0.0427114 -0.04161215 -0.036120877 -0.0077962247
0.04236382 0.061557587 -0.036275912 -0.02494198 -0.011279945 0.011560256 0.07716502 -0.016380318
-0.020247215 -0.00961403 -0.010749386 -0.0022225461 -0.019326195 -0.009691875 0.000108655 -0.008022702
-0.0018008978 -0.027773816 -0.016371265 -0.002045066 -0.007208542 -0.0039561237 -0.031089976 -0.027726114
-0.008464173 -0.0036781519 -0.001513318 -0.02364134 -0.023704592 -0.008438707 0.0050015165 0.006194179
-0.018177103 -0.03976852 -0.043855432 -0.031368773 0.0024860722 0.020505186 -0.018844347 -0.032641094
-0.03103313 0.00434023 0.03900354 -0.003608836 -0.030596355 -0.020638295 0.0073004817 0.0152681
-0.005784383 -0.016376879 -0.011745598 0.0065147066 -0.0012486562 -0.006376121 -0.010187094 -0.014578259
0.020545054 -0.10297112 -0.039644565 -0.0071985596 -0.003233703 -0.009913484 -0.105318874 -0.03689653
-0.0067295125 -0.0002036888 -0.04879169 -0.097109705 -0.034252446 -0.007428873 -0.0075106598 -0.066057704
-0.08749773 -0.03153329 -0.009980756 -0.017174019 -0.08340913 -0.09452458 -0.04321938 -0.015264065
-0.030969007 -0.107319996 0.004167808 -0.0296207 -0.03569207 -0.020755773 0.0048126774 -0.01284077

conv2.bias f4 [128]
00000000: c44e 64bd 7f42 233c 2e51 983e 34fd 85bc
00000010: ec7b 21be 861b 24ba e092 37ba 9e56 39bc
00000020: 4242 9a3e 45df f3be 61e2 f0bd 10d4 b3bd
00000030: 46fa e8bc efda 78bd ffa8 d33e 0e3d 3d3e
00000040: c34c 9cbb 91c2 063c 6579 97bd e1e3 f1bb
00000050: ed84 d23e fec4 a9bd bd51 0dbc 754b 063b
00000060: 448f b13e 1569 66be aaf6 88bd 1619 9d3d
00000070: d563 30bd f296 11be 2cc1 4bbe 6c9f a13d
00000080: 1f61 723b 6a41 79ba d190 5abe bc67 b0bd
00000090: 0f19 a5bc 58af b2bc 3766 42be 2dcd 1d3c
000000a0: d6d5 bcbc 8ce4 9a3e b522 323e 0cb0 88bc
000000b0: 12de c8bc c11f 23bd 19a7 0cba cc52 463d
000000c0: 146b 61bc acc2 26be f952 6bbb 69cd 083e
000000d0: 0b32 d5be 270e b13e 4ce8 c63e 27ae 7abe
000000e0: ca1b f9b9 c801 143d 48d2 3bbe a4a6 20bd
000000f0: 30a5 02bf 3870 64bd e250 7d3e 13bc bdbd
00000100: c320 84ba 2251 e1bb a3ab 043d 61e0 6c3a
00000110: e9fe 0b3e 4af5 553d a00c 03be ff1c 98bd
00000120: ee56 1dbf b41d 06bd 65fd 603e ba77 b9bd
00000130: b603 623c 03c1 ce3d c82a af3c abe7 123d
00000140: edeb bbbe ddc5 1a3b 5bd1 59bd 4cae 3ebe
00000150: c274 27be 4e5b a0bb 5128 993d b90f e5bc
00000160: 9500 5ebc 1dbd 663b 6ab1 35bd 3da3 0abf
00000170: 9a4d e4bc cb6d df39 e5d6 f73d aa14 51bb
00000180: 7ef5 253d b9c2 17be 25ac 3c3b 74c7 49bd
00000190: e446 3f3b 8158 3abf 70b1 4c3d 43b3 03bd
000001a0: ba0a 7c3e d4b5 63bc b12a 453c 1ee8 893d
000001b0: f529 d3be a32f 4a3c e84b 93bd a070 0fbe
000001c0: ce19 87b9 8806 abbe 332d 323e 5c2a 423e
000001d0: 7eba 8bbc 7375 8e3e f69b 92bd cb82 96be
000001e0: 5e33 96be 3c62 fcbd 8e63 a9be 76d0 353e
000001f0: 849d 11be 2b7d 6f3c af7b 65bd fad1 453e
-0.05573918 0.009964584 0.29749435 -0.016356088 -0.15769929 -0.0006260205 -0.0007002782 -0.011312155
0.30128676 -0.4763128 -0.11761928 -0.08780682 -0.028439652 -0.060755666 0.4133987 0.18480322
-0.004769893 0.008225099 -0.07396201 -0.0073819016 0.4111704 -0.082895264 -0.008625445 0.0020491753
0.34679615 -0.22501023 -0.066876724 0.076708004 -0.043063957 -0.14217737 -0.19897908 0.078917354
0.0036984158 -0.00095083436 -0.21344306 -0.08613536 -0.02015355 -0.021812126 -0.18984304 0.009631437
-0.023051184 0.30252492 0.17396052 -0.016685508 -0.024519954 -0.039825205 -0.00053654757 0.048418805
-0.01375844 -0.16285199 -0.003590761 0.13359608 -0.41639742 0.3458111 0.38849103 -0.24480496
-0.00047513685 0.03613451 -0.18341935 -0.03922142 -0.51033306 -0.055771083 0.24737886 -0.09264388
-0.0010080565 -0.006876127 0.032390248 0.00090361206 0.1367146 0.05223588 -0.12797785 -0.074274056
-0.6146077 -0.03274317 0.21971662 -0.09056039 0.01379483 0.10095408 0.021382704 0.035865467
-0.36703435 0.002361647 -0.053178173 -0.18621176 -0.16353133 -0.004893697 0.07478393 -0.027961599
-0.013549943 0.0035207935 -0.04435865 -0.5415533 -0.027869035 0.00042615677 0.12101535 -0.0031903186
0.040517323 -0.14820375 0.002878913 -0.04926248 0.0029186541 -0.72791296 0.049973905 -0.03215338
0.24613467 -0.013898332 0.012034104 0.06733726 -0.41242948 0.012340459 -0.07192212 -0.14007807
-0.00025768433 -0.3340342 0.17400055 0.18961471 -0.0170567 0.27823982 -0.071586534 -0.29396662
-0.29336065 -0.12323424 -0.33083767 0.17755303 -0.14220244 0.014617245 -0.056026157 0.19318381

fc1.weight f4 [64, 128]
00000000: 55ad 99ba d559 1bba cecd 863c eba3 87bc
00000010: 8bdf 1ebd f32b 253a 2b85 a5bc c21b 4d3a
00000020: 48a9 443a 455f f33c 8349 cf3a 56fd 3d39
00000030: 63b1 6abc 63d0 babc cb25 563a 8c86 453b
00000040: de45 52ba cc69 583a 6097 8abc 5ddc b93a
00000050: cf94 14bc 6461 81bc 11a2 0cbc c9ca 0e3c
00000060: cf46 73bb c43a feb9 255b 9dbb 47a5 96bc
00000070: 45c4 bf3b ed34 dd3c 050c 043c 3b67 1bbc
00000080: 39f0 ab3a 2940 0cbb 7324 653c a58d 8cbc
00000090: ad6f 93bb e250 5d3b 77f0 323d 2d22 b3b9
000000a0: 6aa3 273b 9360 153b be56 1dbd f57c afb9
000000b0: eb1e 1eba f50b 27bb f3fb 97b9 37be 1cbc
000000c0: d413 fa3a 242b 693c 606d a1bb 1e9a 36bd
000000d0: 5858 bc3b c4a5 c2bb 57e9 233a 1078 87bb
000000e0: b709 3cba 0114 22bc 812e 893c 9b79 bc3c
000000f0: baf2 343c 0adc 8fbc 27f1 753a 6e7f 05bc
00000100: 834a 053b 75c5 df3a ee9e 6fbc b98a cfba
00000110: e473 39bb 396c 403a 0838 f939 fefb ef3b
00000120: ea3d 9a3c 7c62 5abd 2f6a 913c 5c13 33bb
00000130: cc77 ccbb 7c89 07bc d4cf cbbc 8097 393d
00000140: 15b8 a03c 1cc4 863b ea98 b9bc 577a d43b
00000150: c8b5 073c 426b b6b9 14c7 fb3b 0d48 80bb
00000160: eb52 633b a9b6 0abb e4bb 0bbc d1f0 bfbc
00000170: 8718 9c3b 14f4 2eb9 c1b2 423c 4678 6fbb
00000180: f2f5 31bd 3b42 40bc 15c1 fe3a a8f7 a7bb
00000190: 482f 39bb 8d74 5dbc bbb3 f63a 2956 81bc
000001a0: df7c 52bb 7709 2f3c 6ced 613b 31b5 3a3b
000001b0: ea86 8abc c246 bfbb b156 91b9 e670 a73b
000001c0: 955d 083b 4175 233c c0b8 32bc 74cc 89bc
000001d0: 12dd 25bc 593c 2c3c 0405 afbb 16dc 6d3a
000001e0: d80e 413b bb1d b4bc a4fc 033b 3606 f73b
000001f0: 546d 1b3c fefb da3b fded 883b f663 423b
00000200: 7de8 9abd 6ded 3a3c 468e d13d fd74 41be
00000210: 5422 023e f461 88bb 6331 38bd b580 8d3b
00000220: 6bc7 133b 3cc0 b23c 24d8 823d 9baf 0fbc
00000230: 79b0 bdbd b790 f0bd 0e4e ee3c 6d26 3fbe
00000240: f13e 27ba 8b95 d63a e5cf aabd 0cff a03b
00000250: b9a5 9e3d 35af d5bd ba16 f7bc 8847 293c
00000260: 9c71 363e 5d8a 7ebe cb47 dabc e5b4 843c
00000270: 0a75 74bd e64c b9bc 7a4e 57bd e190 cf3c
00000280: e877 bf3a 9f44 bc3a a316 04bc 5d4c 413c
00000290: e81d e5bd adb8 16bd b5e4 cf3d fc75 30bc
000002a0: eac1 1d3d 4404 333d e1d9 7dbe 9128 85bd
000002b0: 93a3 ce3b 63be eab9 2147 8fba 78bc d5ba
000002c0: ebad 8a3c fd18 2dbd cceb 6bbc 317f 1ebe
000002d0: d6b0 763c 3d5a 1c3c 9c31 24bc 4952 323c
000002e0: c407 81bb 6e48 d0bc 81f0 23be 6525 0a3d
000002f0: 8688 763c 702a 71bd d0ff dd3c 118f 67bd
00000300: a192 02bb e4ae 56bc a24b 65be 61cd afbb
00000310: 9748 ae3c c75b 693c 84b0 7f3c dc00 0bbe
00000320: 1534 413e 2612 fcbd a7d6 b4bd 2258 adbd
00000330: c1e7 54be 0b26 0abc 3488 f23c bf57 c13c
00000340: 4806 8abe 380a bb3a 3b46 04bd 10e4 f23b
00000350: e029 513d bb3e 79bb ec7c d3bd 2449 66bd
00000360: 7e18 b1bc d87f 7bbb c388 03be fa06 39be
00000370: cd1e 643c eee0 093a 30f8 d1bd c8d4 2e3b
00000380: 16bc e4bc 1ec0 d1bd 4eff d238 3245 52bd
00000390: 7e63 c23d c92e 043d 2ec2 913c 482b a3bd
000003a0: 5f53 843c fa18 b43c dc95 6f3d 6e5c 1cbb
000003b0: 9fa3 0bbe c6ea 63bc fd16 c0bd a13f 5dbc
000003c0: da0d 57bb 975a 7f3c fa9a c83c f71b 653c
000003d0: 9c0b 68bc 50b0 a73d a12b 1bbe 7f29 4ebd
000003e0: 6501 95bd df8f 1fbe cc36 af3a 0e63 88bd
000003f0: ab1d 56be 1f24 5d3d bc10 e7bd 64c6 fb3c
-0.0011724631 -0.0005926167 0.016455557 -0.016557654 -0.038787406 0.00063007994 -0.020205101 0.00078242656
0.00075020315 0.029708514 0.0015814755 0.0001811882 -0.014324519 -0.022804445 0.0008169084 0.003014001
-0.0008021275 0.0008255511 -0.016917884 0.0014180053 -0.009068682 -0.01579351 -0.0085835615 0.00871534
-0.0037121063 -0.0004849044 -0.004802125 -0.018389357 0.0058522546 0.027002776 0.008059506 -0.009485061
0.0013117857 -0.0021400547 0.013985741 -0.017157385 -0.004499397 0.0033770134 0.043686356 -0.00034167003
0.002557958 0.0022793158 -0.038412802 -0.000334717 -0.0006031829 -0.0025489305 -0.0002898868 -0.009566835
0.0019079396 0.014231477 -0.0049263686 -0.04458057 0.005747836 -0.005940171 0.0006252727 -0.0041341856
-0.00071730785 -0.009892465 0.016745808 0.023007205 0.011044199 -0.017560977 0.0009381943 -0.008148057
0.0020338602 0.0017072397 -0.014625294 -0.0015834189 -0.0028297836 0.0007340345 0.00047534727 0.007323741
0.018828351 -0.05331658 0.017750828 -0.0027324772 -0.006239867 -0.008272525 -0.024879374 0.045310497
0.019619027 0.0041127335 -0.022655923 0.0064843106 0.008283086 -0.00034793658 0.007683644 -0.003914839
0.0034686874 -0.0021166003 -0.008528683 -0.02343026 0.004763666 -0.0001668486 0.011883439 -0.0036540194
-0.043447442 -0.011734541 0.0019436205 -0.0051259585 -0.0028256942 -0.013516557 0.0018821874 -0.015788155
-0.0032117886 0.010683409 0.003447379 0.0028489346 -0.016910035 -0.0058372924 -0.00027721145 0.005109894
0.0020807732 0.009976686 -0.010908306 -0.016821124 -0.010123508 0.010512435 -0.005341174 0.0009073628
0.002945831 -0.021986833 0.00201396 0.007538582 0.009486515 0.006682872 0.004178761 0.0029661632
-0.07563875 0.011409146 0.10232215 -0.18892284 0.12708408 -0.0041620675 -0.044968974 0.0043183216
0.0022549282 0.02182018 0.06388882 -0.008769895 -0.09262175 -0.11746352 0.029089954 -0.18667002
-0.00063799234 0.0016371472 -0.08340434 0.0049132165 0.07746453 -0.10433809 -0.030162204 0.010331996
0.17816776 -0.24857469 -0.026645562 0.016199538 -0.05968193 -0.022619676 -0.052565075 0.025337638
0.0014607878 0.0014363712 -0.008062038 0.011797992 -0.11187345 -0.036797214 0.10151044 -0.010770317
0.03851501 0.04370524 -0.24790145 -0.06501878 0.0063061207 -0.00044773807 -0.0010931232 -0.0016306778
0.016928634 -0.04226016 -0.01439948 -0.15478207 0.015056809 0.009542999 -0.010021593 0.010883876
-0.0039376933 -0.025425162 -0.16009714 0.03372707 0.015047198 -0.058878362 0.02709952 -0.056532923
-0.0019923823 -0.013103221 -0.22392133 -0.0053650592 0.021274848 0.014243073 0.015606049 -0.13574547
0.18867524 -0.12308149 -0.08830004 -0.084640756 -0.20791532 -0.008431922 0.029605962 0.02360141
-0.26957917 0.0014270013 -0.03229354 0.007412441 0.051065326 -0.0038031775 -0.10326561 -0.056222096
-0.021618124 -0.0038375761 -0.12845139 -0.18069068 0.013923359 0.00052596524 -0.10252416 0.002667712
-0.027921718 -0.102417216 0.000100611345 -0.05133552 0.09491633 0.03227118 0.017792787 -0.079672396
0.016153036 0.021984566 0.058492526 -0.0023858803 -0.13636635 -0.013910955 -0.09379385 -0.01350394
-0.0032814653 0.015585563 0.024487961 0.013983718 -0.014162924 0.08187926 -0.15153362 -0.050332543
-0.072756566 -0.15582226 0.0013367771 -0.06659518 -0.20909755 0.053989526 -0.11282489 0.030734248

fc1.bias f4 [64]
00000000: cf16 4e3d 8ed9 4a3e 1b10 933e 0a5f 783e
00000010: 0ffb 553e 9188 af3e 75cc d3bd d2ae 9bbd
00000020: dfc7 56be c3d5 993e 5447 a93e c142 e73e
00000030: 91d3 4abd ae7b 5dbb 3bc1 f63e adc4 6a3d
00000040: a9a5 ef3d d1a2 3bbb 9580 b9bd 3b9d 26b9
00000050: 3792 ee3d 3067 ffbc 8605 d1be c241 dbba
00000060: 6234 0bbb 0d86 a83e 9616 923e b469 e03d
00000070: 7df0 3a3c 9732 a7bb e373 bd3b 536b aabe
00000080: 5b30 e33e 8837 ac3e b887 86be f8bd 633e
00000090: f0cb c0ba 708d d0bc 9b7d 1dbe f0a6 c73d
000000a0: 5343 773e 4b19 933e 5514 9fbb c7d5 293e
000000b0: 0e79 133f d3b1 8a3e 85d2 a93e 0ea8 b6bc
000000c0: f6b2 243f 3e57 9ebb 209a 2c3e 6a4f 04bb
000000d0: 1218 983e 559c 2cbb 763e de3e 6a3e b0bb
000000e0: 18d1 873e b3ec 263e a1ac 67bd 9286 efbd
000000f0: 1d7d 093a 55eb 27bd ee9d 85bb 2539 a9bb
0.05031472 0.19809553 0.28723225 0.24255005 0.20896553 0.3428388 -0.103417315 -0.07601704
-0.20974682 0.300459 0.33062232 0.45168117 -0.04951817 -0.0033795643 0.48194298 0.05731647
0.11701519 -0.0028630982 -0.09057728 -0.00015889567 0.11648982 -0.031177133 -0.40824527 -0.0016727971
-0.002124094 0.32914773 0.28532857 0.10957661 0.011409876 -0.0051024663 0.005781637 -0.33285007
0.4437283 0.33636117 -0.2627542 0.22240436 -0.0014709216 -0.025458068 -0.15379946 0.09748638
0.24146776 0.28730235 -0.0048547187 0.16585456 0.5760659 0.27088794 0.33168426 -0.022296932
0.6433557 -0.0048321774 0.16855669 -0.0020188936 0.29705864 -0.0026338298 0.4340703 -0.005378534
0.26526713 0.16301231 -0.056561116 -0.11695589 0.00052447786 -0.040995914 -0.0040776646 -0.005164283

fc2.weight f4 [32, 64]
00000000: 420a d6ba 6ea4 85bb 7540 9db8 d254 103b
00000010: cc46 e539 c4a1 66bb 2e92 c6bb 4888 37bb
00000020: 5e41 02bb bd5c ad3a c00f 60ba 0c23 1bbb
00000030: 064c 313b f993 3e3b 665a d5ba bd8d 24bb
00000040: b5d2 8ebb abdc 1c3b d604 69b7 c9a1 58bb
00000050: e6fb 56bb 8ff8 a5b9 8f66 4a3b 3312 4fbb
00000060: 0212 593b f90b 6fbb 9582 1fbb 45b9 afbb
00000070: 3f04 33bb d989 3b38 3789 963a a9dd 323b
00000080: 7ca1 25bb 0a39 b43a 21d7 ffbb e292 183b
00000090: 327a 4cbb df79 07bb f48a c43a 0bb7 a7ba
000000a0: 7310 51bb d292 4fbb dded 2dbb 84ed 0f3a
000000b0: 7a63 89bb 2257 afbb 404b 9dbb 6d0a 8aba
000000c0: 314a 19bb 7da6 3f3b f0bd 183b 01fb f63a
000000d0: 1c1b d1ba 857a 1bbb 6cb0 843a e155 543a
000000e0: 4ac8 41bb aaba 26bc ef77 9e3b f5c3 e33a
000000f0: b5a5 00bb c29d a4ba 2988 653b 17c3 4f3b
00000100: 7f10 20bc 571c fb3d c2e3 5abc 9f8d 29bc
00000110: 9681 f7bd 83c7 e7bb 27aa 60be 0eea 06bd
00000120: fa70 cabd e728 a83d fea9 903d 0968 17bc
00000130: 9e2f 12bc ff88 1dba 4a3b a0bc 35b5 2ebe
00000140: e3da 7dbe 1f47 0bbb df36 6cbd 2ffb 46bb
00000150: 8b59 a4be f49c 71bd f248 7dbd 7a77 0ebb
00000160: 50e5 33bb b52e cfbd a342 4e3d 788e 4bbe
00000170: 9152 75bc f7b3 823a 34e6 23bd 5a24 e3bd
00000180: 973c 1c3e 5bed 18be 5f9f b2be c3ae 493e
00000190: 3d15 86bb df56 29bc b2df 1bbe e6bf 2abe
000001a0: 9ee1 8fbd ef61 3cbd da4d d93a bd3a 0e3d
000001b0: c768 d33e e1a9 91be 9f6c 92bd d9b9 a9bd
000001c0: 0a61 42be a206 133b 414d e03d 2ce8 113b
000001d0: a22e 92be 000f a23a 79b1 aa3d 5a40 663a
000001e0: a3f7 14be 0fda afbe ef2a 7a3d efc8 1ebd
000001f0: 1631 823b 991e 48bc e858 8bbb e3c4 49bb
00000200: 4a6a 25bb 21e4 ca39 579a d33a 360e 28bb
00000210: e4c1 413b a92b 3bbb 0fbc cfba 8373 1ab9
00000220: 3681 e2ba 8ac3 44bb c9e7 0d3b e0dd 84bb
00000230: f199 183a 2cea 283b 7cd8 95ba 3017 2a3a
00000240: 3b1b 2dba 6823 99b9 c428 daba 7551 2bbb
00000250: 329f b6ba 2a34 a7ba c832 ae3a 31c6 803b
00000260: 59fd 2a3a 1abe 39bb fbc8 caba 3543 963a
00000270: bdeb f33a 0349 2cbb 164f f13a bbd0 6b3a
00000280: 2a97 2539 640b 2fba eae5 f4ba 2fc8 25bb
00000290: c177 67b6 3ef8 263a cae3 81bb d6d3 82ba
000002a0: 05dd 16bb e9c4 80bb e129 273b 5a08 533b
000002b0: d3d2 89bb 1062 ae39 201b ca3a b0ba 05bb
000002c0: 3ea9 42bb 7011 563a b162 01bb 5e09 5c3b
000002d0: 1db3 08bb fbd5 5b3b df5e 4f3b dd8c ccba
000002e0: eb8c 76bb 533b a6ba 3a3d 8438 d959 68bb
000002f0: 9a48 0cbb c66b 6f3b 3846 47bb 63bb 85ba
00000300: a985 1f3d 81f9 3d3e 8d78 df3e 42b0 5d3d
00000310: 95a7 793e 51b3 6bbd 62ba c9bd 30dd 91bd
00000320: 5d17 c03d d7cc c83d f166 a43d 7b02 d33e
00000330: 586e bc3d 655f 17bb 6208 133e 4899 81bc
00000340: fbdd a5bc e542 ac3a 0fb9 8ebd dd17 5cbb
00000350: 3072 d1bd b78b 813d 3ddd 9bbd 8794 873a
00000360: cc85 b439 efdc 51be ad29 bc3e 715e 27be
00000370: 0006 e83d cf9e cb3a 88c3 53bd 4e35 533d
00000380: c7b8 d53e 61c0 38be ebac d7be 79ee 2fbb
00000390: 7c7b 8dba 5824 d1bb 459c 94bd 254a 88be
000003a0: 9398 033d 220d 5abe 1fab 56b9 3ca5 7a3c
000003b0: 5523 a63d 37d8 dabe 9b15 d93d 1378 00be
000003c0: 5ebf 31be 8f6c 7339 25f7 113e 93d7 453b
000003d0: 62ca 8cbe 03ad adb9 b1ef 4e3e 62e5 a5bb
000003e0: 42dd 84be 1162 423e bd41 e2bc 16bc bdbd
000003f0: 12e3 28bb b21a 7c3c ac87 9abb 03f6 62bb
-0.0016329961 -0.0040784394 -7.4983494e-05 0.0022023213 0.00043731031 -0.0035191635 -0.0060599064 -0.0028004814
-0.0019875388 0.0013226491 -0.0008547269 -0.0023672013 0.002705337 0.0029079898 -0.0016277551 -0.0025108897
-0.0043586143 0.002393524 -1.3889008e-05 -0.0033055416 -0.0032803952 -0.00031656443 0.0030883884 -0.003159654
0.0033122306 -0.0036475642 -0.0024339308 -0.005362662 -0.0027315763 4.4712655e-05 0.0011484985 0.0027292764
-0.0025273254 0.0013749909 -0.007807628 0.0023280908 -0.0031200764 -0.0020672006 0.0014995025 -0.001279564
-0.0031900674 -0.0031673205 -0.0026539483 0.00054904097 -0.0041927667 -0.005350963 -0.0048002303 -0.0010531672
-0.0023390169 0.0029243522 0.002330657 0.0018843116 -0.0015953514 -0.002372415 0.0010123379 0.0008099955
-0.0029568844 -0.01017634 0.0048360745 0.0017377125 -0.001963002 -0.0012559223 0.0035023785 0.0031701976
-0.009769558 0.12261265 -0.013359966 -0.0103487065 -0.120852634 -0.007073344 -0.21939908 -0.032938056
-0.0988483 0.082109265 0.070636734 -0.0092411125 -0.008922486 -0.0006009489 -0.019559521 -0.17061312
-0.2479053 -0.0021252108 -0.057669517 -0.003036212 -0.32099566 -0.058987573 -0.061837144 -0.0021738694
-0.0027449913 -0.101163305 0.05035652 -0.19878566 -0.014973299 0.0009971847 -0.04001446 -0.11090918
0.15257488 -0.14934294 -0.34887215 0.19695573 -0.0040918873 -0.010335653 -0.15222052 -0.16674766
-0.07025455 -0.045991834 0.0016578988 0.034723986 0.41290876 -0.2844992 -0.07149624 -0.08287401
-0.1898233 0.0022434373 0.10952235 0.002226363 -0.28551203 0.001236409 0.083346315 0.0008783393
-0.14547591 -0.34346053 0.0610761 -0.038765844 0.0039731367 -0.012214326 -0.004252542 -0.003078752
-0.0025240355 0.00038698412 0.0016144019 -0.0025643236 0.002956503 -0.002855996 -0.0015848893 -0.00014729616
-0.001728094 -0.0030023777 0.0021653047 -0.00405477 0.0005821279 0.0025774343 -0.0011432315 0.00064884406
-0.0006603484 -0.00029208814 -0.0016644229 -0.0026141081 -0.0013932942 -0.0012756635 0.001329028 0.0039298763
0.0006522737 -0.002834207 -0.0015471274 0.0011464121 0.0018609684 -0.0026288636 0.001841041 0.0008995642
0.00015791939 -0.00066774176 -0.0018684242 -0.002529632 -3.4491388e-06 0.00063693884 -0.003963922 -0.0009981345
-0.0023019922 -0.0039297235 0.002550714 0.0032201023 -0.0042060404 0.00033260928 0.0015419461 -0.0020405464
-0.0029702927 0.00081660505 -0.0019742663 0.003357492 -0.0020858713 0.003354429 0.003164224 -0.0015605945
-0.0037620615 -0.0012682475 6.305655e-05 -0.0035453944 -0.0021405579 0.0036532744 -0.0030406844 -0.001020294
0.038945828 0.1855221 0.4364666 0.05412317 0.24380334 -0.057544056 -0.09850003 -0.07122266
0.09379456 0.09804695 0.08027447 0.4121283 0.09200734 -0.002309763 0.14358667 -0.01582016
-0.02024745 0.0013142495 -0.06968891 -0.003358356 -0.10226858 0.063254766 -0.07610557 0.0010343947
0.00034431962 -0.20494436 0.36750546 -0.1634462 0.113292694 0.0015535 -0.051700145 0.051564507
0.41742536 -0.18042137 -0.42124113 -0.0026845022 -0.0010794248 -0.0063825063 -0.072563685 -0.26619068
0.032127928 -0.21294072 -0.00020472378 0.015298184 0.08112208 -0.42743084 0.10599824 -0.12545805
-0.17358157 0.00023214727 0.14254434 0.0030188307 -0.27498156 -0.00033126035 0.20208623 -0.005062745
-0.25950056 0.18982722 -0.027619237 -0.0926439 -0.002577011 0.015387224 -0.0047158804 -0.0034631498

fc2.bias f4 [32]
00000000: eca4 04bc 96ef 303e 5caf 20bb 87f9 693e
00000010: 96d3 fc3e 0f8c b73e 381c 0bbc 830f 09bd
00000020: ec46 733e e8d2 60bb 97c4 c7bd 0f1e a33e
00000030: 96e9 1fbc 5191 5e3d 0166 40bb 3559 9bbe
00000040: 5f3b cf3c 1b4c 94bb f659 163f 2c2e 3e3c
00000050: 5fdc 23bc 8137 cdbb 8185 08bb 6a26 0a3d
00000060: 43f0 82bd c10a 003f 62cb de3e c489 8b3e
00000070: 5ceb 923e 3e1d 643c ec05 e0bb 7b34 3fbc
-0.008095961 0.17278895 -0.0024518585 0.22849093 0.49380177 0.35849044 -0.008490615 -0.03346206
0.23757523 -0.0034305397 -0.097542934 0.3185887 -0.009760281 0.054337803 -0.0029357674 -0.30341497
0.025296865 -0.004525674 0.5873102 0.011607688 -0.010001271 -0.00626272 -0.0020831528 0.03372804
-0.063934825 0.5001641 0.43514544 0.27253544 0.2869519 0.0139229875 -0.0068366434 -0.011670227

fc3.weight f4 [5, 32]
00000000: 80b1 bf3b 0dba bd3e d326 daba 2db3 113f
00000010: 031b 64bf 64dd 5bbf 6933 93ba d52a 553d
00000020: 8838 38bf 76b8 7fbb f377 c8bd 6141 4bbe
00000030: 16e8 fcba fe88 40be b4a7 d3ba cf5d 133f
00000040: daf8 b13d 77b1 d0bc f360 9abe 2fda bf3e
00000050: e53d 12bb 05c7 a83b 67d0 023b f475 703e
00000060: 41ac 8d3e 518f 4cbf 0aa2 6cbf 0e1d 213f
00000070: 7503 a73d 344a 8eba acf7 4d3c 0d11 8fbb
00000080: bcaa 113c d39f 1bbe cdad 313b 41c7 443e
00000090: d430 ee3e 8ff8 2ebe cfd6 8f3c ed13 0cbc
000000a0: e7e2 a63e b28f fbba 585d 0c3e d684 003e
000000b0: 76ba 093b ae82 8abe 397f 93bb 4f70 0ebd
000000c0: fc4d bfbd 4b73 ee3c 2c9c 2f3e 110c 99be
000000d0: dd70 043c 71d6 5239 c8d3 583b cd4d 66bc
000000e0: 8122 86be 03bb b63e 0703 e33e f783 80be
000000f0: 3d92 1f3f c0c9 453c 1e59 1f3a 10b3 3d3a
00000100: 62b0 e13a ffa7 b53e e0fc b2bb bdb7 81bb
00000110: 672e 78be ab16 293f 1945 34bb 1e5a 1bbf
00000120: a245 363e 249b f43a a112 fbbd 66ec 013f
00000130: f36c 9ebb a7a1 b23e f91b b6bb 3ca7 d7be
00000140: e753 ce3d beac 06bd 6a00 293e 0465 993e
00000150: 1dc9 c4ba 7f18 853b c74b 333a 7bbe bdbe
00000160: 972d ad3d 2266 1f3f 4b65 3d3e d605 5a3e
00000170: 2535 b2be f74f 123b 0740 0a3b 38f6 e5bb
00000180: ca38 373b f2ee 30be 04a5 f0ba 49e7 91be
00000190: e83e bc3e 5476 3a3d af07 c93c df52 c53e
000001a0: 92ac 813d 2481 20bb 6e8a 3b3f 5d96 483e
000001b0: dc3b 343b bedc babe a984 58bb 97cf 68bd
000001c0: ac73 be3c f800 8e3d ebc3 d6be 7b86 56be
000001d0: f003 3e3c acd5 92bb 3841 eb39 e784 6abe
000001e0: 31a8 1fbf 61e5 31be 8aa2 243f 1168 d3be
000001f0: 6754 983e d4fb edb9 f362 173b d6ed 6f3a
00000200: 3087 0abc c6ef cabe a4e5 2a3a a7b5 eebe
00000210: 9930 973e 7556 a43e ad78 09bd 804a 333e
00000220: eba9 193e 957e a0bb cf9d 25bf 0196 20bf
00000230: 01d1 b4ba 8bd0 ee3e 8cd0 683b bf26 adbd
00000240: 6ca4 fdbd 946a 37bd 1bf3 c33e e074 1fbe
00000250: 4f69 94bc 737f 62bb b365 523b 7317 be3e
00000260: 77a5 053f eeb9 94bb 9deb b0be 14db 3bbe
00000270: c052 29bf d0ce b3bc 2e12 ca3b 33f9 7e3b
0.005850017 0.37056008 -0.0016643651 0.56914026 -0.89103717 -0.8588469 -0.0011230531 0.0520428
-0.7196126 -0.003901986 -0.097885035 -0.19849159 -0.0019295241 -0.18802258 -0.0016148002 0.57565016
0.08690043 -0.025475247 -0.3015209 0.37471148 -0.0022314724 0.005150678 0.0019960643 0.23482496
0.27670482 -0.79906183 -0.9243475 0.6293496 0.08154956 -0.0010855854 0.012571257 -0.0043660463
0.008890804 -0.15197687 0.002711165 0.19216634 0.46521628 -0.17087005 0.017558483 -0.008549673
0.32594988 -0.0019192605 0.13707483 0.12550673 0.002101568 -0.27052826 -0.00450125 -0.034775075
-0.09341046 0.02910771 0.17149419 -0.29892018 0.008083549 0.00020107046 0.0033085216 -0.014056635
-0.261982 0.35689554 0.44338247 -0.2510068 0.62332517 0.012072027 0.0006078648 0.000723646
0.0017218704 0.35479733 -0.005462274 -0.003958671 -0.24236451 0.66050214 -0.0027507006 -0.6068438
0.178 0.0018661958 -0.122594126 0.5075134 -0.004834765 0.34888956 -0.005557534 -0.42119777
0.10074597 -0.032879584 0.16504064 0.2995988 -0.001501355 0.004061758 0.00068396 -0.37059388
0.08455961 0.6226522 0.18495671 0.21291289 -0.3480617 0.0022325495 0.0021095292 -0.007017877
0.0027957433 -0.1727865 -0.0018359725 -0.2849677 0.36766744 0.045523003 0.024539797 0.38539788
0.06331743 -0.0024491036 0.732581 0.19588609 0.00275015 -0.36496538 -0.0033038056 -0.056838598
0.023248516 0.069337785 -0.4194635 -0.20949738 0.011597618 -0.004481038 0.00044871285 -0.2290226
-0.62366015 -0.17372657 0.64310515 -0.41290334 0.29751894 -0.0004539179 0.002309975 0.0009152567
-0.008455083 -0.39636058 0.00065192045 -0.46622965 0.29529265 0.3209721 -0.03356235 0.17508888
0.15006225 -0.0048979023 -0.6469392 -0.6272889 -0.0013795198 0.4664348 0.0035524694 -0.08454656
-0.123848766 -0.044779375 0.38271412 -0.15571928 -0.018116621 -0.003456083 0.0032104074 0.37127265
0.52205604 -0.004538766 -0.3455476 -0.1834529 -0.6614189 -0.021949202 0.006166718 0.0038905859

fc3.bias f4 [5]
00000000: 4fff c7be 78a6 d33e 6b62 05be bf67 8a3d
00000010: 2b01 063d
-0.39061972 0.41337943 -0.13025825 0.06758069 0.032715958
