Assignment_1/1/Max_Pooling_New/Models/with/model-3.pth (torch_old, 882610 bytes, 10 tensors)

conv1.weight f4 [64, 3, 5, 5]
0.15056527 0.14813034 0.057082992 -0.099847205 -0.16122654 0.08688461 0.08413592 0.05029915
-0.036780734 -0.055295266 -0.06751447 -0.020641092 0.06103152 0.13508335 0.13629994 -0.12958914
-0.16345881 0.03800327 0.18753971 0.18065307 -0.12092369 -0.1257539 0.013969294 0.12634842
0.1798999 0.080236025 0.0054320944 -0.05494082 -0.14278299 -0.21894597 -0.030863266 0.0010510506
-0.0069554714 -0.08490751 -0.07883855 -0.12929772 -0.13670091 -0.040974304 0.049330022 0.09055438
-0.2441591 -0.19743013 -0.04821313 0.174321 0.21627845 -0.22230826 -0.21916263 -0.013213784
0.15738212 0.16677691 0.10345202 0.0935885 0.008421643 -0.10611478 -0.18827431 0.09670651
0.02802362 0.009620216 -0.036294565 -0.07051688 -0.014156203 -0.06415565 0.013764731 0.08205226
0.1437999 -0.15634878 -0.12863906 0.039506312 0.17004524 0.21959259 -0.0974236 -0.10813866
0.027740331 0.19399758 0.24463694 -0.0030676657 0.0023855083 0.0075097624 0.04104623 0.059869256
0.016611226 -0.020046603 0.04278349 0.083482675 0.08478713 0.039166003 0.009102915 0.014415427
0.056529105 0.063743845 -0.023878781 0.012631523 0.017179705 0.0653847 0.028645158 0.008796587
0.009998063 0.019095354 0.038733497 0.058681745 -0.07715616 -0.04898165 -0.06574255 -0.032381754
-0.05529602 -0.07591067 -0.08554601 -0.08310913 -0.02494617 -0.024828013 -0.03519453 -0.09441961
-0.05059854 -0.06206414 -0.04726769 -0.084361985 -0.042892702 -0.031322706 -0.05165211 -0.021470312
-0.08102459 -0.07865394 -0.07428525 -0.015330688 -0.0397433 0.04990805 0.04286277 0.044338457
0.017824084 0.06201341 0.024366746 0.010676796 0.017851945 0.02652065 0.04030599 0.034605224
-0.0143693965 0.035011686 0.009092381 0.06641161 0.024878135 0.014723961 0.024704125 0.016162587
0.018720577 -0.0029630682 0.03234349 0.050486572 0.025573054 0.010355425 -0.14959943 -0.08722347
-0.09011643 -0.06281235 -0.16259515 -0.11856639 -0.06383664 -0.036849298 -0.07534132 -0.17170656
-0.17320377 -0.065543465 -0.005554071 -0.05120081 -0.15092152 -0.14750716 -0.040021703 -0.00789481
-0.054185543 -0.16117735 -0.12718306 -0.02424275 0.013356414 -0.00915895 -0.1354824 0.042029493
0.096602716 0.11909322 0.11773678 0.040345315 0.038658038 0.077159785 0.17566046 0.10228635
0.057417784 0.0052312315 0.10762236 0.15706152 0.10980057 0.056384716 0.018842803 0.104824096
0.20522217 0.1386347 0.019806927 -0.014694411 0.11154408 0.19836782 0.11817674 0.033826835
-0.043563 0.02073407 -0.00688071 0.007927256 -0.030848678 -0.050267562 -0.021331144 0.045319144
-0.0127262 -0.053972907 -0.087769456 0.04114685 0.07331472 0.0043621655 -0.077897824 -0.09453421
-0.013466481 0.08136209 0.049438648 -0.06857821 -0.11017167 -0.00678817 0.036147993 0.040363375
-0.07460622 -0.021898413 -0.08148005 -0.08468757 -0.02742476 -0.056108583 -0.02279528 -0.10862165
-0.019268105 -0.008314507 0.07041699 -0.09564189 -0.08972687 -0.0108895395 0.05782302 0.1288573
-0.018090313 -0.1175686 -0.0150954155 0.09337518 0.113298185 0.003707856 -0.007887332 0.03797357
0.09878537 0.13811171 -0.07379061 -0.13465315 -0.09382297 -0.00625426 -0.011487668 -0.10702204
00000000: c82d 1a3e 7baf 173e dbcf 693d b17c ccbd
00000010: 9218 25be 8ff0 b13d 744f ac3d 7b06 4e3d
00000020: 65a7 16bd 4a7d 62bd 0745 8abd 8217 a9bc
00000030: 30fc 793d 4a53 0a3e 3692 0b3e 04b3 04be
00000040: bf61 27be 51a9 1b3d 690a 403e 1efd 383e
00000050: d7a6 f7bd a1c5 00be 77df 643c 7b61 013e
00000060: ae37 383e c952 a43d b6ff b13b a009 61bd
00000070: b435 12be 5f33 60be f6d4 fcbc 68c3 893a
00000080: b9ea e3bb fde3 adbd 1b76 a1bd 9f66 04be
00000090: 53fb 0bbe acd4 27bd 470e 4a3d 9374 b93d
000000a0: d804 7abe 202b 4abe 227b 45bd 3481 323e
000000b0: 1978 5d3e c7a4 63be 2b6c 60be a17e 58bc
000000c0: c728 213e 91c7 2a3e a7de d33d 54ab bf3d
000000d0: eefa 093c b552 d9bd fbca 40be 100e c63d
000000e0: ca91 e53c 1c9e 1d3c 9ca9 14bd 276b 90bd
000000f0: 6bef 67bc 0a64 83bd 7785 613c 040b a83d
00000100: 4840 133e e519 20be f5b9 03be 5fd1 213d
00000110: 5720 2e3e e1dc 603e 0686 c7bd cd77 ddbd
00000120: b13f e33c 4da7 463e 1b82 7a3e e40a 49bb
00000130: 3056 1c3b 7414 f63b 1720 283d 7739 753d
00000140: 4414 883c c638 a4bc be3d 2f3d f7f8 aa3d
00000150: e0a4 ad3d 886c 203d 6524 153c af2e 6c3c
00000160: 108b 673d 228c 823d 6f9d c3bc 73f4 4e3c
00000170: 74bc 8c3c 6ae8 853d 40a9 ea3c 8f1f 103c
00000180: eace 233c dc6d 9c3c 04a7 1e3d 455c 703d
00000190: 0c04 9ebd fca0 48bd 08a4 86bd bba2 04bd
000001a0: 147e 62bd 0e77 9bbd bf32 afbd 1f35 aabd
000001b0: e95b ccbc 1e64 cbbc 2428 10bd 125f c1bd
000001c0: 6a40 4fbd f836 7ebd c49b 41bd fac5 acbd
000001d0: 42b0 2fbd 3d4c 00bd 2a91 53bd 82e2 afbc
000001e0: 38f0 a5bd 5115 a1bd dd22 98bd 912d 7bbc
000001f0: dfc9 22bd 626c 4c3d df90 2f3d 3e9c 353d
00000200: d003 923c c601 7e3d c59c c73c baed 2e3c
00000210: 3e3e 923c d641 d93c e517 253d 35be 0d3d
00000220: 9e6d 6bbc 6a68 0f3d 36f8 143c cf02 883d
00000230: 3bcd cb3c c53c 713c 4e60 ca3c 6767 843c
00000240: e55b 993c 0930 42bb 9b7a 043d 02cb 4e3d
00000250: 957e d13c cda9 293c 9830 19be 38a2 b2bd
00000260: f68e b8bd c3a3 80bd 587f 26be efd2 f2bd
00000270: c9bc 82bd 4aef 16bd 8d4c 9abd d8d3 2fbe
00000280: 545c 31be a73b 86bd edfe b5bb f1b7 51bd
00000290: 2c8b 1abe 1e0c 17be cced 23bd 3c59 01bc
000002a0: a9f1 5dbd ad0b 25be 473c 02be bb98 c6bc
000002b0: dcd4 5a3c 6c0f 16bc e6bb 0abe 1e27 2c3d
000002c0: a5d7 c53d 25e7 f33d fb1f f13d 2141 253d
000002d0: e457 1e3d f305 9e3d 56e0 333e 827b d13d
000002e0: e92e 6b3d c06a ab3b 1d69 dc3d bcd4 203e
000002f0: 1fdf e03d a9f3 663d 395c 9a3c 04ae d63d
00000300: c325 523e 41f6 0d3e 2342 a23c d4c0 70bc
00000310: 3971 e43d ef20 4b3e a606 f23d 028e 0a3d
00000320: 1e6f 32bd 7fda a93c 9477 e1bb 52e1 013c
00000330: 5eb6 fcbc 5ce5 4dbd a7be aebc 91a0 393d
00000340: 8d81 50bc b212 5dbd 79c0 b3bd 9989 283d
00000350: 0726 963d 7ff0 8e3b e588 9fbd 279b c1bd
00000360: 84a2 5cbc 2ba1 a63d 2e80 4a3d bc72 8cbd
00000370: afa1 e1bd 4c6f debb eb0f 143d 1154 253d
00000380: 25cb 98bd 4d64 b3bc 03df a6bd ad70 adbd
00000390: e4a9 e0bc 1dd2 65bd 2bbd babc 0775 debd
000003a0: 25d8 9dbc 9239 08bc c836 903d e5df c3bd
000003b0: b9c2 b7bd 0a6a 32bc d5d7 6c3d 2bf3 033e
000003c0: 2332 94bc cec7 f0bd c352 77bc 7d3b bf3d
000003d0: e108 e83d 80ff 723b de39 01bc 2d8a 1b3d
000003e0: fc4f ca3d 286d 0d3e 881f 97bd 84e2 09be
000003f0: 4226 c0bd 89f0 ccbb c636 3cbc 5f2e dbbd

conv1.bias f4 [64]
-0.025786318 -0.15821119 -0.26796767 -0.08337322 -0.09615311 -0.54507846 -0.6307657 -0.37402797
-0.5483789 -1.6539184 -0.29764712 -0.1293996 -0.20307972 -0.15974173 0.03485013 -0.07293403
-0.39655432 -1.1560203 -0.117818385 -0.45724425 -0.34005445 -0.082687646 -0.27018708 -0.5569755
0.0091778 -0.29810444 -0.14022669 -0.81178 -0.45635727 -0.53035486 -0.4236902 -0.7020863
-0.13093631 -0.21911886 -0.24401394 -1.2351993 0.07811089 -0.7405166 -0.52128917 -0.082392834
-0.08490077 0.21172968 0.007882866 -0.11277345 -0.04661738 -0.52217853 -0.1714584 -0.35742444
-0.10671521 -0.18487877 -0.39373803 -1.0297695 -0.20649016 -0.032892946 -0.46275875 -0.26187375
-0.5541835 -0.22072425 -0.059423935 -0.38425452 -0.13920157 -0.4564102 -0.20378675 -0.13479765
00000000: d43d d3bc 1d02 22be 0f33 89be 94bf aabd
00000010: eceb c4bd 438a 0bbf dc79 21bf 9880 bfbe
00000020: 8f62 0cbf 99b3 d3bf 3465 98be 5481 04be
00000030: 21f4 4fbe 5693 23be 03bf 0e3d 705e 95bd
00000040: 2b09 cbbe 79f8 93bf c44a f1bd eb1b eabe
00000050: 9e1b aebe 2458 a9bd f655 8abe f295 0ebf
00000060: 7c5e 163c 25a1 98be 9697 0fbe d0d0 4fbf
00000070: a9a7 e9be 56c5 07bf eced d8be eebb 33bf
00000080: 2b14 06be b260 60be cade 79be 031b 9ebf
00000090: 9af8 9f3d 7f92 3dbf 3573 05bf 93bd a8bd
000000a0: 74e0 adbd aacf 583e 2327 013c c4f5 e6bd
000000b0: def1 3ebd 7ead 05bf ca92 2fbe 5600 b7be
000000c0: 818d dabd dc50 3dbe 0898 c9be 7dcf 83bf
000000d0: 2872 53be c1ba 06bd b7ee ecbe 5114 86be
000000e0: f8de 0dbf 8a05 62be 8366 73bd 02bd c4be
000000f0: db8a 0ebe 99ae e9be 79ad 50be 6508 0abe

conv2.weight f4 [128, 64, 5, 5]
0.013877105 0.018933173 0.01115287 -0.02851598 -0.03456685 0.018792056 0.00036182083 0.001047848
-0.031898662 -0.036392912 0.009687971 0.004138762 0.001986821 -0.031114243 -0.047028176 0.0117104165
0.007035894 0.0041128513 -0.022780403 -0.03131341 0.020988064 -0.007333647 -0.0016361503 -0.010941582
-0.040061362 -0.0023102416 -0.005079671 -0.0033586912 -0.011015388 -0.005278605 -0.009449795 -0.004860894
-0.003829166 -0.01551301 -0.007981663 -0.0075537874 -0.0072986516 -0.014226911 -0.003660531 -0.014509663
-0.0020870538 -0.008229127 -0.009425154 -0.011185176 -0.009846927 -0.0026616144 -0.011590268 -0.00864011
-0.011109235 -0.006119904 -0.0016764202 -0.030137088 -0.027647883 -0.02855975 -0.0128187435 -0.00515079
-0.032743704 -0.033159062 -0.03717693 -0.007853904 0.0014331079 -0.020723013 -0.028860742 -0.023793291
-0.015334112 0.0071657663 -0.020839088 -0.014929692 -0.023601199 -0.009148026 0.0021302665 -0.01045186
-0.018557584 -0.00671592 -0.003691902 0.016535373 0.013261648 0.0033731025 -0.032769576 -0.03462683
0.0041452004 0.017922817 0.0004344428 -0.029094853 -0.037950654 0.013584559 0.021733267 0.0059545534
-0.031358078 -0.02735324 0.0041401205 0.025253499 -0.0005265605 -0.030904701 -0.037751008 0.02225137
0.017484156 -0.00778212 -0.030369427 -0.033609964 -0.00888436 -0.01689846 -0.011082901 0.0040574167
-0.006032288 -0.01035144 -0.003443154 -0.010606913 -0.001163937 -0.0031370514 -0.006325382 -0.0154683525
-0.010650196 -0.0062320954 0.0011234467 -0.0021384524 -0.008739192 -0.0020217367 -0.007023726 -0.005744102
-0.010704962 -0.0014568133 0.0016652913 -0.002229292 0.0035420468 -0.021792606 -0.002551169 -0.011090914
-0.03339986 -0.024981331 -0.04076787 -0.044497833 -0.049555138 -0.054528557 -0.053658143 -0.028693492
-0.03277477 -0.042072933 -0.043930072 -0.052082356 -0.024423052 -0.02155475 -0.028001664 -0.0347195
-0.04074767 -0.020289086 -0.023309406 -0.0314869 -0.017523132 -0.040891327 -0.066035494 -0.07308004
-0.025061382 0.040228665 0.041037966 -0.06990209 -0.06916085 -0.02699354 0.0481435 0.020508556
-0.07323819 -0.07769149 -0.020972883 0.036326557 0.023239309 -0.072406135 -0.06536774 -0.023103897
0.025083905 0.016194806 -0.06784522 -0.067127705 -0.030044643 0.010050957 0.018701557 -0.014403859
-0.0018886655 0.005820701 0.0009371825 -0.0007357959 -0.009214923 -0.0015322709 0.011490314 -0.0020065398
-0.005338048 -0.019086136 -0.0010659402 0.012904107 -0.0010625552 -0.011849196 -0.0130257625 -0.00025234104
0.00057019794 -0.0067637856 -0.0035988311 -0.0045307674 -0.008814319 0.0013228736 0.0009736595 -0.0013603274
0.000112062466 -0.0056349775 0.001189697 0.017809134 0.034313638 0.0037838987 -0.015533611 -0.021223955
-0.0031609014 0.014889817 -0.0068265926 -0.0020259724 -0.012005547 -0.0042639957 0.014680836 -0.015374823
-0.016179536 -0.0032469155 -6.681265e-05 0.01669046 -0.007260664 -0.002883798 -0.0023794146 0.0023907518
0.018680746 -0.050580427 -0.05071667 -0.01842105 -0.0027885844 -0.0056687267 -0.050973188 -0.031114617
-0.00554993 -0.0066794087 0.0024137765 -0.058573566 -0.024559656 -0.011024538 -0.0076764734 -0.012635661
-0.032124504 -0.0145672085 -0.00927863 -0.005536392 -0.026858361 -0.029600581 -0.033050388 -0.016595807
-0.012087387 -0.048075616 0.0007310458 -0.026697354 -0.036867242 -0.0055851717 0.01061641 -0.02419416
00000000: cc5c 633c be19 9b3c 87ba 363c 589a e9bc
00000010: f895 0dbd ccf1 993c c5b2 bd39 f257 893a
00000020: 2ca8 02bd bc10 15bd 4cba 1e3c 749e 873b
00000030: 5335 023b 4ce3 febc 9ea0 40bd 0cdd 3f3c
00000040: 5b8d e63b 19c5 863b f89d babc 7d42 00bd
00000050: 29ef ab3c 174f f0bb 1874 d6ba 5244 33bc
00000060: 6217 24bd 6c67 17bb 5e73 a6bb 7d1d 5cbb
00000070: e379 34bc 26f8 acbb 50d3 1abc 2248 9fbb
00000080: bff2 7abb 482a 7ebc 85c5 02bc c385 f7bb
00000090: 8729 efbb fd17 69bc 85e5 6fbb f0b9 6dbc
000000a0: f4c6 08bb 76d3 06bc f66b 1abc 0742 37bc
000000b0: 0155 21bc 7b6e 2ebb 1ce5 3dbc 3f8f 0dbc
000000c0: 8203 36bc 7a89 c8bb 54bb dbba 0ee2 f6bc
000000d0: d07d e2bc 23f6 e9bc b505 52bc f5c7 a8bb
000000e0: 431e 06bd ccd1 07bd d646 18bd a9ad 00bc
000000f0: 1fd7 bb3a 4fc3 a9bc 5d6d ecbc 26ea c2bc
00000100: ed3b 7bbc cece ea3b bcb6 aabc ab9b 74bc
00000110: 4d57 c1bc 9ae1 15bc f19b 0b3b 473e 2bbc
00000120: 1306 98bc 3811 dcbb d6f3 71bb 3175 873c
00000130: 6247 593c 450f 5d3b 6439 06bd ddd4 0dbd
00000140: 76d4 873b dfd2 923c edc5 e339 5458 eebc
00000150: 2572 1bbd c591 5e3c f709 b23c 6a1e c33b
00000160: 5471 00bd e713 e0bc d9a9 873b 6de0 ce3c
00000170: e108 0aba db2b fdbc cda0 1abd 8148 b63c
00000180: ef3a 8f3c 2701 ffbb 4ec9 f8bc 9aaa 09bd
00000190: b58f 11bc a46e 8abc 0e95 35bc 14f4 843b
000001a0: 80aa c5bb 1699 29bc 8aa6 61bb 9ec8 2dbc
000001b0: 3f8f 98ba fd96 4dbb 2645 cfbb f96e 7dbc
000001c0: 297e 2ebc 9b36 ccbb 9e40 933a 4725 0cbb
000001d0: d42e 0fbc 1d7f 04bb 4927 e6bb 0539 bcbb
000001e0: dd63 2fbc 8bf2 beba e745 da3a 5019 12bb
000001f0: af21 683b 6886 b2bc 8331 27bb aab6 35bc
00000200: 4bce 08bd a6a5 ccbc 36fc 26bd 5c43 36bd
00000210: 54fa 4abd 5659 5fbd a4c8 5bbd 9d0e ebbc
00000220: d63e 06bd ab54 2cbd 05f0 33bd 4f54 55bd
00000230: da12 c8bc 9693 b0bc bf63 e5bc 0936 0ebd
00000240: 07e7 26bd 4c35 a6bc 5ef3 bebc 68f8 00bd
00000250: ac8c 8fbc aa7d 27bd 9e3d 87bd fdaa 95bd
00000260: 874d cdbc d0c6 243d 6d17 283d d428 8fbd
00000270: 34a4 8dbd 8e21 ddbc 1e32 453d 8f01 a83c
00000280: e7fd 95bd b71c 9fbd 53cf abbc 28cb 143d
00000290: 5d60 be3c ab49 94bd 86df 85bd 6244 bdbc
000002a0: c37c cd3c f8aa 843c 6ff2 8abd 407a 89bd
000002b0: 2f20 f6bc c5ac 243c 0234 993c 2afe 6bbc
000002c0: 198d f7ba 94bb be3b 41ad 753a 6de2 40ba
000002d0: 30fa 16bc 7bd6 c8ba df41 3c3c 2780 03bb
000002e0: cbea aebb 875a 9cbc 05b7 8bba bf6b 533c
000002f0: 7045 8bba 2123 42bc 026a 55bc a44c 84b9
00000300: 5679 153a bfa2 ddbb 5eda 6bbb d576 94bb
00000310: ef69 10bc 4664 ad3a 2f3d 7f3a 034d b2ba
00000320: 1403 eb38 9ea5 b8bb 9bef 9b3a 76e4 913c
00000330: 758c 0c3d 49fb 773b b080 7ebc dcdd adbc
00000340: 2027 4fbb 6bf4 733c 9cb1 dfbb 2dc6 04bb
00000350: eab2 44bc fdb8 8bbb e487 703c aee6 7bbc
00000360: f28a 84bc 34ca 54bb c51d 8cb8 6eba 883c
00000370: ddea edbb 1afe 3cbb f4ef 1bbb 29ae 1c3b
00000380: 5d08 993c 6c2d 4fbd 48bc 4fbd bee7 96bc
00000390: afc0 36bb bac0 b9bb 43c9 50bd 15e4 febc
000003a0: 30dc b5bb f1de dabb 7330 1e3b d6ea 6fbd
000003b0: 5531 c9bc 44a0 34bc ed8a fbbb ce05 4fbc
000003c0: fc94 03bd 4dab 6ebc 6505 18bc 9f6a b5bb
000003d0: 1106 dcbc eb7c f2bc d85f 07bd eef3 87bc
000003e0: 2d0a 46bc f0ea 44bd a7a3 3f3a 69b4 dabc
000003f0: 1b02 17bd d103 b7bb 73f0 2d3c d532 c6bc

conv2.bias f4 [128]
-0.11548264 0.005254045 -0.080853276 -0.039769012 -0.0153537085 -0.018946692 0.014465465 0.020859867
0.24699523 -0.37833092 -0.1468763 -0.0881164 0.059365746 0.12936302 0.66067654 0.048098743
-0.01834697 0.013324911 -0.070011914 -0.01765896 0.41242638 -0.032122966 -0.034640163 0.022973035
0.041791145 -0.03396631 -0.004904119 0.25674427 0.010836073 -0.036043793 -0.2983752 0.015612875
0.0020770913 -0.008503342 -0.08329898 -0.017850814 -0.07716972 -0.07735551 -0.01826985 0.029137857
0.07643879 0.08033935 0.28305846 -0.006576608 -0.0055162413 -0.040561244 -0.004185767 0.02092993
-0.03473747 -0.013056465 0.020230344 0.4965294 -0.31353575 0.12341104 0.21359938 -0.14274578
-0.00013995873 -0.0526135 -0.041540165 0.14108883 -0.13284984 0.1930508 0.11555003 -0.020818487
-0.006010008 -0.051432267 0.012192771 0.0010432118 0.048632704 0.09144847 -0.012982961 -0.020181542
-0.37403437 -0.028833168 0.043873418 -0.043701556 -0.017046625 0.095183015 0.14055474 0.012042197
-0.31401595 0.033862956 -0.07746913 0.23654863 -0.0051939245 -0.0038320473 0.037912108 0.015297175
-0.05100673 0.0011211903 -0.13334268 -0.047269966 -0.009418423 0.00025533477 -0.022001207 0.014318229
0.04741146 -0.057080436 0.004829336 -0.016538467 0.18392593 -0.097693816 0.062112287 -0.009638415
0.12106129 0.022152567 -0.043347508 0.054194782 -0.16287747 0.033247102 -0.039487194 -0.009510895
-0.0012824057 -0.15164983 0.17423536 0.075306386 -0.013896324 0.28947031 -0.0129994005 -0.13846926
-0.3674334 -0.078244045 0.19821861 0.0818434 -0.23975512 -0.032300647 -0.012662659 0.14220569
00000000: 2a82 ecbd 202a ac3b 6796 a5bd d5e4 22bd
00000010: 1f8e 7bbc 1836 9bbc 8f00 6d3c 50e2 aa3c
00000020: 51ec 7c3e 97b4 c1be be66 16be 5f76 b4bd
00000030: 7f29 733d bd77 043e 1922 293f 3003 453d
00000040: 634c 96bc ba50 5a3c 6862 8fbd 86a9 90bc
00000050: 8d29 d33e 5f93 03bd d8e2 0dbd f231 bc3c
00000060: 312d 2b3d 4220 0bbd bbb2 a0bb fc73 833e
00000070: c989 313c a8a2 13bd a2c4 98be 25cd 7f3c
00000080: cf1f 083b 9a51 0bbc a898 aabd df3b 92bc
00000090: 280b 9ebd 916c 9ebd a7aa 95bc 84b2 ee3c
000000a0: f18b 9c3d f588 a43d 0aed 903e 9680 d7bb
000000b0: 96c1 b4bb 8c23 26bd c228 89bb 3f75 ab3c
000000c0: e148 0ebd c9ea 55bc 1bba a53c 1a39 fe3e
000000d0: c287 a0be edbe fc3d ccb9 5a3e f32b 12be
000000e0: e3c1 12b9 4181 57bd 0526 2abd 9779 103e
000000f0: ca09 08be 1caf 453e 7ea5 ec3d 888b aabc
00000100: 9aef c4bb a4aa 52bd 30c4 473c 61bc 883a
00000110: 1633 473d 5649 bb3d 7cb6 54bc c353 a5bc
00000120: 6f81 bfbe 8933 ecbc 9db4 333d 6700 33bd
00000130: 5da5 8bbc 50ef c23d 95ed 0f3e a34c 453c
00000140: b3c6 a0be e2b3 0a3d 23a8 9ebd ce39 723e
00000150: cc31 aabb 1623 7bbb ba49 1b3d 01a1 7a3c
00000160: 6fec 50bd e7f4 923a fc8a 08be 279e 41bd
00000170: bb4f 1abc 74de 8539 e03b b4bc 0197 6a3c
00000180: 8532 423d 2dcd 69bd 683f 9e3b ae7b 87bc
00000190: 1457 3c3e b213 c8bd 7469 7e3d 71ea 1dbc
000001a0: fbee f73d 4d79 b53c 288d 31bd 59fb 5d3d
000001b0: 5ac9 26be 1d2e 083d 53bd 21bd 96d3 1bbc
000001c0: 6516 a8ba 184a 1bbe c16a 323e 3c3a 9a3d
000001d0: 68ad 63bc 7435 943e 70fb 54bc e3ca 0dbe
000001e0: 3b20 bcbe 6a3e a0bd d2f9 4a3e 839d a73d
000001f0: 5e82 75be af4d 04bd 0b77 4fbc 5e9e 113e

fc1.weight f4 [64, 128]
0.012477499 0.024091467 -0.013882994 -0.02944459 -0.020994212 0.005742573 0.004577936 0.016089613
-0.0007859439 0.004691032 0.005738938 -0.020222744 0.018304802 -0.031740792 -0.021487558 0.002903283
-0.009085518 0.0064097783 -0.033848405 0.0053289277 -0.021255184 0.0018596692 -0.018792273 0.021283325
0.0069495514 0.02046761 -0.023093352 -0.011519506 -0.015304992 -0.01646364 -0.022873657 -0.016905889
0.011016752 -0.019095171 0.019344678 -0.010381245 -0.015219384 -0.010234655 0.008169757 0.001144751
0.011016689 0.006829148 0.0014498411 0.008221918 -0.009464644 0.011416358 -0.0025901305 -0.0013035432
0.019445006 0.003014339 -0.025860945 -0.030983334 -0.008785973 -0.0089068245 -0.016000941 -0.0034207087
-0.0064003416 0.015019688 0.021833971 -0.0117724165 0.007471394 -0.013765213 -0.011762312 -0.016741183
0.018249698 0.013486755 -0.011357906 -0.014144385 -0.0054306593 0.026900815 -0.008314142 -0.0024092447
0.03027096 -0.002462912 -0.019651262 -0.02886819 0.006550787 -0.001375431 -0.0013327714 0.01746623
-0.02871551 -0.01773347 0.008305837 -0.008935095 0.009555036 0.01647766 0.009592961 0.0022581613
0.013795223 -0.01686652 8.115284e-05 0.0032035522 -0.0030981367 -0.0016129431 0.026785579 -0.020108066
-0.00903334 -0.016591871 0.024401698 0.018780407 -0.024038734 -0.010941864 -0.009875733 0.012292287
-0.0036645494 0.021798946 -0.007790617 -0.015079883 -0.027526569 -0.017190685 0.0121493945 0.010965818
0.018565552 -0.018600427 0.010297314 -0.009124166 -0.01937013 -0.0024595608 0.0013657676 -0.01004778
0.0016886386 -0.014005752 0.013338147 0.02763411 -0.0046022465 0.0035747385 -0.00071046076 0.014553885
-0.122111 -0.01334359 0.05466214 -0.16061324 -0.050810356 -0.042828403 -0.047337685 -0.028770301
-0.010764519 0.10129527 0.11367895 -0.12778334 -0.0072496524 -0.15959354 -0.046859466 -0.19346784
-0.022433622 0.0072632204 -0.1190229 0.029098338 0.0057821525 -0.070978366 0.029231848 0.0033333132
0.00639513 -0.22232005 0.00819622 -0.049982954 -0.14634643 -0.05416737 0.035481513 0.015851337
0.018528946 0.012801545 -0.063615836 -0.011726741 -0.087947495 -0.120892026 -0.014353287 -0.014453174
-0.13351056 -0.018780803 -0.23597994 -0.08151054 -0.014705053 -0.05548012 -0.009784108 0.010869949
-0.025941899 -0.04898174 0.013982093 -0.14574729 0.0803187 -0.015710572 -0.00040741204 0.016664712
-0.035144486 0.00096382666 -0.17022808 -0.008526171 0.101710245 0.02752139 0.009547435 -0.057485055
-0.018676374 -0.13053259 -0.18382837 -0.04802986 0.0014459842 0.031050235 -0.010290409 -0.12796402
0.13070111 -0.11931721 -0.063035436 -0.113711104 -0.14612557 -0.020358536 0.027900001 -0.003294838
-0.08392986 -0.08512245 -0.05181452 -0.020322327 -0.015192866 0.00057869183 -0.03425405 -0.0700818
-0.10622181 -0.021678604 -0.10362471 -0.034952533 -0.023859682 0.0021464985 -0.08668998 -0.012718384
-0.047101405 -0.099246934 0.0066385637 -0.045826167 0.06959954 0.043064233 -0.08198367 -0.046617124
-0.015356596 -0.018147018 -0.014913325 -0.025427556 -0.11259209 -0.03838489 -0.068797156 -0.018523246
-0.029231705 0.03507843 0.04892163 -0.0048612836 -0.008501334 -0.05103375 -0.1015281 -0.08784964
0.0661583 -0.18008171 0.031176835 -0.07554981 -0.10039814 -0.06833922 -0.0646394 0.046156976
00000000: 6d6e 4c3c 785b c53c 7f75 63bc c835 f1bc
00000010: 0efc abbc 322c bc3b 8302 963b 5dce 833c
00000020: cd07 4eba 3bb7 993b b40d bc3b 2baa a5bc
00000030: f4f3 953c a202 02bd ad06 b0bc 0245 3e3b
00000040: 6ddb 14bc 1e09 d23b a0a4 0abd 499e ae3b
00000050: 5a1f aebc 25c0 f33a 41f2 99bc 5e5a ae3c
00000060: 10b9 e33b b0ab a73c 452e bdbc 4fbc 3cbc
00000070: cac1 7abc c1de 86bc 8961 bbbc 387e 8abc
00000080: 9b7f 343c 7a6d 9cbc bb78 9e3c 1916 2abc
00000090: b95a 79bc 41af 27bc 72da 053c 780b 963a
000000a0: 587f 343c 0cc7 df3b 9808 be3a 39b5 063c
000000b0: 9811 1bbc ad0b 3b3c 2ebf 29bb a7db aaba
000000c0: 224b 9f3c 378c 453b 55da d3bc c3d0 fdbc
000000d0: 0bf3 0fbc eeed 11bc 6814 83bc f82d 60bb
000000e0: f5b9 d1bb 2315 763c 28dd b23c 18e1 40bc
000000f0: 98d2 f43b 7d87 61bc b6b6 40bc ce24 89bc
00000100: 6480 953c 8df7 5c3c 8316 3abc dabd 67bc
00000110: acf3 b1bb 195f dc3c 0a38 08bc 6be4 1dbb
00000120: cefa f73c ce68 21bb affb a0bc fb7c ecbc
00000130: fca7 d63b ce47 b4ba 63b0 aeba 5715 8f3c
00000140: ca3c ebbc c845 91bc 3515 083c 8164 12bc
00000150: ba8c 1c3c 28fc 863c cb2b 1d3c a9fd 133b
00000160: 5c05 623c a82b 8abc 9930 aa38 b0f2 513b
00000170: 1c0a 4bbb 6469 d3ba 6e6d db3c acb9 a4bc
00000180: 9300 14bc adeb 87bc 12e6 c73c 5ed9 993c
00000190: e1ec c4bc 8145 33bc d4cd 21bc 9765 493c
000001a0: f028 70bb b493 b23c 6f48 ffbb 9d11 77bc
000001b0: 667f e1bc 7bd3 8cbc 410e 473c f9a9 333c
000001c0: c916 983c ec5f 98bc 11b6 283c 877d 15bc
000001d0: 1bae 9ebc 9530 21bb 8e03 b33a 729f 24bc
000001e0: 4f55 dd3a 6278 65bc 3e88 5a3c ee60 e23c
000001f0: 71ce 96bb 2946 6a3b 373e 3aba 6b73 6e3c
00000200: 5515 fabd 139f 5abc 68e5 5f3d cc77 24be
00000210: 851e 50bd d66c 2fbd 29e5 41bd b2af ebbc
00000220: aa5d 30bc e573 cf3d 82d0 e83d a3d9 02be
00000230: 7e8e edbb 7d6c 23be b6ef 3fbd 6f1c 46be
00000240: b7c6 b7bc 4f00 ee3b 47c2 f3bd a35f ee3c
00000250: 3678 bd3b 1b5d 91bd a177 ef3c b773 5a3b
00000260: 3d8e d13b dea7 63be 7049 063c edba 4cbd
00000270: d7db 15be 9bde 5dbd 1055 113d aada 813c
00000280: 04ca 973c 92bd 513c 0549 82bd 8421 40bc
00000290: d11d b4bd 3d96 f7bd 0d2a 6bbc 01cd 6cbc
000002a0: feb6 08be 33da 99bc baa4 71be ffee a6bd
000002b0: 76ed 70bc 1f3f 63bd 864d 20bc df17 323c
000002c0: 1b84 d4bc 14a1 48bd 2615 653c c73e 15be
000002d0: 217e a43d 75b3 80bc eb99 d5b9 6f84 883c
000002e0: aaf3 0fbd 50a9 7c3a 4550 2ebe 5ab1 0bbc
000002f0: 764d d03d 8a74 e13c d86c 1c3c 7375 6bbd
00000300: 32ff 98bc 56aa 05be 813d 3cbe f5ba 44bd
00000310: 2e87 bd3a 105d fe3c 1b99 28bc 0009 03be
00000320: 83d6 053e 955c f4bd b918 81bd 5ee1 e8bd
00000330: f1a1 15be f2c6 a6bc 8b8e e43c 35ee 57bb
00000340: 6be3 abbd ae54 aebd 763b 54bd 027b a6bc
00000350: 80eb 78bc 5ab3 173a fa4d 0cbd 0c87 8fbd
00000360: d28a d9bd 5497 b1bc 3139 d4bd 632a 0fbd
00000370: 6175 c3bc 45ac 0c3b 848a b1bd c560 50bc
00000380: 67ed 40bd fa41 cbbd 4f88 d93b 38b4 3bbd
00000390: 348a 8e3d 1f64 303d 0ee7 a7bd 99f1 3ebd
000003a0: 3b9a 7bbc 0ea9 94bc 0557 74bc 734d d0bc
000003b0: af96 e6bd 7939 1dbd 86e5 8cbd 10be 97bc
000003c0: 5477 efbc 66ae 0f3d 0c62 483d 674b 9fbb
000003d0: 2e49 0bbc c408 51bd f7ed cfbd 83ea b3bd
000003e0: 017e 873d 5767 38be 9066 ff3c dcb9 9abd
000003f0: 8a9d cdbd 6ff5 8bbd a961 84bd 190f 3d3d

fc1.bias f4 [64]
0.03672981 0.34240878 0.2251397 0.32536846 0.18046603 0.353999 -0.124063805 -0.041618172
0.48278758 0.21834718 0.23765686 0.1817702 -0.013641805 -0.030862115 0.77140284 0.103861235
0.12074636 -0.020838628 0.010303711 -0.01831195 0.07047865 -0.06837266 -0.07157425 -0.013790591
-0.020649392 0.47113612 0.4769691 0.16244712 0.101070255 -0.03918305 -0.10580555 -0.093335085
0.5408935 0.7666087 0.25486943 0.28083086 -0.0035991129 -0.016405871 -0.48550716 0.13545372
0.5618253 -0.09081156 -0.040680714 0.20987904 0.67100805 0.26006016 0.41050315 0.09612554
0.620524 -0.042309836 0.06445952 -0.014431981 0.47464752 -0.017676946 0.5153338 -0.04119702
0.08749136 0.21641827 0.439789 -0.0565846 0.015272803 -0.07894756 -0.026026009 -0.03187196
00000000: ff71 163d 3450 af3e 068b 663e b296 a63e
00000010: 16cc 383e 5b3f b53e 2a15 febd d177 2abd
00000020: ef2f f73e 6796 5f3e 525c 733e f821 3a3e
00000030: e181 5fbc 8cd2 fcbc a87a 453f 33b5 d43d
00000040: de49 f73d c5b5 aabc e5d0 283c f102 96bc
00000050: 1c57 903d f706 8cbd 8595 92bd eef1 61bc
00000060: ea28 a9bc c138 f13e 4b35 f43e 8a58 263e
00000070: ecfd ce3d 687e 20bd 95b0 d8bd 7726 bfbd
00000080: ff77 0a3f 7840 443f 3f7e 823e 10c9 8f3e
00000090: 18df 6bbb 9b65 86bc 6594 f8be 61b4 0a3e
000000a0: c8d3 0f3f 69fb b9bd d2a0 26bd 88ea 563e
000000b0: 2fc7 2b3f 9b26 853e 782d d23e 78dd c43d
000000c0: a9da 1e3f 144d 2dbd 5a03 843d 1e74 6cbc
000000d0: 0005 f33e 3ecf 90bc eaec 033f 35be 28bd
000000e0: ac2e b33d c09c 5d3e 062c e13e 41c5 67bd
000000f0: c73a 7a3c 42af a1bd 7f34 d5bc 2c8c 02bd

fc2.weight f4 [32, 64]
-0.013859997 -0.03285395 -0.0011156765 0.021021295 0.01248801 -0.031349078 -0.05471814 -0.024647186
-0.012335273 0.0127907405 -0.005611557 -0.013685058 0.023662426 0.025945604 -0.014341298 -0.022886755
-0.03799334 0.02135543 -0.00025777798 -0.029492617 -0.02999213 -9.9968296e-05 0.02800587 -0.028190982
0.029566891 -0.03257562 -0.01858266 -0.04784663 -0.022358408 0.0003972011 0.010258722 0.021574294
-0.02174255 0.012165755 -0.06964874 0.025761567 -0.027857592 -0.018417187 0.013671934 -0.010600979
-0.028089223 -0.020403894 -0.023679005 0.0057231765 -0.035441704 -0.04773904 -0.041240923 -0.008352601
-0.019706065 0.026103461 0.03196144 0.016820014 -0.013983924 -0.021167092 0.013241562 0.0072215647
-0.02573991 -0.09064486 0.044760488 0.015904186 -0.017514242 -0.010702239 0.031248843 0.028285086
0.0127472505 0.05993575 0.06838738 0.27249935 -0.0075995354 0.2171277 -0.15522482 -0.028865604
0.028638287 -0.0070959753 0.07531446 0.27451944 0.030034436 0.0012103373 -0.26492438 -0.01646678
-0.16430853 -0.021526938 -0.035859317 -0.012884325 -0.33349335 -0.053805538 -0.037553884 -0.017429639
-0.017163215 -0.023688678 0.08707464 -0.07388556 0.056012638 0.009854003 -0.0831543 -0.07949048
0.22782949 0.0311454 -0.20276257 0.17702289 -0.029038763 -0.010462011 -0.3435938 -0.13589412
-0.041812193 0.005958124 0.0176163 0.06952397 0.47508603 -0.20725878 0.014627986 0.036965646
-0.106750265 0.020903023 0.14426024 0.022702998 -0.16636838 0.011508505 0.059918724 0.009695287
-0.007390486 -0.47581857 0.22197556 -0.04881594 0.035216328 -0.02328617 -0.02973855 -0.02473808
-0.022479808 0.0032147174 0.011833255 -0.023114718 0.026111608 -0.026171321 -0.015888121 -0.0013993279
-0.015262263 -0.026786897 0.019319246 -0.03615903 0.0051450613 0.022996338 -0.010200112 0.0034531038
-0.005891753 -0.0026060622 -0.0149412295 -0.023323515 -0.012630719 -0.011262994 0.010213007 0.035063062
0.005823532 -0.025287285 -0.01400302 0.007956065 0.017077716 -0.023451975 0.0164261 0.01051361
0.0018193368 -0.005957707 -0.016583394 -0.022606956 -5.907335e-05 0.005691782 -0.035268597 -0.008848858
-0.0205388 -0.034891114 0.022757921 0.028739722 -0.037527025 0.003018007 0.013425507 -0.018193586
-0.026501495 0.0072858934 -0.01760197 0.029956158 -0.018610531 0.029928803 0.028573046 -0.013923894
-0.033565793 -0.010993406 0.00044639816 -0.03182891 -0.019098433 0.032599214 -0.027129518 -0.009107571
-0.0030701074 0.16672836 -0.069682054 -0.03498652 0.18706642 -0.124545746 -0.089716524 0.019248486
0.03527893 0.14655429 0.093708314 0.39772448 0.01343142 -0.013346377 0.09854904 -0.09638838
-0.0019620303 0.0117572835 -0.021688554 -0.0016393039 -0.1096777 -0.008672044 -0.06514386 0.011602191
0.015536169 -0.03876401 0.2410516 -0.3124038 0.030479195 0.015128933 -0.03186776 0.117576644
0.16293813 -0.09240349 -0.28088865 -0.016218599 0.0017152425 -0.0030896133 0.01182834 -0.0425662
0.060661238 -0.09517253 -0.0014247819 0.08473137 -0.09880894 -0.1728749 0.26054335 -0.02073196
0.0074932356 0.0036768203 0.19859734 0.027648885 -0.09032305 -0.0019605944 0.073782556 -0.029172305
-0.14885335 -0.024543727 0.08510983 -0.006871678 -0.026983384 -0.022749595 0.0008447106 -0.04203495
00000000: 0a15 63bc dd91 06bd e43b 92ba da34 ac3c
00000010: 839a 4c3c e467 00bd 2120 60bd e5e8 c9bc
00000020: e319 4abc 4190 513c 27e1 b7bb 4b37 60bc
00000030: b4d7 c13c e08b d43c c3f7 6abc 017d bbbc
00000040: e89e 1bbd 95f1 ae3c 6026 87b9 809a f1bc
00000050: 0eb2 f5bc 12a6 d1b8 916c e53c c6f0 e6bc
00000060: 4436 f23c 036e 05bd aa3a 98bc d4fa 43bd
00000070: fb28 b7bc 6e3f d039 3314 283c 93bc b03c
00000080: 6f1d b2bc e052 473c 00a4 8ebd ec09 d33c
00000090: 9b35 e4bc a4df 96bc 3f00 603c bbaf 2dbc
000000a0: 5f1b e6bc 1126 a7bc 79fa c1bc 7c89 bb3b
000000b0: 522b 11bd 038a 43bd 3eec 28bd 59d9 08bc
000000c0: 9d6e a1bc edd6 d53c 00ea 023d 20ca 893c
000000d0: d41c 65bc 9c66 adbc 23f3 583c e0a2 ec3b
000000e0: 81dc d2bc 03a4 b9bd c656 373d 7f49 823c
000000f0: 077a 8fbc 7258 2fbc 93fd ff3c 20b6 e73c
00000100: d8d9 503c 307f 753d af0e 8c3d 0985 8b3e
00000110: 8605 f9bb b956 5e3e 41f3 1ebe 8f77 ecbc
00000120: d79a ea3c 5b85 e8bb 783e 9a3d d08d 8c3e
00000130: c70a f63c 2ea4 9e3a 2ba4 87be 57e5 86bc
00000140: 7f40 28be 4359 b0bc 38e1 12bd c718 53bc
00000150: a4bf aabe 3263 5cbd 1ad2 19bd 9ac8 8ebc
00000160: df99 8cbc c20e c2bc 3054 b23d 5051 97bd
00000170: 826d 653d af72 213c cd4c aabd e8cb a2bd
00000180: 224c 693e a324 ff3c fea0 4fbe 7d45 353e
00000190: b3e2 edbc db68 2bbc 87eb afbe d427 0bbe
000001a0: 4343 2bbd 5e3c c33b 0f50 903c 9562 8e3d
000001b0: 7a3e f33e a53b 54be 38aa 6f3c 4a69 173d
000001c0: e29f dabd d13c ab3c f5b8 133e a3fb b93c
000001d0: 795c 2abe 2b8e 3c3c 566d 753d fbd8 1e3c
000001e0: e42b f2bb 7e9e f3be 904d 633e 39f3 47bd
000001f0: ff3e 103d a3c2 bebc 429e f3bc 84a7 cabc
00000200: 9327 b8bc 02ae 523b 45e0 413c 145b bdbc
00000210: 03e8 d53c 3d65 d6bc ce27 82bc a769 b7ba
00000220: 920e 7abc 3270 dbbc 6543 9e3c 7e1b 14bd
00000230: e797 a83b d162 bc3c 5f1e 27bc 784d 623b
00000240: 9b0f c1bb 78ca 2abb 0fcc 74bc f510 bfbc
00000250: 13f1 4ebc 6c88 38bc 7554 273c 499e 0f3d
00000260: 54d3 be3b 4827 cfbc ec6c 65bc 285a 023c
00000270: 91e6 8b3c 5b1e c0bc 0790 863c 4741 2c3c
00000280: d076 ee3a de38 c3bb e6d9 87bc 3932 b9bc
00000290: 87c5 77b8 2182 ba3b ce75 10bd cdfa 10bc
000002a0: fc40 a8bc fce9 0ebd d26e ba3c 916f eb3c
000002b0: f0b5 19bd c1c9 453b a8f6 5b3c b70a 95bc
000002c0: aa19 d9bc 81be ee3b 0232 90bc 9e66 f53c
000002d0: 1d75 98bc 402d f53c 0512 ea3c 0b21 64bc
000002e0: 497c 09bd b01d 34bc 8c0a ea39 085f 02bd
000002f0: 5174 9cbc c186 053d b93e debc ec37 15bc
00000300: db33 49bb d7ba 2a3e 77b5 8ebd 064e 0fbd
00000310: 578e 3f3e d711 ffbd 4cbd b7bd 00af 9d3c
00000320: a480 103d 5412 163e 25ea bf3d 8ba2 cb3e
00000330: 750f 5c3c c3aa 5abc 14d4 c93d 4567 c5bd
00000340: 6895 00bb 9fa1 403c 32ac b1bc e9dd d6ba
00000350: b49e e0bd 3015 0ebc 256a 85bd 1e17 3e3c
00000360: 6a8b 7e3c 03c7 1ebd 3bd6 763e 64f3 9fbe
00000370: 81af f93c 58df 773c c587 02bd 06cc f03d
00000380: 41d9 263e 0a3e bdbd a3d0 8fbe dedc 84bc
00000390: fdd1 e03a 1c7b 4abb a7cb 413c e559 2ebd
000003a0: eb77 783d d1e9 c2bd bfbf baba a487 ad3d
000003b0: 575c cabd 1e06 31be f065 853e 12d6 a9bc
000003c0: d189 f53b cff6 703b 1a5d 4b3e ea7f e23c
000003d0: 4bfb b8bd 517d 00bb 4f1b 973d c2fa eebc
000003e0: 036d 18be ed0f c9bc 104e ae3d d02b e1bb
000003f0: 420c ddbc 5c5d babc 926f 5d3a d72c 2cbd

fc2.bias f4 [32]
-0.067595996 0.47052026 -0.021196824 0.012658103 0.35101947 0.36421221 -0.06091816 0.009410485
0.2166933 -0.023660867 0.30717233 0.85217464 -0.08942426 0.17044076 -0.029532509 -0.07214593
0.04469226 -0.024543593 0.587351 0.17000459 -0.08195033 -0.042739954 -0.014299755 -0.02632882
0.15902567 0.46201098 0.18080154 0.29201066 0.1474682 -0.008739653 -0.034908026 -0.0742074
00000000: c56f 8abd 08e8 f03e f6a4 adbc ef63 4f3c
00000010: d3b8 b33e 067a ba3e 5285 79bd 6f2e 1a3c
00000020: d9e4 5d3e 6fd4 c1bc b145 9d3e 1e28 5a3f
00000030: 1124 b7bd 0688 2e3e 29ee f1bc 3fc1 93bd
00000040: 3b0f 373d a50f c9bc a35c 163f af15 2e3e
00000050: 93d5 a7bd 1710 2fbd 8549 6abc 8aaf d7bc
00000060: a0d7 223e b48c ec3e 0a24 393e 6c82 953e
00000070: e701 173e c330 0fbc b8fb 0ebd 0dfa 97bd

fc3.weight f4 [5, 32]
0.05170513 0.4868603 -0.014775675 0.47489917 -0.9345167 -0.59040433 -0.009338772 0.024869798
-0.30024654 -0.035446115 -0.1145565 -0.61527133 -0.012943574 -0.13640113 -0.014139066 0.56330115
-0.016442781 -0.07546311 -0.5547946 0.40785742 -0.022351513 0.045524046 0.006187907 0.09808764
0.35963005 -1.1211978 -0.61723566 0.41706157 -0.14380008 -0.030622156 0.054656826 -0.03199582
0.080640405 -0.022037802 0.024272928 0.21338092 0.34599036 -0.3655721 0.15711398 -0.07753348
0.027673323 -0.017536735 0.13085668 0.031996947 0.014073632 -0.09521213 -0.039403584 -0.023545701
-0.015807947 0.057097495 0.26631665 -0.27161533 0.07304917 0.0016540289 0.025208253 0.047627218
-0.32250822 0.24804722 0.34421173 -0.26442552 0.34410557 0.02038224 0.03766007 0.0015503662
0.015419682 0.3282413 -0.048776742 -0.0195624 -0.10805448 0.42552975 -0.026250571 -0.10273303
0.22277553 0.016248096 0.17389366 0.84498817 -0.0436555 -0.04797635 -0.044509076 -0.36467293
0.048078313 -0.11308451 -0.1791531 0.23984465 -0.013900912 0.03657346 0.018644178 -0.2521187
-0.0010976808 0.47074568 -0.032382283 0.17849332 -0.39038548 -0.008838687 0.045251522 -0.057380367
0.023455035 -0.2384601 -0.016551385 -0.31555328 0.3458289 -0.11784517 0.21979967 -0.04558916
-0.12792888 -0.019473003 0.40736076 -0.0010407629 0.023187956 -0.20851023 -0.03532103 0.08077548
-0.022170711 0.16416107 -0.15525173 -0.32354203 0.105417214 -0.04123169 -0.005819746 -0.1744593
-0.4873686 0.14557324 0.55694586 -0.28545913 0.49615693 -0.02665947 0.03654863 -0.0049009454
-0.074830174 -0.5168632 0.005870892 -0.29827952 0.30416614 0.62399054 -0.2997272 0.1754308
0.15737092 -0.044631597 -0.5775442 -0.23280814 -0.010035125 0.4149946 0.031437926 -0.44951874
-0.05044205 -0.07454289 0.607423 0.038229875 -0.16155915 -0.029347146 0.04185721 0.21326919
0.4306589 0.2766655 -0.23774083 -0.09117819 -0.3692801 -0.036205918 0.037921403 0.04049261
00000000: c2c8 533d c145 f93e ac15 72bc fc25 f33e
00000010: 7d3c 6fbf bd24 17bf a601 19bc bfbb cb3c
00000020: eab9 99be f22f 11bd 999c eabd 6c82 1dbf
00000030: 4911 54bc bdac 0bbe 8ba7 67bc 8134 103f
00000040: 03b3 86bc 678c 9abd 0507 0ebf b0d2 d03e
00000050: 851a b7bc 6c77 3a3d edc3 ca3b 2ce2 c83d
00000060: 6e21 b83e 6983 8fbf 2803 1ebf 1889 d53e
00000070: 5440 13be 51db fabc d6df 5f3d 0d0e 03bd
00000080: cc26 a53d 9f88 b4bc 05d8 c63c 8780 5a3e
00000090: a625 b13e 442c bbbe 7de2 203e e0c9 9ebd
000000a0: 2ab3 e23c 33a9 8fbc 4bff 053e 3b0f 033d
000000b0: 1795 663c 94fe c2bd a765 21bd eae2 c0bc
000000c0: ab7f 81bc 10df 693d a85a 883e 2a11 8bbe
000000d0: ce9a 953d 00cc d83a 8a81 ce3c c214 433d
000000e0: cc1f a5be 1700 7e3e 853c b03e c862 87be
000000f0: 9b2e b03e a8f8 a63c 7241 1a3d a835 cb3a
00000100: d5a2 7c3c 3e0f a83e 1fca 47bd 5441 a0bc
00000110: ab4b ddbd 09df d93e 700b d7bc b265 d2bd
00000120: 451f 643e ba1a 853c 2e11 323e 2551 583f
00000130: 1cd0 32bd d982 44bd 264f 36bd 69b6 babe
00000140: c4ed 443d da98 e7bd e973 37be d699 753e
00000150: a7c0 63bc 0dce 153d adbb 983c b415 81be
00000160: 0ee0 8fba 9405 f13e 49a3 04bd f4c6 363e
00000170: 9be0 c7be 24d0 10bc a959 393d ad07 6bbd
00000180: c624 c03c e22e 74be c596 87bc 3390 a1be
00000190: 7c10 b13e cf58 f1bd 2a13 613e b3bb 3abd
000001a0: caff 02be d985 9fbc 9791 d03e 356a 88ba
000001b0: abf4 bd3c b583 55be c9ac 10bd 9d6d a53d
000001c0: 5a9f b5bc d719 283e 4ffa 1ebe 4da7 a5be
000001d0: fbe4 d73d 90e2 28bd 91b3 bebb 75a5 32be
000001e0: 6188 f9be 2711 153e 0194 0e3f b327 92be
000001f0: 4808 fe3e f664 dabc 04b4 153d 1c98 a0bb
00000200: 9040 99bd 2651 04bf 9d60 c03b 18b8 98be
00000210: aabb 9b3e d8bd 1f3f d875 99be 22a4 333e
00000220: d825 213e 9fcf 36bd f0d9 13bf 4265 6ebe
00000230: 5d6a 24bc 2c7a d43e 0ec5 003d 5227 e6be
00000240: 539c 4ebd f1a9 98bd 1380 1b3f ee96 1c3d
00000250: c36f 25be 6d69 f0bc 7772 2b3d 3d63 5a3e
00000260: 537f dc3e 1aa7 8d3e 5572 73be a2bb babd
00000270: 4812 bdbe a84c 14bd 7953 1b3d 94db 253d

fc3.bias f4 [5]
-0.2970138 0.43661812 -0.45392188 0.48011833 -0.23006798
00000000: 3112 98be 698c df3e 7368 e8be 12d2 f53e
00000010: f196 6bbe
