Assignment_1/1/Max_Pooling_New/Models/with/model-13.pth (torch_old, 882610 bytes, 10 tensors)

conv1.weight f4 [64, 3, 5, 5]
0.33733398 0.3847417 0.18671408 -0.040309656 -0.10395148 0.19762173 0.18372229 0.06580093
-0.025693977 -0.019682592 -0.086769305 -0.11052811 -0.0007839358 0.14577124 0.17962904 -0.30483317
-0.30930564 -0.014776862 0.2864983 0.2902167 -0.34199718 -0.31740373 -0.015925623 0.2430865
0.1751989 0.1165481 0.1014787 -0.13764213 -0.3533356 -0.35358986 -0.022275781 -0.08846539
-0.2381003 -0.30739772 -0.2206791 -0.25701156 -0.32109 -0.22443774 -0.03999935 0.08571622
-0.39631152 -0.414988 -0.11315941 0.24453337 0.3457616 -0.34332505 -0.31678987 0.017252594
0.34464884 0.36985463 0.37279448 0.295388 -0.030953765 -0.349173 -0.44807625 0.30118388
0.16324154 -0.086084284 -0.27590054 -0.30571675 0.11095523 -0.026296504 -0.047925428 -0.0052122762
-0.0020934942 -0.013119875 -0.10913576 0.06350273 0.27062517 0.25022665 0.033399373 -0.021085734
0.17772676 0.36586514 0.28639048 0.008635372 0.02581701 0.05485039 0.072230265 0.0536672
0.018925156 0.03826905 0.078965314 0.10208862 0.077649675 0.024776822 0.04867691 0.091306716
0.11439909 0.084012106 0.01959126 0.047343463 0.08655818 0.10321077 0.067057766 0.012463412
0.033750247 0.060551073 0.065395884 0.03230381 -0.052770276 -0.094725624 -0.1095534 -0.10330939
-0.099104255 -0.07825405 -0.13074113 -0.143182 -0.1297891 -0.1209761 -0.087334074 -0.14252086
-0.15130748 -0.13973032 -0.13264531 -0.08240013 -0.12647714 -0.13528411 -0.12922254 -0.12784164
-0.05816943 -0.094557956 -0.105595306 -0.10459794 -0.11325204 0.08949428 0.06501001 0.060376972
0.06161592 0.057636395 0.080217145 0.049685363 0.048981808 0.058089856 0.054318417 0.07767915
0.045717467 0.05039333 0.060288567 0.056032497 0.08077438 0.0555283 0.059993587 0.06749645
0.057024255 0.090397775 0.07335719 0.075732276 0.07604009 0.061450128 -0.1266325 -0.108518064
-0.10615226 -0.10262709 -0.09258625 -0.1444756 -0.12179503 -0.11190605 -0.10967849 -0.10258691
-0.16358967 -0.13547227 -0.115551986 -0.10690669 -0.10011894 -0.1763939 -0.14730355 -0.12003074
-0.101517685 -0.09088883 -0.18699595 -0.15743206 -0.12436497 -0.09637452 -0.07907404 0.15342033
0.1791166 0.18700236 0.18829162 0.18738101 0.14505656 0.17799069 0.19644418 0.1947051
0.18695834 0.12763387 0.16676304 0.1916094 0.19572759 0.18486352 0.10475464 0.14222798
0.17652868 0.18941453 0.17934605 0.074215695 0.10933916 0.14562461 0.16625863 0.1678065
-0.03911275 -0.0081739165 0.00593302 0.018023677 0.032848682 -0.06267522 -0.026370242 0.0004788268
0.01302707 0.024979088 -0.083753414 -0.040237065 -0.005561853 0.014465084 0.025653306 -0.10010558
-0.059275422 -0.014215412 0.01699977 0.031589143 -0.10870127 -0.06970405 -0.024303686 0.015878996
0.03772258 0.16780029 0.04082781 -0.04406769 -0.041769806 0.007335358 0.066546455 -0.051711645
-0.09419916 -0.0383917 0.05968746 -0.03863778 -0.112156376 -0.104333684 -0.009164638 0.096025705
-0.079791375 -0.12028612 -0.091429226 0.0035340055 0.075062595 -0.066960536 -0.100409344 -0.091987774
-0.03806742 -0.0049392534 -0.14637369 -0.22769704 -0.24201289 -0.15823708 -0.025011191 -0.19631511
00000000: 0ab7 ac3e ddfc c43e fa31 3f3e bd1b 25bd
00000010: 83e4 d4bd 5a5d 4a3e b221 3c3e a3c2 863d
00000020: 2d7c d2bc 633d a1bc 1bb4 b1bd 905c e2bd
00000030: 0a81 4dba 0e45 153e adf0 373e 1813 9cbe
00000040: 4f5d 9ebe a71a 72bc e8af 923e 4997 943e
00000050: 411a afbe be82 a2be 7476 82bc abeb 783e
00000060: 5767 333e c5b0 ee3d 11d4 cf3d 0ff2 0cbe
00000070: 67e8 b4be bb09 b5be b37b b6bc 582d b5bd
00000080: 91d0 73be 3c63 9dbe b4f9 61be 0597 83be
00000090: e965 a4be 02d3 65be 5cd6 23bd fc8b af3d
000000a0: 58e9 cabe 4f79 d4be 1fc0 e7bd f566 7a3e
000000b0: aa07 b13e 4dc8 afbe 4832 a2be 5055 8d3c
000000c0: d075 b03e 965d bd3e ebde be3e 193d 973e
000000d0: c092 fdbc cec6 b2be 406a e5be c634 9a3e
000000e0: ca28 273e f54c b0bd d642 8dbe e886 9cbe
000000f0: 7f3c e33d c46b d7bc 744d 44bd becb aabb
00000100: 0133 09bb bff4 56bc 9282 dfbd b80d 823d
00000110: 628f 8a3e b51d 803e c8cd 083d fdbb acbc
00000120: 01fe 353e ad52 bb3e c6a1 923e 607b 0d3c
00000130: 327e d33c cdaa 603d 76ed 933d 23d2 5b3d
00000140: ee08 9b3c 02c0 1c3d 91b8 a13d d713 d13d
00000150: cb06 9f3d c3f8 ca3c 7161 473d 04ff ba3d
00000160: 124a ea3d 8a0e ac3d da7d a03c 38eb 413d
00000170: 6a45 b13d 2b60 d33d 9555 893d 5733 4c3c
00000180: b33d 0a3d 6704 783d 47ee 853d 0051 043d
00000190: a525 58bd 82ff c1bd 885d e0bd e093 d3bd
000001a0: 2cf7 cabd a943 a0bd 01e1 05be 4d9e 12be
000001b0: 6fe7 04be 51c2 f7bd 35dc b2bd fdf0 11be
000001c0: 59f0 1abe 7715 0fbe 2cd4 07be 66c1 a8bd
000001d0: 3983 01be eb87 0abe ea52 04be ebe8 02be
000001e0: 1143 6ebd 9aa7 c1bd 5a42 d8bd 7237 d6bd
000001f0: b0f0 e7bd c748 b73d f823 853d d84d 773d
00000200: fa60 7c3d 2414 6c3d e348 a43d e182 4b3d
00000210: 26a1 483d a1ef 6d3d fd7c 5e3d 3f16 9f3d
00000220: 3d42 3b3d 3d69 4e3d 25f1 763d 5582 653d
00000230: 0a6d a53d a571 633d d6bb 753d 943b 8a3d
00000240: 4492 693d 7822 b93d 4b3c 963d 8619 9b3d
00000250: e8ba 9b3d 21b3 7b3d f3ab 01be b83e debd
00000260: 5b66 d9bd 272e d2bd dc9d bdbd 69f1 13be
00000270: ac6f f9bd 002f e5bd 1e9f e0bd 1619 d2bd
00000280: 0d84 27be 3eb9 0abe 85a6 ecbd e5f1 dabd
00000290: 290b cdbd 9aa0 34be bed6 16be add2 f5bd
000002a0: 81e8 cfbd ec23 babd de7b 3fbe df35 21be
000002b0: 10b3 febd 0160 c5bd 92f1 a1bd 381a 1d3e
000002c0: 586a 373e 8c7d 3f3e 85cf 403e cfe0 3f3e
000002d0: b589 143e 3143 363e aa28 493e c660 473e
000002e0: 0272 3f3e 74b2 023e eec3 2a3e 4135 443e
000002f0: d06c 483e dd4c 3d3e 9a89 d63d 36a4 113e
00000300: efc3 343e e2f5 413e 7ea6 373e 66fe 973d
00000310: 36ed df3d 9e1e 153e b43f 2a3e 78d5 2b3e
00000320: b134 20bd e4eb 05bc c769 c23b 64a6 933c
00000330: 578c 063d de5b 80bd 6806 d8bc 0c0b fb39
00000340: 7e6f 553c f2a0 cc3c e986 abbd 9fcf 24bd
00000350: 3440 b6bb f6fe 6c3c e226 d23c 2804 cdbd
00000360: c9ca 72bd c2e7 68bc 1a43 8b3c 9e63 013d
00000370: c59e debd ffc0 8ebd 8618 c7bc ab14 823c
00000380: fe82 1a3d d7d3 2b3e 103b 273d 5280 34bd
00000390: d116 2bbd 715d f03b 8249 883d 97cf 53bd
000003a0: 7deb c0bd 9d40 1dbd d77a 743d a642 1ebd
000003b0: 3eb2 e5bd e6ac d5bd 4727 16bc 20a9 c43d
000003c0: a969 a3bd 9258 f6bd 3f3f bbbd c69a 673b
000003d0: 6bba 993d 9b22 89bd 6aa3 cdbd 1664 bcbd
000003e0: 95ec 1bbd 76d9 a1bb fce2 15be 6a29 69be
000003f0: 3ad2 77be e708 22be 45e4 ccbc d406 49be

conv1.bias f4 [64]
-0.3177456 -0.20219691 -0.61475056 -0.34304258 -0.18668412 -0.36481673 -0.77647656 -0.5811662
-0.99290425 -1.8598087 -0.1930488 -0.5662837 -0.6093762 -0.25032312 -0.40099752 -0.3450936
-0.3359991 -1.1864089 -0.14991704 -0.7785177 -0.74232167 -0.61565894 -0.27456662 -0.562951
-0.05508336 -0.3015336 -0.20916285 -1.5869238 -0.44235095 -0.49425676 -0.54763514 -0.91199344
-0.20241117 -0.4684289 -0.61371183 -1.0848625 0.11589828 -0.6259779 -0.5511525 -0.20651989
-0.118588604 0.030162761 -0.27111536 -0.50298464 -0.14578253 -0.58221275 -0.3534245 -0.57656205
-0.36601412 -0.20547129 -0.52347076 -0.727826 -0.2262695 -0.31811497 -0.78182334 -0.4848157
-0.6356807 -0.45258808 -0.22450615 -0.463632 -0.2349671 -0.41176206 -0.38810176 -0.28311384
00000000: 8daf a2be b50c 4fbe 4b60 1dbf 47a3 afbe
00000010: 1f2a 3fbe 42c9 babe 2bc7 46bf 4fc7 14bf
00000020: f92e 7ebf 360e eebf 96ae 45be f8f7 10bf
00000030: 1400 1cbf 5a2a 80be 8c4f cdbe 1cb0 b0be
00000040: 1308 acbe 3fdc 97bf da83 19be f04c 47bf
00000050: cb08 3ebf d39b 1dbf ff93 8cbe 8f1d 10bf
00000060: 179f 61bd 9d62 9abe c92e 56be 5220 cbbf
00000070: d37b e2be 390f fdbe d131 0cbf 6778 69bf
00000080: e044 4fbe ead5 efbe 381c 1dbf c6dc 8abf
00000090: 145c ed3d 1640 20bf 5518 0dbf f379 53be
000000a0: 95de f2bd e517 f73c a2cf 8abe 9ac3 00bf
000000b0: 0448 15be e50b 15bf 0ef4 b4be 9299 13bf
000000c0: 3466 bbbe 1167 52be 2e02 06bf ce52 3abf
000000d0: 31b3 67be f7df a2be 9325 48bf c339 f8be
000000e0: f8bb 22bf a0b9 e7be f1e4 65be 2c61 edbe
000000f0: 379b 70be 7ad2 d2be 46b5 c6be 4cf4 90be

conv2.weight f4 [128, 64, 5, 5]
0.01709529 0.029785207 0.0060666054 -0.046032254 -0.051000837 0.0054097897 0.004624085 -0.027543975
-0.06766045 -0.059197806 0.000999036 -0.025758084 -0.03690854 -0.040812917 -0.03092206 0.016282527
-0.027560882 -0.0077314735 0.031118402 0.017056724 0.0005158664 -0.007630486 0.0067642876 0.048859805
0.024096007 0.0017407347 0.0034746565 0.0014228008 -0.0034840142 -0.009586244 -0.0042173364 0.0002178061
-0.0014739868 -0.0067982534 -0.011799943 -0.008080162 -0.0029139956 -0.0032206536 -0.005139155 -0.008201958
-0.0061486764 -0.003834267 -0.0017227469 -0.0006030025 -0.00040146077 -0.0019018081 -0.0023788104 0.001743265
0.0054789213 0.006994374 0.020955691 0.00083589135 -0.0075332774 -0.008673409 -0.00560932 0.0170327
-0.001639963 -0.010503495 -0.009607593 -0.006256587 0.0121726375 -0.0032495053 -0.010925381 -0.010435536
-0.007302472 0.011367424 -0.0023669002 -0.008532691 -0.011231428 -0.007701319 0.013714431 0.00041511172
-0.007135568 -0.009254056 -0.0067629796 -0.0278352 -0.0387817 -0.04214471 -0.05880332 -0.04061777
0.01624651 0.015064232 -0.021208512 -0.05051137 -0.043846536 0.042912655 0.029263355 -0.030011702
-0.05097953 -0.044885486 0.032965377 0.0010065726 -0.044133596 -0.034861527 -0.022939833 0.025393762
-0.008934405 -0.019646177 -0.00025619374 0.004430625 -0.0016192319 -0.005153523 -0.011160354 -0.009127404
0.0037677498 -0.0004286898 -0.0029740965 -0.0071915537 -0.012084143 -0.009431312 -0.0021409923 -0.0039688055
-0.007571507 -0.015977653 -0.019447684 -0.0041565895 -0.0037178558 -0.009229108 -0.022059001 -0.02350711
-0.005322616 -0.0020279181 -0.0074259522 -0.022006722 -0.019515427 0.037019584 0.057635333 0.009369722
-0.05311234 -0.05303226 -0.00043927718 0.002084248 -0.029385174 -0.07636382 -0.061980493 0.007495663
-0.021798253 -0.023176188 -0.031371552 -0.0407527 0.009778873 -0.013889186 0.01727368 0.05612217
0.009788609 -0.009866205 -0.00017017989 0.026602242 0.07665434 0.019686783 -0.0551455 -0.07393737
-0.039696053 0.02679 0.036651686 -0.051304407 -0.06906207 -0.03765741 0.025104748 0.022988545
-0.04861101 -0.06461193 -0.02517223 0.04097638 0.032662146 -0.048874076 -0.05348998 -0.024830172
0.032274675 0.05072245 -0.042384945 -0.03642428 -0.024755148 0.0021207777 0.053993758 -0.003268065
-0.019707635 -0.01971766 -0.00794875 -0.0027751476 -0.004820386 0.0043844664 -0.00015466806 -0.006199893
-0.0024382041 -0.009623166 0.005057415 0.0013325742 -0.0064645894 -0.0036277466 -0.01565831 -0.011509913
-0.010336886 -0.0046958337 -0.0009454704 -0.013582014 -0.01485677 -0.009317027 0.0051480657 0.004887674
-0.0054842955 -0.026472533 -0.031991195 -0.025673231 -0.012480772 0.014281508 -0.017500488 -0.027050588
-0.033275366 -0.016543077 0.044213794 0.0029327637 -0.024770506 -0.022042528 0.0019326715 0.024329934
-0.00068843365 -0.021230698 -0.0072131897 0.021872409 -5.4943834e-05 -0.01174519 -0.01646852 -0.011296193
0.014502879 -0.08242739 -0.029206285 -0.011373436 -0.023305496 -0.014650609 -0.092986554 -0.030963898
-0.013060913 -0.020947805 -0.069617584 -0.093781464 -0.033430826 -0.0147148045 -0.02399598 -0.08551588
-0.07628264 -0.029556854 -0.014777146 -0.02972544 -0.0960394 -0.08160916 -0.038723733 -0.019945003
-0.04519893 -0.11928796 0.012692628 -0.025971869 -0.02781012 -0.011941 0.016468605 -0.0063536405
00000000: 6c0b 8c3c 1b00 f43c 60ca c63b 518c 3cbd
00000010: 41e6 50bd 9b44 b13b a385 973b e7a3 e1bc
00000020: 9091 8abd 6679 72bd 16f2 823a 9e02 d3bc
00000030: 692d 17bd 722b 27bd 4350 fdbc ef62 853c
00000040: 5cc7 e1bc 4d58 fdbb 05ec fe3c 8bba 8b3c
00000050: 353b 073a 2809 fabb f5a6 dd3b 3821 483d
00000060: fd64 c53c 5d29 e43a 10b7 633b 467d ba3a
00000070: 0f54 64bb 9f0f 1dbc 9531 8abb e162 6439
00000080: ca32 c1ba e2c3 debb 8c54 41bc a862 04bc
00000090: bcf8 3ebb 9a11 53bb 5b66 a8bb 8161 06bc
000000a0: d67a c9bb 5348 7bbb cbcd e1ba d012 1eba
000000b0: 277b d2b9 1746 f9ba d1e5 1bbb 447e e43a
000000c0: 8688 b33b 1031 e53b 45ab ab3c b81f 5b3a
000000d0: b6d9 f6bb ea1a 0ebc 63ce b7bb 2988 8b3c
000000e0: 07f4 d6ba da16 2cbc 2a69 1dbc 0e04 cdbb
000000f0: be6f 473c a7f5 54bb 5f00 33bc cff9 2abc
00000100: 9349 efbb 6f3e 3a3c ff1d 1bbb b3cc 0bbc
00000110: 0604 38bc 595b fcbb 7eb2 603c 5aa3 d939
00000120: 7cd1 e9bb 539e 17bc fc9b ddbb a506 e4bc
00000130: 8fd9 1ebd ee9f 2cbd c0db 70bd d25e 26bd
00000140: 6717 853c f8cf 763c 79bd adbc 03e5 4ebd
00000150: 6d98 33bd 2ec5 2f3d b4b9 ef3c 1adb f5bc
00000160: e9cf 50bd d8d9 37bd b406 073d f9ee 833a
00000170: 6ec5 34bd f6ca 0ebd 51ec bbbc 9406 d03c
00000180: 9c61 12bc 05f1 a0bc be51 86b9 c72e 913b
00000190: 683c d4ba e2de a8bb ebd9 36bc 1b8b 15bc
000001a0: 5aec 763b c5c1 e0b9 0fe9 42bb 20a7 ebbb
000001b0: 92fc 45bc ca85 1abc e44f 0cbb c10c 82bb
000001c0: 671a f8bb 91e3 82bc c050 9fbc 0034 88bb
000001d0: 45a7 73bb af35 17bc 14b5 b4bc fc91 c0bc
000001e0: 5769 aebb d2e6 04bb 6755 f3bb 7147 b4bc
000001f0: d1de 9fbc d9a1 173d 0713 6c3d 7683 193c
00000200: 538c 59bd 5b38 59bd c94e e6b9 e197 083b
00000210: 2db9 f0bc a264 9cbd 42df 7dbd 2e9e f53b
00000220: 4092 b2bc fddb bdbc 757f 00bd 4eec 26bd
00000230: 9137 203c 788f 63bc 8881 8d3c 5ce0 653d
00000240: 6760 203c dda5 21bc 5172 32b9 f2ec d93c
00000250: f3fc 9c3d 2d46 a13c 3fe0 61bd 7a6c 97bd
00000260: 5498 22bd b476 db3c 1420 163d 9224 52bd
00000270: 6a70 8dbd a83e 1abd 79a8 cd3c 7952 bc3c
00000280: 571c 47bd 4253 84bd fe35 cebc d9d6 273d
00000290: bec8 053d 2f30 48bd 4f18 5bbd a568 cbbc
000002a0: 7332 043d 58c2 4f3d d69b 2dbd a031 15bd
000002b0: 4fcb cabc bffc 0a3b 8f28 5d3d 082d 56bb
000002c0: e871 a1bc ee86 a1bc 793b 02bc 40df 35bb
000002d0: 54f4 9dbb 92ab 8f3b 642e 22b9 7928 cbbb
000002e0: 47ca 1fbb 7caa 1dbc acb8 a53b c5a9 ae3a
000002f0: e8d4 d3bb 7dbf 6dbb db45 80bc 1394 3cbc
00000300: 0b5c 29bc 82df 99bb 72d9 77ba 1887 5ebc
00000310: cf69 73bc 72a6 18bc 1bb1 a83b c828 a03b
00000320: 9bb5 b3bb eddc d8bc 3309 03bd ab50 d2bc
00000330: 277c 4cbc fcfc 693c 2f5d 8fbc 3299 ddbc
00000340: c04b 08bd 5985 87bc 8619 353d 9c33 403b
00000350: 84eb cabc 8892 b4bc b251 fd3a 924f c73c
00000360: 0078 34ba 00ec adbc 9f5c ecbb c42d b33c
00000370: 7e73 66b8 e66e 40bc fde8 86bc ab13 39bc
00000380: 7c9d 6d3c b1cf a8bd 0542 efbc a657 3abc
00000390: 2beb bebc 1c09 70bc bc6f bebd 00a8 fdbc
000003a0: 71fd 55bc bb9a abbc aa93 8ebd 7f10 c0bd
000003b0: c3ee 08bd 5d16 71bc 3893 c4bc f322 afbd
000003c0: 133a 9cbd 3721 f2bc d81b 72bc c482 f3bc
000003d0: 4eb0 c4bd b422 a7bd c79c 1ebd b463 a3bc
000003e0: 8322 39bd 3f4d f4bd bef4 4f3c f5c2 d4bc
000003f0: 0cd2 e3bc 2fa4 43bc 2be9 863c 3332 d0bb

conv2.bias f4 [128]
-0.089677766 0.009139279 0.6318406 -0.05875868 -0.13974066 -0.00012575065 -0.01386229 -0.014280519
0.19081995 -0.43724316 -0.103405215 -0.032988604 -0.07311382 -0.09564045 0.23065299 0.10737357
-0.0021112768 0.00040059746 -0.10951249 -0.002752402 0.3515787 -0.050544817 0.004191935 0.0036608933
0.3774274 -0.19628236 -0.11944628 0.135259 -0.019199263 -0.10550854 -0.17448772 0.06034849
0.0031827153 -0.00037665028 -0.22344273 -0.0054582586 -0.100780964 -0.017828975 -0.35346964 -0.0072627678
-0.07645341 0.4448398 0.042718947 -0.02584913 -0.009563535 -0.052434493 -0.00020934558 0.022426719
-0.0415156 -0.2161257 -0.011443108 0.07712379 -0.36600935 0.3100072 0.14900391 -0.3245197
-0.00020924331 0.08259137 -0.14663656 -0.08876416 -0.44779372 -0.17007136 0.24732731 -0.13816772
-0.0007585917 0.010385962 0.036239322 0.00040999078 0.1847379 -0.001429397 -0.15679471 -0.057322085
-0.6476823 -0.035292443 0.07138908 -0.06407585 0.088063724 0.04423218 -0.018855486 -0.04175822
-0.3695125 0.020845426 -0.09112283 -0.11854127 -0.19115801 -0.007908114 0.014396285 -0.0038657943
-0.0052983146 0.0011292998 -0.07934667 -0.60254407 -0.047547963 0.002314431 0.12756586 -0.015027926
-0.022218132 -0.15680294 0.0024318658 -0.03730658 -0.025010772 -0.76426476 0.025010098 -0.04351726
0.3012224 -0.020530028 -0.0014451764 0.07194265 -0.4516588 -0.04553865 -0.08137742 -0.263177
-0.00011413784 -0.42305356 0.16165002 0.136844 -0.028280051 0.11593615 -0.07636844 -0.29680535
-0.32308906 -0.026611222 -0.253785 0.11304828 -0.20885977 -0.008383795 -0.006755658 0.20370235
00000000: faa8 b7bd eabc 153c 4ec0 213f f1ac 70bd
00000010: 2d18 0fbe efdb 03b9 a91e 63bc d7f8 69bc
00000020: 4e66 433e 56de dfbe 1dc6 d3bd 0f1f 07bd
00000030: b3bc 95bd 24df c3bd 4c30 6c3e ade6 db3d
00000040: 595d 0abb 4807 d239 1648 e0bd a561 34bb
00000050: 2002 b43e 1508 4fbd 805c 893b 99eb 6f3b
00000060: 2a3e c13e 3efe 48be 40a0 f4bd 5681 0a3e
00000070: c647 9dbc dd14 d8bd e9ac 32be fa2f 773d
00000080: 1a95 503b 2579 c5b9 2cce 64be 31db b2bb
00000090: 4066 cebd 120e 92bc f9f9 b4be 83fc edbb
000000a0: 9b93 9cbd 0bc2 e33e 10fa 2e3d 8ec1 d3bc
000000b0: 60b0 1cbc 8dc5 56bd c783 5bb9 3db8 b73c
000000c0: 430c 2abd 0e50 5dbe e07b 3bbc 14f3 9d3d
000000d0: 9465 bbbe 44b9 9e3e 7b94 183e 7227 a6be
000000e0: 5368 5bb9 aa25 a93d e527 16be fcc9 b5bd
000000f0: 3845 e5be 3027 2ebe 5f43 7d3e d77b 0dbe
00000100: 3adc 46ba e229 2a3c af6f 143d 08f4 d639
00000110: ef2b 3d3e 9b5a bbba cb8e 20be 90ca 6abd
00000120: 82ce 25bf cf8e 10bd 7034 923d 333a 83bd
00000130: c15a b43d cd2c 353d d276 9abc ab0a 2bbd
00000140: be30 bdbe 07c4 aa3c 9b9e babd c4c5 f2bd
00000150: edbe 43be 0991 01bc 65de 6b3c 4459 7dbb
00000160: 7c9d adbb 0305 943a 8280 a2bd 5440 1abf
00000170: a7c1 42bd b5ad 173b a0a0 023e b137 76bc
00000180: cd02 b6bc f390 20be f05f 1f3b c9ce 18bd
00000190: 64e3 ccbc dba6 43bf fae1 cc3c 283f 32bd
000001a0: d339 9a3e 972e a8bc 136c bdba ab56 933d
000001b0: d23f e7be bc86 3abd 34a9 a6bd 23bf 86be
000001c0: 495d efb8 7a9a d8be 9587 253e d520 0c3e
000001d0: 91ab e7bc ef6f ed3d 0f67 9cbd dff6 97be
000001e0: ee6b a5be c7ff d9bc 1cf0 81be db85 e73d
000001f0: 56df 55be 2f5c 09bc 915e ddbb 5997 503e

fc1.weight f4 [64, 128]
0.0032035403 -0.000646255 0.038685393 -0.036792677 -0.07441337 0.00023857738 -0.027284803 -0.024610322
-0.012870082 0.048221797 0.020927785 -0.025332386 0.0012382503 -0.0491602 -0.010507633 -0.0065232124
-0.0005027073 -0.0008910758 -0.00043412147 0.0005586158 -0.012622089 -0.022599371 -0.010716681 0.017190544
-0.011053847 -0.015077835 -0.01338584 0.0051773 -0.006960415 0.059974708 0.028789598 -0.022767365
0.00033857947 -0.000837689 -0.023621973 -0.026201097 -0.021544648 -0.01687516 0.11562021 0.009853052
0.05560888 0.003660615 -0.074252516 -0.006002248 -0.00023609842 0.0006959867 -0.000113416056 -0.02172447
0.00713041 0.019521719 -0.0016065417 -0.06552583 0.028588474 -0.008264391 0.004188146 0.006502635
-0.00028076736 -0.0058742953 -0.03920801 -0.0010417488 0.008572047 0.003556858 -0.006646413 -0.011928924
0.0007184911 0.016168896 -0.04640661 -0.00061907456 -0.0025020048 -0.005251202 -0.002934117 -0.008896286
0.03768517 -0.062967055 0.019768555 0.01936205 -0.035284147 -0.016114553 -0.061940573 0.009493505
0.0057800086 0.00053709216 -0.032253575 -0.009334641 -0.016380144 -0.00231185 -0.039317254 0.00010182979
0.0013572827 -0.0013105307 -0.01287919 -0.06395525 0.0051884535 -0.000113540096 0.037270486 0.000503725
-0.051888414 -0.01473757 -0.0011197826 -0.011809436 0.01712397 -0.07846226 -0.000859388 -0.018150982
-0.03129724 0.004395159 0.013735291 -0.015247563 -0.015850352 -0.009738351 -0.0123178605 0.03270689
0.0008144767 -0.0030817573 -0.0025014374 -0.03363473 -0.011364477 -0.006503549 -0.06259262 -0.032791063
0.021589303 -0.007694657 -0.018016042 0.0026996164 0.00020373322 0.007912033 -0.012377399 0.003306085
-0.031665478 0.0015653146 0.13352497 -0.19180742 -0.09029918 -0.0016456834 -0.14579923 -0.050344747
-0.05572946 0.13379888 0.10382032 -0.09443756 -0.11009997 -0.1843258 -0.011083039 -0.05529115
-0.0008812835 -0.0044002086 -0.09787474 0.0019075315 -0.0535674 -0.11813328 -0.020156741 0.02956456
0.05040365 -0.12059547 -0.036950313 0.054622777 -0.13300337 0.06230314 0.08406045 0.0032511575
0.00021670097 0.0005617951 -0.08318749 -0.005050085 -0.13675296 -0.09691651 0.2437783 -0.030461714
0.17017224 0.007887342 -0.20565376 -0.08470063 0.00246841 -0.013477809 -0.0004278058 -0.0041605798
0.0023161294 -0.013704409 -0.015687244 -0.16879408 0.07541494 -0.008406091 0.020875622 0.08018935
-0.0015413967 0.0057371035 -0.12384475 0.017249962 0.051328447 -0.005112625 -0.09751052 -0.082085
-0.00087009754 -0.0019214122 -0.24154645 -0.0020987086 -0.0060919966 -0.011139165 -0.01916356 -0.14995645
0.19119324 -0.19648726 -0.032129005 -0.14214073 -0.23410216 -0.011134989 -0.024139335 -0.038393706
-0.20588449 -0.071176454 -0.06141392 -0.05793715 0.0018822303 -0.0060031544 -0.16342206 -0.057888933
-0.008463183 -0.0006078429 -0.11896752 -0.1602236 0.014543085 0.00020396245 -0.07048885 0.008316038
-0.08758832 -0.14773569 -0.001083975 -0.034095824 0.09840707 -0.09352996 -0.0444559 -0.10321428
-0.0563042 -0.021938294 0.03743559 -0.029475609 -0.105063304 -0.017117213 -0.11725509 0.036019802
-0.0012852869 0.009184505 0.023281647 -0.02180334 -0.025664017 0.01278704 -0.15233824 -0.08374423
0.06937745 -0.18873231 0.03263234 -0.04906871 -0.23644114 -0.033216927 -0.1423105 -0.026414996
00000000: 7df2 513b 7069 29ba 9374 1e3d ebb3 16bd
00000010: 0966 98bd a12a 7a39 6184 dfbc 969b c9bc
00000020: 09dd 52bc 3884 453d bf70 ab3c dd85 cfbc
00000030: c94c a23a 355c 49bd 3528 2cbc acc0 d5bb
00000040: 1ec8 03ba 1697 69ba cc9a e3b9 1270 123a
00000050: e1cc 4ebc 5122 b9bc 0595 2fbc 2fd3 8c3c
00000060: 321b 35bc 0609 77bc 4850 5bbc 57a6 a93b
00000070: 3114 e4bb 0aa8 753d 2ad8 eb3c a082 babc
00000080: 5e83 b139 5b98 5bba de82 c1bc afa3 d6bc
00000090: 677e b0bc c73d 8abc 4aca ec3d b26e 213c
000000a0: 23c6 633d eee6 6f3b b411 98bd 81ae c4bb
000000b0: 3091 77b9 e072 363a c8d9 edb8 84f7 b1bc
000000c0: 37a6 e93b 03ec 9f3c 9892 d2ba 6832 86bd
000000d0: 6032 ea3c 5e67 07bc b73c 893b 0e14 d53b
000000e0: f533 93b9 297d c0bb 9498 20bd 4a8b 88ba
000000f0: c571 0c3c 2d1a 693b 27ca d9bb 8971 43bc
00000100: 1f59 3c3a a274 843c dc14 3ebd 6449 22ba
00000110: adf8 23bb 4612 acbb 514a 40bb bac1 11bc
00000120: c45b 1a3d dff4 80bd aaf1 a13c 299d 9e3c
00000130: 1c86 10bd ab02 84bc 66b5 7dbd a58a 1b3c
00000140: 3a66 bd3b a5cb 0c3a 531c 04bd 52f0 18bc
00000150: a72f 86bc 6882 17bb 210b 21bd 748d d538
00000160: dae6 b13a 1dc6 abba 3d03 53bc f8fa 82bd
00000170: e703 aa3b 601c eeb8 f0a8 183d 6a0c 043a
00000180: f288 54bd d975 71bc abc5 92ba 5d7c 41bc
00000190: 9147 8c3c d2b0 a0bd 8d48 61ba 5eb1 94bc
000001a0: 8931 00bd 4405 903b fc09 613c ead0 79bc
000001b0: 99d8 81bc 9b8d 1fbc dad0 49bc a9f7 053d
000001c0: 9b82 553a 4ff7 49bb 28ef 23bb 92c4 09bd
000001d0: 1232 3abc b91b d5bb 8f30 80bd ec4f 06bd
000001e0: 0ddc b03c 7623 fcbb 6196 93bc 0cec 303b
000001f0: 38a1 5539 79a1 013c 93ca 4abc e7aa 583b
00000200: a9b3 01bd 3e2b cd3a c5ba 083e 2a69 44be
00000210: c7ee b8bd f9b3 d7ba 654c 15be 4b36 4ebd
00000220: 9344 64bd 9302 093e bf9f d43d 7b68 c1bd
00000230: 187c e1bd e7bf 3cbe a395 35bc f978 62bd
00000240: ef05 67ba a02f 90bb 8d72 c8bd 2306 fa3a
00000250: 7d69 5bbd dcef f1bd c01f a5bc 6031 f23c
00000260: 0f74 4e3d c2fa f6bd 3659 17bd 22bc 5f3d
00000270: 0932 08be 9431 7f3d e327 ac3d 5f11 553b
00000280: 393a 6339 6e45 133a 345e aabd 2f7b a5bb
00000290: f808 0cbe 2a7c c6bd 05a1 793e d88a f9bc
000002a0: a241 2e3e e939 013c e696 52be 8677 adbd
000002b0: 0cc5 213b 07d2 5cbc 1f4b e0b9 7955 88bb
000002c0: 34ca 173b 7588 60bc 8982 80bc 5bd8 2cbe
000002d0: 2673 9a3d b3b9 09bc 5a03 ab3c 503a a43d
000002e0: b108 caba 50fe bb3b 51a2 fdbd cb4f 8d3c
000002f0: c73d 523d cf87 a7bb 98b3 c7bd 2e1c a8bd
00000300: 4217 64ba e5d7 fbba f457 77be 7d8a 09bb
00000310: 5f9f c7bb 0b81 36bc e6fc 9cbc 2f8e 19be
00000320: 29c8 433e f533 49be b499 03bd 578d 11be
00000330: 7ab8 6fbe 876f 36bc dbbf c5bc b842 1dbd
00000340: 62d3 52be f6c4 91bd 2a8d 7bbd 814f 6dbd
00000350: 2bb5 f63a 1cb6 c4bb 1d58 27be f21c 6dbd
00000360: 2aa9 0abc a657 1fba 3ea5 f3bd a811 24be
00000370: 1f46 6e3c c1de 5539 755c 90bd fe3f 083c
00000380: 8161 b3bd 0648 17be 2a14 8eba 10a8 0bbd
00000390: a589 c93d a38c bfbd 6417 36bd 0262 d3bd
000003a0: 3c9f 66bd f0b7 b3bc 1056 193d d576 f1bc
000003b0: 6e2b d7bd 6639 8cbc 7023 f0bd 8089 133d
000003c0: 1277 a8ba 9b7a 163c 27b9 be3c eb9c b2bc
000003d0: 583d d2bc bc80 513c 8efe 1bbe 1882 abbd
000003e0: c415 8e3d 0b43 41be 7da9 053d 46fc 48bd
000003f0: a01d 72be 790e 08bd d8b9 11be 4364 d8bc

fc1.bias f4 [64]
0.019348722 0.27203256 0.38898477 0.40605253 0.05302489 0.561247 0.0032768757 -0.043959975
-0.17676201 0.2654621 0.30519217 0.32131043 -0.07410674 -0.0018243038 0.5453069 -0.07677933
0.032382563 -0.0011495783 -0.11663719 -0.0017346782 -0.048980676 -0.08717752 -0.4843791 -0.0006383745
-0.0037024287 0.11895494 0.2596562 0.1339946 -0.13723506 -0.002076999 -0.02731843 -0.36543643
0.27062127 0.33480117 -0.3963651 0.4630705 -0.0016675338 -0.023502309 -0.28337148 0.061207984
0.27259165 0.3714155 -0.002138566 0.2105501 0.28283876 0.028484954 0.3255729 0.0912037
0.39369556 -0.0010978639 0.18649153 -0.00076651707 0.41262883 -0.0010627962 0.50753725 -0.0036553687
0.11100084 0.2756499 -0.14312491 -0.16579661 0.00013035312 0.024157796 -0.0027918397 -0.0017523328
00000000: 3681 9e3c da47 8b3e 0329 c73e 1ee6 cf3e
00000010: a130 593d e2ad 0f3f dac0 563b 600f 34bd
00000020: 1a01 35be a6ea 873e 2642 9c3e cd82 a43e
00000030: 46c5 97bd 7a1d efba 3c99 0b3f 7b3e 9dbd
00000040: 94a3 043d 72ad 96ba 7bdf eebd 245e e3ba
00000050: f69f 48bd 218a b2bd 8a00 f8be 9658 27ba
00000060: 72a4 72bb a69e f33d a8f1 843e e135 093e
00000070: 5987 0cbe 431e 08bb e6ca dfbc 7c1a bbbe
00000080: df8e 8a3e 0f6b ab3e 5ef0 cabe 9417 ed3e
00000090: 2691 daba ea87 c0bc 1116 91be 39b5 7a3d
000000a0: 2291 8b3e 2c2a be3e 2f27 0cbb 729a 573e
000000b0: 3ed0 903e 4759 e93c 7eb1 a63e 01c9 ba3d
000000c0: 7792 c93e 33e6 8fba a3f7 3e3e 17f0 48ba
000000d0: 1644 d33e 864d 8bba f6ed 013f e98e 6fbb
000000e0: 6954 e33d fc21 8d3e 568f 12be 96c6 29be
000000f0: 66af 0839 92e6 c53c 4cf7 36bb 88ae e5ba

fc2.weight f4 [32, 64]
-0.0006392055 -0.0015963806 -1.5103588e-05 0.0008620567 0.00018933242 -0.0013775096 -0.0023720374 -0.0010959321
-0.00076937577 0.0005177259 -0.00033456655 -0.0008939685 0.0010930179 0.0011382778 -0.0006371536 -0.0009816581
-0.0017060962 0.00093690085 -5.04379e-06 -0.0012938909 -0.001273361 -0.00011900205 0.0012934178 -0.0012367876
0.001296628 -0.00142777 -0.0009527148 -0.0020991154 -0.001070006 1.75019e-05 0.00044960988 0.0011293817
-0.0009859187 0.00053821417 -0.0030561402 0.0009334884 -0.0012212764 -0.0008090162 0.00059529627 -0.0004956713
-0.001247696 -0.0012406021 -0.0010388367 0.0002153757 -0.0016379338 -0.0020945582 -0.0018782289 -0.00041224284
-0.0009155636 0.0011446837 0.00093388563 0.0007375742 -0.0006244698 -0.00092863815 0.00039627863 0.00031705762
-0.0011574168 -0.0039747045 0.0019052735 0.0006838287 -0.0007683804 -0.0004902195 0.0013709402 0.0012409149
0.008191678 0.14908828 0.003764332 0.0058949552 -0.027270956 -0.020006992 -0.16154617 -0.048452515
-0.0900616 0.121255495 0.07444507 0.13628054 0.02945235 -0.0011957582 0.012021088 -0.15070485
-0.18736759 -0.00085253007 -0.08029929 -0.0017317439 -0.18716423 -0.016888905 0.010172803 -0.00084403506
-0.000965866 -0.022183916 0.10134296 -0.27666035 -0.030013485 0.00031275622 -0.025171326 0.030903313
0.15086171 -0.08376109 -0.37147123 0.23711522 -0.0023113512 -0.0070929583 -0.13519621 -0.108198404
0.03371087 -0.055273972 0.00060622155 0.025357066 0.33145633 -0.23934013 -0.034904566 -0.08926529
-0.19771425 0.0009342555 0.14034577 0.0008424925 -0.21273322 0.0004879451 0.14783591 -0.0017423476
-0.15147924 -0.25095317 0.0032121602 -0.09483719 0.0015190277 0.018366462 -0.002437802 -0.001560212
-0.0009887324 0.00014700086 0.0005195711 -0.0010037574 0.0012026291 -0.0011179256 -0.0006614679 -5.852166e-05
-0.0006678435 -0.0011752233 0.00084756827 -0.0015871623 0.00019466382 0.0010088888 -0.00044626291 0.00023666598
-0.00025848128 -0.000114332324 -0.0006524154 -0.0010232428 -0.00058221264 -0.0004993345 0.00045725598 0.0015382768
0.00025532066 -0.0011093973 -0.0005974891 0.00044874154 0.00070816535 -0.0010290197 0.0007206411 0.00028338344
6.692233e-05 -0.0002613748 -0.000744134 -0.0010065077 -1.3500999e-06 0.00025034146 -0.0015516011 -0.00039070114
-0.00090107066 -0.0015382174 0.0009984281 0.0012604486 -0.0016457874 0.00013019356 0.0006035661 -0.0007899869
-0.0011626646 0.00031964428 -0.00077278895 0.0013142277 -0.00081647455 0.0013130284 0.0012385766 -0.0006108655
-0.0014763968 -0.0005644943 2.4783541e-05 -0.001387778 -0.00083788106 0.0014301058 -0.0011902186 -0.00039962246
0.07634954 0.20265432 0.37545627 0.1907636 0.2863391 0.07341131 -0.07695904 -0.032380078
0.063861094 0.105438344 0.082111865 0.4516807 0.09487006 -0.0023579746 0.10345909 -0.016502796
0.12154287 0.00040057892 -0.030246064 -0.0035490491 -0.21996471 0.07295023 -0.04122235 0.000405688
0.0018623119 -0.08931082 0.22676772 -0.15436801 0.105450004 0.0005763349 -0.029873094 0.05161986
0.3384682 0.027538706 -0.2688338 0.12988198 -0.0036280714 -0.008066133 -0.17594953 -0.021177959
0.11398564 -0.15497796 -0.0002595603 0.02252368 0.07112785 -0.24905168 0.053424615 -0.13824491
-0.09517797 0.00020281477 0.19192085 0.0012240951 -0.23523974 -0.00012311256 0.24742512 -0.0050950907
-0.18012643 -0.10182355 -0.094412394 -0.16032782 -0.0010309295 0.04859792 -0.0031084176 -0.0012304002
00000000: 5b90 27ba a53d d1ba 6b65 7db7 a5fb 613a
00000010: 8987 4639 8d8d b4ba 2f74 1bbb 61a5 8fba
00000020: efaf 49ba ffb7 073a c368 afb9 3659 6aba
00000030: 9843 8f3a 4432 953a a706 27ba fbaa 80ba
00000040: 179f dfba 5a9a 753a d43d a9b6 c697 a9ba
00000050: e8e6 a6ba bd90 f9b8 e687 a93a b51b a2ba
00000060: 9ef3 a93a 0324 bbba 9cbf 79ba 5091 09bb
00000070: 723f 8cba 0bd1 9237 9eb9 eb39 c307 943a
00000080: f139 81ba f116 0d3a 8649 48bb 59b5 743a
00000090: 3c13 a0ba 2814 54ba a80d 1c3a f0ef 01ba
000000a0: bb89 a3ba b39b a2ba 9329 88ba 79d6 6139
000000b0: f0af d6ba db44 09bb e72e f6ba 4c22 d8b9
000000c0: 6f02 70ba 3609 963a 01d0 743a c459 413a
000000d0: 75b3 23ba da6f 73ba 9ec3 cf39 c13a a639
000000e0: 77b4 97ba 3d3e 82bb 5fba f93a f842 333a
000000f0: 236d 49ba 1382 00ba 1fb1 b33a 32a6 a23a
00000100: 6336 063c 99aa 183e 03b3 763b 782a c13b
00000110: 5767 dfbc b4e5 a3bc 5c6c 25be 2576 46bd
00000120: 3772 b8bd cd54 f83d a876 983d 208d 0b3e
00000130: 0e46 f13c fdba 9cba 19f4 443c 5f52 1abe
00000140: 4add 3fbe 537c 5fba f473 a4bd affb e2ba
00000150: fba7 3fbe 9a5a 8abc d4ab 263c 3c42 5dba
00000160: 2c32 7dba 0bbb b5bc e68c cf3d 6da6 8dbe
00000170: d7de f5bc 6ef9 a339 1934 cebc f228 fd3c
00000180: 7e7b 1a3e ef8a abbd 7a31 bebe 55ce 723e
00000190: 0a7a 17bb 0c6c e8bb e070 0abe 2097 ddbd
000001a0: 6914 0a3d f666 62bd d7ea 1e3a 9fb9 cf3c
000001b0: a5b4 a93e 9415 75be 17f8 0ebd b8d0 b6bd
000001c0: 9b75 4abe d3e8 743a cdb6 0f3e b7da 5c3a
000001d0: bdd6 59be e2d2 ff39 4c62 173e 7c5f e4ba
000001e0: 601d 1bbe ef7c 80be 1b83 523b 003a c2bd
000001f0: 1d1a c73a 4375 963c 88c3 1fbb 0780 ccba
00000200: 5b98 81ba 3e24 1a39 d433 083a 8290 83ba
00000210: 89a1 9d3a 5c87 92ba 5c66 2dba 2775 75b8
00000220: 3812 2fba f309 9aba 582f 5e3a 5408 d0ba
00000230: ac1e 4c39 b13c 843a 65f8 e9b9 8a29 7839
00000240: c584 87b9 b3c5 efb8 db06 2bba 551e 86ba
00000250: a19f 18ba c5e5 02ba dcbb ef39 01a0 c93a
00000260: 8fdc 8539 3269 91ba d1a0 1cba 1245 eb39
00000270: 2ca4 393a 2ce0 86ba 68e9 3c3a 1593 9439
00000280: a758 8c38 2209 89b9 fd11 43ba cbec 83ba
00000290: 1435 b5b5 4340 8339 185f cbba 05d7 ccb9
000002a0: d435 6cba 039e c9ba b0dd 823a a335 a53a
000002b0: 76b7 d7ba 9184 0839 a338 1e3a 2017 4fba
000002c0: 8d64 98ba ee95 a739 fd94 4aba 2a42 ac3a
000002d0: ae08 56ba ec19 ac3a bc57 a23a 7d22 20ba
000002e0: a883 c1ba 92fa 13ba 40e6 cf37 1ae6 b5ba
000002f0: 3fa5 5bba 6372 bb3a 1c01 9cba 6b84 d1b9
00000300: 265d 9c3d 9d84 4f3e ce3b c03e 8857 433e
00000310: 0a9b 923e ab58 963d b39c 9dbd f9a0 04bd
00000320: 9bc9 823d 0ff0 d73d 442a a83d b142 e73e
00000330: 3c4b c23d 4088 1abb 5ce2 d33d df30 87bc
00000340: 78eb f83d cb04 d239 98c6 f7bc 2a97 68bb
00000350: 6e3e 61be ee66 953d c4d8 28bd 86b2 d439
00000360: d118 f43a 97e8 b6bd cc35 683e a612 1ebe
00000370: 2cf6 d73d 2e15 173a 6bb8 f4bc 596f 533d
00000380: b44b ad3e da98 e13c 95a4 89be c8ff 043e
00000390: f0c4 6dbb d027 04bc 1d2c 34be 667d adbc
000003a0: 4e71 e93d 8bb2 1ebe 9815 88b9 9583 b83c
000003b0: 7aab 913d 6707 7fbe c5d3 5a3d 1390 0dbe
000003c0: abec c2bd adaa 5439 e686 443e d171 a03a
000003d0: b0e2 70be c717 01b9 035d 7d3e b8f4 a6bb
000003e0: 1073 38be de88 d0bd 495b c1bd fa2c 24be
000003f0: 4120 87ba 9d0e 473d 98b6 4bbb 6145 a1ba

fc2.bias f4 [32]
-0.0031217765 0.0655141 -0.0009788903 0.22843812 0.49547574 0.478701 -0.0032022444 0.20260689
0.38705698 -0.0013415458 -0.09431384 0.34694663 -0.004843695 0.16991088 -0.0013753849 -0.13812979
0.009812796 0.03494761 0.2658449 0.30589703 -0.0039688842 -0.0024872953 -0.00088013726 0.047065474
0.07640705 0.5386741 0.39411864 -0.110838555 0.3912339 0.0139599675 -0.0019659325 -0.006540682
00000000: b896 4cbb 422c 863d 1c4e 80ba afeb 693e
00000010: ffae fd3e 4c18 f53e bfdc 51bb 2e78 4f3e
00000020: 552c c63e cfd6 afba 9d27 c1bd fda2 b13e
00000030: dcb7 9ebb 1efd 2d3e 4246 b4ba e571 0dbe
00000040: d9c5 203c 3a25 0f3d d31c 883e 899e 9c3e
00000050: 6a0d 82bb e401 23bb 03b9 66ba bac7 403d
00000060: 4d7b 9c3d 8ce6 093f ebc9 c93e 53ff e2bd
00000070: cf4f c83e 59b8 643c e0d6 00bb 3853 d6bb

fc3.weight f4 [5, 32]
0.0023100213 0.31044105 -0.0006526774 0.40410066 -0.92448056 -0.8724227 -0.00041716403 0.16906966
-0.8610689 -0.0015293857 0.23430228 -0.2389829 -0.00082912116 -0.2632158 -0.00067977834 0.5202442
0.044704568 -0.016926853 -0.4655782 0.2520571 -0.0008812844 0.002015508 0.00078025466 0.32401946
0.45709783 -0.68266386 -0.73190373 0.27356172 0.09986603 -0.004300328 0.006758525 -0.0012690419
0.003478775 -0.12948185 0.001061186 0.1793178 0.48201862 -0.2901351 0.0068140053 -0.12305739
0.2858143 -0.0007537903 -0.06592185 -0.01932879 0.0007975108 -0.36458322 -0.0017910685 0.07390833
-0.086450346 0.0789938 0.31680256 -0.39980903 0.0031176102 5.7543115e-05 0.0013217616 0.11012284
-0.13932517 0.49666673 0.4080012 -0.3852062 0.5880083 0.013225076 0.00028343635 0.0009259725
0.0006670384 0.3594542 -0.0021386528 0.13189869 -0.22404803 0.690943 -0.001102416 -0.4600217
0.3860704 0.00072981865 -0.1678623 0.58953494 -0.0022061463 0.25239903 -0.0020778952 -0.4448565
0.13217543 -0.07792002 0.19748391 0.5046484 -0.00059065805 0.0015836788 4.811958e-05 -0.5379523
-0.003101703 0.5023687 -0.01495167 0.2623831 -0.26513872 0.009640408 -0.00094256236 -0.005224771
0.0010841736 -0.18464734 -0.0007163393 -0.28448498 0.36464632 0.063499674 0.009671273 0.21105456
0.07997543 -0.00095224276 0.4607263 0.14425212 0.0015931919 -0.24891019 -0.0012487875 0.10259149
0.02659099 0.10318386 -0.6032797 -0.22461742 0.0045982506 -0.0017301037 0.00053332176 -0.19783048
-0.6401676 0.008536379 0.79534894 -0.10116211 0.22750202 -0.0042351712 -0.0002700128 0.0006098304
-0.003311239 -0.3541091 0.00025465307 -0.4284225 0.2998192 0.40704983 -0.013140812 0.2018356
0.108315915 -0.001918376 -0.46037024 -0.47425175 -0.0006440679 0.6211055 0.0013254359 -0.26038545
-0.11951219 -0.089165956 0.5538911 -0.1282983 -0.0070926435 -0.00134872 0.0010929507 0.29867306
0.32459342 -0.32403922 -0.4558924 -0.051571865 -0.6530102 -0.017924942 0.003473103 0.0026663984
00000000: ba63 173b 21f2 9e3e 7018 2bba 48e6 ce3e
00000010: c2aa 6cbf 1857 5fbf cfb6 dab9 9920 2d3e
00000020: 036f 5cbf ab75 c8ba f0ec 6f3e efb7 74be
00000030: 6159 59ba 39c4 86be 2733 32ba b92e 053f
00000040: 231c 373d 2faa 8abc 4460 eebe a10d 813e
00000050: ff05 67ba 9d16 043b 018a 4c3a e1e5 a53e
00000060: ba08 ea3e 0fc3 2ebf 0b5e 3bbf 4810 8c3e
00000070: 9086 cc3d c4e9 8cbb 9e76 dd3b fb55 a6ba
00000080: 29fc 633b e496 04be 7e17 8b3a 169f 373e
00000090: 25cb f63e 968c 94be 0548 df3b 8305 fcbd
000000a0: 4056 923e 039a 45ba 0902 87bd 6957 9ebc
000000b0: 0b10 513a a7aa babe 49c2 eaba 405d 973d
000000c0: e10c b1bd 80c7 a13d f233 a23e c5b3 ccbe
000000d0: d250 4c3b 735a 7138 f63e ad3a 1588 e13d
000000e0: 42ab 0ebe 1a4b fe3e 89e5 d03e bf39 c5be
000000f0: b687 163f fdad 583c 2f9a 9439 f6bc 723a
00000100: 30dc 2e3a 620a b83e a428 0cbb 7310 073e
00000110: d96c 65be a4e1 303f f17e 90ba f787 ebbe
00000120: 05ab c53e 4d51 3f3a 18e4 2bbe c3eb 163f
00000130: fe94 10bb 723a 813e 4c2d 08bb 3bc4 e3be
00000140: ff58 073e 8894 9fbd 3939 4a3e a330 013f
00000150: 64d6 1aba 7193 cf3a 01d4 4938 3eb7 09bf
00000160: f145 4bbb 3c9b 003f d9f7 74bc 1457 863e
00000170: 43c0 87be cdf2 1d3c 4a16 77ba 8e34 abbb
00000180: d41a 8e3a 3114 3dbe b7c8 3bba 04a8 91be
00000190: ecb2 ba3e 1e0c 823d 4274 1e3c b01e 583e
000001a0: 29ca a33d ee9f 79ba 51e4 eb3e d4b6 133e
000001b0: a6d2 d03a 50e2 7ebe 5bae a3ba 7d1b d23d
000001c0: 59d5 d93c 0f52 d33d 8a70 1abf 1c02 66be
000001d0: ecac 963b a6c4 e2ba 9ece 0b3a 1394 4abe
000001e0: 06e2 23bf 2bdc 0b3c fd9b 4b3f 152e cfbd
000001f0: 4af6 683e 31c7 8abb 8190 8db9 06dd 1f3a
00000200: 5f01 59bb ca4d b5be f582 8539 325a dbbe
00000210: e781 993e d668 d03e 8f4c 57bc fead 4e3e
00000220: bcd4 dd3d 0472 fbba a6b5 ebbe 20d1 f2be
00000230: aad6 28ba c500 1f3f 40ba ad3a 3e51 85be
00000240: cfc2 f4bd a49c b6bd cfcb 0d3f a160 03be
00000250: 6869 e8bb 89c7 b0ba 5741 8f3a adeb 983e
00000260: 1c31 a63e 78e8 a5be bb6a e9be 053d 53bd
00000270: ad2b 27bf 54d7 92bc 009d 633b bebe 2e3b

fc3.bias f4 [5]
-0.56995684 0.3208102 -0.04676381 0.43170097 -0.1386108
00000000: b1e8 11bf 3c41 a43e 698b 3fbd e907 dd3e
00000010: fdef 0dbe
