Assignment_1/1/Filters/Models/low/model-8.pth (torch_old, 288536 bytes, 12 tensors)

conv1.weight f4 [16, 3, 5, 5]
00000000: 098a a33e 257e c93e ddd3 8f3e c243 be3d
00000010: 8096 e6bc 718a e93e 0865 c73e 522e e43d
00000020: a261 4fbe 7682 afbe 76e7 cf3e 90c5 603e
00000030: d277 09be 8aac e5be 7cf7 0bbf a2c7 403e
00000040: 7031 3fbd 4338 adbe 95ac 0dbf db07 0cbf
00000050: 980f 4ebd 0593 72be 0dbe cabe a89c e8be
00000060: 0b4c bbbe 8d23 1d3e 98c2 a03e 513b 903e
00000070: dd54 213e 5091 973d 5be7 943e 1d08 a43e
00000080: 053a 033e cd59 dbbd b92d 5abe 527a 833e
00000090: 73b4 1e3e 4134 b0bd 5663 adbe e0d1 bcbe
000000a0: 04ef 5d3d b3d0 bcbd cbb5 9bbe 3721 ddbe
000000b0: b8cc b4be af4b 2dbe b0d6 92be 5328 bbbe
000000c0: 64aa a3be 7e51 35be ce3d c83d 36c0 5a3e
000000d0: c831 3e3e 52c2 bf3d d1f1 8b3d b8e7 8a3e
000000e0: 6f89 943e bb96 173e f5e4 cebc ec0d b9bd
000000f0: 54b8 a33e d199 813e 12cc 723d f20d ecbd
00000100: 53ef 01be c243 533e 0614 d53d 928c 1dbd
00000110: aa36 e9bd 7996 0ebd 92e3 8e3c c275 36bd
00000120: 4009 78bd 8db7 4a3c 27ea 1d3e 3a80 bb3c
00000130: c1fb 17be d719 2cbe c752 073c ef19 973e
00000140: a5b8 cd3d 2585 d3bd 36a9 69be 29ac 3abe
00000150: e50a 533b ddb3 303e 66ce d33c 8ef0 0dbe
00000160: a022 5ebe e8fd 46be f638 0b3e a66d e83d
00000170: 80af 54bc 4bb8 32be 8986 8abe 019f 10bd
00000180: 39ae a03d 06cf 053d b8e2 09be c3bc 96be
00000190: 437b 04be c85f bfbe 60f1 e0be ac26 94be
000001a0: ce05 b1bc 339b 183d 1749 80be 3924 e0be
000001b0: 6f6c e1be e951 8abe 507c 513e 440e a3bc
000001c0: 26ec 82be b608 c9be 893d c9be 35f6 883e
000001d0: b354 353e 8136 abbb 8d0e 66be fc10 b0be
000001e0: ff64 483e 370a 723e b887 0e3e 4ea4 9abd
000001f0: c39d 86be bcfe a0bc 66fc 78be 9553 92be
00000200: aebf dcbd 815a 253e 3bb3 2c3e b601 bcbd
00000210: b016 82be b6b1 66be ab3f 7abd 01ff b33e
00000220: 4074 1e3e b088 f5bc dd19 08be cc01 05be
00000230: a943 db3e df6c c23e 880a 793e 5bcc 9a3d
00000240: 7d5a 12bd d9ce c13e e29d ee3e f592 dc3e
00000250: b329 8b3e 3881 d83d aae8 b83e 87be d93e
00000260: 06aa db3e 795c c73e 51c9 a53e 0b0a 9e3e
00000270: c23b d13e c752 d93e 8bfc be3e a6b7 9f3e
00000280: 4e12 443e 709e 8e3e f6ae 983e 8e93 813e
00000290: 15ba 523e 66a2 593d 9723 e33d bf60 ca3d
000002a0: 594e a13d 1789 6d3d 05f7 bcbd 55f5 8dbd
000002b0: 0c2a b9bd 5125 cfbd a11c b2bd efb8 21be
000002c0: ba91 43be 7cec 4dbe 48f6 31be 6476 e0bd
000002d0: 4850 79be 8c1d 85be 428f 81be 7ba1 6abe
000002e0: 3f8f 20be f92e 6cbe 386b 61be bd44 6fbe
000002f0: f6bb 56be bbf1 19be 6cdc 0bbe d84a 0fbe
00000300: eefa 1cbe fec4 13be 8044 9bbd 0ae4 11bd
00000310: cac1 23bd 2e2a 7bbd d729 54bd 65b0 143c
00000320: 30fe d6bd 1ed8 45be 2544 75be 8b26 62be
00000330: 64bd f3bd 7522 fdbd 6ead 4ebe f56e 70be
00000340: 3a6a 60be 1860 f6bd 9cdd 06bd ab6b 97bd
00000350: dc5d d7bd 986c bfbd 4daf 283a 2e9f 1b3e
00000360: 051e 033e e3b6 e33d 0ab9 fe3d ac63 553e
00000370: e140 b23e 9437 a43e 258a 9b3e b836 a73e
00000380: 3398 cc3e 94b9 70be 55f0 4abe 1957 68be
00000390: e682 62be 8a8f 01be eaae 46be 46ed 14be
000003a0: 0d43 25be 5d1e 0ebe 7ca7 0ebd 667a 3ebd
000003b0: 5b94 42bc eec4 95bc 9b3b 253c 0b80 043e
000003c0: 3fd9 df3d 3891 ee3d 4781 e43d 93fc fe3d
000003d0: 644d 603e 06d0 453e e90d 453e d0b3 253e
000003e0: eeb3 213e 5010 593e 27a7 59be ada8 2abe
000003f0: fc89 34be 7557 16be 8516 32bd d4a6 56be
0.3194125 0.39354053 0.28091326 0.092902675 -0.028147936 0.45613435 0.38944268 0.111416474
-0.20252088 -0.3427922 0.40606278 0.21950364 -0.13424614 -0.448582 -0.54674506 0.18826154
-0.046678007 -0.33831987 -0.55341464 -0.54699486 -0.05030784 -0.23688896 -0.39598122 -0.4543202
-0.36581454 0.15345593 0.31398463 0.28170255 0.15755029 0.07400763 0.2908276 0.3203744
0.12815101 -0.107104875 -0.21306504 0.2567926 0.15498523 -0.08603717 -0.3386485 -0.36878872
0.05418302 -0.09219494 -0.30412135 -0.43189403 -0.35312438 -0.16923402 -0.2867942 -0.36554202
-0.31965935 -0.17706868 0.09777413 0.21362385 0.18573678 0.093632355 0.06833232 0.27129912
0.29011104 0.14803593 -0.02525566 -0.090358585 0.3197657 0.25312665 0.059276648 -0.11526097
-0.12688951 0.20631316 0.1040421 -0.038464136 -0.113873795 -0.03481147 0.017442498 -0.044545896
-0.060555696 0.0123728635 0.15421353 0.022888292 -0.1484213 -0.16806732 0.008259482 0.29511973
0.10044984 -0.1032813 -0.22818455 -0.18229736 0.0032202539 0.17256112 0.025855254 -0.13861296
-0.21692896 -0.19432795 0.13595948 0.11349039 -0.012981296 -0.17453115 -0.27055767 -0.035307888
0.0784573 0.032668136 -0.13465393 -0.2944089 -0.12937646 -0.37377763 -0.43934155 -0.28935754
-0.021609213 0.037257385 -0.25055763 -0.43777636 -0.4402804 -0.27015617 0.20457578 -0.019904263
-0.25570792 -0.39264458 -0.3930476 0.2675034 0.17708091 -0.005225003 -0.22466488 -0.34387958
0.19569777 0.23636709 0.1391896 -0.0755087 -0.26292238 -0.019652717 -0.24315032 -0.28579393
-0.107787475 0.16147806 0.16865246 -0.09180014 -0.25407934 -0.22528729 -0.061095875 0.3515549
0.15474033 -0.029972404 -0.13291116 -0.12988967 0.42825058 0.37973687 0.24320424 0.07558509
-0.035730828 0.37853125 0.4660483 0.4308087 0.2718025 0.105715215 0.3611501 0.42528173
0.42903155 0.3893774 0.32380155 0.30867037 0.40865904 0.42445967 0.3730205 0.311948
0.19147608 0.27855253 0.29820985 0.25307888 0.20578797 0.05313339 0.110907726 0.09881734
0.07876272 0.057992067 -0.09226803 -0.06931559 -0.09041223 -0.101145394 -0.08696867 -0.15793203
-0.19098559 -0.20109743 -0.17379105 -0.10960081 -0.24347031 -0.25999105 -0.2530461 -0.22913162
-0.15679644 -0.23064794 -0.22013557 -0.23366065 -0.20970139 -0.15033619 -0.13658303 -0.13993394
-0.15330097 -0.14430615 -0.07581425 -0.035617866 -0.039979734 -0.061319523 -0.051797714 0.009075259
-0.10497701 -0.19320723 -0.23951776 -0.22085015 -0.11901358 -0.12360088 -0.20183346 -0.23479827
-0.21915522 -0.12030047 -0.032926187 -0.07393583 -0.10515949 -0.093468845 0.0006434813 0.15197441
0.1280442 0.11118867 0.12437637 0.20838803 0.34815124 0.32073653 0.30378833 0.32658935
0.3995987 -0.23508292 -0.19818242 -0.22689475 -0.22120246 -0.12652412 -0.19402662 -0.14543638
-0.16138859 -0.1387877 -0.034827694 -0.046503447 -0.011876191 -0.01828238 0.010085012 0.1293947
0.10930108 0.11648792 0.1115747 0.124505185 0.21904522 0.19317636 0.19243588 0.16181874
0.15791294 0.21197629 -0.2125517 -0.16665907 -0.17630762 -0.146818 -0.043478508 -0.20962077

conv1.bias f4 [16]
00000000: cb7c 9ebf 168c a3bf 9fe3 bdbf c134 50bf
00000010: 3934 81bf b0e3 d4bf f621 78bf 691a 71bf
00000020: e9b8 2dbf 9f91 81bf c084 94bf dfe9 53bf
00000030: 0a95 8dbf d3d3 82bf 0b1c 49bf a6ab 90bf
-1.2381834 -1.2777126 -1.483509 -0.81330496 -1.0094062 -1.6631985 -0.9692682 -0.94180924
-0.67860276 -1.0122565 -1.1603012 -0.82778734 -1.1061108 -1.0220894 -0.78558415 -1.1302383

conv2.weight f4 [32, 16, 5, 5]
00000000: 8859 34be b26f e5bd 8a28 b9bd aa04 dfbd
00000010: deb6 f1bd 6eea fabd a786 edbd 2856 f2bd
00000020: d644 f7bd fd62 01be cb7d aebd 42b9 a6bd
00000030: 7d8d f8bd 6846 18be 4937 48be 5d8e afbd
00000040: ddc9 68bd 62c2 84bd 0e27 e0bd d80b 5ebe
00000050: 48ba aebd 64d1 7bbd c6d5 22bd f3b8 a5bd
00000060: 909d 18be 1cea 8dbd 4d4e 80bd e5ea 5bbd
00000070: dc7c 43bd 8a1b db3d 537e e1bd 43a7 abbd
00000080: 2c33 083d f986 d23c 8ca5 8abd 5524 cdbd
00000090: f442 0cbe 77cd 90bd 50fa d23d 4acb 343d
000000a0: a624 12bd d977 b2bc 4a6e 01be aafa b3bb
000000b0: 1d22 2b3e dccd a1bd 657d 483d 055d 9e3d
000000c0: ea0b 9ebc 93a7 b33d bd64 453c dc8b d83b
000000d0: 2f6a 08bc 2f0d 9dbc b118 64bc f76c 7dbc
000000e0: f393 0d3a 32f8 c2b9 189c 7abc a517 abbc
000000f0: 97b9 0cbd 51fd 99bc 0eee b4bb 0b1e 12bc
00000100: 2168 e8bb c783 0dbd a27a cbbc 08ef 6cbc
00000110: 6e8d bc3a 65bf 143c a762 86bc ae18 3dbc
00000120: 179e 82bc 8ca6 573c a380 163d 2582 e4bd
00000130: e139 e6bd ed1d 83bd 6a56 d3bc d6c5 cfbc
00000140: 1273 8ebd 207b 69bd ff9e 9cbd d820 bfbd
00000150: 1f17 9ebd 9e87 a6bd 1ceb 8fbd 835b 9cbd
00000160: b657 dbbd 925c bebd 5d8a 84bd 63b1 73bd
00000170: 7605 78bd 4d96 c4bd 7ec8 b8bd fa97 b23c
00000180: 8e6d 763c a903 9ebc 90f8 78bd cf64 87bd
00000190: 0d15 b93d 7260 5d3e d576 983e b59c 31bd
000001a0: 799d 20bf ee83 0abe 7286 12be b868 4e3e
000001b0: 0d1a 063f 31db b73e 2d50 c8bd 3702 1fbd
000001c0: 5bf4 b0be 6542 60bd ff02 0c3f a18a 9abd
000001d0: eb60 963d 5b00 6bbd 5977 11bf fd79 0cbe
000001e0: 8bbc eebd 8f52 1bbc fe29 783c 9390 56be
000001f0: 6be8 edbe 05f7 683c 58e3 b73d d2fe 063e
00000200: 83d8 0d3d 18f9 3ebe b458 eabd 2760 02be
00000210: 93b1 cdbd 6bbf 2e3e c77e 953e 9730 3cbd
00000220: e933 0dbd 5c3d e4bd e588 4fbe a7a1 df3d
00000230: 9f3a 62bd 8132 c13c fc90 cb3c d7f2 0dbe
00000240: eb21 87be bff3 9dbd 8c87 8ebc e1bb 5e3c
00000250: f1e3 2cbd d507 42be 78c9 54be f96f 8fbd
00000260: d538 83bd dcb6 c9bd a3b1 433e 9268 2fbe
00000270: cedb 06be 1146 7a3c ee22 e6bd 9885 3dbe
00000280: b007 16be b966 55be 1983 23bd 890d 073e
00000290: b8a0 39be 6343 2fbe d25a 05be 6908 42be
000002a0: 6198 173d bc5b fa3d 5d47 71be 0118 a43c
000002b0: ff70 cabd 72b6 eabd ce1f 5d3d 2d33 b6bc
000002c0: 073b 94bc 1ac0 db3c bde7 b33c aec7 b7bd
000002d0: 600c 88bc c36e 13bd 8c04 78bd 75af 3c3c
000002e0: c0d6 6e3d fe00 d33b 8949 883c 588b 53bc
000002f0: 41b0 c0bd b3dd 8cbc 81b3 043d 4d73 5e3d
00000300: d8e6 433d 7f02 01bc 6fee 88bd 1058 123d
00000310: 9d1f 5d3d d58f 9a3d 0da7 4e3d d835 b1bc
00000320: faf6 e2bb e2ce 31bd 015d f8bc cba9 47bb
00000330: 2615 5ebd bb25 023b 10e9 51bc af71 76bd
00000340: 5d27 17bd ae85 34bb b84c b63b 2cf3 da3c
00000350: bdf1 44bc c915 b3bd f61f 26bd 1a10 7d3c
00000360: 8377 5a3d ec53 ac3c 3fb4 0ebd 7e19 95bd
00000370: 01bf 113c a42b 193d d701 113d 416c cfb9
00000380: a172 f6bc 7f8a 55bd d21d 60bd eecd 043d
00000390: b342 3cbe bd63 87be 402e 63bd 6f18 1ebe
000003a0: 350e 4e3d 0473 493e 2591 d4bd 27b1 1dbd
000003b0: 2491 53bd df67 51be 6b8d 9e3d f286 653e
000003c0: 91de 163c 3264 623d 2af7 48bc f3ee 50be
000003d0: e047 cc3b cf1d 593c 58f2 943b cff7 9f3d
000003e0: 3088 e7bc dac0 71be 79e6 b5bd c1ee 81bd
000003f0: 0869 94bb 2c00 193d c2ad 593e bf41 89bd
-0.17612278 -0.11202945 -0.09040935 -0.108895615 -0.11802457 -0.12251745 -0.115979485 -0.11832839
-0.12073676 -0.12635417 -0.08520087 -0.08140804 -0.12136362 -0.14870608 -0.1955234 -0.085720755
-0.056833137 -0.06482388 -0.10944949 -0.21684206 -0.08531624 -0.061478987 -0.03975465 -0.08091917
-0.14903855 -0.069294184 -0.06264935 -0.05369081 -0.047726497 0.10698612 -0.110104226 -0.08381512
0.033251926 0.025699126 -0.06769857 -0.100166954 -0.13697416 -0.07070439 0.103016496 0.044139184
-0.035679482 -0.021785663 -0.12639728 -0.005492528 0.16712232 -0.07900593 0.04894771 0.07732586
-0.01929279 0.087721966 0.012047944 0.0066084694 -0.008326097 -0.019171325 -0.0139219025 -0.015467874
0.00054007693 -0.00037187483 -0.015296005 -0.020885298 -0.03435668 -0.018797548 -0.0055215424 -0.008918296
-0.0070924913 -0.0345495 -0.02483875 -0.014461286 0.0014385411 0.009078835 -0.016404463 -0.011541529
-0.015944524 0.013162266 0.03674377 -0.111576356 -0.11241508 -0.06402192 -0.025798041 -0.02536289
-0.06955542 -0.057002187 -0.076475136 -0.09332436 -0.07719254 -0.08131336 -0.070272654 -0.07634642
-0.10710089 -0.09295 -0.06471703 -0.05949534 -0.060552083 -0.0959898 -0.09022616 0.021800984
0.015040768 -0.019288855 -0.060783923 -0.066110246 0.09037218 0.21618822 0.29778162 -0.043362338
-0.62740284 -0.1352689 -0.143091 0.20157135 0.523835 0.35909417 -0.09780917 -0.03882047
-0.34561428 -0.05475082 0.5469207 -0.075459726 0.073427044 -0.057373386 -0.56822735 -0.1371841
-0.116570555 -0.009480133 0.0151467305 -0.20953588 -0.46466383 0.01421905 0.08978909 0.13183144
0.03463031 -0.18649709 -0.114427 -0.12731992 -0.10043635 0.17065208 0.29198286 -0.045944776
-0.034473334 -0.11144516 -0.20267065 0.109195046 -0.055231687 0.023583652 0.024849407 -0.13862167
-0.26393065 -0.077125065 -0.017398618 0.0135945985 -0.04220957 -0.189483 -0.20779979 -0.07003779
-0.06407324 -0.09849331 0.19110732 -0.17129734 -0.13169786 0.015275494 -0.11237131 -0.18507993
-0.1465137 -0.20839967 -0.039919946 0.13188757 -0.18127716 -0.1711555 -0.13022926 -0.1894852
0.037010554 0.12224528 -0.23562379 0.020030977 -0.098848335 -0.1146058 0.05398541 -0.0222412
-0.018094553 0.026825 0.021961087 -0.08973633 -0.016607463 -0.035994302 -0.06055121 0.011516442
0.05831027 0.0064393273 0.016636627 -0.01291164 -0.09408618 -0.017195558 0.03239775 0.05430918
0.04782757 -0.00787413 -0.066861026 0.035728514 0.053985227 0.07546965 0.05045228 -0.02163212
-0.0069264146 -0.04341019 -0.030317785 -0.0030466195 -0.054219387 0.0019858915 -0.012811914 -0.06016701
-0.036902774 -0.00275455 0.005563345 0.026727282 -0.0120205255 -0.087443896 -0.040557824 0.015445733
0.05333663 0.02103611 -0.034839865 -0.07280253 0.008895637 0.037395135 0.035402145 -0.00039562772
-0.030083956 -0.052134033 -0.05471594 0.032422952 -0.18384819 -0.26443282 -0.05546403 -0.15439008
0.050306518 0.19672781 -0.103792466 -0.038499024 -0.05165209 -0.2044978 0.07741817 0.22414759
0.009208337 0.055271335 -0.01226596 -0.20403652 0.006234154 0.013251736 0.004545491 0.078109376
-0.028263181 -0.23608723 -0.0888185 -0.06344367 -0.0045291223 0.03735368 0.2125769 -0.06701993

conv2.bias f4 [32]
00000000: ef3f 513b 5d6c c0ba 0d37 8abe a4eb 18bf
00000010: 8e36 ce3d c57e 873d b138 933f 4c9b 453f
00000020: eb2e 8abd 7419 c53d f973 27be 0937 30be
00000030: 40b6 20bf 8fd4 45b7 0940 08bf cb37 03bf
00000040: bb5c 353e 9a06 9c3d abdb 593f f162 033e
00000050: 208a 803e 236d 85be 15d5 0e3e 6050 9ebe
00000060: 1b4f 58be 6e67 66be 1249 593f 4993 19be
00000070: 71ac 503d 8a28 da3d 7458 36bd 2403 6dbd
0.0031928977 -0.0014680732 -0.26995125 -0.5973456 0.10068999 0.06615976 1.1501676 0.7719009
-0.0674723 0.096239954 -0.16352834 -0.17208494 -0.6277809 -1.1791605e-05 -0.5322271 -0.5125701
0.17711155 0.07618447 0.8510081 0.12830712 0.2510538 -0.26059827 0.13948472 -0.30920696
-0.21123926 -0.22500393 0.8487712 -0.14997591 0.050945703 0.106522635 -0.04451795 -0.057864323

conv3.weight f4 [64, 32, 5, 5]
00000000: 9e0b 07be a4d7 29be c700 27bd 67c2 90bd
00000010: 84c8 8dbd fab7 bdbd 3ef4 c3bd 0027 e7bd
00000020: d497 f23d 7f6c 273b eb54 81bc fcf9 b0bc
00000030: f67f 96bc 1859 2bbd ff06 273e 5df6 25bc
00000040: a6ea dd3c 72d4 843b 1ef6 67bd 3148 66bc
00000050: acfc b93c 3169 5e3d a2d2 c0bc 2587 01bd
00000060: 0478 1c3d ed77 95ba ad60 54ba 532e e9ba
00000070: 50f3 42b9 6422 8a3a 50fc bb3a de4e 05bb
00000080: e50d 84ba 690b 133a 254b 9f3a 38b6 9bba
00000090: 8117 57ba a9c7 3039 b1ac 76ba 4d6a 98ba
000000a0: 0674 c9ba 3fa1 6db9 d61b c83a 88ad 783a
000000b0: feb3 c63a 957a c1ba a034 8c3a db86 dd3a
000000c0: 320e bb3a 2007 083b f79b d03b 2c0c c7bc
000000d0: 277e 35bd 705f 99bd 8cca 41bd ef09 d8bc
000000e0: 31c6 b73c 6a1b e03c 8214 a03b 56af 93bd
000000f0: 7899 c43d 2715 57bb b600 7ebd a96b 1bbd
00000100: 1748 5bbc 17da 72bd ebc8 06bd 6d60 2bbc
00000110: e669 19bd e24c 7abd c942 a43d 25da 92bb
00000120: f25d 67bd d174 c1bc 0980 abbd 5c65 4d3c
00000130: c20d 93bd b1bb 3eba 3293 1c3d 817a 47bd
00000140: b236 763d e0fa 2abd a0f5 3abd cc14 49bd
00000150: 3620 57bd 3f4b 06bd 70ab 96bd 8e36 1dbd
00000160: 9f96 93bd 6ac3 5d3d 191f 93bd 69fa a1bc
00000170: 54e1 d43b baba 0cbd e996 753b 6ffd 263d
00000180: d586 96bc bc7a 363b d69b 8bbc f5d7 adbd
00000190: 5e94 343d e6cd e6bc fe4b b4bc 03cc e6bc
000001a0: 45d7 a3ba eba1 563b 8215 07bd 11f9 64bd
000001b0: 9c87 5abd 855e 2ebc 4c49 3f3c 8896 cbbc
000001c0: fa98 cdbd 6357 81bd 5085 82bc 8b24 c43c
000001d0: 97f1 143c c757 a3bc 40c8 e1bc c490 90bc
000001e0: 5e22 cb3d 746d 5a3d 5189 8e39 8252 66bd
000001f0: 2b3e f93b 8ed6 84bd c878 f4bc 9e03 b5bc
00000200: 23cb 9abc f232 c9bb 164c f4bb ad70 783d
00000210: 3bbf 893d 09d9 613d be85 26bd 1e5e 563d
00000220: 9f3a 863d c7eb 083c ac19 87bc 30ea 31bd
00000230: 083d a3bc e934 f2bc 03d3 26bd 218e c23b
00000240: 2e9a 7bbb 24f7 7abd ed97 7cbd 9101 3dbd
00000250: 46e4 d73c f1c3 6cbd 94e1 273d f804 2cbd
00000260: 8e0e b8bd a452 b7bd 8fdf a3bd 8677 81bd
00000270: 61ff 50bd 96cf 9fbd f3b0 84bd 4b3a 56bd
00000280: 4422 32bd e850 87bd 954f 4fbd f40e 0abd
00000290: cee5 32bd c501 37bd aa08 31bd c77d fdbc
000002a0: 97bd 20bc 916f 4ebd 8129 713a 980c 6bb9
000002b0: fe9d 8cbc d799 79bc 2d2d 25bd c28f e8bb
000002c0: fbfd 45bc 324e 04bc 13c5 0fbc c96d 7fbc
000002d0: 14b0 1dbc 36dc 05bc 7fe4 a13b fcb5 103c
000002e0: d841 bc3b d8c5 923a b125 e6bb d25d 4bb9
000002f0: 0666 ff3b 5e9d 16bb 72f9 003c 001a 853b
00000300: 5ced a73a 7f04 10b9 e3b0 50bb 7d4c 183c
00000310: 367a 183c 1eb8 16ba 3153 e8bb 5e8f 8bbb
00000320: 8d65 833e e1a2 623d 244e 0fbd 67c8 30bb
00000330: 3631 233c 6612 85bd ee1a 77bc c438 8abd
00000340: f237 79bd 12a0 343c 1e6d 3abd 0ced 223d
00000350: da4a 23bc 1c11 91bd 9889 923a fc1e 91bd
00000360: cc65 adba 15b3 003d 38b9 28bc 8b23 3abd
00000370: 8925 23bd f0a8 683d 618d a43d 91c3 1d3c
00000380: 7fde 86bd ee72 dfbc f65e 64bd 12f8 1a3b
00000390: 76e5 5abb 9aa2 ae3d b3a4 0dbd 8fa8 8ebd
000003a0: b22f 4dbc 0224 e4bc 2952 bebd a919 ff3b
000003b0: 20da fbbc bfc3 31bd a73c 99bc 7f60 b0bd
000003c0: 6d8b 093d 1a2c 023c fc33 64bd 3d62 053b
000003d0: 45e6 643d 3661 b83d 9806 6c3c 8095 f8bc
000003e0: 2d11 3cbd 16da 453d 0e1c 3ebd ec8f c63a
000003f0: c95c 34bc b5e5 403d 6651 8b3d 2765 ccbd
-0.13188025 -0.16586167 -0.040772226 -0.07068329 -0.06923011 -0.09263606 -0.0956807 -0.112867355
0.11845365 0.0025546846 -0.015787562 -0.021603577 -0.018371563 -0.041833013 0.16311263 -0.010129538
0.027089428 0.004053646 -0.0566312 -0.014055298 0.022703491 0.054299537 -0.023537938 -0.031623024
0.038200393 -0.0011403539 -0.0008101564 -0.0017790295 -0.00018591923 0.0010538814 0.0014342163 -0.0020341198
-0.0010074942 0.0005609305 0.0012153132 -0.0011879867 -0.00082051015 0.00016859047 -0.00094098883 -0.001162836
-0.0015369661 -0.0002266215 0.0015267085 0.00094863074 0.0015159843 -0.0014761264 0.0010696836 0.0016901152
0.0014271198 0.00207562 0.0063662487 -0.024297796 -0.04430976 -0.074889064 -0.047312304 -0.026371924
0.022433372 0.027356822 0.004885257 -0.07211177 0.09599584 -0.0032819004 -0.062012397 -0.03794447
-0.013383887 -0.059290018 -0.032906454 -0.010460001 -0.03745451 -0.061108477 0.08020551 -0.0044815713
-0.056486078 -0.023615273 -0.0837403 0.012536373 -0.071803585 -0.0007275893 0.038226314 -0.048700813
0.060110755 -0.04174316 -0.045644403 -0.0490921 -0.052520953 -0.032786604 -0.07356918 -0.038382106
-0.07206463 0.05414144 -0.07183666 -0.019772725 0.006496588 -0.034357764 0.0037473983 0.040769037
-0.01837484 0.0027844151 -0.017042082 -0.08488456 0.044086806 -0.028174352 -0.022008892 -0.028173452
-0.0012500068 0.003275032 -0.032979496 -0.05590159 -0.053351983 -0.010642652 0.01167519 -0.024852052
-0.100389436 -0.06315496 -0.015932709 0.023943206 0.009090803 -0.019939316 -0.027561307 -0.017647155
0.099186644 0.05332704 0.0002718666 -0.05623103 0.007606288 -0.064862356 -0.02984275 -0.022096451
-0.018895691 -0.0061401064 -0.007455359 0.06065433 0.067259274 0.05513862 -0.04065489 0.05233585
0.0655415 0.008356995 -0.016491733 -0.04343623 -0.019926563 -0.029566245 -0.04072858 0.0059373532
-0.0038391459 -0.061270848 -0.061668325 -0.046144072 0.026353966 -0.05780405 0.040986612 -0.041996926
-0.08987151 -0.08951309 -0.08001625 -0.063216254 -0.0510248 -0.07803266 -0.06479063 -0.052301686
-0.04348971 -0.066072285 -0.050613005 -0.033705667 -0.04367619 -0.044679422 -0.043221153 -0.030943764
-0.009810827 -0.050399367 0.0009199605 -0.00022416038 -0.01716518 -0.015234432 -0.040326286 -0.0070972154
-0.012084479 -0.008075284 -0.0087750135 -0.01559014 -0.0096245 -0.008170178 0.004940569 0.008832451
0.005745154 0.0011197878 -0.007023536 -0.0001939454 0.0077941446 -0.0022981982 0.007871972 0.0040619373
0.0012811827 -0.00013734585 -0.0031843714 0.00929558 0.009306481 -0.00057494815 -0.0070899953 -0.004259034
0.25663415 0.055331115 -0.03498663 -0.0026974918 0.009960463 -0.0649765 -0.015082104 -0.067491084
-0.06084437 0.011024492 -0.04551422 0.039776847 -0.0099665765 -0.070833415 0.0011179922 -0.07085988
-0.001322919 0.031420786 -0.010298066 -0.045444053 -0.03983072 0.056801736 0.080347784 0.009629146
-0.065854065 -0.027276482 -0.055754624 0.0023646397 -0.003340093 0.085271075 -0.034580898 -0.06965744
-0.0125235785 -0.027849201 -0.092930146 0.0077850414 -0.030743659 -0.04339957 -0.01870568 -0.08612155
0.033580232 0.007945085 -0.05571364 0.0020352744 0.055883665 0.090029165 0.014405869 -0.030344725
-0.045914818 0.048303686 -0.046413474 0.0015149093 -0.01100845 0.047094066 0.06802635 -0.09980231

conv3.bias f4 [64]
00000000: 1683 a53d f19c 863d 0c9c 7cbc a35a ffbc
00000010: 8d76 dbbc adc7 5abd 68a4 ddbd a34f 5dbe
00000020: b659 5e3d f45a 253d fcc6 513e 5410 b0bd
00000030: de71 85be d8ad 23bf b032 2ebe 1ef0 9bbc
00000040: 0529 b13d 905c 163e c9c4 a73d eca9 13be
00000050: 0a79 3e3d 3388 f2bd 6325 d33b f729 a53c
00000060: d711 39be 59c2 963d bc8f 1cbe f4ae 60be
00000070: ccdb 38bc 9caf 25bd 7934 87bd a91b 86be
00000080: ba56 07bd d2a3 ba3d ce54 90bc 8080 00be
00000090: 45ed 10bd 37b8 d5bc b112 3fbe 5fda 3abd
000000a0: 437c 96bd 7382 e7bd 5fd5 babd 620b 39be
000000b0: 33b0 8abe caae 6bbe 9b52 cf3c 8a06 f6bd
000000c0: d5a1 6fbd 9b73 50be 39f4 bf3d 0cb0 94be
000000d0: dbc7 bdbb 851b b6bb 2cb8 77bd 49a3 cfbd
000000e0: 4513 1abc 0368 2d3b 8a0f 3f3e f5cc c0bd
000000f0: 2a0e 98be ad14 913d 88e9 cebd 154e a8bc
0.08081643 0.06572903 -0.015418064 -0.031171149 -0.026789928 -0.053413082 -0.10822374 -0.2161241
0.054284774 0.040369943 0.20486063 -0.08596864 -0.26063436 -0.6393714 -0.17011523 -0.019035395
0.08650402 0.14683747 0.08191831 -0.14420289 0.04650215 -0.11842384 0.006443666 0.020161612
-0.18073212 0.073612876 -0.15289205 -0.2194174 -0.011282872 -0.040450677 -0.06601805 -0.26192978
-0.033041693 0.091132775 -0.017618563 -0.12549019 -0.035382528 -0.026088817 -0.18659474 -0.04561841
-0.0734792 -0.11304178 -0.091227286 -0.18070748 -0.27087554 -0.23015895 0.025307944 -0.12012966
-0.058503944 -0.203566 0.09372754 -0.29040563 -0.005791647 -0.00555748 -0.060478374 -0.10138566
-0.009404008 0.00264597 0.18658271 -0.094140925 -0.29698306 0.07084022 -0.10103136 -0.020545045

fc1.weight f4 [64, 64]
00000000: 95cb 9fbc 93dd f4bc 769e 82bb 90f2 4dbb
00000010: d6aa a43c 6e36 0b3c 00ac 25bd 4bc2 b2bc
00000020: 18b8 74bc a646 a9bd 6497 fbbc bbb2 24bd
00000030: 61b2 833d b848 f13d 6649 dd3c 8ae0 02bc
00000040: db22 e3bc 57d1 09bd 18c2 debb b3f7 a23b
00000050: 1cfc aebc 8044 1b3d 3970 82bc 80c4 6cbb
00000060: 3b5f 36bd 8b1b 41bc b8da e3bc acf5 50bd
00000070: d49b 0bbd ddf3 cd3b 90e0 74bc 02c8 04bd
00000080: b73b eebc 0677 e9bc 4aba 873c 2b24 393d
00000090: 933d 0f3c af37 12bd fbe3 06bc 201f ddbb
000000a0: 4da2 28bb 8cad 9cbd 3620 3f3c 1036 cabb
000000b0: 3587 553d 3153 cbba 5fea d2bc 15d0 fdbc
000000c0: d33c eebc e1af c9bc 0172 433b 5795 6dba
000000d0: 56d5 f1bb aa45 543b b2ac 273c ffc4 22bc
000000e0: 965e d83b fabf 80bc 79a6 82bc 3ffb 8dbc
000000f0: 276c 00bd b7aa 1c3d c496 f1bc 438d 1fbc
00000100: 8d28 b8be 0c8e f7be e08f 44bc 08a6 99bd
00000110: 617c 83be 99da a5bd 9002 92bd 36b8 7a3d
00000120: 1e3c 70be a956 8cbe 0cd3 dabe 0af3 05bf
00000130: 639b a73e 7354 353f 1dde 873d 8628 893d
00000140: 84ef 47be 739d 3fbe a9fa 813d d7bb 66be
00000150: aa17 70be 11d8 503e 8d1b 9bbd 4838 32bc
00000160: 2070 9ebe d874 50be 7c14 97be 4840 823e
00000170: 83f5 04be 28b0 24bd b1ec bfbd 16f8 58bd
00000180: 4fe2 5cbe b596 ebbc f8fe 5cbe 3c86 58be
00000190: 044b 7abe 8dc4 bdbe fd0a 983d 3522 353e
000001a0: 44fc b63d 182f 173e ce8e ca3d 7f6f 1a3e
000001b0: a15f 97bd 3306 ee3c 40b0 eabe 365f d6be
000001c0: 0119 89bd 09dc fabd f65f 6cbe 8a63 653e
000001d0: 2ade b3bb 5c90 0cbc e895 aabd d652 80be
000001e0: 53a5 e9bd 3c7a bbbd 6298 00bf 42cd 20bc
000001f0: f56b 873d 2772 cbbc c832 0cbe 92b5 8abe
00000200: a4c6 a3bd 2161 8abd 9cb2 f13a 8d52 41bc
00000210: d107 a2bd 4913 a3bb 439d 123d 8fd6 883d
00000220: de6a 98bd 4424 9cbd 0a4c ecbd 1b7c 19be
00000230: 05a1 b6bb aeee 13be 8c94 4abd a7e0 843c
00000240: f7b9 aebc 2baa 0cbe e372 09bc 5896 9fbc
00000250: 674b f9bc 2bd4 ccbd 7e25 8fbd efb7 53bc
00000260: 7734 f5bd 197d 80bd 499f 6b3d 36ee 95bd
00000270: 05e8 dabb 2b05 be3c 1f03 143c a35b d9bc
00000280: ef94 5f3c 2b0c 5abd b467 2ebc b3b8 d23c
00000290: 1769 86bc eca7 da3d 0398 a5ba 7b3b b13d
000002a0: b1e0 9abd dd28 b33a 037d 21bd ec62 aebc
000002b0: d276 90bb b9e6 ecbd 6880 303d ae48 19be
000002c0: ab48 24bd 0300 fa3d 370d a0bd 84e4 4abe
000002d0: 16aa fe3b 71ce 95ba 7dc2 5fbd f58c df3c
000002e0: f972 3cbc dca2 62bc f078 5ebe 2507 163d
000002f0: b3ac ce3d 7d13 88bd 8998 753d 6ea9 8dbd
00000300: 5201 af3d e047 8fbe 345b 07bc 5594 abbd
00000310: 80f4 123d 6aa2 dabe 718b 84bd 63c4 a5bd
00000320: d917 d23d 12d4 bebc 5f4a 6fbd 9bb4 09bf
00000330: 2b1b a7ba 34e7 623e 1f5a d2be 20ed 623d
00000340: 112d 4f3e a346 5a3e 109f 3e3e 2ee8 79be
00000350: 33ac b1bd 6c8f 4abe daf6 a53d 3663 f8bb
00000360: 3cc6 253d 08ac cbbd 669f 473e 7908 313e
00000370: 327e 22be 046e 5abe 8741 17be 3014 e8bd
00000380: 295e 253d 1688 5dbe 2f80 293e a78e 9bbe
00000390: 7410 0dbe 37b9 4bbe 500a f6ba c941 a0bc
000003a0: 1e8b 353e 8df7 6e3e e02f bb3d dc0f 073e
000003b0: 629c 6abd b941 20be 5b30 efbe aac6 06bf
000003c0: db1e 4dbd 87e4 a4bd 35e8 ed3d 5097 193f
000003d0: 299c 68ba 3fd6 cabb 706c b83d 767b acbc
000003e0: 55fd e8be 637f bfbd 0dc4 be3d 1d3a 723b
000003f0: 174f e33d 8269 56be f565 3cbe 7cdd 43bd
-0.019506255 -0.029890811 -0.003986175 -0.0031425096 0.020100992 0.008496864 -0.040447235 -0.021821162
-0.0149364695 -0.08265428 -0.030711837 -0.040209513 0.064305075 0.11781448 0.027012538 -0.007988105
-0.027726581 -0.033646908 -0.00679804 0.0049733757 -0.02136045 0.037907124 -0.015922653 -0.0036127865
-0.044524413 -0.011786352 -0.027814254 -0.05101554 -0.034084156 0.0062851743 -0.014946118 -0.032417305
-0.029081209 -0.028499138 0.016568322 0.045200508 0.008742708 -0.035697635 -0.008233066 -0.006748095
-0.0025731504 -0.07650289 0.0116653945 -0.0061709955 0.052130897 -0.0015512464 -0.025746522 -0.03098301
-0.029081738 -0.024619998 0.002982259 -0.0009063086 -0.007380168 0.0032390156 0.010234045 -0.009934663
0.0066030724 -0.015716542 -0.015948521 -0.017331718 -0.031353142 0.038248744 -0.029490836 -0.009738269
-0.35968438 -0.4835056 -0.011997193 -0.07502371 -0.2568083 -0.08098335 -0.07129395 0.061210833
-0.23460433 -0.27409866 -0.4273914 -0.52323973 0.32735738 0.70831984 0.066341616 0.06697182
-0.19524962 -0.18712406 0.06346638 -0.22532593 -0.23446527 0.20394923 -0.07573614 -0.010877676
-0.3094492 -0.20357072 -0.29507816 0.25439668 -0.1298428 -0.04020706 -0.09371317 -0.05297097
-0.21570705 -0.028758386 -0.21581638 -0.21144956 -0.24442679 -0.3706402 0.07423971 0.1768883
0.089348346 0.14764059 0.09890519 0.15081595 -0.07391287 0.02905569 -0.45837593 -0.41869515
-0.06694222 -0.122489996 -0.23083481 0.22401252 -0.0054891305 -0.00857934 -0.083293736 -0.250632
-0.11408486 -0.09154174 -0.5023252 -0.009814562 0.06612388 -0.024834706 -0.13691247 -0.27091652
-0.07996872 -0.06756807 0.001844007 -0.011799467 -0.07911647 -0.004976664 0.035794508 0.06681549
-0.07442258 -0.076241046 -0.11537941 -0.14988749 -0.0055733942 -0.14446518 -0.04945807 0.016220404
-0.02132891 -0.13736789 -0.008389208 -0.01948087 -0.030431462 -0.10001405 -0.06989573 -0.012922271
-0.119728975 -0.062738605 0.057524953 -0.07320826 -0.006680491 0.023195824 0.009033947 -0.026532954
0.013646348 -0.05323426 -0.010644842 0.025722837 -0.016407533 0.1067656 -0.0012633804 0.08653923
-0.07562388 0.0013668794 -0.03942586 -0.021287404 -0.0044086957 -0.11567444 0.043091208 -0.14969131
-0.040108364 0.122070335 -0.078150205 -0.19813734 0.0077717407 -0.0011429322 -0.054628838 0.027288893
-0.011502021 -0.013832774 -0.21725821 0.036627907 0.100915335 -0.06644342 0.059959922 -0.06917082
0.08545174 -0.27984524 -0.008261491 -0.083779015 0.035877705 -0.42702037 -0.06471909 -0.080940984
0.10258455 -0.023294482 -0.058420535 -0.5379121 -0.0012749186 0.2215851 -0.41084382 0.05540192
0.20232035 0.21316008 0.18615365 -0.24404976 -0.086754225 -0.19781274 0.08103724 -0.0075801862
0.040472254 -0.09944922 0.194944 0.17288388 -0.15868452 -0.2133103 -0.1477109 -0.113319755
0.040373 -0.21633944 0.16552804 -0.30382273 -0.13775808 -0.19894873 -0.0018771384 -0.019562619
0.1772885 0.2333662 0.09139991 0.13189644 -0.057278045 -0.15650071 -0.4671658 -0.5264689
-0.050078254 -0.08051401 0.116165556 0.5999651 -0.00088733673 -0.006190091 0.09005058 -0.021054965
-0.45505777 -0.09350469 0.093147375 0.0036960908 0.110990696 -0.20938686 -0.18398269 -0.047818646

fc1.bias f4 [64]
00000000: 77fc b63d 0db6 403e acc4 95bd 9b7d 44be
00000010: f206 16bc eb81 a83e b622 043e 3399 313f
00000020: 8814 023f 0391 14bd 0830 6abb 5f41 d6bd
00000030: 813c 90bc 9210 b7bd d3de 313e 8cd6 8fbe
00000040: f4ce ff3c 096b a1bd 8b8c 323e 237e e63e
00000050: 4f84 4aba 9995 153e 7983 fbbd de91 d1bb
00000060: fd7f aebb 21b0 8e3e 3f2b 093c 2a82 553d
00000070: 8f9a 17bd 1ead 2a3f 377c 063f be97 bf3e
00000080: 17b3 483e 9a80 7cbe 29bb fe3e f059 373d
00000090: ea86 1fbc 108f 41be 93f8 fd3e 2e1f 253f
000000a0: 5e92 393e 8474 353e 6408 6cbc a0b1 24bc
000000b0: 5077 4f3d 39bc 8a3d 2da6 613f 2b95 993e
000000c0: 0ca0 703d ded1 d03d 3635 cabd 06ad 2abc
000000d0: c959 21bc 6ac6 0fbe 3086 6b3f 9fab 0dbc
000000e0: 1449 76bc a876 f2bb cb4f 27be 1dda c13d
000000f0: cf18 0abd 6db0 803e 9fe7 03bc 1346 6f3e
0.089348726 0.18819447 -0.07312903 -0.1918854 -0.009156929 0.3291162 0.12903866 0.6937439
0.5081258 -0.036271106 -0.0035734195 -0.10461687 -0.017606976 -0.089387074 0.17370157 -0.28093374
0.031226613 -0.078817435 0.17436425 0.4501811 -0.0007725404 0.14607848 -0.12280936 -0.0063955626
-0.005325316 0.2786875 0.008372127 0.052126087 -0.037012633 0.66670406 0.52533287 0.37420458
0.19599567 -0.24658433 0.49752167 0.044763505 -0.009736756 -0.1890223 0.4960371 0.645007
0.18122241 0.17720228 -0.014406297 -0.010052115 0.050650895 0.06774182 0.8814419 0.2999662
0.058746383 0.10196279 -0.098734304 -0.010417229 -0.009848067 -0.14040533 0.9200163 -0.008646875
-0.015032072 -0.007399399 -0.16339032 0.0946543 -0.033715066 0.25134602 -0.008050828 0.23366575

fc2.weight f4 [32, 64]
00000000: b3a0 40bd 80d8 113e 654a 883c b0ac ac3e
00000010: c4da 2dbc 023f dbbd 2b42 d2bd bd6f b23c
00000020: 089d 36be e621 ea3a e951 0eba e7d4 fbbd
00000030: 9e71 5c3c 81bc 563d 2b47 cfbb 440d 52be
00000040: cc11 d5bd abf9 1abe 3c0c 91be b34d cdbd
00000050: 2dd8 28bb 6844 eabd 5d0e cfbe 1372 0abc
00000060: 4aa4 12bb 4c0a 10be b063 82bc ac7e c73d
00000070: 9805 54bc 930f 96bc 1905 cebe b3e3 693d
00000080: 51e7 3abe 951f 1ebe afac 62be ab71 1fbd
00000090: c9ef 85bb 5180 aabd ab26 67be e0e1 81be
000000a0: 277d 04be 278a 2ebe 7bdc ccba 2df3 a33b
000000b0: 725f 763b 6657 9abe 64ad 043e 2e2a 9cbe
000000c0: b848 c9be e4ed 97be 0fe2 c63d 1004 63bb
000000d0: fbda 95bb 098f 56be 96b8 dcbd 22c4 e2bb
000000e0: 08e6 833a 3de4 3bbb 804e 89be ec89 a7bb
000000f0: 137c 90bd 172f e63d 186a a0bb 0ff8 7e3c
00000100: ac58 8fbd 495d 86be 4082 44be 5598 1e3e
00000110: cad7 cf39 39a5 233e 4c05 d43d fdc8 5a3e
00000120: 48a7 703d 4048 b7bc 1a99 df3b 1a08 11be
00000130: 0a36 dfbb fe76 5ebe 7b8e 42bd 8ebc 97bd
00000140: 6741 1bbe fa50 4dbe 521b a63c 4850 433e
00000150: 5a6f 2dbc 7fa3 2fbe f3d0 e3bd 27e4 8bbb
00000160: 0d3b eaba 65d7 5ebe d7e1 92bc 284f 57be
00000170: 83e8 f8bc f56f 1dbe ad7a dcbd 7cc5 35be
00000180: 9b8c 2ebe 0df2 2bbe b2c2 863e 40c3 923d
00000190: 98b1 f9bb bc88 8abe 9a08 e43d fbbb 03be
000001a0: 4a24 ae3d ae6d d33d 8d66 9e38 ece8 abbb
000001b0: 3b81 b8bd aedb 00bc 7097 95be 2aa4 0bbf
000001c0: a1b6 e4bd f770 8dbe 8aff 7abd 0637 06bc
000001d0: 3a02 093a ac43 95bd 38fd babd d423 b73b
000001e0: d46f 4abd 516d 5f3b 42f4 69be 63b4 86bd
000001f0: fcef debd 8069 13be 141b ac39 8a60 2b3d
00000200: b06b b13b b4fa 83bc b16a 10bc 0ce1 babc
00000210: fb0f dbbb 143e 2fbc 0061 4d3b 6765 4dbc
00000220: c881 fcbb d5c0 b43b 8136 efbb f202 84bb
00000230: e9eb 01bb 61ea bfba 2496 af3b 1d14 40bc
00000240: 9565 d2bb 895e 10bc e0ab 8ebc dc61 b738
00000250: ad90 84bb dbae 2abc 18c7 d8bb 7862 663b
00000260: 12c4 21ba 4d92 aabb c063 ebba 6aa2 22bc
00000270: 56dc 69bb 472e 7fbb c2b7 e43b 3688 4abc
00000280: 5489 40bc 0f6e c5bb 9bbe 85bb 36c5 eb3b
00000290: ad56 f6bb 6c05 06bc c44a 1d3c ca4f 05bc
000002a0: 6fce 9fbb dcae 7639 ad62 bdbb 6374 de3b
000002b0: a949 d4bb cabe 7abb d5d9 81bc 0eb2 9dbc
000002c0: 0151 9bbc 98e8 f138 b81e 49ba 27b5 863a
000002d0: ac64 833b b561 00bc 5ea3 3a3a 93b6 4c3b
000002e0: 2420 833b 9264 b33b e023 fab9 f997 6c3b
000002f0: 11fe 3ebb b0ec b53c c0f2 cbbb 3a06 bbbb
00000300: ace9 5fbd ac08 53be 44a6 9ebd 6d00 153e
00000310: 3b71 703b addd a83d 4b06 1d3d ee64 62be
00000320: 0e51 dfbe 77ae 36bc 4a77 d33b 2a39 b2bd
00000330: 888a 14bc f90c 6abe 98d6 38be 474e d53c
00000340: 1137 1cbd bdcb f2bd 53c2 a03c b25d 193d
00000350: 3c1d cbbb 3a91 10be c879 54be fae7 a6b9
00000360: 0b9c ee39 c478 1fbd ff41 cebb 55a0 863a
00000370: 20a6 90bb 963c dfbd aa94 00bd 59a1 e7be
00000380: 1c9c 67be 2ffd b53c 9ba3 0fbe cb77 76bc
00000390: 16a9 ee3b 5acb 9dbe 395b f1bd bbfc cebe
000003a0: ae24 cc3c 4403 5c3e e984 ccbb 6887 95bb
000003b0: 7c04 1e3e 09f6 c6be cb20 e2be 7425 aabe
000003c0: d9e4 dfbd f1e0 ffbd f36d 0cbd 7ac0 10bc
000003d0: 8523 333b 92a8 2abe 1a40 d9bc fa32 a23b
000003e0: 4579 01bd 8192 2bbb 854a b7bc 1bde 33bd
000003f0: 9544 4ebe 399f 2c3e caab 91ba 7216 0dbd
-0.047028255 0.14242744 0.016637037 0.337255 -0.01061124 -0.10705377 -0.10266527 0.021781797
-0.1783334 0.0017862886 -0.00054290757 -0.12296467 0.013454823 0.052425865 -0.0063256226 -0.20512873
-0.10403785 -0.15134303 -0.28329647 -0.100245856 -0.0025763616 -0.11438829 -0.40440646 -0.008450049
-0.0022375756 -0.14066428 -0.015916675 0.097409576 -0.012940787 -0.018317973 -0.40238264 0.057101917
-0.18252303 -0.15441735 -0.22136186 -0.03892676 -0.0040874225 -0.08325256 -0.22573344 -0.2536764
-0.12938367 -0.17044888 -0.0015629673 0.005003354 0.003759351 -0.30144805 0.12956768 -0.3050093
-0.39313293 -0.29673684 0.09711086 -0.0034639873 -0.0045732236 -0.20953001 -0.107773945 -0.0069203535
0.0010063061 -0.0028669976 -0.26817703 -0.005112877 -0.07054915 0.112394504 -0.00489546 0.015562071
-0.06999335 -0.26243046 -0.19190311 0.15487798 0.00039642892 0.15980996 0.10352573 0.21365733
0.05875328 -0.022373319 0.006823671 -0.14163247 -0.006811862 -0.2172508 -0.04749916 -0.07409011
-0.15161668 -0.20050421 0.0202767 0.19073594 -0.01058563 -0.17152213 -0.11123838 -0.0042691412
-0.0017870382 -0.21761854 -0.017929954 -0.2102629 -0.030384308 -0.1537474 -0.10765586 -0.17751116
-0.17045824 -0.16791554 0.26320416 0.07166147 -0.007620048 -0.27057445 0.11134453 -0.12864678
0.08503015 0.10323654 7.553129e-05 -0.0052462723 -0.09009024 -0.007864876 -0.292171 -0.5454737
-0.11167646 -0.27625248 -0.061278857 -0.00819183 0.0005226467 -0.07288298 -0.09130329 0.005588988
-0.049423054 0.0034092257 -0.22847083 -0.06577375 -0.10885617 -0.14395714 0.0003282657 0.041840114
0.0054144487 -0.016110756 -0.0088145 -0.022812389 -0.0066852546 -0.010695953 0.0031338334 -0.012536383
-0.007705901 0.0055161514 -0.0073001985 -0.0040286714 -0.0019824451 -0.0014641994 0.0053584743 -0.011723545
-0.006420801 -0.008811601 -0.01741594 8.744348e-05 -0.004045567 -0.010417665 -0.0066155307 0.0035153907
-0.00061708794 -0.0052054287 -0.0017958805 -0.009926418 -0.003568431 -0.0038937496 0.0069799135 -0.012361577
-0.011751492 -0.006025083 -0.00408156 0.0071951402 -0.007517657 -0.008180004 0.009600345 -0.008136699
-0.0048769037 0.00023525528 -0.0057795853 0.0067887767 -0.0064785075 -0.0038260692 -0.01585094 -0.019249942
-0.018959524 0.000115350995 -0.0007672119 0.0010277376 0.0040098038 -0.007835795 0.00071196805 0.0031236752
0.004001634 0.0054746354 -0.00047710445 0.0036101325 -0.0029143135 0.022207588 -0.0062240064 -0.0057075294
-0.054666206 -0.20608777 -0.077465564 0.14550944 0.0036688584 0.08245406 0.03833608 -0.22108814
-0.43616527 -0.011149994 0.0064534293 -0.087023094 -0.009066232 -0.22856511 -0.18050611 0.026038302
-0.038138453 -0.11855266 0.019623911 0.03744287 -0.0061985534 -0.141179 -0.20749581 -0.00031834823
0.00045511159 -0.03893353 -0.0062944884 0.0010271171 -0.004414335 -0.10900228 -0.031391777 -0.45240286
-0.22618145 0.022215454 -0.14027254 -0.015043209 0.00728334 -0.30819207 -0.117849775 -0.40427193
0.024919834 0.2148562 -0.00624143 -0.004563261 0.15431398 -0.38859585 -0.44165644 -0.332317
-0.10932321 -0.12494076 -0.034284543 -0.0088349525 0.0027334404 -0.16665867 -0.026519824 0.0049499245
-0.031609792 -0.0026179852 -0.0223744 -0.04391299 -0.2014335 0.16857614 -0.0011113819 -0.034445234

fc2.bias f4 [32]
00000000: 9633 3e3f 2638 503f 26e2 38bc 0f83 013f
00000010: 7acf 37bc 14b4 26bd ddca 01be 75f3 0fbc
00000020: 6f0b 4d3f be51 15bd fc72 ccbb b5f2 1bbc
00000030: 2006 cfbc 3a44 913e a46f c13c 4c91 bb3e
00000040: ba11 a43e f617 3a3e 5e87 c63e 7244 2f3f
00000050: 5cfe a2bc abd2 23ba a641 313d 9ffd 1f3f
00000060: ca15 2ebe afc9 c93d 0a4c 093f 2d35 2dbc
00000070: c421 bb3e 3db2 3d3e e8e7 dabc fa09 91bc
0.74297464 0.81335676 -0.011284387 0.50590605 -0.0112189 -0.04069908 -0.12675042 -0.008786072
0.8009557 -0.03645491 -0.006239293 -0.009518315 -0.025271475 0.28372365 0.023612805 0.3663429
0.32044774 0.18173203 0.38775152 0.68463814 -0.019896679 -0.00062493485 0.043275498 0.6249637
-0.170005 0.09852921 0.5363165 -0.01057176 0.365492 0.18525024 -0.02672191 -0.017704953

fc3.weight f4 [5, 32]
00000000: 364c 37bf 16df 70bf 55dc a3bb 39a0 d4be
00000010: b780 793b 2be2 a33d d713 9cbd 2337 c5b9
00000020: 3ac1 003e 639b 703c e0e7 0c3b 022e 04bc
00000030: 59a3 fb3c b573 dbbd 65ab df3c 81f2 f6be
00000040: edef 57be 8964 a1bc 1726 59bf ed38 82bd
00000050: 78f0 fb3d 0b20 6abb 1aeb 2e3f 7a56 e23d
00000060: 48e1 3abe 7aa6 36bd de90 d6bd e315 4d3b
00000070: f08d aebc 6f72 04bf 7ad6 343b 4919 ff3b
00000080: 74c1 6d3e 93c6 cf3e 5c91 683c f17f 1c3e
00000090: 9a16 d63b dfd1 993c 6f9e 073d 1f0d b63b
000000a0: 9b0c da3e b3b8 b43b f055 fe3c d139 eebb
000000b0: 32ff 1139 df36 aa3e d241 6a3d f835 0f3e
000000c0: 32db e93d 5e22 493e 6306 11bd 4f70 a03d
000000d0: 733b babd 3d7c 7ebb cbfc 5d3c ea37 0a3e
000000e0: 745f c33d 4fae e93d 3d93 c2be 1b2a 84bb
000000f0: 4882 1b3e 7478 f2bd f568 113b 3884 2abc
00000100: f46b 293e dd11 323e 02c9 6bbc 4818 59be
00000110: bb40 d13b 47d1 9bbd 2065 dfb9 071b e53b
00000120: 0d3e cbbe 0656 b5bc 6a42 be3b a400 75bb
00000130: a835 35bc bb58 4abc fbf7 87bd 3e57 5abd
00000140: c65a 15bd 4d8c 1c3d 3ebc ab3e 5bbf b93d
00000150: 1793 da3d 0bd1 d6ba 37d9 87bd 7b4e 913e
00000160: d707 b2bd bf82 83be 21f3 1c3f 8789 1c3b
00000170: 278e 70be cfd6 243e cf12 b0bc 7db1 8e3c
00000180: 2256 163f efb5 fb3c 740f 85ba 720f 983e
00000190: bc08 0fbb bcb6 ccbd 4a9c c2bb 50de d53b
000001a0: 586b df3e 1fa6 ecba e5ab 033b d812 a6bb
000001b0: 6863 f8b9 5c44 323e 6157 f83b e313 8e3e
000001c0: 5274 fa3e 694c f7bd 4608 803e 813b 22bf
000001d0: a60a 663d da3a 53bb 2c9f c8be f051 773d
000001e0: d83d 1e3d 57e6 173e d703 47be 4d04 953b
000001f0: 9533 52be 0c91 dd3d 2508 493c 6466 c439
00000200: 09a3 87be 1386 a43e 31a9 ffba e7eb 083e
00000210: c5d6 f1ba 4039 ba3d f1d1 383d fcbe db3b
00000220: 16e8 17bf 3552 a93b e1a9 ffbc 3df6 a9bb
00000230: 9974 c7bc 028a babe d307 13bb 5fb7 f43d
00000240: 99f2 b7be 3501 c0bd 80e6 953e 4864 083f
00000250: 631a 40be 787a f1bb 6302 5abe 941d 18bf
00000260: cf8a fa3d ff50 2b3d 21fa 9d3d b6c0 d2bb
00000270: 5a67 aa3e 4243 ba3e 1842 08bc b317 81ba
-0.71600664 -0.940904 -0.005000631 -0.4152849 0.0038071105 0.080021225 -0.07620972 -0.00037615848
0.1257371 0.014685485 0.0021500513 -0.00806761 0.030717539 -0.10715429 0.027303407 -0.4823189
-0.21087618 -0.01970126 -0.84823745 -0.06358514 0.12301725 -0.0035724666 0.68327487 0.1105165
-0.1825 -0.04459236 -0.1047685 0.0031293563 -0.021307915 -0.5173711 0.0027593658 0.0077849966
0.23218328 0.40581188 0.014194813 0.15283181 0.006533456 0.018776832 0.03311008 0.0055557634
0.42587742 0.005515182 0.031046838 -0.007270076 0.00013923345 0.33244988 0.057191677 0.13985431
0.11418761 0.19642016 -0.03540648 0.07833921 -0.0909337 -0.0038831376 0.01354904 0.13497892
0.095396906 0.114102 -0.3800296 -0.0040333397 0.15186417 -0.11839381 0.0022187803 -0.0104075
0.16545087 0.17389627 -0.014391186 -0.21200669 0.0063858903 -0.07608276 -0.00042609219 0.0069917473
-0.39695778 -0.022135746 0.005806257 -0.0037384415 -0.011060156 -0.012350257 -0.066390954 -0.053305857
-0.03646352 0.03821974 0.33542055 0.09069701 0.106725864 -0.0016389204 -0.06633227 0.28380188
-0.086929016 -0.2568569 0.61308485 0.0023885684 -0.23491727 0.16097568 -0.021493344 0.017418617
0.5872518 0.030726401 -0.00101517 0.29699284 -0.0021825274 -0.09995791 -0.0059390413 0.006526746
0.43636584 -0.0018054879 0.002009147 -0.0050681643 -0.0004737631 0.1740889 0.0075787758 0.27749547
0.4891687 -0.12075121 0.25006312 -0.63372046 0.0561625 -0.0032231123 -0.39183939 0.060380876
0.038633198 0.14833961 -0.19435059 0.004547632 -0.2052749 0.10818681 0.012270008 0.0003746032
-0.26491573 0.3213354 -0.0019505379 0.1337124 -0.0018450847 0.09092951 0.04512209 0.0067061167
-0.5933851 0.0051672705 -0.031208934 -0.0051868246 -0.02434759 -0.36433417 -0.0022435084 0.11949038
-0.35927275 -0.0937523 0.2927742 0.5327802 -0.18760066 -0.0073693357 -0.21289973 -0.5942013
0.12233507 0.04182529 0.07713724 -0.0064316643 0.33281976 0.3637944 -0.008316539 -0.0009848982

fc3.bias f4 [5]
00000000: 0d43 cd3e 39d3 8a3d b9dd 86be 8530 81be
00000010: 306c cc3c
0.40090218 0.06778569 -0.26341036 -0.2523233 0.024953932
