Assignment_1/1/Filters/Models/low/model-9.pth (torch_old, 288536 bytes, 12 tensors)

conv1.weight f4 [16, 3, 5, 5]
0.3771924 0.4785717 0.3733572 0.13869731 -0.057162173 0.46693134 0.4387112 0.18481
-0.15141492 -0.34630045 0.39000782 0.2370281 -0.08859469 -0.41025466 -0.5390089 0.19727366
-0.025128288 -0.30620807 -0.52392423 -0.54207104 0.02982723 -0.16542736 -0.3436313 -0.42476103
-0.3627814 0.14419983 0.3340155 0.3129231 0.15261751 0.017015796 0.24777113 0.31733823
0.15687343 -0.091151334 -0.23119307 0.20246108 0.13913074 -0.07156518 -0.31455588 -0.36685675
0.041227736 -0.09069406 -0.28154314 -0.40143946 -0.34097955 -0.10049088 -0.22270149 -0.31188858
-0.28220856 -0.15777573 0.028645791 0.19921966 0.21889399 0.12701435 0.070525624 0.16962259
0.25678557 0.18567249 0.041085906 -0.031969592 0.20617262 0.20485067 0.09113817 -0.03309447
-0.039925594 0.12972294 0.075594105 -0.0027396362 -0.025608636 0.057394575 0.029089602 -0.0060891616
0.0073289317 0.09949973 0.2378558 -0.028609063 -0.20175704 -0.24389528 -0.095726244 0.16999815
0.07435644 -0.1280419 -0.25858095 -0.2207221 -0.041302506 0.1466114 0.003334073 -0.15177408
-0.22094546 -0.18618064 0.09296386 0.06894448 -0.04899435 -0.19340008 -0.26993385 -0.073701665
0.0277982 -0.028983716 -0.19385402 -0.33081195 -0.13528292 -0.36077133 -0.43901703 -0.31098872
-0.053844634 0.05966065 -0.19916408 -0.3802051 -0.38271183 -0.2146899 0.22609054 0.032773945
-0.1779075 -0.29595566 -0.28210124 0.26664636 0.20156136 0.044514053 -0.1462268 -0.24457987
0.19031334 0.24753417 0.15878408 -0.038742017 -0.19654842 -0.02367379 -0.21920872 -0.2690271
-0.11976095 0.1268739 0.1935565 -0.026123233 -0.17276962 -0.1499762 0.0022924426 0.37482318
0.22458313 0.07233809 -0.013256196 -0.007646866 0.42918506 0.41673103 0.31778324 0.17711316
0.07692753 0.37259644 0.47922847 0.46139547 0.3215267 0.17602117 0.43731743 0.51771075
0.5294044 0.47810546 0.38373047 0.37809524 0.48535097 0.50659096 0.4454393 0.34912845
0.24326998 0.32930043 0.3476367 0.29404813 0.21559414 0.07702079 0.12075818 0.10832905
0.07942692 0.03688065 -0.09305627 -0.09560186 -0.121983565 -0.13706698 -0.13764925 -0.15362184
-0.18853791 -0.19388701 -0.1637812 -0.099096395 -0.23523358 -0.26132822 -0.25799215 -0.23150226
-0.16268925 -0.19396643 -0.20694998 -0.22598784 -0.2080174 -0.15554751 -0.07335966 -0.105360806
-0.13186413 -0.13213597 -0.08156027 0.035986062 -0.0049565267 -0.043165013 -0.045056857 -0.004454675
-0.18739888 -0.2900369 -0.33621085 -0.30855554 -0.19370109 -0.17481484 -0.27027285 -0.3077376
-0.28196272 -0.17248994 -0.0042500375 -0.06906171 -0.106556766 -0.09010741 0.0007882162 0.26167503
0.21421252 0.18709166 0.1947294 0.259645 0.49964884 0.45006877 0.4215117 0.43182832
0.47651654 -0.2262753 -0.19075437 -0.19767208 -0.160606 -0.043258432 -0.17132682 -0.12558557
-0.1222057 -0.069169186 0.05888124 -0.024477616 0.01718427 0.031706907 0.088362515 0.22149847
0.116708174 0.14706947 0.17098875 0.21156828 0.31072178 0.19834372 0.2309103 0.24206811
0.2626394 0.3152822 -0.21931104 -0.17997128 -0.18152347 -0.13625155 -0.020340504 -0.2049727
00000000: 5d1f c13e 5a07 f53e ad28 bf3e ab06 0e3e
00000010: e222 6abd a011 ef3e c19e e03e d53e 3d3e
00000020: 830c 1bbe 4b4e b1be 1baf c73e 7fb7 723e
00000030: 2271 b5bd e60c d2be 7dfc 09bf 1b02 4a3e
00000040: d7d9 cdbc 4ec7 9cbe e61f 06bf 2bc5 0abf
00000050: 3c58 f43c ca65 29be 71f0 afbe 477a d9be
00000060: 7cbe b9be 1fa9 133e 1404 ab3e 7537 a03e
00000070: c447 1c3e b664 8b3c b7b7 7d3e 287a a23e
00000080: 6ea3 203e 8dad babd e0bd 6cbe f551 4f3e
00000090: 4a78 0e3e c490 92bd 780d a1be a6d4 bbbe
000000a0: 6ade 283d cfbd b9bd 6c26 90be 7989 cdbe
000000b0: df94 aebe 2ace cdbd dc0b 64be dcaf 9fbe
000000c0: a47d 90be f68f 21be 94aa ea3c 3d00 4c3e
000000d0: bf25 603e 0d10 023e bd6f 903d 8bb1 2d3e
000000e0: 6679 833e ee20 3e3e b249 283d 8cf2 02bd
000000f0: ea1e 533e 60c4 513e a6a6 ba3d 118e 07bd
00000100: 0589 23bd 17d6 043e 15d1 9a3d 788b 33bb
00000110: 34c9 d1bc 9316 6b3d 514d ee3c 9787 c7bb
00000120: 8927 f03b 84c6 cb3d 7990 733e 8e5d eabc
00000130: 6699 4ebe afbf 79be 1f0c c4bd ff13 2e3e
00000140: 3048 983d 6a1d 03be b964 84be f904 62be
00000150: d12c 29bd 4d21 163e 7680 5a3b aa6a 1bbe
00000160: 873f 62be 23a6 3ebe d663 be3d c332 8d3d
00000170: 4dae 48bd ac0a 46be c534 8abe e6f0 96bd
00000180: 0db9 e33c 426f edbc ab81 46be 2f60 a9be
00000190: 9b87 0abe 05b7 b8be d7c6 e0be ea39 9fbe
000001a0: 318c 5cbd ba5e 743d abf1 4bbe 3eaa c2be
000001b0: cef2 c3be abd7 5bbe 4784 673e f93d 063d
000001c0: 622d 36be 8087 97be 936f 90be df85 883e
000001d0: 1a66 4e3e 5e54 363d 7abc 15be 2573 7abe
000001e0: 80e1 423e 9979 7d3e 4b98 223e f3af 1ebd
000001f0: fd43 49be 89ef c1bc 4078 60be ecbd 89be
00000200: 3b45 f5bd 3beb 013e ad33 463e 6400 d6bc
00000210: 85ea 30be 5c93 19be ce3c 163b d3e8 bf3e
00000220: 1ff9 653e fe25 943d 8430 59bc 9092 fabb
00000230: 25be db3e c55d d53e 7cb4 a23e 275d 353e
00000240: 2e8c 9d3d f6c4 be3e 6f5d f53e 073c ec3e
00000250: 269f a43e e53e 343e 12e8 df3e b188 043f
00000260: 0c87 073f 3dca f43e 5278 c43e b395 c13e
00000270: ec7f f83e f2af 013f 9f10 e43e f7c0 b23e
00000280: c41b 793e 119a a83e 70fd b13e 7a8d 963e
00000290: b6c4 5c3e 13bd 9d3d 1150 f73d 9fdb dd3d
000002a0: 95aa a23d 2a10 173d 4994 bebd e8ca c3bd
000002b0: 85d2 f9bd 495b 0cbe edf3 0cbe 0b4f 1dbe
000002c0: 1510 41be 518a 46be 42b6 27be 0df3 cabd
000002d0: 12e1 70be d0cc 85be 8c17 84be ee0e 6dbe
000002e0: 0398 26be 239f 46be b2ea 53be 5b69 67be
000002f0: 8302 55be d947 1fbe 973d 96bd 68c7 d7bd
00000300: 6407 07be a74e 07be 1209 a7bd 1f66 133d
00000310: 5c6a a2bb cccd 30bd 8a8d 38bd 86f8 91bb
00000320: 7ee5 3fbe b77f 94be d423 acbe fefa 9dbe
00000330: 9459 46be a902 33be 3461 8abe c88f 9dbe
00000340: 6b5d 90be 34a1 30be e643 8bbb 3a70 8dbd
00000350: 6f3a dabd 3c8a b8bd 4ba0 4e3a 45fa 853e
00000360: 875a 5b3e f594 3f3e 2567 473e 30f0 843e
00000370: f9d1 ff3e 6a6f e63e 62d0 d73e 9a18 dd3e
00000380: faf9 f33e b6b4 67be 1d55 43be 8d6a 4abe
00000390: e675 24be c12f 31bd 4c70 2fbe 8199 00be
000003a0: fb46 fabd 93a8 8dbd 752d 713d 4885 c8bc
000003b0: 07c6 8c3c 1adf 013d 68f7 b43d 7fd0 623e
000003c0: b204 ef3d 6199 163e ad17 2f3e 5ba5 583e
000003d0: ed16 9f3e 9e1a 4b3e c073 6c3e b4e0 773e
000003e0: ac78 863e ab6c a13e 1393 60be 644a 38be
000003f0: 4ae1 39be 8785 0bbe 21a1 a6bc 5de4 51be

conv1.bias f4 [16]
-1.4010088 -1.2716174 -1.4614259 -0.7400485 -0.97486204 -1.6138974 -1.0366756 -0.7603628
-0.7563046 -0.89454997 -0.82243675 -0.9668713 -1.3135332 -0.7493359 -0.72652876 -0.8645233
00000000: 4254 b3bf 5cc4 a2bf 0110 bbbf d273 3dbf
00000010: 8f90 79bf 3194 cebf c9b1 84bf 23a7 42bf
00000020: 2e9d 41bf 3a01 65bf 378b 52bf e184 77bf
00000030: db21 a8bf 7ad4 3fbf cafd 39bf 6651 5dbf

conv2.weight f4 [32, 16, 5, 5]
-0.23556893 -0.1572303 -0.15348117 -0.16038924 -0.11876193 -0.18503842 -0.14646333 -0.1819136
-0.1818902 -0.1013317 -0.11269803 -0.09531844 -0.14112066 -0.19741033 -0.16841479 -0.08488102
-0.05687412 -0.058950428 -0.120717466 -0.20023142 -0.09474105 -0.072931096 -0.05337964 -0.09965212
-0.10355238 -0.032791905 -0.018789573 -0.021951407 -0.042908873 0.08505928 -0.022059627 -0.03660424
0.059502993 0.01973602 -0.06160738 -0.07391509 -0.07798492 -0.045008965 0.13255098 0.07136839
-0.07850941 -0.014977585 -0.08402408 0.008536462 0.21828996 -0.14320898 0.008138171 0.056584522
-0.028052915 0.11463901 0.013864376 -0.0040376177 -0.014175583 -0.024054656 -0.007311347 -0.0018002816
0.0056605265 -0.0033296796 -0.013107203 -0.003257551 -0.02326755 -0.011922832 -0.0021318088 -0.0041081053
0.009075204 -0.024275133 -0.008718256 -0.004346043 -0.002059536 0.0058361087 0.013185116 0.020589963
0.014969718 0.020724317 0.031951774 -0.11667306 -0.119635284 -0.075975776 -0.03813494 -0.01457051
-0.07150024 -0.06530379 -0.10026869 -0.09585416 -0.04859183 -0.09723308 -0.097879454 -0.11732359
-0.14435746 -0.10172178 -0.08773554 -0.089444734 -0.078237444 -0.10813826 -0.10692104 -0.016403602
-0.019152466 -0.04167564 -0.06133805 -0.073571615 0.12129354 0.23168251 0.41844857 0.07911493
-0.68611574 -0.12990727 -0.21192189 0.18676749 0.6575913 0.41629854 -0.12546936 -0.15310214
-0.4347587 -0.017040834 0.62545544 -0.13521552 -0.0465289 -0.098901585 -0.58269334 -0.24829547
-0.212663 -0.14226836 0.02447094 -0.19353792 -0.6180875 -0.014338121 0.061775796 0.15119018
0.053552385 -0.11053863 -0.17517886 -0.18214944 -0.14981787 0.16450389 0.3374306 -0.07754704
-0.05400013 -0.14444613 -0.24314295 0.17732485 -0.044033643 0.035469644 0.020244911 -0.12919018
-0.2615834 -0.03834893 -0.022314353 -0.008422636 -0.050722737 -0.20323023 -0.15317936 0.111194916
0.12136393 -0.031320173 0.20851517 -0.08907778 0.027556518 0.16985829 -0.074336946 -0.12462347
-0.034617256 -0.07817449 0.090720944 0.18224943 -0.10678137 -0.08029221 -0.031749815 -0.118027106
0.10590614 0.27438775 -0.20448439 0.07733974 -0.07647432 -0.12404453 0.24795823 -0.031117802
-0.017191416 0.027889244 0.037587065 -0.03028269 -0.045388196 -0.06324749 -0.10458089 -0.015553428
0.08073494 -0.023511138 -0.013165921 -0.033203557 -0.12543032 -0.026965989 0.012676744 0.027047332
0.019459262 -0.02789141 -0.09197037 0.021513013 0.026390264 0.03846448 0.011609605 -0.055692717
-0.009139494 -0.042112865 -0.029943898 -0.002678761 -0.06900914 -0.0024662951 -0.025232354 -0.071957484
-0.04878432 -0.028357478 0.0117501905 0.009618199 -0.02225384 -0.1116394 -0.08972197 0.018520582
0.03290859 0.0072077843 -0.04480821 -0.10915519 0.008781392 0.008818511 0.009622654 -0.014076512
-0.0521228 -0.087154284 -0.055269226 0.06188225 -0.20608026 -0.33581728 -0.025219971 -0.097886175
0.13265607 0.2643296 -0.078493655 0.014358991 0.028284298 -0.10340833 0.15442309 0.2946194
0.0569688 0.112280175 0.018496662 -0.1629159 0.045312807 0.029105918 0.051836014 0.11074454
-0.008021409 -0.15113229 -0.12270442 -0.06808739 -0.003111844 0.028983034 0.1914924 -0.042401712
00000000: fb38 71be fb00 21be 2b2a 1dbe 143d 24be
00000010: 7439 f3bd b67a 3dbe 7cfa 15be 8f47 3abe
00000020: 6d41 3abe ff86 cfbd 3ace e6bd 5036 c3bd
00000030: ef81 10be ef25 4abe ed74 2cbe 1ad6 adbd
00000040: d6f4 68bd 0176 71bd b83a f7bd 7709 4dbe
00000050: 9807 c2bd e65c 95bd 9ca4 5abd 6916 ccbd
00000060: 4513 d4bd ce50 06bd 97ec 99bc 70d3 b3bc
00000070: 37c1 2fbd 8f33 ae3d 64b6 b4bc 54ee 15bd
00000080: 69b9 733d 6fad a13c 0558 7cbd cb60 97bd
00000090: 8fb6 9fbd 525b 38bd 72bb 073e 9729 923d
000000a0: 8bc9 a0bd 8b64 75bc d114 acbd 84dc 0b3c
000000b0: 6787 5f3e 60a5 12be f755 053c 2cc5 673d
000000c0: 3acf e5bc dbc7 ea3d 6827 633c fe4d 84bb
000000d0: b440 68bc 450e c5bc 0694 efbb 6df7 ebba
000000e0: f07b b93b c136 5abb 98bf 56bc a37c 55bb
000000f0: 979b bebc fb57 43bc d1b5 0bbb 499d 86bb
00000100: 2ab0 143c a5dc c6bc 04d7 0ebc 4069 8ebb
00000110: 48f9 06bb d43c bf3b 6306 583c 48ac a83c
00000120: 8c43 753c 0bc6 a93c dddf 023d 49f2 eebd
00000130: 5803 f5bd 3099 9bbd 6233 1cbd 26b9 6ebc
00000140: b86e 92bd febd 85bd ac59 cdbd 304f c4bd
00000150: 3a08 47bd 2322 c7bd 0675 c8bd 5a47 f0bd
00000160: 71d2 13be 8253 d0bd b1ae b3bd cd2e b7bd
00000170: f43a a0bd 9877 ddbd 6bf9 dabd d960 86bc
00000180: a2e5 9cbc 13b4 2abd 9b3d 7bbd b7ac 96bd
00000190: bf68 f83d 2e3e 6d3e e43e d63e 0207 a23d
000001a0: 48a5 2fbf 6906 05be 0d02 59be fa3f 3f3e
000001b0: e757 283f 1525 d53e 0a7b 00be cfc6 1cbe
000001c0: b198 debe 3899 8bbc d91d 203f f075 0abe
000001d0: 1695 3ebd ea8c cabd 642b 15bf 2b41 7ebe
000001e0: 54c4 59be ccae 11be 4877 c83c ce2e 46be
000001f0: fb3a 1ebf 70ea 6abc 9e08 7d3d 99d1 1a3e
00000200: bf59 5b3d 1462 e2bd 1662 33be 6285 3abe
00000210: db69 19be b573 283e b4c3 ac3e fcd0 9ebd
00000220: 3e2f 5dbd b0e9 13be 77fa 78be a594 353e
00000230: 9f5c 34bd 9e48 113d a8d8 a53c 6e4a 04be
00000240: 42ee 85be c513 1dbd 97cc b6bc 19ff 09bc
00000250: a5c2 4fbd 961b 50be 0ddb 1cbe 29ba e33d
00000260: a78d f83d 9549 00bd 0085 553e 696e b6bd
00000270: 35be e13c 55ef 2d3e f83d 98bd 973a ffbd
00000280: d3ca 0dbd f219 a0bd e7cb b93d 989f 3a3e
00000290: 31b0 dabd 3e70 a4bd 180c 02bd 32b8 f1bd
000002a0: 51e5 d83d 8d7c 8c3e 5b64 51be 4c64 9e3d
000002b0: 919e 9cbd 0f0b febd c3e8 7d3e c3ea febc
000002c0: 03d5 8cbc fc77 e43c e5f4 193d 6713 f8bc
000002d0: f9e8 39bd e687 81bd 812e d6bd ced3 7ebc
000002e0: 5c58 a53d 6e9a c0bc e0b5 57bc 7400 08bd
000002f0: ce70 00be c7e7 dcbc 1eb2 4f3c 5e92 dd3c
00000300: 0869 9f3c 877c e4bc f65a bcbd 0f3c b03c
00000310: 6530 d83c ee8c 1d3d 3636 3e3c 0c1e 64bd
00000320: d1bd 15bc 8a7e 2cbd e84c f5bc 278e 2fbb
00000330: aa54 8dbd 91a1 21bb 15b4 cebc 725e 93bd
00000340: 11d2 47bd f14d e8bc df83 403c a795 1d3c
00000350: af4d b6bc 33a3 e4bd 27c0 b7bd 7ab8 973c
00000360: 28cb 063d 472f ec3b d088 37bd c28c dfbd
00000370: d4df 0f3c 847b 103c 56a8 1d3c 2ca1 66bc
00000380: b87e 55bd f27d b2bd fc61 62bd 3e78 7d3d
00000390: b406 53be 3ef0 abbe 1d9a cebc 8c78 c8bd
000003a0: fed6 073e 3656 873e 48c1 a0bd f941 6b3c
000003b0: 79b4 e73c bfc7 d3bd 1621 1e3e 5bd8 963e
000003c0: 1e58 693d 26f3 e53d 5086 973c 6dd3 26be
000003d0: ec99 393d 896f ee3c 0052 543d 09ce e23d
000003e0: 3a6c 03bc 6cc2 1abe 744c fbbd 6771 8bbd
000003f0: 14f0 4bbb d46d ed3c 9516 443e 6bad 2dbd

conv2.bias f4 [32]
0.07353412 -0.0010727381 -0.14824809 -0.5740961 0.03326201 0.19175662 1.1240735 0.6573824
-0.061531156 0.145012 -0.2294646 0.0032057425 -0.7416803 0.08546618 -0.5598107 -0.5143201
0.3692924 0.15006363 0.9801612 0.12144817 0.1932249 -0.10319907 0.24763422 -0.28920022
-0.13827343 -0.31874675 0.98223054 0.027632058 0.039469283 0.052732367 -0.02921029 0.12050372
00000000: 0f99 963d 1e9b 8cba 59ce 17be f6f7 12bf
00000010: bf3d 083d d95b 443e a4e1 8f3f 374a 283f
00000020: 1808 7cbd 077e 143e c5f8 6abe 6f17 523b
00000030: c3de 3dbf e508 af3d c14f 0fbf 7baa 03bf
00000040: e513 bd3e 48aa 193e d8eb 7a3f d1b9 f83d
00000050: c0dc 453e 095a d3bd d393 7d3e 0d12 94be
00000060: 8d97 0dbe c632 a3be 7673 7b3f a05c e23c
00000070: 8baa 213d e5fd 573d 6b4a efbc a8ca f63d

conv3.weight f4 [64, 32, 5, 5]
-0.09276255 -0.12576345 -0.032910217 -0.122929014 -0.08783821 -0.069873236 -0.08858426 -0.05736337
0.14381695 0.017250188 0.0103872735 -0.02861512 0.0008703041 0.04919608 0.24100988 -0.0057643238
0.014482018 -0.028583124 -0.046632446 0.042289626 -0.012905151 0.036939874 -0.058115665 -0.049033646
0.032942325 -0.0008341703 -0.0005926306 -0.0013013737 -0.00013600115 0.00077092135 0.0010501374 -0.0014879716
-0.0007369882 0.00041032312 0.0008890097 -0.0008680228 -0.00060024083 0.00012328957 -0.0006883398 -0.0008506227
-0.0011243646 -0.00016588712 0.0011167257 0.00069393095 0.0011098972 -0.0010787982 0.0007824886 0.0012364772
0.0010440525 0.001518622 -0.029843956 -0.0371372 -0.064705595 -0.05071129 -0.07652542 -0.08110011
-0.0117092645 0.03489867 -0.0052914936 -0.095036484 0.06500119 0.024223097 -0.020501923 -0.05518655
-0.042967178 -0.025283918 -0.029842136 -0.028638324 -0.048385393 -0.06315806 0.14789708 0.018942785
0.0032746827 -0.006509981 -0.13092868 -0.022975057 -0.0699494 -0.00995976 0.12655865 -0.059582174
0.011642578 -0.028009789 -0.012485534 -0.05910115 -0.006084804 0.024412503 -0.10062978 -0.002345173
-0.0714984 0.035109866 -0.046931442 -0.020089358 -0.03529749 0.00086548587 -0.019739177 0.053798955
-0.015213116 -0.019792937 -0.009054186 -0.079681225 -0.0044045444 -0.073662445 -0.02974374 -0.043250374
-0.016738625 -0.044670682 -0.06297798 -0.069000825 -0.06402869 -0.020330016 -0.03545828 -0.042290345
-0.088063575 -0.07592444 -0.015596714 0.00371445 -0.037528664 -0.007832994 -0.024486499 -0.017038094
0.027997222 0.013217072 0.025118012 0.0042682164 0.017974565 -0.05915691 -0.014532406 -0.04150898
-0.03595299 -0.06256952 -0.034590036 0.02698472 0.08277294 0.033527635 -0.08281646 0.056089275
0.06544867 0.08578424 -0.0020727778 -0.039203186 0.015377966 -0.04423654 -0.0050408537 0.039684277
-0.01822291 -0.057163175 -0.05871739 0.005313141 0.05582559 -0.057922903 -0.026961599 -0.090848476
-0.10201501 -0.101971604 -0.0989854 -0.07601936 -0.07547954 -0.07103809 -0.071697816 -0.06921188
-0.038663086 -0.061689734 -0.06426401 -0.056928 -0.04441402 -0.024115253 -0.040984683 -0.05159658
-0.04898667 -0.07018443 0.017279822 0.0014976456 -0.04643232 -0.043878894 -0.033085678 -0.027039107
-0.021960044 -0.037356388 -0.013715295 0.0053624893 -0.05638977 -0.049579088 -0.03791045 -0.01924553
0.014065987 -0.028936168 -0.0313799 -0.023490174 -0.01048238 0.0036341425 -0.018387945 -0.018555358
-0.013138952 -0.013522671 -0.011328413 -0.013971967 -0.016574964 -0.015191285 -0.0010804377 0.006340365
0.1658691 0.0071549113 -0.044327274 -0.034507666 -0.00525159 -0.12898579 -0.11441693 -0.12809041
-0.0882755 -0.019259024 -0.05298692 -0.018188873 0.010474555 -0.0316108 -0.014682302 -0.0557032
-0.054213036 0.016952801 -0.017226335 -0.10533511 -0.03403107 -0.047031913 0.068454705 0.012665257
-0.09246135 -0.04541329 -0.046956524 0.009297603 0.055859 0.28185338 -0.05176183 -0.04490938
-0.015315167 0.00514269 0.09627806 -0.067045555 0.009521257 -0.048138876 -0.045055613 -0.007534876
-0.041230865 0.023014419 -0.0048984853 -0.015109624 0.021015903 -0.017682819 0.004098889 0.023087349
-0.019406782 0.037257742 -0.11528649 -0.056595977 -0.06378012 -0.027057767 0.038184505 -0.083247006
00000000: 4bfa bdbd 22c8 00be ddcc 06bd 35c2 fbbd
00000010: 85e4 b3bd b319 8fbd aa6b b5bd daf5 6abd
00000020: c044 133e 4450 8d3c 622f 2a3c 426a eabc
00000030: 1f25 643a d481 493d 4bcb 763e a7e2 bcbb
00000040: fc45 6d3c 2827 eabc aa01 3fbd e337 2d3d
00000050: 2070 53bc 444e 173d b10a 6ebd 81d7 48bd
00000060: 88ee 063d 39ac 5aba c45a 1bba db92 aaba
00000070: 889b 0eb9 a817 4a3a c4a4 893a 0b08 c3ba
00000080: 7132 41ba a320 d739 6e0c 693a 068c 63ba
00000090: 7b59 1dba 4b47 0139 b471 34ba 53fc 5eba
000000a0: 6a5f 93ba fcf1 2db9 195f 923a ebe8 353a
000000b0: f879 913a 7666 8dba ec1f 4d3a 4a11 a23a
000000c0: 97d8 883a 800c c73a 507b f4bc 2d1d 18bd
000000d0: 5e84 84bd a4b6 4fbd 5cb9 9cbd d117 a6bd
000000e0: 37d8 3fbc e8f1 0e3d 4464 adbb 7da2 c2bd
000000f0: 581f 853d 846f c63c a6f3 a7bc 4b0b 62bd
00000100: 5afe 2fbd 3820 cfbc 7f77 f4bc eb9a eabc
00000110: c32f 46bd 0359 81bd 5572 173e e62d 9b3c
00000120: 0f9c 563b ae51 d5bb 2b12 06be 3036 bcbc
00000130: a241 8fbd 432e 23bc 9798 013e 700c 74bd
00000140: 83c0 3e3c c974 e5bc 2090 4cbc 0c14 72bd
00000150: 0963 c7bb bbfc c73c fc16 cebd 79b1 19bb
00000160: c16d 92bd 5dcf 0f3d 2f3b 40bd 7092 a4bc
00000170: 1a94 10bd c6e1 623a 0eb4 a1bc 4b5c 5c3d
00000180: 6f40 79bc cc24 a2bc 0258 14bc e92f a3bd
00000190: ff53 90bb 56dc 96bd 25a9 f3bc 4e27 31bd
000001a0: 711f 89bc 9bf8 36bd 99fa 80bd 4e50 8dbd
000001b0: 7921 83bd 228b a6bc b43c 11bd a438 2dbd
000001c0: ad5a b4bd 467e 9bbd 5c89 7fbc 216e 733b
000001d0: a8b7 19bd f555 00bc e997 c8bc 7993 8bbc
000001e0: 6e5a e53c 6b8c 583c 4ac4 cd3c 65dc 8b3b
000001f0: 653f 933c 844e 72bd 5419 6ebc 5205 2abd
00000200: 7143 13bd 7324 80bd 48ae 0dbd 0f0f dd3c
00000210: dc84 a93d 4654 093d ad9b a9bd debd 653d
00000220: f409 863d a6af af3d 71d7 07bb 8593 20bd
00000230: ddf3 7b3c 6031 35bd bf2d a5bb fb8b 223d
00000240: 3648 95bc ef23 6abd a581 70bd db19 ae3b
00000250: 60a9 643d 9140 6dbd 92de dcbc c40e babd
00000260: 3fed d0bd 7dd6 d0bd dbb8 cabd 0ab0 9bbd
00000270: 0495 9abd 6b7c 91bd 4ed6 92bd f5be 8dbd
00000280: 2f5d 1ebd 60ae 7cbd d99c 83bd 562d 69bd
00000290: 7aeb 35bd 5a8d c5bc 8edf 27bd ef56 53bd
000002a0: 3fa6 48bd dbbc 8fbd 6a8e 8d3c a64c c43a
000002b0: d12f 3ebd 5bba 33bd d984 07bd 1e81 ddbc
000002c0: 8de5 b3bc 0303 19bd 1eb6 60bc d2b7 af3b
000002d0: f6f8 66bd 7113 4bbd fd47 1bbd cda8 9dbc
000002e0: 0775 663c 8b0b edbc 3688 00bd 776e c0bc
000002f0: 4abe 2bbc cb2a 6e3b 51a2 96bc 6801 98bc
00000300: c244 57bc 318e 5dbc cf9a 39bc adea 64bc
00000310: 38c8 87bc dee4 78bc 799d 8dba d6c2 cf3b
00000320: 97d9 293e bf73 ea3b 8490 35bd e957 0dbd
00000330: 8815 acbb da14 04be 6c53 eabd 222a 03be
00000340: c9c9 b4bd 1ac5 9dbc d008 59bd d500 95bc
00000350: 789d 2b3c 547a 01bd 0a8e 70bc 0a29 64bd
00000360: 7d0e 5ebd 9ae0 8a3c 3e1e 8dbc efb9 d7bd
00000370: 2a64 0bbd 89a4 40bd fb31 8c3d f081 4f3c
00000380: 605c bdbd 4903 3abd 7c55 40bd f954 183c
00000390: 68cc 643d 164f 903e 3604 54bd e6f2 37bd
000003a0: 77ec 7abc 0384 a83b 6e2d c53d 2e4f 89bd
000003b0: 0cff 1b3c 452d 45bd 3c8c 38bd 1fe7 f6bb
000003c0: b2e1 28bd bc88 bc3c 7983 a0bb 5b8e 77bc
000003d0: 8b29 ac3c 8fdb 90bc f94f 863b ae21 bd3c
000003e0: f9fa 9ebc 939b 183d 531b ecbd 2fd1 67bd
000003f0: 279f 82bd 40a8 ddbc 5b67 1c3d 687d aabd

conv3.bias f4 [64]
0.10133818 0.05184389 -0.0126673365 -0.023908054 -0.0033273338 -0.038426153 -0.13141178 -0.18972456
0.009103208 0.06691717 0.17899843 -0.11824503 -0.26934615 -0.6121912 -0.12539744 -0.013133065
0.019610794 0.15164603 0.0973362 -0.09209086 0.08293823 -0.17009108 0.0054501332 0.015421539
-0.20935409 0.033778388 -0.11895623 -0.2396993 -0.009602796 -0.017499622 -0.064798124 -0.20301215
-0.037038 0.10802748 -0.026871175 -0.13948373 -0.056079227 -0.038633116 -0.118981525 -0.021927489
-0.07485015 -0.13326856 -0.09593539 -0.1510189 -0.2934191 -0.26376286 0.08029143 -0.093266234
-0.04552663 -0.19443926 0.07714904 -0.2834834 -0.0039393054 -0.0056592403 -0.110413805 -0.079544924
-0.05164017 0.0005288209 0.15825722 -0.052865848 -0.25322834 -0.016305326 -0.072095186 -0.015886858
00000000: 648a cf3d 425a 543d a98a 4fbc d3da c3bc
00000010: 660f 5abb be64 1dbd cf90 06be 2847 42be
00000020: 9f25 153c df0b 893d 5d4b 373e 732a f2bd
00000030: bde7 89be 90b8 1cbf 3068 00be 112c 57bc
00000040: d1a6 a03c 1949 1b3e 3458 c73d 229a bcbd
00000050: 85db a93d 5b2c 2ebe 0897 b23b 9faa 7c3c
00000060: eb60 56be 355b 0a3d 539f f3bd bc73 75be
00000070: 0c55 1dbc 5e5b 8fbc e1b4 84bd 6be2 4fbe
00000080: 28b5 17bd 833d dd3d f020 dcbc d3d4 0ebe
00000090: 55b3 65bd c23d 1ebd 96ac f3bd 47a1 b3bc
000000a0: 094b 99bd 8e77 08be c679 c4bd b3a4 1abe
000000b0: 073b 96be ed0b 87be d56f a43d 5e02 bfbd
000000c0: 227a 3abd 161b 47be 5100 9e3d bc24 91be
000000d0: 4a15 81bb 2671 b9bb a220 e2bd 73e8 a2bd
000000e0: a584 53bd 92a0 0a3a 2e0e 223e dc89 58bd
000000f0: 25a7 81be bf92 85bc a4a6 93bd 2825 82bc

fc1.weight f4 [64, 64]
-0.109322764 -0.1001283 -0.006894479 0.008052544 -0.09442278 -0.07477929 -0.0430898 0.0028422745
-0.043621145 -0.16612242 -0.071927145 -0.13097838 0.16021678 0.16116881 0.075034074 -0.009324289
-0.11361214 -0.11829233 0.049371846 -0.05925023 -0.027913734 0.076650105 -0.044898782 -0.0026994736
-0.10100174 -0.033428073 -0.0513524 -0.021991482 0.004694233 -0.0052981745 -0.13936958 -0.08444925
0.038883954 -0.11188685 -0.009955123 0.1391343 0.01968568 0.07054663 -0.006012288 -0.060276683
-0.09657763 -0.026549518 0.07122672 0.040930185 -0.011686977 0.019638008 -0.02740478 -0.054768216
-0.021934746 -0.05292963 -0.06662768 0.028191157 -0.005205833 -0.0010331336 0.0044696587 -0.0714675
-0.051025778 -0.02652422 -0.08850496 -0.029303238 -0.017241731 0.105087265 -0.059689187 -0.0067681074
-0.30210182 -0.5616079 -0.011386515 -0.06765044 -0.16917066 -0.09267699 0.035030857 -0.02321621
-0.23077413 -0.0087766675 -0.16670887 -0.4907801 0.20794204 0.523521 -0.048105564 0.039903853
-0.050045297 -0.10800102 -0.05304123 -0.23990883 -0.21625969 0.3197453 -0.056996994 -0.00785578
-0.18202978 -0.21859 -0.4024928 0.21297157 -0.11537448 -0.08486504 -0.20729907 -0.03061479
-0.18758053 -0.19625232 -0.16781718 -0.016525667 -0.3178644 -0.43776593 0.062359672 -0.10737238
-0.1515619 0.18833983 0.022616494 0.23760623 -0.15459014 0.064123675 -0.32854646 -0.2285261
-0.014478817 -0.16041887 -0.25302434 0.33606663 -0.004650306 -0.0026179645 0.16597408 -0.19485226
-0.20760246 -0.061316267 -0.41309258 -0.039918438 -0.06590123 -0.19400372 -0.17237407 -0.2685536
-0.06274295 -0.05628029 0.00089976285 -0.010665184 -0.07681735 -0.00043104938 0.005432038 0.01933559
-0.059919808 -0.06268954 -0.101819344 -0.10853862 -0.009646336 -0.10345872 -0.05737343 0.012693582
-0.013687552 -0.09905606 -0.04139935 -0.022199513 -0.022111803 -0.08086381 -0.0541194 -0.0095027825
-0.107090645 -0.045016643 0.0035824024 -0.05908479 -0.010081871 0.026230497 -0.037035234 -0.027236922
0.06149776 -0.04500041 -0.022257827 0.010895776 -0.034779746 0.12366242 0.0009178321 0.037559222
-0.06257292 -0.017611297 -0.032051373 -0.016585782 -0.04424115 -0.086921 0.04412516 -0.1043642
-0.027766604 0.012335186 -0.066675566 -0.15100902 0.005694529 0.000507695 -0.022780135 0.024420736
-0.0046129418 -0.0113281 -0.1633523 0.026542664 0.076250955 -0.057758488 0.030507116 -0.046537627
-0.008196093 -0.27274314 0.0067272186 -0.100965194 0.05855024 -0.30289346 -0.19242202 0.046932153
-0.023899086 0.1382806 -0.03772974 -0.58916974 0.25878122 0.20047581 -0.108738266 -0.007619525
0.24962538 0.5060763 0.23257543 -0.2456922 -0.011641723 -0.22719091 -0.038962677 -0.0073912293
-0.034593742 -0.11401865 0.09480119 0.25782183 -0.2512541 -0.247666 0.047502104 0.04753329
0.04766803 -0.18728359 0.14541644 -0.2258027 -0.2086026 -0.16415732 0.27618423 0.09752595
0.13719822 0.36897758 0.09114559 0.04345176 0.011319591 -0.07444761 -0.1168269 -0.3735018
-0.09243014 -0.18035153 0.13341814 0.38453695 -0.001306924 -0.003530557 0.12024586 0.10501702
-0.37340605 -0.091458425 0.045702953 -0.024607066 -0.016605446 -0.10400866 -0.20410538 -0.15949275
00000000: 9de4 dfbd 1110 cdbd 15eb e1bb d1ee 033c
00000010: bb60 c1bd e225 99bd ee7e 30bd 7445 3a3b
00000020: 16ac 32bd ff1b 2abe 8a4e 93bd 321f 06be
00000030: de0f 243e 7009 253e 77ab 993d e7c4 18bc
00000040: 7bad e8bd 4043 f2bd 223a 4a3d 5fb0 72bd
00000050: 58ab e4bc bbfa 9c3d c9e7 37bd a7e9 30bb
00000060: 00da cebd e0eb 08bd e556 52bd 7b27 b4bc
00000070: 15d2 993b 4f9c adbb e6b6 0ebe baf3 acbd
00000080: c844 1f3d ef24 e5bd d01a 23bc 3979 0e3e
00000090: dd43 a13c c07a 903d ba02 c5bb afe4 76bd
000000a0: 7eca c5bd 607e d9bc 51df 913d 69a6 273d
000000b0: bc7a 3fbc e3df a03c fd7f e0bc a354 60bd
000000c0: 7fb0 b3bc bdcc 58bd 1874 88bd 24f1 e63c
000000d0: b195 aabb 366a 87ba 3776 923b 8d5d 92bd
000000e0: 6800 51bd 5249 d9bc 1742 b5bd 580d f0bc
000000f0: 883e 8dbc fe37 d73d a67c 74bd 00c7 ddbb
00000100: 17ad 9abe 89c5 0fbf 818e 3abc 508c 8abd
00000110: 133b 2dbe 6fcd bdbd 847c 0f3d ec2f bebc
00000120: 0e50 6cbe 03cc 0fbc bbb5 2abe 8747 fbbe
00000130: c2ee 543e 7905 063f 570a 45bd 3972 233d
00000140: 4cfc 4cbd a42f ddbd c341 59bd a9aa 75be
00000150: 2e73 5dbe a8b5 a33e ae75 69bd 88b5 00bc
00000160: 0466 3abe 0fd6 5fbe 8913 cebe 3815 5a3e
00000170: 7549 ecbd b9cd adbd 3546 54be decb fabc
00000180: 1c15 40be 5ef6 48be 44d8 2bbe d660 87bc
00000190: 1fbf a2be db22 e0be db6c 7f3d 0de6 dbbd
000001a0: 0b33 1bbe 28dc 403e 3a46 b93c 0c4f 733e
000001b0: e14c 1ebe 4653 833d 3e37 a8be bf02 6abe
000001c0: 8f38 6dbc d844 24be 688c 81be ed10 ac3e
000001d0: 9861 98bb 2892 2bbb 1cf5 293e 5a87 47be
000001e0: bd95 54be c426 7bbd df80 d3be 8481 23bd
000001f0: 39f7 86bd e9a8 46be d482 30be dc7f 89be
00000200: 607f 80bd 2986 66bd 10de 6b3a 06bd 2ebc
00000210: 6a52 9dbd 78fe e1b9 3dff b13b ac65 9e3c
00000220: 796e 75bd 6063 80bd a986 d0bd 7f49 debd
00000230: aa0b 1ebc 2ae2 d3bd 6700 6bbd bef8 4f3c
00000240: c141 60bc e7dd cabd 5d92 29bd c1db b5bc
00000250: d023 b5bc ed9b a5bd 4eac 5dbd 8fb1 1bbc
00000260: 5752 dbbd 5f63 38bd bdc6 6a3b e502 72bd
00000270: 6f2e 25bc 57e1 d63c 42b2 17bd f71f dfbc
00000280: 13e5 7b3d 5a52 38bd 0c56 b6bc 3284 323c
00000290: 3575 0ebd b942 fd3d ab9a 703a b3d7 193d
000002a0: 3b26 80bd 9145 90bc 4d48 03bd e8de 87bc
000002b0: 3536 35bd a303 b2bd 95bc 343d e6bc d5bd
000002c0: ca76 e3bc 8519 4a3c 338d 88bd 1ca2 1abe
000002d0: 2c99 ba3b d616 053a 689d babc ff0d c83c
000002e0: 2928 97bb 7f99 39bc d345 27be 0070 d93c
000002f0: 7629 9c3d 2a94 6cbd 0fea f93c 3d9e 3ebd
00000300: e848 06bc fda4 8bbe 0070 dc3b d7c6 cebd
00000310: 60d2 6f3d da14 9bbe 470a 45be ee3b 403d
00000320: 04c8 c3bc 6e99 0d3e 808a 1abd d4d3 16bf
00000330: f97e 843e 8849 4d3e 2bb2 debd 35ad f9bb
00000340: cc9d 7f3e 378e 013f 4128 6e3e bc96 7bbe
00000350: edbc 3ebc bca4 68be 5497 1fbd 2032 f2bb
00000360: 2bb2 0dbd 9c82 e9bd 2027 c23d 3901 843e
00000370: 61a4 80be 289c 7dbe 9191 423d 44b2 423d
00000380: 8d3f 433d 45c7 3fbe 0ce8 143e d338 67be
00000390: ec9b 55be db18 28be 0568 8d3e afbb c73d
000003a0: b17d 0c3e a1ea bc3e 8aaa ba3d 79fa 313d
000003b0: ce75 393c fd77 98bd f142 efbd a13b bfbe
000003c0: 034c bdbd 12ae 38be c49e 083e 07e2 c43e
000003d0: 184d abba eb60 67bb 7643 f63d 2a13 d73d
000003e0: 142f bfbe 8e4e bbbd 0533 3b3d c294 c9bc
000003f0: 2508 88bc 7e02 d5bd 0001 51be 1152 23be

fc1.bias f4 [64]
0.03192724 0.33370328 -0.061430044 -0.17398581 -0.00751853 0.3620083 0.0775368 0.9752542
0.5553717 -0.039406564 -0.002328327 0.05845263 -0.013550983 -0.12991801 0.13960217 -0.20430364
0.04877385 -0.15859903 0.26386273 0.3777974 -0.014679852 0.17077404 -0.10545493 -0.0049274364
-0.0038554193 0.09019298 0.010922385 0.072863474 -0.026455326 0.9125834 0.21921068 0.39885837
0.2743494 -0.19852571 0.4783807 0.04306427 -0.01369572 0.021419441 0.45574296 0.43381482
0.29122236 0.19373341 -0.030549664 -0.007517882 0.023762768 0.15048979 0.61838204 0.08454267
0.111940905 0.12579314 -0.08066212 -0.007713428 -0.00740911 -0.09772166 0.66200686 -0.00645451
-0.08566315 -0.0059515988 -0.02474021 0.06723445 0.07036697 0.39554203 -0.00570479 0.32930183
00000000: 23c6 023d 28db aa3e 129e 7bbd 5629 32be
00000010: 005e f6bb 2759 b93e 9dcb 9e3d 42aa 793f
00000020: d72c 0e3f c768 21bd d896 18bb 066c 6f3d
00000030: f104 5ebc 3a09 05be dff3 0e3e f934 51be
00000040: 17c7 473d c967 22be 0419 873e a96e c13e
00000050: c383 70bc 64df 2e3e c1f8 d7bd 5576 a1bb
00000060: 34ab 7cbb 19b7 b83d cef3 323c 7239 953d
00000070: d7b8 d8bc 119f 693f c478 603e 2a37 cc3e
00000080: 8677 8c3e 534a 4bbe 51ee f43e 2964 303d
00000090: 0364 60bc d377 af3c 2457 e93e fa1c de3e
000000a0: 191b 953e 0d62 463e 4a43 fabc 9158 f6bb
000000b0: 23aa c23c ff19 1a3e 494e 1e3f b524 ad3d
000000c0: 4641 e53d ebcf 003e 2e32 a5bd edc0 fcbb
000000d0: 1fc8 f2bb 4b22 c8bd 4879 293f 5b80 d3bb
000000e0: 2970 afbd a105 c3bb fbab cabc 37b2 893d
000000f0: 8f1c 903d 7c84 ca3e 3fef babb 409a a83e

fc2.weight f4 [32, 64]
0.02530583 0.070799805 0.015387234 0.030061435 -0.0076166373 -0.063014336 -0.28658202 0.3340469
-0.11528567 0.01866597 -0.00026678783 -0.2988764 0.008438066 0.054174807 0.021214494 -0.21830507
-0.067646146 -0.18097946 -0.08203758 -0.087757364 0.0057502775 -0.107555345 -0.52462953 -0.006211417
-0.0013859275 -0.42027965 -0.012394574 -0.1890873 -0.010273855 -0.25953582 -0.27623987 0.057201374
-0.35390806 -0.2606916 -0.40278092 -0.10079704 0.004685659 0.08467744 -0.34906304 -0.23299669
-0.1638232 -0.10558503 -0.018029029 0.0026283446 0.0032743735 -0.29015213 0.064709246 -0.34914023
-0.28857297 -0.21616314 0.06372578 -0.0027985212 -0.0033241073 -0.18393028 0.11636642 -0.0054933606
-0.03437955 -0.0016308249 -0.23469007 0.058581904 -0.16943721 -0.024873214 -0.0041111535 0.016713075
-0.18221523 -0.26446578 -0.15098105 -0.19505782 -0.00033633312 -0.08365401 0.1788302 0.47759393
-0.02293255 -0.0693465 0.0047159195 -0.23067401 -0.005365909 -0.19964567 0.028071918 -0.050733738
-0.10853972 -0.22428444 -0.19040611 0.15742452 -0.06987312 -0.14185233 -0.052700985 -0.0043348446
-0.01243546 -0.17956659 -0.011951381 -0.44643217 -0.018721769 0.07560563 0.10725475 -0.15835898
-0.09032396 -0.21066757 0.22286774 0.010496499 -0.025433207 -0.23222901 0.18237396 -0.1044859
0.117682144 0.13222681 -0.11613392 -0.0039885365 -0.046951264 -0.23590481 -0.19442573 -0.21532135
-0.02570539 -0.19623539 -0.04487563 -0.005909146 0.00031630773 -0.4521134 0.045262653 0.0040618414
-0.19111472 0.002398462 -0.15488824 -0.06395218 -0.012551626 -0.27952766 -3.2277487e-05 0.10774329
0.004213799 -0.012439733 -0.006447866 -0.018489419 -0.004884392 -0.008566395 6.5254695e-05 -0.009512599
-0.005521934 0.0036968763 -0.0053401454 -0.0027651472 -0.0014501723 -0.0012160816 0.003919764 -0.00850994
-0.0046968586 -0.0053522876 -0.013340484 -0.0035717145 -0.002653686 -0.0076205945 -0.0050981995 0.0025715313
-0.000454009 -0.0040637143 -0.0013136982 -0.010165525 -0.002610333 -0.0029468262 0.006094027 -0.008867425
-0.008586239 -0.004320695 -0.0024157094 0.004881021 -0.0056567327 -0.005717852 0.0068534417 -0.0060018976
-0.0036543722 1.020839e-05 -0.0043554828 0.004962901 -0.004739072 -0.0028091937 -0.011595072 -0.014168987
-0.013869022 8.4380044e-05 -0.0005612214 0.0007527532 0.0029331993 -0.0054046367 0.00086206733 0.0022848938
0.0027755848 0.0040047346 -0.00034900528 0.0025936188 -0.002194078 0.011173752 -0.0045529054 -0.0041926643
-0.05204883 -0.19573115 -0.053311385 -0.13732249 0.002520226 0.20174073 0.10130833 -0.2214352
-0.23863065 -0.04368346 0.0047509465 -0.15541911 -0.0062192106 -0.17763622 -0.13703485 -0.065121874
-0.026814604 0.023662033 0.38046184 0.04069862 -0.04823084 -0.11430021 -0.20952946 -0.0031367142
-0.004661899 0.31262642 -0.004782263 0.21874122 -0.00305693 -0.16973731 0.023213113 -0.49893624
-0.008491388 -0.1143709 0.073148996 0.008338176 0.018226244 -0.2788864 0.10219853 -0.29286963
0.17969744 0.1221573 -0.0031472696 -0.0033757882 0.11193688 -0.48549175 -0.3301965 -0.33533925
-0.098836616 -0.11482919 -0.026128745 -0.006432129 0.0015676054 -0.032808997 -0.32297942 0.0036233063
0.2070282 -0.001730721 -0.036821585 -0.04894122 -0.11928943 0.13475911 -0.0013231483 -0.0070508625
00000000: 2c4e cf3c 7dff 903d bd1a 7c3c 6643 f63c
00000010: fc94 f9bb a90d 81bd e1ba 92be 3208 ab3e
00000020: e51a ecbd 60e9 983c a8df 8bb9 5406 99be
00000030: d03f 0a3c 67e6 5d3d 05ca ad3c 5d8b 5fbe
00000040: 108a 8abd ae52 39be 5203 a8bd 22ba b3bd
00000050: d36c bc3b fa45 dcbd 1f4e 06bf 2489 cbbb
00000060: 03a8 b5ba e52e d7be 9c12 4bbc 1aa0 41be
00000070: ac53 28bc e1e1 84be 506f 8dbe fd4b 6a3d
00000080: 7033 b5be 5f79 85be 4d39 cebe ae6e cebd
00000090: 288a 993b 5e6b ad3d 64b8 b2be af96 6ebe
000000a0: 45c1 27be f73c d8bd 9db1 93bc 4e40 2c3b
000000b0: df96 563b d28e 94be 4886 843d 82c2 b2be
000000c0: d6bf 93be df59 5dbe a982 823d 6567 37bb
000000d0: 44d9 59bb 3858 3cbe 8551 ee3d a601 b4bb
000000e0: 92d1 0cbd 67c1 d5ba 9852 70be 94f3 6f3d
000000f0: f380 2dbe e9c2 cbbc dbb6 86bb dce9 883c
00000100: a196 3abe 0f68 87be c79a 1abe 3dbd 47be
00000110: de55 b0b9 cb52 abbd 441f 373e 3187 f43e
00000120: 0bdd bbbc 8a05 8ebd 0088 9a3b cf35 6cbe
00000130: 82d4 afbb ea6f 4cbe 14f7 e53c 2ece 4fbd
00000140: 134a debd d2aa 65be d2f9 42be e533 213e
00000150: a319 8fbd bd41 11be fddc 57bd 500b 8ebb
00000160: 1abe 4bbc 4ee0 37be bacf 43bc c292 e4be
00000170: 655e 99bc 20d7 9a3d 61a8 db3d db28 22be
00000180: c5fb b8bd 3db9 57be 7137 643e 82f9 2b3c
00000190: 4d59 d0bc 71cd 6dbe 3dc0 3a3e b4fc d5bd
000001a0: 5603 f13d 7766 073e 9fd7 edbd 45b2 82bb
000001b0: f84f 40bd 0891 71be 8a17 47be 337d 5cbe
000001c0: 1c94 d2bc eef1 48be 82cf 37bd 82a1 c1bb
000001d0: 1bd6 a539 687b e7be 5565 393d 3219 853b
000001e0: 94b3 43be 842f 1d3b 069b 1ebe 5cf9 82bd
000001f0: 56a5 4dbc 401e 8fbe b061 07b8 84a8 dc3d
00000200: e813 8a3b 06d0 4bbc 9f48 d3bb 1f77 97bc
00000210: 400d a0bb 115a 0cbc 59d9 8838 bbda 1bbc
00000220: 57f1 b4bb 4b47 723b 63fc aebb 7937 35bb
00000230: b513 beba ed64 9fba 5d71 803b 466d 0bbc
00000240: 1be8 99bb 3e62 afbb 0c92 5abc 6d13 6abb
00000250: 77e9 2dbb 2eb6 f9bb cc0e a7bb 2387 283b
00000260: 0e08 eeb9 e828 85bb 6630 acba 4d8d 26bc
00000270: 1f12 2bbb 8a1f 41bb 67b0 c73b ad48 11bc
00000280: 4cad 0cbc 9e94 8dbb e150 1ebb f9f0 9f3b
00000290: 1d5c b9bb d25c bbbb d692 e03b 91ab c4bb
000002a0: 317e 6fbb b444 2b37 70b8 8ebb d59f a23b
000002b0: 384a 9bbb 731a 38bb 42f9 3dbc 0a25 68bc
000002c0: e53a 63bc 31f5 b038 ee1e 13ba 6a54 453a
000002d0: eb3a 403b 6119 b1bb 5cfc 613a 28be 153b
000002e0: 96e6 353b 263a 833b b2fa b6b9 b4f9 293b
000002f0: 85ca 0fbb 1d12 373c 8a30 95bb 9e62 89bb
00000300: 2731 55bd bf6d 48be 0a5d 5abd 449e 0cbe
00000310: 602a 253b 1f95 4e3e be7a cf3d e9bf 62be
00000320: 985b 74be 6eed 32bd d4ad 9b3b 3026 1fbe
00000330: 85ca cbbb 45e6 35be dd52 0cbe 9e5e 85bd
00000340: 4daa dbbc e1d6 c13c e5cb c23e 99b3 263d
00000350: b48d 45bd 3a16 eabd e48e 56be 5591 4dbb
00000360: d8c2 98bb 9210 a03e 88b4 9cbb b3fd 5f3e
00000370: c656 48bb 9ecf 2dbe 6d29 be3c 9274 ffbe
00000380: 761f 0bbc 4a3b eabd 24cf 953d d89c 083c
00000390: 344f 953c 33ca 8ebe 774d d13d 02f3 95be
000003a0: 9b02 383e 9b2d fa3d 6c42 4ebb 543c 5dbb
000003b0: 2a3f e53d 6092 f8be 840f a9be 96b1 abbe
000003c0: da6a cabd 912b ebbd f30b d6bc 9cc4 d2bb
000003d0: 1c78 cd3a ba62 06bd 8f5d a5be fe74 6d3b
000003e0: 33ff 533e 5cd9 e2ba 3bd2 16bd 9776 48bd
000003f0: 044e f4bd 4bfe 093e 7d6d adba ec0a e7bb

fc2.bias f4 [32]
0.73773897 0.62456703 -0.008513605 0.5924081 -0.00808465 -0.16676119 -0.09392693 -0.0065133893
0.6497223 -0.026667029 0.007685817 -0.0070184628 -0.01926091 0.41485745 0.033536527 0.52394575
0.4611974 0.19649823 0.69477403 0.42092904 -0.0144539345 -0.00045152695 -0.07936294 0.33320242
-0.124359824 -0.0063095293 0.59027374 -0.008485156 0.4360782 0.07194011 -0.020210782 -0.013162007
00000000: 76dc 3c3f a0e3 1f3f a67c 0bbc 0fa8 173f
00000010: 7b75 04bc 72c3 2abe c35c c0bd 456e d5bb
00000020: 3354 263f d074 dabc 4ed9 fb3b 22fb e5bb
00000030: 0ec9 9dbc 3268 d43e 995d 093d 4f21 063f
00000040: 1122 ec3e d536 493e b6dc 313f 0384 d73e
00000050: 32d0 6cbc ecba ecb9 0989 a2bd 8299 aa3e
00000060: 5db0 febd 2bc0 cebb 2e1c 173f 5305 0bbc
00000070: a445 df3e 5655 933d 1591 a5bc 75a5 57bc

fc3.weight f4 [5, 32]
-0.72964793 -0.8071509 -0.0040436108 -0.55636847 0.002789088 0.5961158 -0.055756625 -0.00026683102
-0.10483009 0.010742529 0.016902218 -0.0060199485 0.01853912 -0.21870707 -0.018076792 -0.46826252
-0.36820805 -0.109412596 -0.71488744 -0.20513684 0.08574655 -0.0027419536 0.26580706 0.43147403
-0.13350016 0.03100345 -0.02083774 0.0024202184 -0.074156895 -0.25516903 0.0021140564 0.0056942115
0.37421396 0.20768979 0.008627982 0.20372099 0.005347531 -0.2528436 0.023582587 0.0040214197
0.4279046 0.004034394 0.026284846 -0.0050413026 -0.0003058861 0.22141205 0.023368703 0.2774095
0.078047134 0.16228479 -0.39636454 -0.11533472 -0.07114782 -0.003790788 -0.1943496 -0.016096087
0.069783464 0.075590834 -0.15726098 -0.0031155518 0.30442387 0.053950813 0.0015805792 -0.0075948527
0.26145574 0.56409365 -0.010023477 -0.41495878 0.002916765 -0.24466778 6.973117e-05 0.0051276837
-0.28866234 -0.016192468 -0.015320319 -0.0029526907 -0.0045307223 0.10719364 -0.06968385 -0.12666455
-0.19635127 0.044302043 0.65957224 0.17837383 0.07990283 9.836488e-05 0.1342159 0.23719774
-0.063589185 -0.09255119 0.63921046 0.0015974955 -0.28583875 -0.035134796 -0.015566669 0.012737811
0.39654487 -0.34990492 -0.0004754614 0.28722435 -0.0015522509 -0.085751176 -0.004287752 0.0048695547
0.4098688 -0.001320727 0.01969813 -0.003749866 -0.00071762374 0.23586696 0.04486811 0.12441069
0.7198797 0.067235306 0.37476203 -0.43365502 0.038018808 -0.0025541955 -0.09540679 -0.20741022
0.028260449 0.010637422 -0.02162431 0.002920239 -0.2490367 0.015734509 0.008805689 0.00025197698
-0.29966787 0.37858954 -5.6495322e-05 0.4483751 -0.00021183722 -0.002842341 0.033215187 0.0048315455
-0.44600973 0.0037798935 -0.040393624 -0.003692132 -0.016660504 -0.32916126 0.036670074 0.19399686
-0.23575114 -0.16409092 0.0729779 0.5790529 -0.1271285 -0.0054126047 -0.09142776 -0.4484735
0.08948896 -0.022619272 -0.43138814 -0.0041145952 0.3215677 0.21856537 -0.0061226236 -0.0007121199
00000000: 35ca 3abf 71a1 4ebf 4480 84bb 2a6e 0ebf
00000010: 22c9 363b 0c9b 183f 0f61 64bd 74e5 8bb9
00000020: 29b1 d6bd 6f01 303c 8576 8a3c fd42 c5bb
00000030: 5adf 973c bff4 5fbe c815 94bc 1bc0 efbe
00000040: c485 bcbe b613 e0bd dd02 37bf 640f 52be
00000050: e39b af3d 59b2 33bb dd17 883e 2aea dc3e
00000060: 44b4 08be f2fa fd3c e8b3 aabc 879c 1e3b
00000070: 92df 97bd 84a5 82be fb8b 0a3b 8296 ba3b
00000080: f998 bf3e a2ac 543e 615c 0d3c 3c9c 503e
00000090: 573a af3b b774 81be 4530 c13c 1dc6 833b
000000a0: 5016 db3e f332 843b 5153 d73c 8331 a5bb
000000b0: 565f a0b9 d7b9 623e b96f bf3c 9e08 8e3e
000000c0: 2dd7 9f3d fc2d 263e 4bf0 cabe 9c34 ecbd
000000d0: f3b5 91bd de6e 78bb 9503 47be f1db 83bc
000000e0: a2ea 8e3d 5ecf 9a3d 0609 21be 492e 4cbb
000000f0: 72dd 9b3e 87fb 5c3d 702b cf3a 3ede f8bb
00000100: 87dd 853e 7168 103f 8239 24bc 7a75 d4be
00000110: 3227 3f3b 318a 7abe a33c 9238 2106 a83b
00000120: 8dcb 93be 11a6 84bc 1302 7bbc ee81 41bb
00000130: 7476 94bb 5788 db3d 68b6 8ebd 5ab4 01be
00000140: 4f10 49be 0f76 353d bad9 283f a1a7 363e
00000150: 18a4 a33d 3e49 ce38 e56f 093e f7e3 723e
00000160: 0c3b 82bd 7a8b bdbd 4ca3 233f 0e63 d13a
00000170: 7559 92be 81e9 0fbd 580b 7fbc 40b2 503c
00000180: ee07 cb3e bd26 b3be 5947 f9b9 120f 933e
00000190: e674 cbba 509e afbd 4580 8cbb c990 9f3b
000001a0: 53da d13e 3f1c adba f95d a13c 50c0 75bb
000001b0: ea1e 3cba 1c87 713e a0c7 373d 08cb fe3d
000001c0: 094a 383f aab2 893d cfe0 bf3e 0808 debe
000001d0: 9cb9 1b3d 4a64 27bb a364 c3bd 5863 54be
000001e0: 7582 e73c 9548 2e3c 7725 b1bc 7b61 3f3b
000001f0: 7a03 7fbe a8e5 803c bd45 103c c71b 8439
00000200: 116e 99be 7dd6 c13e 64f5 6cb8 6c91 e53e
00000210: 9f20 5eb9 9246 3abb a60c 083d f151 9e3b
00000220: 635b e4be 17b8 773b c973 25bd b2f7 71bb
00000230: 9c7b 88bc d387 a8be 5c33 163d 1da7 463e
00000240: bf68 71be 7307 28be 7075 953d d03c 143f
00000250: f92d 02be 385c b1bb 7a3e bbbd 529e e5be
00000260: fd45 b73d 0d4c b9bc e8de dcbe bad3 86bb
00000270: 86a4 a43e 9acf 5f3e 4aa0 c8bb 8fad 3aba

fc3.bias f4 [5]
0.19510373 -0.12028754 -0.0225195 -0.3073345 0.23887694
00000000: 46c9 473e 5059 f6bd d17a b8bc f35a 9dbe
00000010: 289c 743e
