Assignment_1/1/Filters/Models/low/model-2.pth (torch_old, 288536 bytes, 12 tensors)

conv1.weight f4 [16, 3, 5, 5]
0	0x3e395c84	0.18101698
1	0x3e80ddcb	0.25169215
2	0x3e53e255	0.20691808
3	0x3e08f890	0.13376069
4	0x3d7f7d6d	0.062375475
5	0x3e4f5db0	0.20250583
6	0x3e818608	0.2529757
7	0x3e0b4899	0.13601913
8	0x3c40557c	0.011739131
9	0x3c922ec0	0.017844558
10	0x3dbe8bf2	0.09304036
11	0x3d4e7743	0.050406706
12	0xbdbd9024	-0.09256008
13	0xbe029c0f	-0.12754844
14	0xbe28210d	-0.16418858
15	0xbdb0ef75	-0.08639423
16	0xbe3819e3	-0.17978625
17	0xbe53d970	-0.20688415
18	0xbe807a08	-0.25093102
19	0xbe65059e	-0.22365424
20	0xbe371bd4	-0.1788171
21	0xbe568793	-0.20950155
22	0xbe5397d4	-0.20663387
23	0xbe50ba6d	-0.20383616
24	0xbe1578a2	-0.14596799
25	0x3df7d32f	0.12100827
26	0x3e854291	0.2602735
27	0x3e60de16	0.21959719
28	0x3e1525c6	0.1456519
29	0x3d9e682a	0.077347115
30	0x3e1df9c1	0.15427305
31	0x3e884965	0.26618496
32	0x3e019083	0.12652783
33	0x3d5fee25	0.05467047
34	0x3cc28103	0.023743158
35	0x3d728e39	0.059217665
36	0x3d036091	0.032074515
37	0x3c9a5f48	0.018844262
38	0xbdf17a2f	-0.11790883
39	0xbcd10efc	-0.02551984
40	0xbd90faff	-0.07079124
41	0xbdc688b0	-0.0969404
42	0xbe3ae026	-0.18249568
43	0xbe54053e	-0.20705125
44	0xbd93006b	-0.07177814
45	0xbd565620	-0.05232823
46	0xbdd50913	-0.104021214
47	0xbe251be3	-0.16123919
48	0xbd18d99a	-0.037316896
49	0xbc235637	-0.009969286
50	0x3ce3d89f	0.027813254
51	0x3e13c6b9	0.14431275
52	0x3dfec7e0	0.12440467
53	0x3d9f3e69	0.07775576
54	0x3dd50d82	0.10402967
55	0x3da49d55	0.08037821
56	0x3e38dea9	0.18053688
57	0x3dd45744	0.10368207
58	0x3d573f2c	0.05255048
59	0xbbd110de	-0.0063801846
60	0x3d96d801	0.07365418
61	0x3dd02865	0.10163955
62	0xbcd09974	-0.025463797
63	0xbdb0daf0	-0.08635509
64	0xbd561337	-0.05226442
65	0x3d24951d	0.040181268
66	0xbb95e30b	-0.004574185
67	0xbdc233fe	-0.09482573
68	0xbdf6c78d	-0.1204978
69	0xbcc20472	-0.02368376
70	0xbd1084f0	-0.03528303
71	0xbc74b41c	-0.01493552
72	0xbc367db2	-0.011138367
73	0x3d7d4eb7	0.061842646
74	0x3dfdf60a	0.12400444
75	0x3dc88025	0.09790067
76	0xbc92769b	-0.017878821
77	0xbc0bbe61	-0.008529277
78	0x3d4268a2	0.047463067
79	0x3e2cd0fd	0.16876598
80	0x3dab7157	0.08371227
81	0xbca2aefd	-0.019858832
82	0xbd181ac3	-0.037134897
83	0x3d0b6154	0.034028366
84	0x3e0200d6	0.12695631
85	0x3da1c171	0.07898224
86	0x39b341a1	0.00034190438
87	0x3c4019b2	0.011724876
88	0x3db8433c	0.08997199
89	0x3d32f8bf	0.043694254
90	0x3dbdd627	0.09269362
91	0x3d732000	0.05935669
92	0x3d5e3fe6	0.054260157
93	0x3ceaf889	0.028682964
94	0xbcaacbbc	-0.020849101
95	0xbc47e350	-0.012200192
96	0x3d49c96a	0.04926435
97	0x3d8fc7a1	0.07020498
98	0x3d3b870a	0.04578308
99	0x3b1b3de7	0.002368802
100	0x3db20769	0.086928196
101	0xbe3b9597	-0.18318783
102	0xbe78b0ad	-0.24286146
103	0xbe776261	-0.24158622
104	0xbe48636a	-0.19569173
105	0x3e4170dc	0.18890709
106	0xbdec7aa6	-0.11546831
107	0xbe66fb2d	-0.22556753
108	0xbe8ba7ce	-0.27276462
109	0xbe446e7f	-0.19182776
110	0x3e542412	0.20716885
111	0xbc5bdeff	-0.013419866
112	0xbdfb3a81	-0.12267018
113	0xbe3255a4	-0.17415482
114	0xbe89abe4	-0.26888955
115	0x3e87f9f1	0.26557878
116	0x3dc75959	0.097338386
117	0x3d55d5c0	0.0522058
118	0xbdb78033	-0.08959999
119	0xbe3ebfbb	-0.18627827
120	0x3e92efaa	0.28698474
121	0x3e1a57dd	0.1507258
122	0x3dcc03c4	0.09961656
123	0xbc9ac79a	-0.018894006
124	0xbe474150	-0.19458508
125	0x3def8ac7	0.116963916
126	0xbe38368d	-0.1798956
127	0xbe9754fd	-0.29557028
128	0xbe8aa416	-0.27078313
129	0xbe549854	-0.20761234
130	0x3e8e3f4e	0.27782673
131	0xbd8babfb	-0.06819912
132	0xbe8b8e4a	-0.27256995
133	0xbe9e8ec8	-0.30968308
134	0xbe8682f8	-0.26271796
135	0x3eac9595	0.33707872
136	0x3c5b45fd	0.013383386
137	0xbde8e7a4	-0.11372307
138	0xbe2da061	-0.16955711
139	0xbe884693	-0.26616344
140	0x3ed17ae1	0.40914062
141	0x3e48b54f	0.19600414
142	0x3d2ad2c5	0.04170491
143	0xbd94b3e0	-0.07260871
144	0xbe41ff92	-0.18945149
145	0x3ed6b993	0.41938457
146	0x3e96c502	0.2944718
147	0x3e4bc493	0.19899206
148	0x3d6f594a	0.058434762
149	0xbe07a359	-0.13245906
150	0x3e58eb81	0.21183588
151	0x3e39670e	0.18105718
152	0x3df13efb	0.11779591
153	0x3de19067	0.11013871
154	0x3dcaac91	0.09896196
155	0x3e03a635	0.12856372
156	0x3e2f23ac	0.17103451
157	0x3debfc92	0.11522783
158	0x3d92f26c	0.071751446
159	0x3de78e8e	0.11306487
160	0x3da23db4	0.07921925
161	0x3d99b927	0.07506018
162	0x3db05da4	0.086116105
163	0x3d900024	0.07031277
164	0x3dac70bd	0.084199406
165	0x3ce73e0f	0.028227834
166	0x3d5ac354	0.053408936
167	0xbc324fbc	-0.010883268
168	0x3da0f5a3	0.078593515
169	0x3d246846	0.040138505
170	0xbe07d4f0	-0.13264823
171	0xbd3231a2	-0.043504365
172	0xbcf0634e	-0.029344227
173	0x3d1b9743	0.03798605
174	0x3d269098	0.04066524
175	0x3d8a08ea	0.067399815
176	0x3cde4744	0.027133591
177	0xbd89f72d	-0.06736598
178	0xbdc1be02	-0.09460069
179	0xbdfede16	-0.12444703
180	0x3c810354	0.015748657
181	0xbd3674b9	-0.04454491
182	0xbd680f6a	-0.056655325
183	0xbda65ee3	-0.08123567
184	0xbd9cc718	-0.076551616
185	0xbb7936c2	-0.0038027023
186	0x3cde93c6	0.027170073
187	0xbdb00638	-0.08594936
188	0xbcc7ebd8	-0.024404451
189	0xbdb695d9	-0.089153
190	0x3c1cdfa5	0.009574805
191	0xbd4eba09	-0.050470386
192	0xbdacd4c5	-0.0843902
193	0xbd7e7e82	-0.062132366
194	0xbd140594	-0.036138132
195	0xbd949de6	-0.07256679
196	0xbd744279	-0.059633706
197	0xbdb244e8	-0.08704549
198	0xbd35e926	-0.0444118
199	0xbd2d9f29	-0.042388115
200	0xbdc28f76	-0.09500019
201	0xbdb7f122	-0.08981539
202	0xbe215813	-0.15756254
203	0xbe3d772c	-0.18502492
204	0xbdf4344c	-0.11924037
205	0xbce14b37	-0.027501686
206	0xbda74eaa	-0.08169301
207	0xbddd7eaf	-0.108151786
208	0xbe156fe2	-0.14593461
209	0xbe11ebb8	-0.14250076
210	0xbdb08049	-0.086182185
211	0xbd887bb9	-0.06664223
212	0xbddf81f0	-0.109134555
213	0xbe0429d7	-0.12906586
214	0xbde7c26c	-0.1131638
215	0xbdb493f1	-0.0881728
216	0xbda6dfaf	-0.08148133
217	0xbd44e1ba	-0.048066832
218	0xbccf46b6	-0.025302272
219	0x3b8fc811	0.0043878634
220	0xbd19989e	-0.037499063
221	0xbdbebdb5	-0.093135275
222	0xbd98c240	-0.07458925
223	0x3c22134e	0.009892298
224	0x3d43d3ae	0.047809295
225	0xbdc0c6fc	-0.09412953
226	0xbd7abf16	-0.06121739
227	0xbe032c69	-0.1280991
228	0xbdffaba1	-0.124839075
229	0xbd8020c0	-0.062562466
230	0xbdeae7c8	-0.1146999
231	0xbd45e089	-0.048309837
232	0xbd836f87	-0.064177565
233	0xbd3206d5	-0.043463547
234	0xbdbb5948	-0.091478884
235	0xbdb3754f	-0.08762609
236	0xbd431688	-0.04762891
237	0xbc8f892d	-0.017521465
238	0xbc1bb5f1	-0.009503827
239	0x3cbb1a15	0.022839585
240	0xbd6e04b6	-0.05810996
241	0xbd811c36	-0.06304209
242	0x3ce7dad1	0.028302582
243	0x3c89ed7a	0.01683687
244	0x3d54eb1d	0.051982034
245	0xbdc39954	-0.095507294
246	0xbd1eef5c	-0.03880249
247	0xbcfbeb2b	-0.030751785
248	0x3c861bb5	0.016370634
249	0x3d417a8a	0.047236003
250	0xbe14dc66	-0.145372
251	0xbe16f9d6	-0.14743742
252	0xbdf9cf47	-0.12197738
253	0xbd2a45cf	-0.04157048
254	0xbd3b0284	-0.045656696
255	0xbe000977	-0.1250361

conv1.bias f4 [16]
0	0xbef2f551	-0.47452787
1	0xbec95835	-0.3932511
2	0xbf86968c	-1.0514693
3	0xbe6cca7e	-0.2312412
4	0xbeffac08	-0.49935937
5	0xbf3e4d93	-0.7433712
6	0xbf0a42d1	-0.54008204
7	0xbf311b6c	-0.6918247
8	0xbe9d93dd	-0.30776873
9	0xbf68fce8	-0.91010904
10	0xbf2ed31a	-0.68290865
11	0xbeace439	-0.3376787
12	0xbeb90964	-0.36139977
13	0xbf5838a1	-0.8446141
14	0xbf17a889	-0.5924154
15	0xbf1639c3	-0.5868189

conv2.weight f4 [32, 16, 5, 5]
0	0xbd06a000	-0.03286743
1	0xbc3ff471	-0.011715994
2	0x3c51fccd	0.01281662
3	0x3d283ac6	0.041071676
4	0x3cef7237	0.029229267
5	0xbb354888	-0.002766164
6	0xbd1686ff	-0.036749836
7	0xbc6680ea	-0.014068821
8	0x3c1d0bfa	0.009585375
9	0x3a8b707d	0.0010638383
10	0xbced94d6	-0.029001635
11	0xbc11cf56	-0.00889953
12	0x3b11b621	0.0022233801
13	0x3bebc121	0.0071946536
14	0xbbceed4d	-0.0063149096
15	0x3bb4de64	0.005519675
16	0x3bdba47f	0.006702959
17	0xbcd7f77c	-0.026363127
18	0xbc937b93	-0.01800326
19	0xbc7a374c	-0.015271973
20	0xbcb01215	-0.021492997
21	0xbc053605	-0.008130555
22	0xbb82f643	-0.003996642
23	0xbc80e3b5	-0.01573358
24	0xbc7cb9f4	-0.015425194
25	0x3d8b2242	0.067936435
26	0x3cd96f6f	0.026542393
27	0xbc719d00	-0.014746904
28	0xbd7f22c7	-0.062289026
29	0xbd246fae	-0.04014557
30	0xbbf2a772	-0.007405215
31	0x3c67b70b	0.014142762
32	0xbb8d1bab	-0.004306277
33	0xbc2bb9f4	-0.010481346
34	0xbd248786	-0.040168308
35	0xbd2527d5	-0.04032119
36	0xbcba3c4b	-0.022733828
37	0x3c0f800f	0.008758559
38	0x3cb77eee	0.022399392
39	0xbcd35b51	-0.025800379
40	0xbcf2569b	-0.029582312
41	0xbd58e60c	-0.052953765
42	0xbd26d3ac	-0.04072921
43	0xbc24a4b0	-0.01004903
44	0x3c96f58d	0.018427635
45	0xbcb8af79	-0.02254461
46	0xbd1b9ea0	-0.037993073
47	0xbd2d111e	-0.042252652
48	0xbcec63e6	-0.028856229
49	0x3b923779	0.0044621793
50	0x3c5fafa5	0.013652717
51	0x3c76f74f	0.015073611
52	0xbc077a71	-0.008268938
53	0xbb93113b	-0.004488138
54	0xbcccbaf5	-0.024991492
55	0x3c9b1c86	0.0189345
56	0x3c44f17d	0.012020466
57	0xbb7cbfaa	-0.003856639
58	0x3b4bb5a2	0.0031083603
59	0xbc88a4f9	-0.016680228
60	0x3ca9ffe2	0.020751897
61	0xbbc78a2a	-0.0060894685
62	0xbc40afc0	-0.011760652
63	0xbc8376ae	-0.016047802
64	0xbc2ef9d8	-0.010679685
65	0xbc3584aa	-0.011078993
66	0xbb8bcaa0	-0.004266098
67	0xbc6acda5	-0.014331256
68	0x3c010760	0.0078752935
69	0xbc92344e	-0.017847206
70	0xbcbacb90	-0.022802144
71	0x3c72f63e	0.0148292165
72	0xbc9ea2eb	-0.019364795
73	0x3b2ff48e	0.0026848647
74	0xbb84a00a	-0.0040473985
75	0xbbd4d44b	-0.006495034
76	0x3c9a1ddb	0.018813064
77	0x3b21375e	0.0024599652
78	0xbcb71f26	-0.02235372
79	0xbc82fb67	-0.015989019
80	0x3ba96710	0.0051697567
81	0x3c8c11a9	0.017098265
82	0x3cbdcd7d	0.023169274
83	0xbc44ff90	-0.0120238215
84	0xbc7802e0	-0.015137404
85	0xbb4a8377	-0.0030901113
86	0x3c457f5e	0.0120542925
87	0xbb102545	-0.002199487
88	0x3b814968	0.0039455183
89	0x3c2c6a5c	0.010523405
90	0xb96b3bea	-0.00022433666
91	0xbac0f66d	-0.0014721878
92	0xbb7a6916	-0.0038209609
93	0x3adb388c	0.0016725226
94	0x3c13a527	0.009011543
95	0x3c01e40d	0.007927907
96	0xbc73d4fe	-0.014882324
97	0x3bba13d4	0.005678633
98	0xbae00aa7	-0.0017093018
99	0x3c47ed06	0.012202507
100	0xbc8413ec	-0.01612278
101	0x3bb40a61	0.0054944013
102	0x3d9e7e88	0.07738978
103	0x3d7c82ef	0.061648306
104	0x3c36645e	0.011132328
105	0xbce1305a	-0.027488876
106	0xbc3ede82	-0.01164973
107	0x3c6ca3de	0.014443366
108	0x3d4eea3e	0.05051636
109	0x3d95ef34	0.07321015
110	0xbca324fb	-0.019915095
111	0xbd3a0a26	-0.045419835
112	0xbd37389b	-0.044731718
113	0x3c9cc18a	0.019135255
114	0x3d189a23	0.03725637
115	0x3caccaf8	0.021092877
116	0xbb90531e	-0.0044044396
117	0xbd3ecd72	-0.046582647
118	0xbd119278	-0.035540074
119	0xbd1ce99f	-0.038308736
120	0x3c2ba038	0.010475211
121	0x3caf1240	0.021371007
122	0xbcd408db	-0.025883129
123	0xbd3446e7	-0.04401293
124	0xbd9d3166	-0.07675438
125	0xbc8d84dc	-0.017275266
126	0xbd16492e	-0.036690883
127	0x3ce7cdf6	0.028296452
128	0x3d603cd1	0.0547455
129	0x3d7ee57a	0.062230565
130	0xbc6750cf	-0.014118387
131	0xbcbdd733	-0.023173904
132	0xbcf1b9ee	-0.029507603
133	0xbc6c24d7	-0.01441308
134	0x3d174f9f	0.036941167
135	0xbce89bc9	-0.028394597
136	0xbcbe60b5	-0.023239473
137	0xbc640e5f	-0.013919442
138	0xbb98f68f	-0.004668064
139	0x3add9a7c	0.0016907002
140	0xbc92664a	-0.01787104
141	0xbaf5a111	-0.0018740018
142	0xbcfea349	-0.03108372
143	0xbd079cc8	-0.033108503
144	0xbd124a0a	-0.03571514
145	0xbcd1b285	-0.02559782
146	0xbcd33788	-0.025783315
147	0xbd11907e	-0.03553819
148	0xbd354037	-0.044250693
149	0xbd174f01	-0.03694058
150	0x3de38e17	0.11111086
151	0x3d876d12	0.066126004
152	0xbc64ded5	-0.013969143
153	0xbd968a65	-0.073506154
154	0xbdabd85f	-0.08390879
155	0x3d45f4ca	0.048329152
156	0x3da65554	0.08121744
157	0x3d4083f4	0.04700084
158	0x3b283233	0.0025664687
159	0xbd45c39e	-0.04828226
160	0xbcb5f466	-0.022211265
161	0x3cdfd3a3	0.027322596
162	0x3c33cd94	0.010974307
163	0xbb8642bb	-0.0040973104
164	0xbcf64e5d	-0.030066663
165	0xbd523597	-0.05132064
166	0xbd8d5282	-0.06900503
167	0xbcd5b9b5	-0.026089529
168	0x3c4bad8f	0.012431516
169	0x3ab2b7c5	0.001363509
170	0xbbb7234f	-0.005588926
171	0xbd3fa36a	-0.046786703
172	0xbd8c5236	-0.06851618
173	0xbc94eab8	-0.018178329
174	0x3d10018c	0.035157725
175	0xbc78da08	-0.015188701
176	0xbca763b8	-0.020433292
177	0x3cbc0e53	0.02295605
178	0x3c82a173	0.015946126
179	0x3d2f4712	0.042792387
180	0xbd1c404a	-0.03814725
181	0xbcd8170d	-0.026378179
182	0xbb52e56b	-0.00321802
183	0x3bdf627d	0.0068171606
184	0x3c44704e	0.011989666
185	0xbc81359c	-0.015772633
186	0xbcdf5293	-0.027261054
187	0xbc10d919	-0.008840823
188	0xbc984a00	-0.018589973
189	0xbcb0d4a8	-0.021585777
190	0x3c0cf003	0.008602145
191	0xbaff7f0a	-0.0019492817
192	0xbc48e271	-0.012261019
193	0xbc4be361	-0.012444348
194	0xbb6e7952	-0.003638823
195	0xbc76a023	-0.015052828
196	0xbc1301c3	-0.008972588
197	0xbca38f13	-0.019965684
198	0xbcb483c2	-0.022035483
199	0xbc804e12	-0.015662227
200	0xbd01252e	-0.031529598
201	0xbc184150	-0.009292915
202	0x3a78b288	0.00094870524
203	0x3cd6e432	0.026231859
204	0x3d55439b	0.052066427
205	0xbc2b20c4	-0.010444824
206	0xbcb9bd72	-0.022673342
207	0xbc7e755d	-0.015530911
208	0x3cf300b2	0.029663417
209	0x3c8bd94a	0.017071385
210	0xbca596f1	-0.020213576
211	0x3bc7907d	0.0060902224
212	0xbc13f929	-0.009031572
213	0xbc80b115	-0.01570944
214	0x3c1095b6	0.008824756
215	0x3c0107d0	0.007875398
216	0x3c898be1	0.016790332
217	0xbc5ed923	-0.013601574
218	0x3b919cbb	0.0044437326
219	0xbc400acf	-0.011721327
220	0x3c71383d	0.014722881
221	0xbc207c37	-0.00979524
222	0x3c77381a	0.015089059
223	0x3ca7c2e4	0.020478673
224	0x3a6b2bda	0.0008971073
225	0xbd3481dd	-0.04406916
226	0x3d43461a	0.047674276
227	0x3d9202cb	0.07129439
228	0x3d8b5dd0	0.06805003
229	0x3cc1696a	0.023609836
230	0xbd003895	-0.03130396
231	0xbd141f44	-0.03616263
232	0x3d676450	0.05649215
233	0x3dc4c57b	0.09607979
234	0x3d39ecf3	0.045391988
235	0xbd2a37a3	-0.041556966
236	0xbceb909b	-0.028755477
237	0xbc234f70	-0.00996767
238	0x3d505b65	0.05086841
239	0x3d96797f	0.07347392
240	0xbd66cc7b	-0.05634735
241	0xbd1f416d	-0.038880754
242	0xbc44f342	-0.012020888
243	0x3c8fb0e5	0.017540405
244	0x3d5fe3b9	0.054660533
245	0xbd7e1f53	-0.06204159
246	0xbd69c8d8	-0.057076305
247	0xbd0f0060	-0.034912467
248	0xbc24172d	-0.010015291
249	0x3c688f44	0.014194313
250	0x3ca47dc6	0.020079505
251	0x3bcd25da	0.006260616
252	0xbbabe14e	-0.0052453643
253	0xbd2c9671	-0.04213566
254	0xbd47e4fa	-0.048802353
255	0x3c04b4bc	0.008099731

conv2.bias f4 [32]
0	0xbdad7eb6	-0.08471434
1	0xbc1a75d8	-0.00942751
2	0xbe0ee0d1	-0.13952948
3	0xbe25da17	-0.16196476
4	0xbc4f8c6f	-0.012667759
5	0x3cfe9ef7	0.03108166
6	0x3fa99e0b	1.3251356
7	0x3f191a98	0.59806204
8	0xbd85dfeb	-0.065368496
9	0xbd306570	-0.04306549
10	0xbdace238	-0.08441585
11	0xbd8655e3	-0.0655935
12	0xbe010bd1	-0.12602164
13	0xbc987016	-0.018608134
14	0xbe30baa4	-0.17258698
15	0xbe706710	-0.23476815
16	0x3d1c4695	0.03815325
17	0x3e9317a9	0.2872899
18	0x3dbb4d70	0.091456294
19	0xbd774f66	-0.060378455
20	0xbc0cab8d	-0.008585823
21	0xbe49d4fa	-0.1971015
22	0x3c05cf31	0.008167074
23	0xbe332805	-0.17495735
24	0xbf0e7119	-0.55641323
25	0xbd3d17bc	-0.046165213
26	0x3f00545f	0.5012874
27	0xbd4f7e7a	-0.050657727
28	0x3c66aad3	0.014078814
29	0x3be977d0	0.0071248785
30	0xb9f4d2e0	-0.0004669642
31	0x3e5d9091	0.21637179

conv3.weight f4 [64, 32, 5, 5]
0	0xbc40ad04	-0.01176
1	0x3b896349	0.004192744
2	0x3ba073d2	0.0048966194
3	0xbc791aeb	-0.015204172
4	0xbc10ddaf	-0.008841916
5	0xba6c95e3	-0.00090250204
6	0x3a565f56	0.00081776583
7	0xbbbc32d2	-0.005743363
8	0x3bcb3ce5	0.0062023276
9	0x3b961b48	0.004580889
10	0x3bfc1643	0.0076930835
11	0x3c09a320	0.008400708
12	0xbb883cae	-0.004157624
13	0x3ad06c0f	0.0015901345
14	0x3aaf4ce2	0.0013374353
15	0x3bdf6c5c	0.0068183374
16	0x3b8bb6fa	0.004263756
17	0xbb0d738a	-0.002158376
18	0xbc6089b4	-0.013704706
19	0xbc57822d	-0.013153595
20	0xbc36e0d2	-0.011162
21	0xbc2bf9f4	-0.010496605
22	0x3bf35d25	0.007426875
23	0xbc709a7d	-0.01468527
24	0xbc5d3db0	-0.013503477
25	0xbbf3d9be	-0.0074417284
26	0xbbad45a2	-0.005287842
27	0xbc3e489f	-0.011613994
28	0xba9f1403	-0.0012136701
29	0x3be1805b	0.0068817562
30	0x3c195ca3	0.009360465
31	0xbc59832e	-0.013275905
32	0xbbd76ab2	-0.0065739984
33	0x3b719fc8	0.0036868919
34	0x3c01f04f	0.007930829
35	0xbbfdffe3	-0.0077514513
36	0xbbaf7d9b	-0.0053555495
37	0x3a90707f	0.0011019855
38	0xbbc97b09	-0.0061487
39	0xbbf8b749	-0.0075902087
40	0xbc242c19	-0.010020279
41	0xbac16fd4	-0.0014758059
42	0x3c236699	0.009973192
43	0x3bcac609	0.0061881584
44	0x3c22b4fb	0.009930844
45	0xbc1e1941	-0.009649576
46	0x3be4962b	0.006975909
47	0x3c34b473	0.011029351
48	0x3c188d1d	0.009310988
49	0x3c5dbf5a	0.013534391
50	0x3c16ea19	0.009211087
51	0xbc24c2c1	-0.010056199
52	0xbbb423df	-0.00549744
53	0xbc312887	-0.010812885
54	0xbc455295	-0.012043615
55	0xbb048d7a	-0.0020225928
56	0xbca3ef57	-0.020011587
57	0xbbfae468	-0.0076566227
58	0x3b5e3e8e	0.0033911797
59	0xbca5f34d	-0.020257616
60	0xbc4c8537	-0.012482933
61	0xbc1f4718	-0.00972154
62	0xbb7a9431	-0.0038235302
63	0xbcaf864e	-0.021426346
64	0xbcc71d31	-0.024305912
65	0xbc0a990c	-0.008459341
66	0xbca12a57	-0.01967351
67	0x3b7deb44	0.0038744966
68	0xbba2315a	-0.004949731
69	0xbccec4cb	-0.025240323
70	0xbc077885	-0.00826848
71	0xbc321de6	-0.010871386
72	0xbc9bdeef	-0.019027201
73	0xbcd23d30	-0.025663942
74	0x3be3bbd0	0.006949879
75	0xbc3e902e	-0.011631055
76	0xbb6d6e85	-0.0036229205
77	0x3c157a74	0.009123433
78	0x380d4946	3.368526e-05
79	0xbb2d6bb3	-0.0026461899
80	0x3c7c6613	0.015405196
81	0x3ba5eb5a	0.0050634565
82	0x3bb36740	0.005474955
83	0x3bf832ec	0.0075744297
84	0xbc978c40	-0.018499494
85	0x3cf8f390	0.030389577
86	0xbca8493e	-0.020542737
87	0x3bbb71b1	0.00572034
88	0x3b4db9a9	0.003139118
89	0x3ab8a900	0.0014088452
90	0x3cd00c0d	0.025396371
91	0xbc7d3cf0	-0.015456423
92	0xbc368085	-0.01113904
93	0xbb24269c	-0.0025047427
94	0xbc3c2362	-0.011483045
95	0xbbc9b7e9	-0.006155957
96	0x3baa594a	0.0051986324
97	0xbc8b15ce	-0.01697817
98	0xbbcf43cf	-0.006325222
99	0x3c10ebe8	0.008845307
100	0xbbdcb24a	-0.006735121
101	0xbc9729d5	-0.018452564
102	0xbb6c6830	-0.0036072843
103	0xbc9e2e43	-0.019309169
104	0xbc678020	-0.0141296685
105	0xbb805c4d	-0.003917253
106	0xbc4094d7	-0.011754236
107	0xbce6322f	-0.028100101
108	0xbc74c21b	-0.0149388565
109	0x3bff6758	0.007794302
110	0xbcb6e018	-0.022323653
111	0xbc4b7ccc	-0.012419891
112	0xbcabf8bc	-0.02099263
113	0xbc2b673f	-0.0104616275
114	0xbc59325b	-0.013256635
115	0xbc7d4ccc	-0.015460204
116	0xbc662e60	-0.014049143
117	0xbc13369f	-0.008985191
118	0x3c42f532	0.011899279
119	0xbb0b9479	-0.0021298213
120	0x3c265dd6	0.010154208
121	0xbc40ea35	-0.011774589
122	0xbcb6419b	-0.02224808
123	0x3b80b9a4	0.00392838
124	0x39a90f93	0.00032245796
125	0x3c4087bf	0.011751114
126	0x3c0cc448	0.008591719
127	0x36619a9d	3.361761e-06
128	0x3ba04bad	0.0048918338
129	0x3c4da1b3	0.012550759
130	0x3be0d794	0.0068616364
131	0xb9ed7bf5	-0.00045296518
132	0xbae1a6c6	-0.001721584
133	0xbbf8ad40	-0.0075890124
134	0xbaf4821f	-0.0018654502
135	0xbb34e0b6	-0.0027599758
136	0x3b8428a7	0.0040331664
137	0xbad31428	-0.001610403
138	0xbb6b023c	-0.0035859486
139	0x3ab136b7	0.0013520335
140	0xbc25af76	-0.010112634
141	0xbba7e1c5	-0.0051233494
142	0x3c0f123f	0.008732378
143	0xbc6d9040	-0.014499724
144	0xbbd34850	-0.0064478293
145	0x3c4c99bd	0.012487826
146	0xbb9bab9c	-0.004750682
147	0xbc527392	-0.012844937
148	0xbb357414	-0.0027687596
149	0x3b8c1f8d	0.004276222
150	0x3c0c47c4	0.008562032
151	0xbaa83c30	-0.001283532
152	0x3b9672c7	0.0045913192
153	0xbbfa45a9	-0.0076376987
154	0x3c9203bd	0.017824048
155	0x3c17356c	0.009229045
156	0xbc3808e8	-0.011232592
157	0xbc9343f2	-0.017976735
158	0xbc4a0d5a	-0.012332285
159	0xbbbc4cf2	-0.0057464773
160	0xbabc6678	-0.00143738
161	0xbc79fb0b	-0.015257607
162	0xbca7f1b4	-0.020500995
163	0xbcbabeb4	-0.022796012
164	0xbc88edee	-0.016715016
165	0xbcdf9d5b	-0.027296713
166	0xbc92d74a	-0.017924923
167	0xbcb330b2	-0.021873806
168	0xbca2a269	-0.019852834
169	0xbbf6151f	-0.007509842
170	0xbc2b86f0	-0.010469183
171	0xbc2f26cb	-0.010690401
172	0xbca3146f	-0.019907204
173	0xbcae9a9d	-0.02131396
174	0xbc89d778	-0.016826376
175	0x3c4ebe41	0.012618602
176	0x3a8ca717	0.0010730949
177	0x3c071102	0.008243801
178	0x3b6028dd	0.0034204044
179	0x3c203163	0.0097774
180	0x3b5bcfd4	0.0033540623
181	0x3c181e0b	0.009284507
182	0x3c19606d	0.009361369
183	0xbbf621cf	-0.0075113545
184	0xbc2fa3b8	-0.010720186
185	0x3be69733	0.0070370673
186	0x3a5c44d4	0.000840259
187	0x3b41cd4e	0.0029571834
188	0x3b79581a	0.0038046897
189	0xbbaa88ce	-0.0052042967
190	0x3c229546	0.009923285
191	0x3aa28276	0.00123985
192	0x3ba1a2b2	0.004932725
193	0xbb0f2c79	-0.0021846576
194	0x3c1f5be0	0.009726495
195	0xbc6c5cda	-0.014426434
196	0x3b45c835	0.0030179147
197	0x3af20c3f	0.0018466784
198	0xbc814b46	-0.015782963
199	0x3b007fd0	0.0019607432
200	0xbc5dc147	-0.01353485
201	0xb8f09d20	-0.000114733586
202	0xbc6c3a27	-0.0144181615
203	0xbaea8411	-0.0017892142
204	0xbb45bc50	-0.0030172057
205	0xbb89a508	-0.0042005815
206	0xbc64d6d4	-0.013967235
207	0xbb6f72a0	-0.0036536828
208	0xbc6c5208	-0.014423855
209	0x3b527a81	0.0032116475
210	0x3bb500ea	0.0055237906
211	0xbbbf77ac	-0.0058431234
212	0x3c89f323	0.01683957
213	0x3b472216	0.0030385307
214	0x3bb2c401	0.0054554944
215	0xbc956322	-0.018235747
216	0xbc7c571e	-0.01540163
217	0x3c09cef7	0.008411161
218	0xbb479a67	-0.0030457021
219	0x3caa31ad	0.02077564
220	0xbc12018b	-0.008911501
221	0x3c04009f	0.008056789
222	0x3cb70f99	0.022346305
223	0x3c7a6bd7	0.0152845
224	0x3ca02794	0.019550122
225	0xbb6c440c	-0.0036051301
226	0xbc0acbb9	-0.008471423
227	0xbaaf75db	-0.0013386564
228	0xbc930849	-0.017948287
229	0x3c439680	0.011937737
230	0xbbba430c	-0.005684262
231	0x3b2d4132	0.0026436565
232	0xbbb63fbd	-0.0055617974
233	0xbc922576	-0.017840128
234	0xbcf9c3fa	-0.030488957
235	0x3b876d36	0.004132892
236	0xbc8e314d	-0.017357493
237	0x3985aa64	0.00025494688
238	0xbc4742ab	-0.012161891
239	0xbc1a4e6a	-0.009418109
240	0xbc73fe74	-0.014892209
241	0xbc8d034e	-0.01721349
242	0x3ca1c6e2	0.019748155
243	0xbbb03d69	-0.0053784144
244	0xbbe545f0	-0.0069968626
245	0xbc08ceb9	-0.008350068
246	0xbbb5c0be	-0.0055466583
247	0x3cd5476d	0.026035035
248	0x3c1f878c	0.009736907
249	0xbc97c269	-0.01852532
250	0xbc1fb05b	-0.009746636
251	0x3aa194c0	0.0012327656
252	0xbc83fcd1	-0.016111763
253	0x3b21aeaa	0.0024670758
254	0xbc90ecd4	-0.017691053
255	0xbc9c47ef	-0.01907727

conv3.bias f4 [64]
0	0x3c20e84d	0.00982101
1	0x3e9af8db	0.30267987
2	0xbd61b942	-0.055108316
3	0xbdb97c3c	-0.09056899
4	0xbd91102e	-0.07083164
5	0x3ed37daa	0.41306812
6	0xbdc2781c	-0.09495565
7	0xbe010ed8	-0.12603319
8	0x3e8114fa	0.25211316
9	0xbdc20b60	-0.09474826
10	0x3e913984	0.28364193
11	0x3ce6300e	0.028099086
12	0xbe5e96c4	-0.217372
13	0xbf5571b5	-0.8337663
14	0xbe11da43	-0.14243416
15	0xbd682b55	-0.05668195
16	0x3b8d93a3	0.004320578
17	0x3db3efd0	0.08785975
18	0xbd8a1e95	-0.06744114
19	0xbe7a0b0c	-0.24418277
20	0x3d2f53ed	0.042804647
21	0x3e860ace	0.26180118
22	0x3e2150fe	0.15753552
23	0x3e00cdcc	0.12578505
24	0xbf0dcfc9	-0.5539518
25	0x3eb10334	0.34572756
26	0xbe2013fe	-0.15632626
27	0xbeacddd1	-0.33762982
28	0x3d5d24ac	0.05399005
29	0xbc392d7a	-0.011302346
30	0xbda17237	-0.07883113
31	0xbe919e24	-0.28440964
32	0xbd18e6e2	-0.037329562
33	0x3d1bf4d0	0.03807527
34	0x3c909b59	0.0176522
35	0x3e4936f9	0.19649877
36	0xbc953239	-0.018212425
37	0xbd28bd6f	-0.041196283
38	0xbcd05cb8	-0.025434837
39	0xbdcf3d48	-0.1011911
40	0xbe2676a5	-0.16256197
41	0xbdee2437	-0.11628001
42	0xbdca11b3	-0.09866657
43	0xbe8cd635	-0.27507177
44	0xbd33394c	-0.043755814
45	0xbd8a1396	-0.06742017
46	0xbd16274c	-0.03665857
47	0x3bd5b4db	0.006521804
48	0xbd725214	-0.059160307
49	0xbe3f73ce	-0.1869652
50	0x3de75401	0.11295319
51	0xbeb2266e	-0.34794945
52	0xbcb9268a	-0.022601385
53	0xbc691248	-0.01422555
54	0x3e12692c	0.14297932
55	0xbe79d6ee	-0.24398395
56	0xbc00b821	-0.0078564
57	0x3c19310a	0.009350071
58	0x3eff65b4	0.4988228
59	0xbe1a8b20	-0.15092134
60	0xbe8ced2b	-0.27524695
61	0x3e93050a	0.28714782
62	0xbda45585	-0.08024124
63	0x3db10983	0.08644392

fc1.weight f4 [64, 64]
0	0x3d093172	0.03349442
1	0xbd080ef1	-0.033217374
2	0xbc722871	-0.01478015
3	0x3d248fc6	0.040176176
4	0xbcd378d5	-0.025814453
5	0xbb32a691	-0.0027259926
6	0xbcf510ad	-0.029915178
7	0xbc8e8e4e	-0.01740184
8	0xbd3a903c	-0.04554771
9	0xbc7455b8	-0.014913015
10	0x3b4cce09	0.0031250736
11	0x3bc7db8e	0.006099171
12	0x3bf0f4b9	0.007353392
13	0xbd2a5b00	-0.04159069
14	0x3ce67511	0.028131993
15	0x3ce91d04	0.028456219
16	0xbce0b90f	-0.027431993
17	0x3b8a4f2c	0.004220864
18	0x3d403479	0.04692504
19	0xbd838433	-0.064216994
20	0xbd12e37b	-0.035861474
21	0xbd1b739e	-0.037952058
22	0x3d09f81a	0.033683874
23	0xbc91b826	-0.017788004
24	0xbd24437c	-0.04010342
25	0xbc8b1271	-0.016976567
26	0xbd6e9800	-0.058250427
27	0xbabf4a8d	-0.0014594361
28	0xbc27401e	-0.010208158
29	0xbb914c82	-0.0044341693
30	0x3caedc7e	0.021345373
31	0xbd1e4bda	-0.038646556
32	0xbd401a31	-0.046899978
33	0x3ae87d5d	0.0017737556
34	0x3b5056d4	0.0031790035
35	0xbcc29d17	-0.023756547
36	0xbd0aa8fa	-0.033852555
37	0xbd1fbfe1	-0.03900135
38	0x3c03f1a2	0.008053215
39	0xbd84c170	-0.06482208
40	0xbc411542	-0.011784853
41	0xbc8542a2	-0.016267125
42	0xbb53d824	-0.0032324875
43	0xbd23fc0c	-0.040035293
44	0x3b777268	0.00377574
45	0xbcc73c97	-0.024320884
46	0x3cd5e529	0.026110249
47	0xbce34ce1	-0.02774662
48	0x3b95f73e	0.0045765927
49	0xbd2e6f3a	-0.042586543
50	0xbce7c4a2	-0.028292004
51	0x3ca5963f	0.020213244
52	0xbd4071c7	-0.046983507
53	0x3cae3c16	0.021268886
54	0x3c758aec	0.014986735
55	0x3c7b88fa	0.015352482
56	0x3d238495	0.039921362
57	0xbcedcdcf	-0.029028801
58	0xbbf24365	-0.007393288
59	0xbd148a1b	-0.03626452
60	0x3d29dfc6	0.041473173
61	0xbc618404	-0.013764385
62	0xbd261c95	-0.0405546
63	0x3c16ed32	0.009211825
64	0xbcc1de84	-0.023665674
65	0xbe88a872	-0.26691014
66	0x3c083e79	0.008315676
67	0xbe775eaf	-0.24157213
68	0xbd3ae1b0	-0.04562539
69	0xbe6d9e16	-0.23204836
70	0xbe35342a	-0.1769568
71	0x3d933e4e	0.07189618
72	0xbe176d1f	-0.1478772
73	0xbc0626f9	-0.008188003
74	0xbe280c07	-0.16410838
75	0xbe3908ac	-0.18069714
76	0x3c807560	0.015680969
77	0x3eef8cde	0.4678716
78	0xbb274e18	-0.0025528725
79	0xbd6be4d4	-0.057591274
80	0x3dfbd7aa	0.12296994
81	0xbd92a240	-0.07159853
82	0x3c29ef18	0.010371946
83	0xbef477dd	-0.47747698
84	0xbd92ea2f	-0.07173573
85	0xbdbe6225	-0.09296063
86	0xbd19cba2	-0.037547715
87	0xbd771f7b	-0.060332756
88	0x3dc60dc3	0.096705936
89	0xbe70c022	-0.23510793
90	0x3c8be641	0.017077567
91	0xbc43b20f	-0.011944308
92	0xbd7f2697	-0.06229266
93	0xbded7b94	-0.11595836
94	0xbe3954f1	-0.18098809
95	0xbf19360f	-0.5984811
96	0xbe72469c	-0.23659748
97	0xbdc77f57	-0.09741085
98	0xbd5f249d	-0.054478277
99	0x3d384abc	0.044993147
100	0xbde5cbd7	-0.1122052
101	0xbe35ecb9	-0.17766084
102	0xbc81039c	-0.015748791
103	0xbe952f05	-0.29137436
104	0xbde23261	-0.11044765
105	0x3d47ca14	0.0487767
106	0xbd02319f	-0.031785604
107	0xbbff3847	-0.007788691
108	0x3d804631	0.06263388
109	0x3d29468f	0.041327056
110	0xbdfa23f8	-0.12213892
111	0xbe86446c	-0.26224077
112	0xbd8377bf	-0.06419324
113	0xbdc755da	-0.09733172
114	0xbdc21097	-0.094758205
115	0x3ddd2343	0.10797741
116	0xbd19e119	-0.037568185
117	0x3cf30601	0.029665949
118	0x3e0d4b83	0.13798337
119	0xbe42dd18	-0.19029653
120	0xbd637767	-0.055533793
121	0xbd832abf	-0.064046375
122	0xbe9d940e	-0.3077702
123	0xbdd10483	-0.10205939
124	0x3c017e7c	0.007903691
125	0xbe24d6fa	-0.16097632
126	0xbe81af8b	-0.2532924
127	0xbdead6e4	-0.114667684
128	0xbc4a84f1	-0.012360797
129	0xbecedc0e	-0.40402263
130	0x3d177dee	0.03698533
131	0xbdfce5b6	-0.123485014
132	0x3ca6ab05	0.02034522
133	0xbe926891	-0.28595403
134	0x3e439891	0.19101168
135	0x3e83618a	0.25660354
136	0xbe8ddb3f	-0.27706334
137	0x3dd5ff80	0.104491234
138	0xbec444a8	-0.3833363
139	0xbe0d6316	-0.1380733
140	0x3defa46a	0.11701281
141	0x3e8d22b3	0.27565536
142	0xbdb4eaca	-0.08833845
143	0x3bc1ec9a	0.0059180977
144	0xbdabc479	-0.083870836
145	0x3e2632aa	0.16230264
146	0xbbc845d9	-0.006111842
147	0x3e18d08a	0.14923301
148	0xbdc2d588	-0.09513384
149	0xbe4cc755	-0.19997914
150	0xbe2ae16b	-0.16687553
151	0xbd876501	-0.06611062
152	0x3e56fb6e	0.2099435
153	0xbec5dc63	-0.38644704
154	0x3d730455	0.059330303
155	0x3e5ad1c6	0.21369085
156	0xbdd39063	-0.10330274
157	0x3dfbb4fb	0.12290379
158	0xbd26af7c	-0.0406947
159	0x3e524556	0.20534262
160	0x3d23e00b	0.040008586
161	0xbcaf9979	-0.021435486
162	0x3c22a505	0.009927039
163	0xbe262bee	-0.16227695
164	0x3d20ee65	0.03928985
165	0x3bea616b	0.0071527264
166	0x3be416ae	0.0069607114
167	0xbd77ef9d	-0.060531247
168	0x3dc85ef2	0.097837344
169	0x3db0a17c	0.08624551
170	0x3dfebc76	0.1243829
171	0x3dac59c9	0.08415563
172	0xbce3467f	-0.027743576
173	0xbda909b3	-0.08253803
174	0xbc5b64e6	-0.013390755
175	0xbe61f791	-0.22067095
176	0xbcdb96c0	-0.026805282
177	0xbc2d9578	-0.010594718
178	0xbbaabfef	-0.0052108685
179	0x3e3eb542	0.18623832
180	0xbc585ab8	-0.013205223
181	0xb96aab20	-0.00022379728
182	0xbd55967f	-0.052145477
183	0x3d886421	0.06659723
184	0x3d46dbc2	0.04854942
185	0xbcc4b8b5	-0.024013856
186	0xbee7410e	-0.4516682
187	0x3e280dfa	0.16411582
188	0x3d5fed25	0.054669518
189	0xbe81b368	-0.2533219
190	0x3df4748c	0.11936292
191	0xbe05958b	-0.13045327
192	0xbd9401cb	-0.072269045
193	0xbe15dfab	-0.14636104
194	0xbd4f7b15	-0.05065449
195	0xbd66eb90	-0.056376994
196	0xbcedaccd	-0.029013062
197	0xbae362a8	-0.0017348127
198	0xbd86154a	-0.06547029
199	0x3e2818ed	0.16415758
200	0xbe06bc60	-0.13157797
201	0x3ced0f1b	0.028937867
202	0x3d1bbdd8	0.038022846
203	0xbdaf30ef	-0.08554255
204	0x3daa9e81	0.083310135
205	0xbeae6623	-0.340623
206	0xbd9e4661	-0.077282675
207	0x3c980d87	0.018561138
208	0x3d48268a	0.04886488
209	0x3e72bd62	0.23705056
210	0x3dfc842b	0.123298965
211	0xbef87ebd	-0.48534194
212	0xbcbf4be5	-0.023351619
213	0xbd7b3bad	-0.061336208
214	0xbce5e6e4	-0.028064199
215	0xbd15a662	-0.03653563
216	0x3e3c3fca	0.18383709
217	0xbe14312d	-0.14471884
218	0xbdecf3e5	-0.11569957
219	0x3e521a1a	0.2051777
220	0xbda42296	-0.08014409
221	0xbda0b316	-0.07846658
222	0xbdc4a71d	-0.09602187
223	0xbee82503	-0.45340738
224	0x3de0f3f0	0.109840274
225	0xbd2ae3e0	-0.041721225
226	0x3c38f166	0.011288023
227	0xbe25129f	-0.16120385
228	0xbdc22345	-0.094793834
229	0xbd69feda	-0.05712781
230	0x3d8a0e6d	0.06741033
231	0xbe8114cb	-0.25211176
232	0x3e2a6447	0.16639815
233	0x3badd79e	0.0053052446
234	0xbda7e25c	-0.081974715
235	0x3c457f4a	0.012054274
236	0xbd2e6e28	-0.042585522
237	0xbbb4af5b	-0.005514068
238	0x3e1e63f7	0.15467821
239	0xbdcedc9c	-0.10100672
240	0xbcf4389e	-0.029812153
241	0x3cbc8eb4	0.023017265
242	0x3d11ee9b	0.035627943
243	0x3e80ed03	0.25180826
244	0x3d02ec20	0.031963468
245	0xbc5a0a36	-0.013308099
246	0xbd615e9a	-0.05502186
247	0x3e3d80f7	0.18506227
248	0xbd904016	-0.070434734
249	0xbd9409a9	-0.07228405
250	0xbe0e4bb8	-0.13896072
251	0xbe2ecf02	-0.17071155
252	0xbcb24521	-0.021761479
253	0xbe4bfba0	-0.19920206
254	0xbe39144f	-0.18074153
255	0xbcc6eea5	-0.024283716

fc1.bias f4 [64]
0	0x3a14b577	0.00056727923
1	0x3ed083d4	0.40725577
2	0xbf2223d4	-0.6333592
3	0x3de38edc	0.11111233
4	0xbd3ec8b7	-0.046578135
5	0x3e8f95df	0.2804403
6	0x3decdffb	0.115661584
7	0x3ee7759e	0.45206922
8	0x3dcd7525	0.10032109
9	0xbcf8deff	-0.03037977
10	0x3bc4a0ca	0.006000613
11	0xbd228f1a	-0.039687254
12	0xbd52baca	-0.051447667
13	0xbd3e02ef	-0.046389516
14	0x3d775f49	0.060393605
15	0xbe93f623	-0.28898725
16	0xbcbb6e14	-0.022879638
17	0x3af36c77	0.0018571754
18	0x3eaf40e5	0.34229198
19	0x3ec0fc70	0.37692595
20	0xbcfde50f	-0.030993013
21	0x3e11f7a3	0.14254622
22	0x3dbcb9c2	0.09215118
23	0xbd1836dc	-0.037161693
24	0xbb3c2447	-0.0028708146
25	0x3eb8fb85	0.36129394
26	0xbbea891d	-0.0071574585
27	0x3d021d98	0.031766504
28	0xbc99f5c5	-0.01879395
29	0x3f11b14f	0.56911176
30	0x3e89afb9	0.26891878
31	0x3f2065f9	0.626556
32	0x3e52d4fd	0.20589061
33	0xbbf10c38	-0.007356193
34	0x3e844d83	0.25840387
35	0xbc90a799	-0.017658042
36	0xbca4a1b8	-0.020096645
37	0x3e320cbb	0.17387669
38	0x3ea3014e	0.31836933
39	0x3f7c30b3	0.9851181
40	0x3d5878bc	0.052849516
41	0x3e4be24f	0.19910549
42	0xbd5b0265	-0.05346908
43	0xbd61ec40	-0.055156946
44	0xbca2cc98	-0.019872949
45	0x3dd87a4b	0.105702005
46	0x3f13c063	0.57715434
47	0x3dd01adb	0.10161372
48	0xbd08426c	-0.03326647
49	0x3e4be142	0.19910148
50	0xbd0f9f28	-0.035063893
51	0xbd77878b	-0.060432
52	0xbcdcd882	-0.026958708
53	0x3c27baa8	0.010237373
54	0x3f4300d1	0.7617312
55	0xbd6680ef	-0.056275304
56	0xbd9af373	-0.075659655
57	0xbc1bb11e	-0.009502677
58	0xbbb5b7d2	-0.0055455947
59	0xbd2eec1f	-0.04270565
60	0x3ca060f6	0.019577485
61	0x3e7fadba	0.24968615
62	0xbcbaa3f5	-0.022783259
63	0x3dc01b71	0.09380234

fc2.weight f4 [32, 64]
0	0x3d0698d4	0.032860592
1	0x3de623db	0.11237308
2	0x3e2997e7	0.16561852
3	0x3e6c5179	0.23077954
4	0xbcfc261e	-0.030779894
5	0x3bc81343	0.006105812
6	0xbd1b50e9	-0.03791896
7	0xbc49b2c6	-0.012310689
8	0x3b86e7f2	0.0041170055
9	0x3c169a90	0.009192124
10	0x3b8632ae	0.004095397
11	0xbc9cd19d	-0.01914292
12	0x3d02f211	0.031969134
13	0x3d2d11cf	0.04225331
14	0x3c2b37ae	0.010450287
15	0xbdf73d02	-0.12072183
16	0xbdd140b6	-0.10217421
17	0xbd5d0760	-0.05396211
18	0xbe7b08d9	-0.24515094
19	0xbb90d077	-0.004419382
20	0xbc9fe49f	-0.019518195
21	0xbe4ea4c0	-0.20180035
22	0xbdfef0d8	-0.12448281
23	0xbd3c9663	-0.046041857
24	0x3cac0f59	0.021003412
25	0xbe0e66d8	-0.1390642
26	0xbd1c580a	-0.038169898
27	0x3de61389	0.11234195
28	0x3c84b076	0.016197424
29	0xbdbb3dee	-0.091426715
30	0xbe01e093	-0.12683325
31	0x3de1e270	0.11029518
32	0xbe6b753d	-0.22993942
33	0x3c486388	0.012230761
34	0xbe407ff5	-0.18798812
35	0xbcf9fe87	-0.030516876
36	0xbc544941	-0.012956918
37	0xbe7f3afb	-0.24924843
38	0xbd2c797a	-0.042108037
39	0xbe0bd174	-0.13654119
40	0xbd37148f	-0.04469734
41	0x3c7a13ed	0.01526354
42	0xbc6ec18e	-0.014572514
43	0xbd26d7e5	-0.040733237
44	0x3c93ea8d	0.018056178
45	0xbd7c6bf7	-0.0616264
46	0xbd20fdfb	-0.039304715
47	0xbd24964d	-0.0401824
48	0xbdb4a6b3	-0.08820858
49	0xbf091db2	-0.53560936
50	0x3cb77964	0.02239675
51	0x3bb0e9c6	0.0053989617
52	0x3c4b1993	0.012396234
53	0xbd00062f	-0.031255897
54	0xbe0a681c	-0.13516277
55	0xbd2ffcea	-0.042965807
56	0x3d32b917	0.043633547
57	0xbb9ec341	-0.0048450534
58	0xbcd62091	-0.026138576
59	0xbc9e7c81	-0.019346477
60	0x3e43d7cb	0.19125287
61	0x3e2310fa	0.15924445
62	0xbd019f2e	-0.031645946
63	0xbd2b9b1b	-0.041895967
64	0x3ce1725c	0.027520351
65	0xbdb60a41	-0.088886745
66	0xbebcd22b	-0.36879095
67	0x3e43470c	0.19070071
68	0x3d140da2	0.036145814
69	0xbc66cde4	-0.014087174
70	0x3c142648	0.00904233
71	0xbc9e2481	-0.019304516
72	0x3ce87edd	0.028380806
73	0xbc9a7a64	-0.018857189
74	0x3d1f000b	0.0388184
75	0xbc5a73b3	-0.013333249
76	0x3c924a6b	0.01785775
77	0xbdd7c43b	-0.10535475
78	0x3c14515c	0.009052601
79	0xbd6076b4	-0.054800704
80	0x3b9d2ae0	0.004796371
81	0x3b3e52d2	0.0029041064
82	0xbe74003f	-0.23828219
83	0x3e91d334	0.28481448
84	0xbd02dc46	-0.03194835
85	0xbdf15f04	-0.11785701
86	0xbdafd050	-0.08584654
87	0xbd351a1d	-0.044214357
88	0x3b378b03	0.0028006441
89	0xbca74924	-0.020420618
90	0xbda800dc	-0.08203289
91	0xbeb570f2	-0.35437733
92	0xbda57c62	-0.08080365
93	0xbe83937d	-0.25698462
94	0x3d5bfb26	0.05370631
95	0x3e5ed4bf	0.21760844
96	0xbeb2e25e	-0.3493833
97	0x3ccde5a2	0.025133912
98	0xbdb1a31a	-0.08673687
99	0xbc4d1a8e	-0.012518538
100	0x3c777495	0.015103479
101	0xbe4180c3	-0.18896775
102	0x3c1fb061	0.009746642
103	0x3db39ed4	0.087705284
104	0xbc22c137	-0.009933761
105	0x3e2deb9c	0.16984409
106	0xbcc545a2	-0.024081055
107	0x3b9bc74d	0.004753983
108	0x3dfeab19	0.12434978
109	0xbd1dcd24	-0.038525715
110	0x3de4b3a0	0.11167073
111	0xbd68cb53	-0.05683453
112	0xbd018b0b	-0.031626742
113	0xbeec2cab	-0.4612783
114	0xbccb8d87	-0.024847759
115	0xbc6b7333	-0.014370727
116	0xbc13e145	-0.009025876
117	0xbd5194e3	-0.05116738
118	0x3e24b62e	0.16085121
119	0x3d19a38e	0.037509494
120	0xbc57036d	-0.013123375
121	0x3d155d70	0.036466062
122	0xbd49a6c4	-0.049231306
123	0xbd6a65c8	-0.057225972
124	0xbd03b0b6	-0.032150947
125	0x3e128b8d	0.14311047
126	0x3bf80348	0.0075687505
127	0xbb635fd5	-0.0034694572
128	0x3d2fe547	0.042943265
129	0xbcb5ef88	-0.022208944
130	0xbd5f62af	-0.05453747
131	0xbd249d30	-0.04018897
132	0xbd35717f	-0.04429769
133	0xbd25d6a4	-0.0404879
134	0x3ccb8e18	0.024848029
135	0xbd05ebf6	-0.032695733
136	0xbd064622	-0.032781728
137	0x3d182a28	0.03714958
138	0xbd407d32	-0.046994396
139	0xbd2b8a03	-0.041879665
140	0xbc4f5fcd	-0.012657118
141	0xbbf63c37	-0.0075145024
142	0x3ca0ee4e	0.019644883
143	0xbd0743c5	-0.033023614
144	0xbd2c55a2	-0.042073853
145	0xbd0b6ff3	-0.03404231
146	0xbcb4381e	-0.021999415
147	0x3cf1d851	0.029522093
148	0xbcd6de81	-0.026229145
149	0xbd44a0e5	-0.048005003
150	0xbd3bee8c	-0.045881793
151	0x3cbc1874	0.022960879
152	0xbb75961e	-0.003747351
153	0xbcfba7d7	-0.03071968
154	0xbc41dfae	-0.011833115
155	0x3aa53c94	0.0012606555
156	0xbccaa75e	-0.02473801
157	0xbc81e96d	-0.015858376
158	0x3cfe27b6	0.031024795
159	0xbcd7e11f	-0.026352463
160	0x3bc98864	0.006150292
161	0xbc9790c4	-0.018501647
162	0xbc40d70a	-0.011770019
163	0x3a80750a	0.0009800505
164	0xbd4985cc	-0.049199864
165	0xbb9c460b	-0.004769092
166	0x3d2d0519	0.04224119
167	0xbc163bce	-0.009169532
168	0xbcc8621b	-0.024460843
169	0x3c9616da	0.018321443
170	0xbd1a4272	-0.037661023
171	0x3d3233e1	0.043506507
172	0xbd21ca8a	-0.039499797
173	0x3d066fef	0.032821592
174	0xbc7bb313	-0.015362519
175	0xbcbb7650	-0.022883564
176	0xbce58e87	-0.028022064
177	0xbb3a1481	-0.002839357
178	0x39f674d6	0.00047007826
179	0x3be128aa	0.0068713026
180	0x3cd461e2	0.02592558
181	0xbd3b8190	-0.045777857
182	0xbb8aac4b	-0.0042319647
183	0x3ca7c85c	0.020481281
184	0x3ce5b3af	0.028039781
185	0x3d13665c	0.03598629
186	0xbbc96397	-0.0061459052
187	0x3cc15cf6	0.023603898
188	0x3d46d83d	0.048546065
189	0x3d47bddc	0.04876505
190	0xbd253a89	-0.040339027
191	0xbd15aa40	-0.036539316
192	0x3c90933f	0.017648337
193	0xbe6af3a1	-0.229445
194	0xbecb2798	-0.39678645
195	0xbe5b4348	-0.21412385
196	0x3caa3603	0.020777708
197	0x3ce06776	0.027393084
198	0x3d34ef1c	0.044173345
199	0xbbc44747	-0.0059899422
200	0xbcec65a7	-0.028857065
201	0xbaeb1e95	-0.0017938191
202	0x3d4ed601	0.05049706
203	0x3cd97508	0.026545063
204	0xbd0d03b1	-0.03442735
205	0x3c86aba6	0.01643927
206	0x3be7b03a	0.0070705684
207	0xbda2e2fb	-0.07953449
208	0xbc4985e4	-0.012299988
209	0xbd572c7b	-0.052532654
210	0x3e98bf98	0.29833674
211	0xbe5d872a	-0.21633592
212	0xbcce64e8	-0.0251946
213	0xbd0d5ac0	-0.034510374
214	0xbe02a11f	-0.12756775
215	0x3cff8823	0.031192845
216	0x3cb2692c	0.021778665
217	0x3d1c82e1	0.038210753
218	0xbc0f7b88	-0.0087574795
219	0xbcdf80ba	-0.027283061
220	0x3b4dd33a	0.0031406418
221	0xbb6e16f5	-0.0036329601
222	0x3cbb0e40	0.022833943
223	0xbe4f3f2c	-0.20238942
224	0x3e5c01dd	0.21485086
225	0xbb4f79a3	-0.0031658194
226	0x3db15d06	0.08660321
227	0x3c29ba88	0.010359414
228	0x3bc1325e	0.005895897
229	0xbe0209f8	-0.12699115
230	0x3d0b394f	0.0339902
231	0xbd26f9bf	-0.04076552
232	0xbce56f12	-0.028007064
233	0x3e40c2d1	0.18824317
234	0x3c4ba9a1	0.012430579
235	0xbd2a1521	-0.041524056
236	0x3e477377	0.1947764
237	0xbd6dc663	-0.058050524
238	0xbdd3f592	-0.10349573
239	0x3d49e1ea	0.049287714
240	0x3ccb1c25	0.024793694
241	0xbc8b03aa	-0.01696952
242	0xbd317bf2	-0.043331094
243	0xbd28f5a3	-0.041249882
244	0x3ce6f7b7	0.028194292
245	0xbd38eed7	-0.04514965
246	0x3d8161a5	0.06317452
247	0x3d2960da	0.04135213
248	0x3cb66d6f	0.022268979
249	0xbbcf6b6c	-0.0063299444
250	0xbd307e27	-0.04308906
251	0xbd82b48f	-0.06382095
252	0xbe5aca98	-0.21366346
253	0xbe2ee05a	-0.17077771
254	0x3c3f550b	0.011677991
255	0xbb3b6a76	-0.0028597391

fc2.bias f4 [32]
0	0x3efd3ab5	0.49458852
1	0x3e0754ff	0.13216017
2	0xbd933fb2	-0.07189883
3	0x3e8f71b6	0.28016442
4	0xbd7bdce7	-0.061489966
5	0xbd7047e9	-0.05866233
6	0xbd9c2efe	-0.076261505
7	0xbd2bf103	-0.041977894
8	0xbd119cf8	-0.035550088
9	0xbdbb11f9	-0.091342874
10	0xbcd5b909	-0.026089208
11	0xbd6624b2	-0.05618734
12	0xbd2bf9a9	-0.04198614
13	0xbdb4cf00	-0.088285446
14	0xbd8876b1	-0.066632636
15	0x3f1c92ff	0.611618
16	0x3dd68e96	0.10476415
17	0x3e2728a3	0.16324095
18	0x3e642ce3	0.22282748
19	0x3e99aee1	0.30016235
20	0x3d3c0d0a	0.045910873
21	0xbbe61ac3	-0.007022233
22	0x3e4260fb	0.18982308
23	0x3ef58d2a	0.47959262
24	0xbd83747f	-0.06418704
25	0xbd795b37	-0.060878005
26	0x3c9956fa	0.018718231
27	0xbd7869b7	-0.060647693
28	0x3e3a3cc8	0.18187249
29	0x3de0ca35	0.10976068
30	0xbe0c8bce	-0.13725206
31	0xbb911e1b	-0.0044286377

fc3.weight f4 [5, 32]
0	0xbeca3b1e	-0.39498228
1	0xbf765324	-0.9622061
2	0xbca43983	-0.020046955
3	0xbe001bd0	-0.1251061
4	0x3c9e774d	0.019343996
5	0x3d58e555	0.052953083
6	0x3c921701	0.017833235
7	0xbb9b96e1	-0.004748211
8	0xbe3ad96e	-0.18247005
9	0x3e0064fe	0.12538525
10	0xbbca4583	-0.006172837
11	0xbd599d0b	-0.053128283
12	0x3df332df	0.11874937
13	0x3d6ac0b9	0.0573127
14	0x3d8ec222	0.06970622
15	0xbf71bab5	-0.9442552
16	0xbee914e4	-0.4552375
17	0x3f22a9ee	0.6354054
18	0xbe99c498	-0.30032802
19	0xbbf19f98	-0.0073737614
20	0x3d8e84fc	0.069589585
21	0xbcb6107a	-0.022224654
22	0x3edfa17e	0.43677896
23	0xbee6c2a2	-0.45070368
24	0x3c355127	0.0110667115
25	0x3c4c0945	0.012453382
26	0xbea51352	-0.32241303
27	0x3cbecac7	0.023290051
28	0x3e76b807	0.24093638
29	0xbf57eab3	-0.843425
30	0x3c8d5c4c	0.017255925
31	0x3e0aab44	0.13541895
32	0x3ef1993e	0.47187227
33	0x3e7c2e8d	0.24627133
34	0x3b599737	0.0033201703
35	0xbe2cb7fc	-0.1686706
36	0x3d43ff19	0.047850702
37	0x3c5a19f8	0.0133118555
38	0xba2fb5db	-0.0006702819
39	0x3ce69784	0.02814842
40	0x3e2317e7	0.15927087
41	0x3d053b54	0.032527283
42	0xbcb56e98	-0.022147462
43	0xbd392ca6	-0.045208596
44	0x3c030802	0.007997515
45	0xbcff1c7d	-0.031141514
46	0x3d43d691	0.04781205
47	0x3e93efd2	0.28893906
48	0x3c9ea9a9	0.01936801
49	0x3cbff43a	0.023431886
50	0xbe107685	-0.14107712
51	0xbe23987d	-0.15976138
52	0x3e0cba60	0.13742971
53	0xbd4868df	-0.048928138
54	0xbd2e518b	-0.042558234
55	0xbde355d5	-0.111003555
56	0xbcc591c8	-0.024117365
57	0xbb637096	-0.0034704558
58	0xbec7294b	-0.38898692
59	0xbcb4c160	-0.022064865
60	0xbe0388e8	-0.12845194
61	0x3e0d5b9f	0.13804482
62	0x3d0c9006	0.03431704
63	0x3d06ae8a	0.032881297
64	0xbd85841f	-0.06519341
65	0x3e850200	0.25978088
66	0xbd3f0af0	-0.04664129
67	0xbddf1855	-0.10893313
68	0x3d446478	0.047947377
69	0x3aee4ec1	0.001818143
70	0xbd406b86	-0.046977542
71	0x3d84b4eb	0.0647982
72	0xbd575e9b	-0.052580457
73	0xbdd4ba94	-0.103871495
74	0x3dbbfc12	0.09178938
75	0xbca73ac4	-0.020413764
76	0x3d5f1254	0.05446084
77	0x3d8dd56b	0.06925472
78	0xbce83fcd	-0.028350735
79	0x3dabe506	0.08393292
80	0x3dd95d41	0.1061349
81	0x3cbbef08	0.022941127
82	0x3e358aa2	0.17728665
83	0x3dcacf60	0.09902835
84	0x3cdf8cbc	0.027288787
85	0xbb06831e	-0.002052493
86	0xbd155627	-0.036459114
87	0x3ef50c25	0.47860828
88	0xbd174808	-0.03693393
89	0xbc54bbfe	-0.012984274
90	0x3edba09a	0.42895967
91	0x3d13b2eb	0.0360593
92	0x3d8f8705	0.07008175
93	0x3dab72e0	0.0837152
94	0xbe2c98cc	-0.16855162
95	0x3b87d5ba	0.0041453512
96	0x3f1b2689	0.60605675
97	0x3e7836f2	0.2423971
98	0x3b90cf4d	0.0044192434
99	0xbe8e4ce6	-0.27793044
100	0xbc9cc759	-0.019138025
101	0x3c0b359e	0.00849667
102	0x3bcc47be	0.0062341383
103	0x3cef581b	0.029216817
104	0x3e353248	0.17694962
105	0x3da36781	0.07978726
106	0x3d950161	0.07275654
107	0xbd1939e3	-0.03740872
108	0xbe05f467	-0.13081513
109	0x3ca2e610	0.019885093
110	0x3d478dcc	0.048719212
111	0x3e880e98	0.26573634
112	0x3d4dcb92	0.050242968
113	0xbebf97b2	-0.37420422
114	0xbe372436	-0.17884907
115	0xbea85de0	-0.3288412
116	0x3cd2aaf7	0.025716288
117	0x3abbceeb	0.0014328634
118	0x3e333c07	0.17503367
119	0xbb460d53	-0.0030220344
120	0xbcb98e80	-0.022650957
121	0x3bd2308c	0.0064144786
122	0xbcabdbcb	-0.020978829
123	0x3c79f9c4	0.015257303
124	0xbe8199d5	-0.25312677
125	0x3f0802c8	0.53129244
126	0x3dc6c354	0.09705225
127	0xbc9c3e37	-0.019072635
128	0xbf178650	-0.5918932
129	0x3e1dd6f8	0.15414035
130	0x3bb9ecea	0.0056739943
131	0x3eca47d7	0.39507934
132	0xbc570324	-0.013123307
133	0x3c50dc62	0.012747856
134	0xbb9c0e54	-0.0047624502
135	0x3d463323	0.04838861
136	0xbdeec4e6	-0.11658649
137	0xbdff029f	-0.12451672
138	0xbd93f3ed	-0.072242595
139	0xbd107c40	-0.035274744
140	0xbdaa5e2f	-0.08318745
141	0x3d069ab5	0.032862384
142	0x3c775a27	0.015097178
143	0x3ea08e3e	0.31358522
144	0x3e8438a8	0.25824475
145	0xbe9c065a	-0.30473596
146	0x3ed0cc80	0.4078102
147	0x3eda4e8d	0.42638054
148	0xbe58fee3	-0.21190982
149	0xbd6850ac	-0.05671756
150	0xbebabb25	-0.36470905
151	0x3d67d785	0.05660202
152	0xbc4ed04a	-0.012622902
153	0x3c82e740	0.01597941
154	0x3ec05dd2	0.3757158
155	0xbd61e361	-0.055148486
156	0x3e633306	0.22187433
157	0x3d938a99	0.0720417
158	0xbd7e3249	-0.062059674
159	0xbd78fb94	-0.0607868

fc3.bias f4 [5]
0	0x3eafe935	0.3435761
1	0x3e4dcf80	0.20098686
2	0xbe84dc3f	-0.25949284
3	0x3d7c65a2	0.061620362
4	0xbefb52bc	-0.4908656
