Assignment_1/1/CNN_Layers/Models/2CNN/model-2.pth (torch_old, 882610 bytes, 10 tensors)

conv1.weight f4 [64, 3, 5, 5]
000000 94 46 16 3d 78 54 25 3d 6c 97 37 3d 7c ab 3d 3d
       0.036688402 0.04036376 0.04482214 0.04630612
000010 a2 b6 84 3c e1 72 97 bd a5 c8 69 3d 4d 66 a4 3c
       0.016200367 -0.07394958 0.057076115 0.020068312
000020 60 72 8c 3d 88 37 31 3e 2d 4b cc bc 3d 47 0e bd
       0.06857753 0.1730634 -0.02493819 -0.034735907
000030 b3 0e 43 3c 3b ab e0 3d 4a e7 37 3e f9 a7 3f bd
       0.01190536 0.109701596 0.17959324 -0.04679105
000040 ae a1 5e bd ed 6a 23 bc b7 84 75 3d 23 5f 1e 3e
       -0.05435341 -0.009974224 0.05994102 0.1546598
000050 55 3d 82 3c 3a 1e e0 bc bc 9b 6a bd 1b 70 e6 bc
       0.015898386 -0.027358163 -0.057277426 -0.028129628
000060 2a 9a 99 3c 3e 6f 06 be fe bc c3 bd 6f 97 84 bd
       0.018750269 -0.13128373 -0.09557532 -0.06474196
000070 64 18 19 bd a7 65 79 3d e0 55 6d be 2b 8f 0f be
       -0.037376776 0.06088796 -0.2317729 -0.14019458
000080 cf 7f cd 3c 80 b3 41 3d d8 ee 33 3e 0c e7 66 be
       0.025085358 0.047290325 0.1757158 -0.22549075
000090 1d 83 2c be 41 de 7e bd bb 4a a9 3d 62 45 84 3e
       -0.16846891 -0.062223677 0.08266207 0.25834185
0000a0 7d a7 14 be 61 2f 19 be 0c da e0 bd 53 50 f0 3c
       -0.14517017 -0.1495948 -0.10979089 0.029335177
0000b0 9f 55 69 3e 54 26 8e bd f9 10 74 bd c4 e8 87 bd
       0.22786568 -0.06940904 -0.0595865 -0.066361934
0000c0 d1 c6 6d bc e1 2f f6 3d 61 8e cc bd f3 9d 81 bd
       -0.014512734 0.12020851 -0.09988094 -0.063289545
0000d0 52 60 bc bc 44 1e 53 3d 65 ed c4 3d 76 c1 45 be
       -0.022995148 0.051542535 0.09615592 -0.1931208
0000e0 74 99 9f bd 6d b3 ad 3c 73 56 a8 3d e1 ad 8c 3e
       -0.07792941 0.021203721 0.08219614 0.2747641
0000f0 fe ee 49 be 17 88 98 bd 0d d2 88 bb 26 3e bb 3d
       -0.19720075 -0.07447832 -0.0041754306 0.09142713
000100 6b 42 9f 3e 52 1a e4 bd 82 a4 6f bd 8b 7c 9c bb
       0.3110536 -0.11137833 -0.058506496 -0.004775589
000110 ad 5b c8 3d 2f 1b 7c 3e f0 72 c5 bc 83 fb 7f bd
       0.09783111 0.24619745 -0.024102658 -0.06249572
000120 66 8a 63 bd e0 aa b2 3d f2 9d 38 3e cf 8f 81 3d
       -0.05555191 0.08723998 0.18029001 0.063262574
000130 12 2d 2b 3e ad 11 39 3e 81 5e 0f 3e 7f da 14 3e
       0.16716412 0.18073149 0.14000894 0.14536475
000140 e5 99 a7 3d 3e 6d fb 3d d7 2d 00 3e e1 7d aa 3d
       0.0818365 0.12276696 0.12517487 0.08324791
000150 73 c0 03 3e 5b 35 50 3d 4a ed 08 3e d5 cd dd 3c
       0.12866382 0.050832134 0.13371769 0.027075687
000160 2b 84 04 3d 81 f8 c6 3d 04 76 a9 3c e7 3e f9 3d
       0.032352608 0.09715367 0.020686157 0.12170201
000170 e0 37 07 3d 49 bf 3a 3d f8 f3 d3 3d a1 a8 bb 3c
       0.03301227 0.04559258 0.10349268 0.022907557
000180 64 9e b3 3c cd 97 ad bc 6e c6 34 3c 32 c7 95 3d
       0.021926112 -0.021190548 0.011033637 0.07313384
000190 92 10 76 be b4 bc c9 bd 20 dd 17 bd 18 34 82 bd
       -0.24029759 -0.098504454 -0.037076116 -0.06357592
0001a0 31 71 3d 3d 4d 8e 5e be e8 63 1f be ef a7 64 bd
       0.046250526 -0.21733971 -0.15565455 -0.055824216
0001b0 44 bd 0c bd f6 16 81 3d 46 a0 74 be 4f 2f 26 be
       -0.034360185 0.063032076 -0.23889264 -0.16228984
0001c0 2b 01 2d be 73 b8 b6 bd b5 d8 48 3d e7 76 6f be
       -0.16894977 -0.089219 0.049034793 -0.23385201
0001d0 86 be 0a be e2 ca ec bd aa 8c 21 be b6 87 1e 3d
       -0.13549241 -0.11562134 -0.15776315 0.038703643
0001e0 e5 b9 87 be 56 22 56 be 8a bf 23 be 7b d6 15 be
       -0.26509014 -0.20911536 -0.15991035 -0.14632599
0001f0 95 f7 e9 bb 75 68 9f bd 0d 89 98 3d e0 a6 11 3e
       -0.00714011 -0.077835955 0.07448015 0.14223814
000200 15 6b e9 3d 1e 99 91 3e ed c4 ef bd 13 81 7b bc
       0.113973774 0.28437132 -0.117074825 -0.015350598
000210 3d e0 42 3d 28 12 07 3e b5 a7 86 3e 99 d9 a5 bd
       0.04757713 0.1319052 0.26299825 -0.08098144
000220 63 3a a3 bc 20 db 8c 3d 5e 34 d3 3d ab 19 70 3e
       -0.019925302 0.06877732 0.103127226 0.23447292
000230 a4 d9 5b bd 00 f8 11 bc e4 fa b5 3c 2a b9 5c 3d
       -0.053674355 -0.008909225 0.02221436 0.053887524
000240 d6 3b 82 3e a0 cf 5e bd 7b de 8c 3b fa a0 8c 3d
       0.25436276 -0.054397225 0.0042989827 0.06866641
000250 2a 25 ff 3d b5 08 90 3e df ff 81 bd 44 cc 13 bd
       0.1245826 0.28131643 -0.06347632 -0.036083475
000260 26 ca 5e bd 5b 6f 5b bd b9 f0 3e bd 23 f5 3b bd
       -0.054392003 -0.053572994 -0.04661629 -0.045888077
000270 5d 14 b6 bd ba 5f 6f bd 6d 33 4e bd 18 1f 53 bd
       -0.08890603 -0.0584409 -0.050342012 -0.051543325
000280 d5 b8 2c bd 68 b2 3a bd c4 76 95 bd 22 b8 ff bc
       -0.042168457 -0.045580298 -0.07298043 -0.031215731
000290 69 1d 8c 3b ba e8 88 bc 3a 39 35 bd ed f9 5b bd
       0.004275967 -0.016712535 -0.04424403 -0.053705145
0002a0 93 29 26 bd 83 d8 5a bd 15 35 4f bd f2 32 ab bd
       -0.040566992 -0.053429138 -0.050587732 -0.083593264
0002b0 60 dd 51 bd e8 e2 a6 3c 50 9a ba 3c a1 13 aa bd
       -0.05123651 0.02037187 0.02277866 -0.08304525
0002c0 30 bb 58 bd 63 ed 07 bd 89 03 84 bc 3c 1d 64 bd
       -0.05291289 -0.033185374 -0.016114967 -0.055691943
0002d0 bf 19 c7 bd a1 ad 54 bd 13 c7 a9 bc f4 cf 6f bc
       -0.097217076 -0.051923398 -0.020724809 -0.014636982
0002e0 9f f2 d0 3c de 8f e6 bd 19 3d b8 bd 43 79 88 bd
       0.025506316 -0.11257909 -0.089960285 -0.06663754
0002f0 6f bc d2 bc 47 d0 d9 bb 0b 1a fa bd 4e ce 97 bd
       -0.025724618 -0.006647143 -0.122119986 -0.07412396
000300 b1 15 ef bb fb d1 0f bc 1b ea ac 3c b1 1f 0c be
       -0.007296287 -0.008778091 0.021107724 -0.13683964
000310 32 07 1f bd df 71 1a 3c c2 fe 56 3c b8 da 03 3d
       -0.03882522 0.009426563 0.013122262 0.03219101
000320 31 af a0 3b a8 d2 c9 3c 94 ea 06 3e 9b d6 ec 3d
       0.004903697 0.024636582 0.13175422 0.1156437
000330 6c 5e ca 3d 9c 9b fb 3c 24 fe b4 3d cb 36 91 3d
       0.09881291 0.030713849 0.08837536 0.07090529
000340 cf 82 9a 3d 23 eb de 3d 9a b3 7c 3d 26 43 f1 3d
       0.07544481 0.108846925 0.06169472 0.11780386
000350 95 87 c4 3d 14 32 22 3e 2c fa de 3d 99 97 05 3d
       0.09596173 0.15839416 0.1088756 0.032615278
000360 30 d3 e2 3d e1 b6 bf 3d 78 52 05 3e 33 c3 28 3e
       0.11075437 0.09361053 0.1301974 0.16480713
000370 7e 16 3e 3d c0 9a 8f 3d 25 3e 2f 3e f1 f5 4b 3e
       0.04640817 0.07011938 0.1711355 0.19918038
000380 24 bb 36 3e df 44 94 3d 72 a9 fc 3d 0b 63 90 3d
       0.17844826 0.072396986 0.12337007 0.07050141
000390 aa 15 15 3d cd 49 eb 3d 0d 39 10 bd f0 cf b5 3d
       0.036397614 0.11488686 -0.035210658 0.088775516
0003a0 e3 26 fb 3d 69 31 42 3d 12 e5 d5 3d 7a e7 ef 3c
       0.122632764 0.047410402 0.10444082 0.029285181
0003b0 f6 2b 94 3d 39 b0 3e 3d 88 0b 34 3d 9c 9b c2 3d
       0.072349474 0.046554778 0.04395631 0.095023364
0003c0 06 34 7c bc a5 a5 f7 bb 29 5e 44 bd 5f f6 32 3b
       -0.015393263 -0.007557588 -0.04794136 0.0027307493
0003d0 dd 62 c5 3d 6e 65 09 3d b7 cd 44 3a d1 3d 6a bd
       0.09637997 0.033543997 0.00075074605 -0.05718786
0003e0 8a fa 02 bd ca a9 4a 3b 8e 34 65 be a3 20 6c bd
       -0.031977214 0.0030923956 -0.2238333 -0.057648312
0003f0 06 10 80 bd 5d 26 0d bd b8 77 15 3d 00 a7 61 be
       -0.06253056 -0.034460414 0.036491126 -0.22036362

conv1.bias f4 [64]
000000 09 64 0d be e8 af 79 be a9 e6 84 3d 8f 84 22 be
       -0.13807692 -0.24383509 0.064893074 -0.1587088
000010 1f 12 6c bf aa d9 49 be c9 ba bf be 54 36 d4 be
       -0.9221515 -0.19711939 -0.37447193 -0.414477
000020 c8 a3 dc be 36 a0 01 bf 09 06 dc be e6 b0 3f be
       -0.43093705 -0.5063509 -0.42973354 -0.18719825
000030 a1 6d 93 be c9 69 3e 3e bd f9 95 bd d7 5a 9e be
       -0.28794578 0.18595041 -0.073230244 -0.3092868
000040 3c 49 af be 61 d4 75 bd f7 18 c5 bc 28 8b e6 be
       -0.3423556 -0.060016993 -0.024059756 -0.45028043
000050 1b 19 6a bd 2e b1 4b be 91 4c 3f be c8 ae 15 bf
       -0.05715285 -0.19891807 -0.18681552 -0.5846982
000060 6f e9 bc bf 5e d4 ae bd 0c 2e 2a be 6f 31 d9 bc
       -1.4758738 -0.085365996 -0.16619128 -0.02651283
000070 67 47 35 bf 13 bc d2 3c f3 f1 02 bf 4e da db be
       -0.70812076 0.025724446 -0.51150435 -0.4293999
000080 08 4a 09 be 4b 50 b4 be 04 8d 50 bf 1a 81 ce bd
       -0.13407147 -0.3521751 -0.8146517 -0.10083218
000090 dd d0 5f be 8b 34 ab be cb 65 ec bd 49 fc 27 be
       -0.21857019 -0.33438525 -0.11542853 -0.16404833
0000a0 2d 03 4b bf 75 c6 a8 be 04 cc 2c be 8e 39 8a be
       -0.7930172 -0.3296391 -0.16874701 -0.26997036
0000b0 26 38 62 bf 9a d3 b8 bf e6 e6 80 bd 6f 9f 81 be
       -0.88366926 -1.4439576 -0.062940404 -0.2531695
0000c0 35 ab 26 be ad 94 b1 be 9c 0b b3 be 90 32 13 be
       -0.16276248 -0.34683743 -0.34969795 -0.14374757
0000d0 86 6c 89 be 78 c8 05 bf 9a 46 64 be 1a b4 14 bf
       -0.2684061 -0.52259016 -0.22292557 -0.58087313
0000e0 e4 98 79 be 71 60 ae be bd be b5 3c 1a 48 a0 be
       -0.2437473 -0.34057954 0.022185678 -0.3130501
0000f0 8e cf 6d be f7 20 be be 3c b4 9b bd da c0 86 bf
       -0.23223707 -0.37134525 -0.07602736 -1.0527604

conv2.weight f4 [128, 64, 5, 5]
000000 7d 9c 83 bc 5f ee 19 bc fd f3 7c bc af 9e dd bc
       -0.01606583 -0.009395211 -0.015439031 -0.027053205
000010 d1 3d 5d bd 10 3d 62 bc ee 0c d6 bc e8 81 13 bd
       -0.05401403 -0.013808504 -0.026129212 -0.03601256
000020 b8 5d fa bc 49 31 1f bd 93 0a e9 bc 1c 8f 74 bc
       -0.030562267 -0.03886536 -0.028447425 -0.014926698
000030 e1 d2 df bc 42 12 a4 bc 8e 08 1d bd c1 bd 98 bc
       -0.027322235 -0.020028237 -0.038338237 -0.01864517
000040 05 1b 33 bc e9 12 ad bc e1 bc c8 bc 45 b5 1f bd
       -0.010931735 -0.021127181 -0.024504127 -0.03899123
000050 d5 74 8e bc bb bf a4 bc 8b 1f eb bc 9b 41 a6 bc
       -0.017389694 -0.020110955 -0.028701564 -0.020294955
000060 0b 9f 1b bd 5d f1 d1 bc ef 44 ba bc db d3 e7 bc
       -0.037993472 -0.025627786 -0.022737948 -0.028299263
000070 3f b7 05 bd 68 c0 91 bd 7d c3 fe bc 87 27 84 bc
       -0.03264546 -0.07116777 -0.031099075 -0.01613213
000080 78 79 11 bd f8 4c 1a bd d0 f7 4d bd cf 43 cb bc
       -0.035516232 -0.03767106 -0.05028516 -0.024812607
000090 38 eb d9 bc c9 38 09 bd 6f 31 cb bc 95 e3 ff bc
       -0.026601419 -0.03350142 -0.024803845 -0.03123645
0000a0 84 44 8b bc 3a fa 52 bc 2b 44 d2 bc b9 19 8c bc
       -0.017000444 -0.0128770415 -0.02566727 -0.01710211
0000b0 9f 99 01 bd 67 3c a0 bc 90 ff 81 bc 8e cb a0 bc
       -0.031640645 -0.019560052 -0.015868932 -0.019628312
0000c0 f3 9c d9 bc ee 2b ba bc 34 3c 10 bc 45 03 b8 bc
       -0.026564097 -0.022726025 -0.008803416 -0.022462497
0000d0 4c 01 ce bc 85 2b d6 bc b1 7e 32 bd 85 d5 1e bc
       -0.025147103 -0.026143799 -0.043577854 -0.009694462
0000e0 ed 50 87 bc d3 4f b6 bc 7c 7f d2 bc 1f 4d 2d bd
       -0.01651808 -0.02225486 -0.025695555 -0.042309877
0000f0 f8 d9 df bb 17 36 73 bc 26 53 33 bc f3 8c d4 bc
       -0.006831404 -0.014844439 -0.010945117 -0.025946116
000100 01 9d e0 bc 2b fd 5e 3c ef fa aa ba 6b ff b7 bc
       -0.027418615 0.013610165 -0.0013044755 -0.02246066
000110 e2 2e 30 bc a9 1a dc bc 91 81 0d 3d 95 75 67 3b
       -0.010753365 -0.026868181 0.034547392 0.0035317887
000120 f8 e9 5b bb d8 ed 34 bc 62 83 1b bc 9e b1 a3 bc
       -0.0033556204 -0.0110430345 -0.009491773 -0.019982155
000130 47 aa da bc e7 d6 0f bd 43 18 fe bc 5c 67 8d bd
       -0.026692523 -0.035117056 -0.031017428 -0.0690448
000140 98 7b af bc 5b cf a5 bc 27 fc ec bc 57 c9 eb bc
       -0.021421239 -0.020240476 -0.02892883 -0.02878253
000150 18 37 65 bd ad 98 84 bc 8b fa 5b bc ae 07 de bc
       -0.055960745 -0.016186083 -0.013426433 -0.027103271
000160 6f a0 ad bc 92 6b 33 bd 79 85 00 bd 83 63 2a bc
       -0.021194665 -0.04380376 -0.03137729 -0.010399702
000170 17 a4 98 bc 8b c8 c3 bc 7c 7f f7 bc 01 cb d1 bc
       -0.018632932 -0.023899337 -0.030212156 -0.025609495
000180 71 13 ce bc 73 a0 0d bd 04 9d fc bc ca 15 3c bd
       -0.025155755 -0.034576844 -0.03083659 -0.045919217
000190 d3 f8 dc bc f9 55 e7 bc c8 de bb bc 83 d8 25 bc
       -0.026974117 -0.028239237 -0.022933379 -0.010122421
0001a0 34 42 cd bb 5b 78 27 bd eb 0f 33 bd bf e1 b5 bc
       -0.0062639955 -0.040886264 -0.043716352 -0.02220237
0001b0 40 d2 f9 ba 14 ac f5 b9 d3 b6 1a bd 4d 3c 25 bd
       -0.0019059852 -0.0004685825 -0.03777201 -0.04034071
0001c0 f9 aa 8d bc 57 55 e4 3b 49 92 ee 3b 6f 42 09 bd
       -0.01729344 0.006968181 0.007280622 -0.03351062
0001d0 89 59 07 bd 8c 64 87 bc 77 cc c3 b9 80 87 8b 3b
       -0.03304437 -0.016527437 -0.00037345637 0.004258096
0001e0 6d 17 90 bb 1d ce ac bc e8 60 fb bb 51 1e a8 3a
       -0.004397324 -0.021094376 -0.0076714642 0.0012826418
0001f0 c7 59 c4 bb bd a8 f6 bb c1 79 14 bc 0c 63 8d bc
       -0.0059921476 -0.0075274394 -0.0090622315 -0.017259143
000200 a5 f9 8e bc f2 17 62 bc d0 4a 95 bb 0a 97 6a bc
       -0.017453024 -0.013799654 -0.0045560375 -0.014318237
000210 b1 8c 0d bc 5c 10 6e bc 86 54 96 bc 14 4b 2d bb
       -0.0086395005 -0.014530268 -0.01835085 -0.0026442455
000220 67 96 42 bb 58 8d 82 bb fa 15 5d bc 59 c8 0d bc
       -0.0029691698 -0.0039841346 -0.013494009 -0.008653724
000230 70 fe 57 bc bc 13 a4 bb 12 a9 66 bc b5 f7 ba bb
       -0.013183221 -0.0050072353 -0.014078395 -0.0057057985
000240 43 6e 48 bc 89 73 51 bc c2 0f 1f bc 62 aa 68 ba
       -0.01223332 -0.012783893 -0.009708347 -0.00088754867
000250 22 27 f7 bb ce 7e f8 39 f3 54 bf bc 31 ba a9 bc
       -0.007542507 0.00047396723 -0.023355937 -0.020718666
000260 0a 98 7a 3c c2 15 a9 3c 5c 09 f8 3c 3d 8f a6 bc
       0.015295038 0.020640258 0.0302779 -0.020331973
000270 b2 64 f9 bc 94 b9 3a 3c 8e 17 cb 3c f4 52 17 3d
       -0.030443523 0.011396784 0.024791505 0.036944345
000280 50 a7 f6 bc 72 df 9a bc 54 76 7e 3b 63 1b df 3c
       -0.030109078 -0.018905375 0.0038827853 0.027234739
000290 a2 06 66 3c 3a 5f 84 bc 1e f9 8d bc 1b 22 30 bc
       0.014039667 -0.016158689 -0.017330702 -0.010750319
0002a0 b4 84 0c 3c 73 23 62 3c 7a a2 89 bc 54 e0 6e bc
       0.008576561 0.013802397 -0.016801108 -0.014579851
0002b0 a4 29 70 bc 58 48 b3 3b e6 da a6 3c f5 eb b4 bc
       -0.014658365 0.0054712705 0.02036805 -0.02208517
0002c0 c6 c9 08 bc 5b 25 b5 bc 93 f1 54 bc 21 da 66 bc
       -0.008348888 -0.022112539 -0.012997049 -0.014090092
0002d0 e0 2b d8 bc b9 7f 32 bc c1 19 bf bc cb 4c 95 bc
       -0.026388109 -0.010894709 -0.02332771 -0.018225094
0002e0 dc dd 72 bc 53 65 86 bc d4 6c 3b bc 68 a5 b1 bb
       -0.014823403 -0.016405737 -0.011439521 -0.0054213293
0002f0 59 40 f5 bb 53 5a 42 3b 7e b3 a7 bc 61 70 6f bc
       -0.0074844775 0.0029655888 -0.02047133 -0.014614196
000300 80 9a 3f bb 45 af 3c bc 1b 54 24 bc 91 6d a1 bc
       -0.0029236376 -0.011516397 -0.010029818 -0.019705566
000310 d1 b5 26 bc 7a 34 26 bb 5a 36 13 bb 6a a2 8c bb
       -0.010175184 -0.0025360868 -0.0022462816 -0.004291822
000320 40 9f 72 bc 62 d5 0b bc 43 3f 18 bc 0e 8c eb bb
       -0.014808476 -0.008534761 -0.0092924265 -0.0071883267
000330 72 f8 1d 3c 62 ee b3 bc d1 12 81 bc b3 a0 f2 bb
       0.0096417535 -0.021964256 -0.015756043 -0.0074044107
000340 ad 0f fe 3a 08 a1 31 bb 74 51 39 bc 0e e1 a8 bc
       0.0019383334 -0.0027104039 -0.011310924 -0.020615127
000350 6d ce 52 bc 95 f6 f3 3b 83 da 90 bb 73 6f a3 bc
       -0.012866599 0.0074451664 -0.00442058 -0.019950604
000360 85 96 97 bc 39 9f 31 bc 75 63 3c bb 4c f2 31 3b
       -0.01850439 -0.010841184 -0.0028745804 0.0027152477
000370 24 2d 77 bc 0d cf 1c bb 75 10 11 bc 27 91 bf bc
       -0.015086446 -0.0023927123 -0.008854021 -0.023384644
000380 54 f9 27 b9 de 07 aa bc 12 72 73 bc f6 c7 b8 bb
       -0.00016019243 -0.020755704 -0.014858739 -0.0056390716
000390 e9 44 01 bc 5c 4b 8f bb 59 eb f1 bc 43 b8 b9 bc
       -0.007889965 -0.004372997 -0.029531168 -0.02267087
0003a0 df e9 66 bc e4 2e ba 3b e4 b7 c1 3b 36 92 05 bd
       -0.014093845 0.0056818593 0.005911814 -0.03261014
0003b0 7e 7f 71 bc 14 0a bf bb c3 4a 96 3b fd a5 1f 3b
       -0.014739869 -0.005830059 0.004586549 0.0024360411
0003c0 d4 60 d1 bc 23 98 8d bc e7 df 39 bb c2 9f f4 3b
       -0.025558867 -0.017284459 -0.0028362216 0.0074653337
0003d0 79 4c 89 3c 95 50 1a bc f7 97 30 bc b2 18 44 bc
       0.016760098 -0.009418626 -0.010778419 -0.011968778
0003e0 67 c0 ca bb 5f 3e d0 3b 51 59 52 3d a4 a6 0d bd
       -0.006187487 0.0063550915 0.05135471 -0.03458275
0003f0 6c e3 58 bd c0 2e 59 bd dc cd f6 bc 4f eb 73 3d
       -0.05295126 -0.0530231 -0.030127458 0.05955058

conv2.bias f4 [128]
000000 3b 85 f0 bb 42 e2 97 3a f5 4a 73 be 98 7c f2 bb
       -0.007340101 0.0011587816 -0.23759063 -0.0074001066
000010 79 cd 8b 3c 00 05 21 bd 9c 23 41 be 9d 98 52 be
       0.01706575 -0.03931141 -0.1886124 -0.2056603
000020 f7 23 f9 bb 3d cc 5a 3e ae 0c 19 3c 10 cf 8c 3c
       -0.0076031643 0.21366973 0.009341402 0.017188579
000030 58 47 dc bc f0 c7 28 bd 23 ed 23 bd ec 66 a9 3d
       -0.026889488 -0.0412063 -0.040021073 0.08271584
000040 a4 7b 2f bd c9 1e bd bc fb 48 e0 bb 9c eb 93 3e
       -0.042842522 -0.023085969 -0.0068446374 0.28890693
000050 10 f2 13 bc 09 5c 92 3d c4 d4 15 be e7 ea a4 3c
       -0.00902988 0.071464606 -0.14631945 0.020131541
000060 ef d8 3b bd 29 b6 5c be c1 ae 8c bc f6 af 8a 3d
       -0.04586118 -0.21553864 -0.017173173 0.06771843
000070 4a be e0 3b db f9 37 3b 3a 3e 8b bb f7 0c c8 bc
       0.0068586217 0.002807251 -0.0042493613 -0.024420245
000080 5f 44 30 bc aa d4 7d bd dc 7f a0 bd 44 18 0d 3d
       -0.010758488 -0.06197039 -0.07836887 0.03444697
000090 23 34 c1 bc 30 5e 85 bd 21 7b fe 3b 6a eb 91 bd
       -0.023584431 -0.065121055 0.007766143 -0.0712498
0000a0 f3 2b 05 bd ba 4b ab bc ad 18 e6 bb d5 82 a2 3d
       -0.032512616 -0.020910133 -0.0070219846 0.079351105
0000b0 e7 ba 86 bb 2c 34 37 bd 3e 3c 32 bb 2d 8f bf 3d
       -0.004111636 -0.04472749 -0.0027196552 0.093534805
0000c0 a1 33 ca bd 50 04 2c 3e 1b c3 1a bd 34 99 2f 3d
       -0.09873129 0.1679852 -0.037783723 0.042870715
0000d0 ea a4 c0 bb 4b 54 b6 bc 10 3f 53 3d e0 8e c7 3a
       -0.0058790343 -0.02225699 0.051573813 0.0015225075
0000e0 fe 76 23 ba 4c 08 21 bd 4e 32 2e 3c 40 3b 47 3e
       -0.0006235688 -0.039314553 0.010632111 0.19456196
0000f0 76 e2 53 3d 37 09 b7 bb ad 31 8d 3c 9e a5 0a be
       0.05172964 -0.0055858153 0.017235601 -0.1353974
000100 00 85 0c 3e 76 f1 66 bd 36 9c c7 3c 15 89 1f bb
       0.1372261 -0.05638262 0.02436648 -0.0024343182
000110 ed 4e 9c be 5a 7d ea bd 34 3f c1 bc f6 65 3f bc
       -0.30528966 -0.1144969 -0.023589708 -0.011682024
000120 04 09 e6 bd ac bd 71 bb 86 cd 6b 3e 6e d5 b8 be
       -0.11232188 -0.0036886735 0.2302762 -0.36100334
000130 b0 f1 a3 be ee b2 59 3e ab 6d 76 bd 45 43 ba 3b
       -0.3202033 0.21259663 -0.06016318 0.0056842887
000140 93 fb a7 bc b4 fc 10 3e 27 59 34 bd fe 4e b0 bd
       -0.020505702 0.14158899 -0.044030335 -0.086088166
000150 16 eb 0a bd 0a 51 5c be ab db c5 3d 44 7b 2f 3c
       -0.0339156 -0.21515289 0.09661039 0.010710541
000160 82 84 39 3e a9 5b f5 3e 86 b9 ab bc 3e fe 99 3d
       0.18116954 0.47921494 -0.020962488 0.07519196
000170 01 49 61 be 52 81 b7 bb 45 eb b6 3e ab 78 9a be
       -0.22000505 -0.005600133 0.3572637 -0.30170187
000180 ff 37 8d bd 38 5f bd be 69 2e a9 bc 9b 1c aa bc
       -0.06895446 -0.3698671 -0.020652013 -0.020765593
000190 25 6b 86 bb 7a 03 84 bd c1 c1 45 bc 29 f0 21 bd
       -0.004102128 -0.064459756 -0.01207012 -0.039535675
0001a0 90 04 4c bc 27 78 6b bd ff 03 ac 3e ca 48 7e be
       -0.01245226 -0.057487633 0.335968 -0.24832454
0001b0 2f 32 d7 bd 66 31 69 3d 18 8a 1b 3e e3 6b 94 3e
       -0.10507619 0.056931876 0.15189397 0.2898856
0001c0 b5 76 59 3d 43 06 4a be 8a 52 13 ba 71 e2 e4 bd
       0.053091723 -0.19728951 -0.0005619904 -0.11176003
0001d0 33 31 48 bd e4 25 a1 3d 48 63 b4 3d d7 4c aa bc
       -0.048875045 0.07868555 0.08807999 -0.020788593
0001e0 17 0c 0c ba 58 ad 66 be e5 a3 16 3d a1 e2 44 bc
       -0.00053423777 -0.22527063 0.036777396 -0.012016923
0001f0 2b cd 86 be 77 41 58 bd 35 14 7b 3e 2c 32 8c 3b
       -0.26328406 -0.052796807 0.24519427 0.004278442

fc1.weight f4 [64, 128]
000000 7c 95 d0 bd 6a e3 a1 bc 87 e3 05 3e c8 6e f7 bd
       -0.10184762 -0.01976176 0.13075076 -0.12081677
000010 8c fd aa 3c d8 bb 76 3d 29 e1 59 3d 56 54 d1 3d
       0.020872854 0.060237736 0.053193245 0.10221164
000020 dd 20 5e bd 4d 99 2c 3d e1 5e 96 bd 96 12 ec 3a
       -0.05423056 0.042138387 -0.073423155 0.001801091
000030 2f 22 7b be ec 17 29 bd 70 a6 94 be 52 9b bf be
       -0.24524759 -0.04128258 -0.29033232 -0.37423187
000040 6a 08 6c 3d 27 b8 d3 bc b1 f4 e6 3b 17 f5 93 bd
       0.05762521 -0.025844647 0.0070482125 -0.072244816
000050 db b5 a5 3c 8e b0 ce bc ba 9c c8 3d 6a e1 76 3c
       0.020228317 -0.025230672 0.09795518 0.015068391
000060 92 58 02 bb c0 2a 99 3d 10 9b 8f 3c 6d 19 6d bc
       -0.0019889218 0.07478857 0.017529994 -0.014471394
000070 9e 58 8b 3c a3 18 34 bd 42 a0 61 3c 21 76 c0 bc
       0.01701003 -0.043968808 0.013771119 -0.023493828
000080 21 bf b1 bc 47 28 29 bf 2c 10 ac be bd a0 1e bd
       -0.021697583 -0.66077083 -0.33606088 -0.03872751
000090 b5 7c 0c be 76 30 44 3c 1a cf 27 be cc b3 8a 3c
       -0.13719447 0.011974445 -0.16387597 0.016931437
0000a0 1b 73 c6 3c 2a 65 77 3a 3b da 09 bd f5 e8 27 3d
       0.024224808 0.0009437377 -0.033655386 0.04099365
0000b0 8b 62 88 bd 6c 5a 0e bd 73 fa 90 3c 1e 67 20 3b
       -0.066594206 -0.0347542 0.017697548 0.0024475525
0000c0 87 19 89 3d d4 cf 2f 3c 7b 8d dd 3b 09 6d 51 be
       0.06694322 0.010730702 0.0067612506 -0.2045175
0000d0 af 15 95 3d 12 2c 5e 3d 74 cf b8 3d 3d 7d b2 bc
       0.072795264 0.054241247 0.090239435 -0.021788234
0000e0 52 98 79 bd e0 ba 83 be b1 25 12 be ef d3 4a bd
       -0.06093628 -0.25728512 -0.1427219 -0.049518522
0000f0 53 a0 80 3c 53 37 17 bc 44 9b 9f bd d4 c8 bd 3d
       0.015701449 -0.009229499 -0.077932864 0.092668205
000100 fb 11 78 3d 68 1f 80 be d8 b1 ae bd 21 d8 6c 3c
       0.060564023 -0.2502396 -0.08530015 0.014455826
000110 2d ad 12 3e ae bb f6 bb 7b 22 84 be 37 2c 8f bb
       0.14323874 -0.0075296974 -0.25807557 -0.0043692845
000120 d1 a9 06 bd 00 da b9 bd b8 0b 90 3c 6b 11 4e 3e
       -0.032876793 -0.09074783 0.017583713 0.20123832
000130 17 ef 4a 3e c2 50 5a 3e 56 19 a9 3c 8b 9c 4a bd
       0.19817768 0.21319869 0.020641964 -0.049465697
000140 6c 48 dd bd e4 1a 05 be 99 25 b6 3b ce f0 69 3d
       -0.10804829 -0.12998539 0.005558681 0.057114415
000150 0c 48 31 be 23 22 19 3e 0c f6 5d 3b d8 96 cc bd
       -0.1731264 0.14954428 0.003386858 -0.09989709
000160 7b 07 35 be dd fc 3e 3c d0 93 ea bd e3 06 c9 3c
       -0.17678635 0.011656967 -0.11453974 0.024539417
000170 86 5a c1 3c 29 76 2e 3c 9e cb 1d 3e 2d 17 8b 3e
       0.023602735 0.010648289 0.15409705 0.2716612
000180 fc c9 80 3d 28 8d 18 3e 2b 31 88 3c 50 54 23 bc
       0.062885255 0.14897597 0.016625008 -0.009968832
000190 48 59 44 bb 5a e0 c4 3d 2c c3 01 3d 19 a4 d7 3c
       -0.0029960442 0.09613104 0.03168027 0.026323365
0001a0 55 d0 71 3c a8 68 de 3a 5e bd f0 3d 32 cf ef 3d
       0.014759143 0.0016968446 0.11754869 0.11709441
0001b0 7a 04 a6 3d 3d 60 0e be 11 e1 3d 3d 24 71 11 be
       0.081063226 -0.139039 0.04635722 -0.14203316
0001c0 35 a1 58 bd 25 bf f0 3d b8 b4 ec bd 22 26 be 3d
       -0.052888114 0.11755208 -0.11557907 0.09284617
0001d0 57 90 4c 3c 0f 68 de bd b2 03 0d 3e a4 36 62 be
       0.012485585 -0.10859691 0.13770941 -0.22091156
0001e0 19 2a 78 bc 45 cc af 3d 88 32 2a 3d 0e 74 38 bd
       -0.015146756 0.08583883 0.041552097 -0.045032553
0001f0 c6 9e 62 3e 29 97 30 be fe a9 a7 3c b2 39 20 bc
       0.2213088 -0.17245163 0.0204668 -0.009779381
000200 d8 88 0e bd 36 73 80 3c de b2 43 3d d7 1b 18 3c
       -0.034798473 0.015679937 0.047778003 0.009283981
000210 d1 b6 18 3c f9 14 78 3e fa bc 4e bc 89 92 0d 3d
       0.009320931 0.2422675 -0.012618298 0.034563575
000220 01 f6 67 be e9 d9 ff 3d 3e d7 64 bd 16 5b df 3c
       -0.22652437 0.12492735 -0.055869333 0.027265113
000230 49 80 1f 3d 00 d9 0f 3b 86 5e 9a 3d 87 da 21 bc
       0.0389407 0.002194941 0.0753756 -0.009878761
000240 e7 27 62 3a d4 e5 36 3d dd 15 41 bb 2e 8f dd bc
       0.0008627162 0.044652775 -0.0029462494 -0.027045812
000250 78 d2 9c bc 10 53 91 3b 5a ec 65 bd 67 46 9a 3c
       -0.019143328 0.0044349506 -0.056133606 0.018832399
000260 2c fc ab bd e5 89 ff 3c 3e ff 15 bc 78 15 a6 3d
       -0.08397707 0.031193683 -0.009155093 0.081095636
000270 28 78 2a be 12 f5 79 bc 5b 73 5f bd a0 e1 1f be
       -0.16647398 -0.015256183 -0.05455337 -0.15613413
000280 c1 b7 83 3c 1f cf da 3d 87 15 a0 bc 9f bf 4f bc
       0.016078832 0.106840365 -0.019541515 -0.012679963
000290 1e d4 7c bb bb 36 09 ba 64 3e 77 3c a1 d3 01 3d
       -0.003857858 -0.0005234291 0.015090559 0.031695966
0002a0 fc 27 ca 3d 47 08 b6 bc a7 19 c1 bd 82 0c c2 3d
       0.09870908 -0.022220744 -0.09428721 0.09475042
0002b0 ab 86 31 be 76 ae ef bd db 37 8a bd 45 0e db 3c
       -0.17336528 -0.11703198 -0.06748935 0.026740203
0002c0 ea 52 b2 bd 0d 14 6a 3d b3 04 45 be 65 35 08 be
       -0.08707221 0.05714803 -0.19240074 -0.13301618
0002d0 65 80 ff bd 4a fa 64 bc c2 4a e7 bb b3 c7 c1 bc
       -0.12475661 -0.013975689 -0.0070584724 -0.023654794
0002e0 39 a5 86 bd 07 9d 31 bc 24 01 7d 3c 44 d1 5f bd
       -0.065744825 -0.010840661 0.0154421665 -0.05464293
0002f0 ae 7e 3f 3d ea fa 5a bc 68 8c a6 bb 6e d8 40 b9
       0.04675167 -0.013365487 -0.0050826557 -0.00018391173
000300 de 77 b0 3c 61 f5 b3 bc 60 d6 cb 3b 02 4f 17 3d
       0.021541532 -0.021967592 0.006220624 0.036940582
000310 15 4c 85 3d a9 9d c0 bd 7c 7c b5 3c cd 1f 23 bc
       0.06508652 -0.09405071 0.022154085 -0.009956312
000320 01 6f 89 be 2d e7 31 3d d5 3f 56 3d e0 76 bc 3d
       -0.26842502 0.043433357 0.05230697 0.09202361
000330 00 6d 92 3d c5 d9 64 be c9 1d 8f be 5f 53 1d bd
       0.07149696 -0.22348697 -0.27952412 -0.038409587
000340 36 61 9b bd 2a 3c f2 3d 2e 55 0f be 08 99 16 3d
       -0.07586901 0.11827882 -0.13997337 0.036767036
000350 f6 52 cd 3c 62 f1 84 bd 59 ff e9 3a 0d d7 d4 3c
       0.025063973 -0.064913526 0.0017852589 0.02598145
000360 6e d1 78 3d b9 a8 2b bd af 23 4f bd 66 33 42 3d
       0.060746603 -0.041908953 -0.05057114 0.0474123
000370 fd a2 a7 3d 44 f7 22 bd 35 49 37 be 20 d4 09 bd
       0.081853844 -0.039786592 -0.1789902 -0.033649564
000380 47 be 3e 3d 6b 5d b8 3d 33 6b 2c bc de 3f b6 bb
       0.04656818 0.09002193 -0.010523605 -0.005561813
000390 4b 9f 95 bd 0a b4 fd 3a 91 0c b9 bc 89 de ea bc
       -0.07305773 0.0019356024 -0.022589 -0.028670566
0003a0 aa fb 83 bc d5 87 0a be ae ce 6b bd 04 49 13 3d
       -0.016111214 -0.13528378 -0.057570152 0.035958305
0003b0 d9 3e 87 bd ee 99 36 bc 8f ff 17 bb 32 1d 02 be
       -0.06603784 -0.011145098 -0.0023193096 -0.1270645
0003c0 93 96 40 3d 8b 0a f7 bd 6f d5 3a 3d dc 6c 61 bc
       0.0470186 -0.12062558 0.045613702 -0.013758864
0003d0 9b a7 12 be ec 22 c2 bc 9b 0c 2e 3c 97 16 1d 3c
       -0.14321749 -0.023698293 0.010623123 0.009587905
0003e0 ba a0 bc 3c ba f7 cb bb 2b 62 9f 3c 7c c5 a2 bc
       0.02302586 -0.0062245997 0.01945599 -0.019869559
0003f0 82 e6 fc 3d a1 5e 72 bd 75 68 4d 3c 70 2d 99 bd
       0.123486534 -0.059172276 0.0125371115 -0.0747937

fc1.bias f4 [64]
000000 80 ec 89 3e 3e 1b 7a 3e 78 29 86 3f b7 1d b1 3d
       0.26938248 0.24424455 1.0481405 0.08648246
000010 59 61 87 3e fe bc 8e 3c 6d 35 d1 3e af 37 0c 3e
       0.26441458 0.017424103 0.40861073 0.13693117
000020 24 27 c1 3e e6 d6 2e bd 5d cb 5a 3f 8f c6 ce bc
       0.37725174 -0.042685412 0.8546656 -0.025241164
000030 f8 bb 44 be 9c 14 77 3d df 10 d5 3e ed eb 32 3e
       -0.1921233 0.06032239 0.41614434 0.17472811
000040 36 18 0e bd 19 73 24 3f ac 18 24 3e 36 33 e8 3d
       -0.034691058 0.64238125 0.16025037 0.11337893
000050 58 91 a6 3e 99 8c d6 3e c1 b5 54 3e 89 e7 a1 bd
       0.32532763 0.41904142 0.20772459 -0.0790549
000060 f9 1e fd bc 5c 84 81 3e b3 4e 2f 3e 98 04 72 3e
       -0.030898558 0.25296295 0.17119865 0.23634565
000070 ef 82 61 bd 28 76 14 3e 7a 33 0f 3f 4c 40 d1 3e
       -0.05505651 0.14498198 0.5593792 0.40869367
000080 fd 79 92 3d 01 91 05 3e d2 ad 54 3d f9 31 c1 3e
       0.07152174 0.13043596 0.05192358 0.3773344
000090 c1 bd 99 be b0 d5 7d 3e 92 10 5a 3c 61 6b 7d 3e
       -0.30027583 0.24788547 0.013309615 0.24747993
0000a0 d7 85 33 bd cb 8a 51 3f dc 11 e6 3e 22 86 17 3d
       -0.04382881 0.81852406 0.449355 0.036993153
0000b0 34 76 57 3e b3 05 11 3e 27 cd 1c 3e 6a 60 50 bc
       0.21041185 0.1416233 0.15312634 -0.012718299
0000c0 76 be 0c bd ce 4e 48 3e 42 46 85 3e f8 4d 08 bd
       -0.034361325 0.19561312 0.26030165 -0.03327748
0000d0 9e d2 b5 bc 5e 6d 8e 3e 85 be 9b be 44 79 52 bd
       -0.022195157 0.27817816 -0.30418792 -0.05138518
0000e0 41 39 b5 3e 69 23 b6 3e 2d 96 6c 3e 65 83 28 3e
       0.35395244 0.3557389 0.23104163 0.16456373
0000f0 26 21 f4 3d 60 b1 20 bd 19 65 09 be 84 e8 95 3e
       0.11920385 -0.039231658 -0.13417472 0.29278958

fc2.weight f4 [32, 64]
000000 dd 1e bc bc 28 8d da 3d b1 11 53 bd 70 3b 38 bd
       -0.022963936 0.10671455 -0.051530544 -0.04497856
000010 7f dc 11 bd b4 73 ec bb ad eb 75 bd 00 17 16 bd
       -0.035610672 -0.0072159413 -0.06003921 -0.03664303
000020 83 47 18 3c 10 0d 1a bd a6 d7 42 bd c3 56 43 bd
       0.0092943935 -0.037610114 -0.04756894 -0.047690164
000030 7f 79 90 3d ee e3 2b 3d a9 9f d9 bc 25 aa ce bd
       0.070544235 0.041965418 -0.02656539 -0.10091046
000040 bc c6 18 3d 54 ea 34 bd 80 4d f8 3b 5e a7 66 3d
       0.037298903 -0.044168785 0.007577598 0.056311958
000050 42 a3 07 3d e5 c2 17 3c 4b 67 2e 3d 00 05 d2 3a
       0.03311468 0.009262775 0.042578977 0.0016023219
000060 2d 35 cd bc 4c 1b 24 3d c9 f8 a5 bd 94 d5 56 bd
       -0.02504977 0.040065095 -0.08104093 -0.052449778
000070 3c 54 21 bd fd 2d 99 bc e0 e8 59 bd f4 c4 6a bc
       -0.039386973 -0.018698687 -0.053200603 -0.014329184
000080 c8 25 91 bd a7 cb 9f bd 68 a5 a7 3d 7f 2b 45 3d
       -0.07087284 -0.078025155 0.081858456 0.048137184
000090 f9 a7 0c 3e 65 d3 a2 bd 06 f7 42 3c fe c3 17 bd
       0.13735951 -0.079504766 0.011899715 -0.037052147
0000a0 7d d1 17 bc ee b4 22 bb 4f 7d 0c bd bb 79 a6 3b
       -0.0092662545 -0.002482708 -0.03429919 0.0050804294
0000b0 d1 83 22 bd ad 86 9d 3d 22 8f 93 3d 48 ce 89 3b
       -0.03967649 0.07691703 0.07205035 0.004205499
0000c0 8c 3e 8d bc 20 25 83 3b 87 81 55 bd 0b f5 8f 39
       -0.017241739 0.0040022284 -0.05212548 0.00027457657
0000d0 8f fb a4 3c f8 76 5b 3d a1 42 71 bc ae 18 01 3d
       0.020139484 0.053580254 -0.014725358 0.031517677
0000e0 da 93 c1 bc 87 46 c7 3c 4c 25 17 bd 32 ed 66 3c
       -0.023630071 0.024325622 -0.036900803 0.014094638
0000f0 39 4b 48 3b 06 4d 11 bd e6 2f 44 3d 51 38 be bb
       0.0030562414 -0.035473846 0.047897242 -0.0058050533
000100 82 16 df bd 32 d3 82 3d 0e 43 4e be 72 f6 64 bd
       -0.10892965 0.063879386 -0.20142767 -0.05589909
000110 e5 21 74 be 3b 72 16 3e ad 3a 2c be 4c 1f d1 bc
       -0.23841055 0.14692013 -0.16819258 -0.025527619
000120 a0 23 82 bd 84 da 2d bd 76 70 1e be 97 7e 28 bc
       -0.06354451 -0.04244472 -0.15472588 -0.010284088
000130 c0 4a f0 bd 19 ee 96 be b7 33 cb bd 61 7c bf 3e
       -0.117330074 -0.2947853 -0.09921973 0.3739958
000140 5a 0c 1c bd 52 7a 9e be 36 a1 9a bd ef 87 1b be
       -0.038097717 -0.30952698 -0.0755028 -0.15188573
000150 2e ed c7 bd 19 de 2e be cb 01 88 3a cc 38 83 3d
       -0.09762035 -0.17076911 0.0010376511 0.064073175
000160 ed b2 4a bd a9 61 69 bd ff 93 92 3e ca 9d ea 3d
       -0.049487043 -0.0569779 0.28628537 0.11455877
000170 8c 93 0f 3d ce 37 94 bd 11 47 2c be 8d 4e 3c be
       0.03505282 -0.072372064 -0.16823985 -0.1838934
000180 55 77 5f be 6c 65 8d 3d d6 01 c9 bd e5 b5 ad 3d
       -0.21822865 0.0690411 -0.09814803 0.08481959
000190 32 63 01 3e b2 e4 15 be c8 bb e9 bc 3e 9a 54 be
       0.12635496 -0.14638022 -0.028531924 -0.20761964
0001a0 89 cd 20 bc 36 dd 65 be ba 85 e6 be 3d fd 0f 3d
       -0.009814628 -0.22447667 -0.450239 0.035153616
0001b0 be e6 92 bd f0 d0 61 bb a0 e6 f6 bc 74 9d 2d bd
       -0.07172917 -0.0034456812 -0.030139267 -0.042386487
0001c0 48 95 e2 3b c6 9f 55 be 34 fe a3 bd 0c d9 03 bd
       0.0069147684 -0.2086173 -0.0800747 -0.032189414
0001d0 46 05 2e bd 7e 46 ef 3d 46 be 05 3b e4 22 9a 3a
       -0.042485498 0.11683367 0.0020407601 0.0011759666
0001e0 07 f2 49 bc 86 5e 88 bd fd 99 36 3e 31 c5 15 bd
       -0.01232577 -0.06658654 0.1783218 -0.03656501
0001f0 00 94 85 bd c5 d3 31 3c 0f 81 da bc 1e d1 7e 3e
       -0.065223694 0.010853712 -0.026672868 0.2488446
000200 fa ae 65 bd 26 65 f9 bc b8 1d cd bc b4 b3 0e 3d
       -0.056075074 -0.03044374 -0.025038585 0.034839347
000210 1a d3 8f 3c 2a ee 4e bd a3 18 0b 3d 1d df f3 3c
       0.017556716 -0.0505201 0.033959042 0.029769475
000220 47 c1 97 3c 8f 00 27 3d e4 24 bd bc 45 a7 01 3c
       0.018524779 0.040772017 -0.02308888 0.007913415
000230 6d cb 63 bc dc 4f bd 3d a2 1d 3b bd d2 e6 ee 3b
       -0.013903481 0.092437476 -0.045682557 0.0072906995
000240 55 73 93 3c 3d de 90 3d 48 fe 65 bc cd 82 67 bb
       0.01799933 0.070736386 -0.014037676 -0.0035325766
000250 64 91 36 bd da b0 12 3d 01 61 eb 3a 65 21 50 bd
       -0.04457225 0.03581319 0.0017957987 -0.050813098
000260 e9 ba 2d ba b5 57 2e 3c b7 db c8 bc 44 6d 23 bc
       -0.0006627278 0.010641028 -0.02451883 -0.009974781
000270 cd ab 2c bd 29 d4 b6 bc 4f 7d 5f bd 44 e6 9d bd
       -0.04215603 -0.022317963 -0.054562863 -0.07709935
000280 29 09 f8 3c e9 3b d8 3c 79 3c 51 3d 72 21 0d 3d
       0.030277805 0.026395755 0.05108306 0.034455724
000290 97 82 aa 3b 72 7c 49 bb 79 92 8c 3b b0 04 0a bd
       0.005203556 -0.0030744341 0.004289922 -0.033695877
0002a0 32 f1 06 3d 06 45 d9 bb a9 f4 16 bc f6 63 69 3c
       0.032944866 -0.0066305427 -0.009213605 0.014245024
0002b0 e5 c4 ae 3a 5a 84 03 bd a6 b9 97 bc d1 de 87 bc
       0.0013333826 -0.032108642 -0.018521141 -0.01658574
0002c0 ce ae a2 bc bd eb 8d bc 0f 19 02 3c 05 86 87 3b
       -0.019858744 -0.017324323 0.007940545 0.0041358494
0002d0 2d da 89 bc 80 40 eb 3d e0 4e b9 3c bc 2f f9 bc
       -0.016827667 0.11486912 0.022620618 -0.03041827
0002e0 f2 5d 7e bd 8f 3f c4 bc 81 3b da 3c fe 1e de 3c
       -0.062101312 -0.023956088 0.026639702 0.027114388
0002f0 b7 62 a3 bc 29 2c 13 bd b8 e4 02 3d 73 1a 8e bd
       -0.019944532 -0.035930786 0.031956404 -0.069386385
000300 79 eb 0b 3e 8c 1b 3f be bc 4c 6a bd 5a c9 98 3c
       0.13664044 -0.18662852 -0.057202086 0.0186507
000310 74 81 b9 bd 55 3e 40 bd 2f fe 85 3d c1 51 32 bd
       -0.09057894 -0.046934444 0.06542622 -0.043534998
000320 f9 6e a6 bd cd 00 9f 3c 9a 83 a6 be 04 8e 62 bc
       -0.08126635 0.019409562 -0.3252228 -0.0138278045
000330 5b db 16 be d7 33 01 bd a9 35 2b be 97 28 79 be
       -0.14732115 -0.03154358 -0.16719688 -0.2433189
000340 56 e5 a2 3b 46 c2 dd bc da ea ee bc b4 13 a8 bd
       0.0049711866 -0.027070176 -0.02916472 -0.08206883
000350 ad a2 41 be 43 38 2f 3d 0b 73 b9 be 80 fb 34 be
       -0.18909712 0.042778265 -0.36220583 -0.17674065
000360 d8 72 14 3c fe 5f 9c bd f4 b0 7d be 88 e8 ad bd
       0.009060584 -0.076354966 -0.24774534 -0.084916174
000370 8c 4a 5f 3c 60 b4 05 bb 96 93 0e 3e 23 33 1b be
       0.013628613 -0.0020401701 0.13923487 -0.15156226
000380 bd 78 0d 3e 7f af c7 3c 5b 0a 96 bd 09 78 ac be
       0.13815589 0.024375675 -0.07326194 -0.3368533
000390 4d d5 95 be 6e 26 d8 bc 0f 80 5a bb e5 4c 66 bc
       -0.29264298 -0.026385512 -0.003334049 -0.014056419
0003a0 e2 9d 31 bd 04 4d 56 3e 43 7b 73 3e 38 f6 20 bd
       -0.04336346 0.20927817 0.2377749 -0.039297312
0003b0 6b b6 0f 3d 96 e2 ff bd 79 60 56 be bc c1 0b 3d
       0.035086077 -0.1249439 -0.20935239 0.034120306
0003c0 5f fb 4f 3b 21 81 da 3d af 8f b6 bd d4 4c 10 bd
       0.0031735522 0.10669161 -0.08914124 -0.03522952
0003d0 5f 44 24 bc c0 80 5a be bc 75 08 be 9a 3c 24 3d
       -0.010026067 -0.21338177 -0.13326162 0.040096857
0003e0 dd 7d c2 bd 25 76 1e be 01 6d 88 be 80 5f 36 3d
       -0.09496663 -0.15474756 -0.26645663 0.04452467
0003f0 28 36 49 3d 16 6a 82 bc 48 bc 68 bd 04 9b 00 be
       0.049123913 -0.015919726 -0.056820184 -0.12559134

fc2.bias f4 [32]
000000 f3 b0 d3 bb 74 5d 57 3e 50 22 63 bd 95 ad ed 3e
       -0.006460303 0.21031743 -0.055452645 0.46421495
000010 79 0b 60 be a1 cb 09 3f 78 f2 ac bd 64 a4 42 3e
       -0.21879376 0.5382634 -0.08444685 0.19008023
000020 58 4c 44 3e 98 e1 99 bd 6f 59 9e bd e4 d9 bb 3e
       0.19169748 -0.07513732 -0.07731902 0.36689675
000030 94 19 13 bd e4 41 43 be 10 a8 d8 bc 2f 09 1a 3e
       -0.035913065 -0.19068104 -0.026447326 0.15042566
000040 19 15 ec bc 2c 34 0b 3f 0e ca 1e 3d b7 3a 55 bd
       -0.028818654 0.5437648 0.038766913 -0.052057948
000050 6c fd 1d 3f 44 d2 10 3e 17 7e 00 3e 9c f4 a1 3c
       0.61714816 0.1414271 0.125481 0.01976996
000060 59 65 74 bd 18 92 72 bd f2 b7 b0 3e d9 6c 45 3f
       -0.059666965 -0.059221357 0.3451534 0.77119213
000070 64 77 35 3e c2 80 14 bd 39 3d 8a bc 23 34 4d bd
       0.17721325 -0.036255606 -0.016874896 -0.05009855

fc3.weight f4 [5, 32]
000000 3b b1 a5 3c f0 b1 61 be 8e d5 1d bd a5 5a 00 bf
       0.020226112 -0.22040534 -0.03853374 -0.5013831
000010 da 59 ce 3e bc de 5d bf 0a ff b1 bc db e0 d1 be
       0.40302926 -0.8666799 -0.021728057 -0.40991864
000020 ce fe a0 3e af ed 99 3e 64 f3 6e ba 61 dc 2e bf
       0.314444 0.3006415 -0.00091152475 -0.6830502
000030 63 f9 e8 3a e0 08 5e 3e 9e 65 7f 3d 08 44 d0 3e
       0.0017774518 0.21683073 0.06235277 0.40676904
000040 fa c0 09 3d bc 5a 15 3f 48 0c 54 bc fb 73 03 bd
       0.033631302 0.58341575 -0.012942381 -0.03209303
000050 69 7e 7c bf 08 30 92 be 9c 57 dd bd 15 15 b5 3e
       -0.98630387 -0.2855227 -0.10807726 0.35367647
000060 49 a4 80 bd 33 1a 1b bd ac 4e c1 3d 2c 60 d0 be
       -0.06281335 -0.037866782 0.094388336 -0.40698373
000070 1a 51 3d 3e f6 5f 63 3d 4a 8d 86 3d 80 f9 05 bd
       0.18487969 0.055511437 0.065699175 -0.032708645
000080 a0 d4 02 3e d1 9b 98 3e 34 a1 ab 3b 7d 01 80 be
       0.12776423 0.29806378 0.005237723 -0.25001135
000090 9a a0 ca bd c3 ab dc 3e 64 34 4a bd 9b 08 01 3f
       -0.098939136 0.43099794 -0.04936637 0.50403756
0000a0 bf 96 52 3e da 92 17 be 3e fc eb bc dc ed 07 be
       0.20565318 -0.14802113 -0.028806802 -0.1327433
0000b0 11 8d 95 bc 0d 6a b2 3d cd 10 eb 3c 92 01 c5 be
       -0.018255742 0.08711634 0.028694535 -0.3847776
0000c0 ea 18 22 3d b3 14 19 be c6 14 38 3d fb 66 d8 bc
       0.03957454 -0.14949302 0.044941686 -0.026416292
0000d0 12 2e d7 3e 43 fc 0c 3d b5 62 cc bd 23 a0 84 be
       0.42027336 0.034420263 -0.09979764 -0.25903425
0000e0 f4 fb dc bb 74 90 f1 bb fe f6 2e bc 1a 64 37 be
       -0.0067439023 -0.0073719565 -0.010679005 -0.1790928
0000f0 63 4a b3 be 33 b8 cc bb e0 e3 04 3e bf 4f 7d bc
       -0.3501769 -0.006247544 0.12977552 -0.0154609075
000100 36 ba e6 bd ae 48 b6 be 0a dd 10 be 74 47 dc 3e
       -0.11265986 -0.35602325 -0.1414682 0.43023264
000110 dc 4d 78 be 86 2e 0a 3b 12 4a 42 3d 5c c2 41 be
       -0.24248451 0.002108486 0.04743392 -0.18921798
000120 e7 c9 1f 3d dd 6d 23 3c 71 3d e4 bc 2e 9f d5 3e
       0.03901091 0.009974924 -0.027861329 0.41723007
000130 fb 33 34 3d 39 2c 7c bd 6d 7a 3c bd f9 64 09 3e
       0.043994885 -0.06156561 -0.04601519 0.13417424
000140 1d 4c 59 3d 55 e7 ca 3e d4 1e 76 3d d9 12 68 bd
       0.053051103 0.39629617 0.060087994 -0.0566586
000150 4e e8 03 3f c6 13 25 bd f7 d3 0f 3e a7 6c 95 bd
       0.51526344 -0.04030206 0.14045702 -0.072961144
000160 b8 eb 0e bd b1 36 5e bb 45 da ce 3e 50 41 1f 3f
       -0.034892768 -0.003390711 0.404009 0.62209034
000170 4c 2a 10 3e 4f de 60 3d 13 59 92 be 5d 53 3b 3a
       0.14078635 0.05489951 -0.28583583 0.0007145906
000180 a4 6d 94 bc 1f 29 18 3f 26 5f e9 bb d0 4e 67 be
       -0.018118687 0.59437746 -0.0071219383 -0.22588658
000190 1c b6 31 bd 1d d6 ad 3e 37 f0 3a 3d 9c 53 cd bd
       -0.043386564 0.33952418 0.045639243 -0.10025713
0001a0 32 a0 94 3e 76 18 6c be 7c b1 25 3d 35 2c ce bd
       0.2902847 -0.23056206 0.040452465 -0.100670256
0001b0 8f 29 23 3d cc 1d 40 3e 20 ce 17 3d 09 2b a6 be
       0.039834555 0.18761367 0.03706181 -0.32454708
0001c0 7c c0 1b bd 46 80 9f be 24 92 c5 3c 32 33 09 bd
       -0.038025364 -0.31152552 0.024117537 -0.03349609
0001d0 ee 9b a1 3e f6 dd cc be ac a6 90 3b e6 92 9c be
       0.31564277 -0.40013093 0.0044144 -0.30580825
0001e0 38 6b 6d bd 3e ae 3b bd 85 9c 99 3d ae 61 85 3d
       -0.05796358 -0.045820467 0.07500557 0.065127715
0001f0 f9 a7 69 be 07 4c 63 bd a8 2a 4a 3e ba 10 db bc
       -0.22817983 -0.055492427 0.19742835 -0.026741374
000200 86 b5 ac bd cd 77 ba be 9a d6 8a 3c 18 3a 12 3f
       -0.0843306 -0.36419526 0.016948033 0.57119894
000210 01 12 fb 3c 94 c6 7e 3c 32 3a 71 3a 55 2c bf 3e
       0.030648233 0.015550274 0.0009202092 0.3733851
000220 d0 ee 3a bf 7f b8 13 3e 94 1a 22 bd ba c3 fd 3e
       -0.7302065 0.14425848 -0.039576128 0.4956339
000230 7b 2a 11 bd 9a b8 f6 be 3e 82 6a 3d f1 d1 ee 3c
       -0.035440903 -0.48187715 0.057253115 0.029152842
000240 19 e5 3e 3d 90 20 f8 be 2a ec bb bd 09 10 e8 bc
       0.046605203 -0.48462343 -0.09175904 -0.028327959
000250 ab ee 04 be b4 a3 23 3f cd 04 89 bc 66 25 8d 3e
       -0.1298167 0.63921666 -0.016725922 0.27567595
000260 e3 92 21 bd 74 37 40 bd 37 ca 25 bf 54 86 63 be
       -0.039446723 -0.046927884 -0.6476168 -0.22219211
000270 3f 15 2d 3e 85 0c 16 3d 30 df 20 be be a6 66 3d
       0.16902636 0.036633033 -0.1571014 0.05631136

fc3.bias f4 [5]
000000 99 0d 77 bd 4e 0e a7 3e 44 d6 c3 be 7b 4e 3b 3e
       -0.060315702 0.326281 -0.3824941 0.18291657
000010 97 bb 13 be
       -0.14427029
