Assignment_1/1/CNN_Layers/Models/2CNN/model-10.pth (torch_old, 882610 bytes, 10 tensors)

conv1.weight f4 [64, 3, 5, 5]
000000 ab 4d d8 3d e6 e8 71 3d 6a 38 18 3c 28 1b 38 bc
       0.10561689 0.05906 0.009290794 -0.011236943
000010 d4 6b f4 3c 0b 76 4a 3d f3 2a 07 3d 7f 2f 12 3d
       0.029836573 0.04942898 0.032999944 0.035689827
000020 95 10 8a 3d a5 de f2 3d 9f 8c c9 3b a6 cc da ba
       0.06741444 0.11858872 0.0061507965 -0.001669307
000030 b9 82 2b 3d 2e 4a ca 3d 2b f9 ff 3d 6a e9 35 3c
       0.041872714 0.0987743 0.12498697 0.0111030135
000040 2e 82 80 3b 4e ae 02 3d f8 71 5f 3d a8 41 1c 3d
       0.0039217686 0.03190451 0.05455205 0.038148552
000050 65 86 8a 3d d8 16 16 3d 11 e0 52 3c c0 e6 c2 bc
       0.06763915 0.03664288 0.012870804 -0.02379167
000060 84 b8 b1 bd dd 4a 5b be 23 64 59 be 27 69 3b be
       -0.08677772 -0.21415277 -0.21229605 -0.18301831
000070 aa 22 ce bd 77 33 79 3d e3 20 8a be 19 77 74 be
       -0.100652054 0.060840096 -0.26978216 -0.23873557
000080 8a 38 07 be fa 7c 3d 3c 88 5b 40 3e 3c 56 96 be
       -0.13205162 0.011565441 0.18784916 -0.29362667
000090 39 66 78 be ba 15 d1 bd c6 8c a1 3d f6 b7 7b 3e
       -0.24257745 -0.10209222 0.078881785 0.24581894
0000a0 cf bd 6e be 27 6e 3f be 1a d8 8d bd 77 6d 9e 3d
       -0.23314594 -0.18694364 -0.06925984 0.077357225
0000b0 61 4e 51 3e f6 1a e7 bd 2f 1d bb bd 52 21 f3 bc
       0.20440055 -0.11284439 -0.09136426 -0.029678974
0000c0 ff 46 42 3d f0 70 f6 3d 06 0d 2d be 4d 3f 1e be
       0.04743099 0.1203326 -0.168995 -0.15453835
0000d0 02 14 f7 bd 45 22 21 bd 49 fa df 3d 5b b1 54 be
       -0.12064363 -0.039339323 0.1093641 -0.2077078
0000e0 bf bc 28 be b2 b5 80 bd dd b3 9b 3d 29 12 7e 3e
       -0.16478251 -0.06284656 0.076026656 0.24811615
0000f0 71 2f 59 be 06 84 18 be 81 e3 81 bc a3 f6 18 3e
       -0.21209504 -0.14894113 -0.015855553 0.14937834
000100 01 14 9f 3e 39 17 00 be a4 1a 90 bd 93 c3 28 3d
       0.3106995 -0.12508859 -0.07036331 0.04120214
000110 40 da 2f 3e ac 84 91 3e 50 50 e1 3c 82 ea 52 3d
       0.171731 0.28421533 0.027504116 0.051493175
000120 62 42 d7 3d e4 aa 34 3e 32 ae 71 3e 92 50 16 be
       0.105107084 0.17643315 0.23601606 -0.14679173
000130 4e 8f e6 3c 3e d9 f7 3d e8 a5 00 3e 26 05 d0 3d
       0.028144505 0.121019825 0.12563288 0.10157232
000140 56 41 68 bd 92 dd 06 3e b2 91 66 3e 93 ec 54 3e
       -0.056702934 0.1317046 0.22516516 0.20793371
000150 b5 76 26 3e 2e a8 24 bb 76 b8 35 3e 45 89 79 3e
       0.1625622 -0.0025124657 0.17746148 0.2436877
000160 e7 45 59 3e 69 40 1c 3e 42 0e 63 3c 48 d5 21 3e
       0.21218072 0.15258946 0.01385838 0.15804017
000170 4e ef 50 3e 32 24 2a 3e d4 cb da 3d c4 be 3c bc
       0.20403787 0.1661537 0.106834084 -0.011520091
000180 62 84 a6 3d 26 ff f7 3d bf 83 d0 3d c6 5b 73 3d
       0.08130719 0.121092126 0.101813786 0.059413694
000190 e8 97 c4 be fb ea 82 be d5 a3 27 be df 03 f0 bd
       -0.38397145 -0.255699 -0.1637109 -0.11719488
0001a0 a1 53 50 bd 14 60 d6 be 64 6f 96 be 23 98 52 be
       -0.050861005 -0.41870177 -0.2938186 -0.20565848
0001b0 32 f7 2e be 22 9b eb bd 31 f6 da be 89 1f a4 be
       -0.17086485 -0.115041986 -0.42765954 -0.3205531
0001c0 55 1a 86 be 0e 34 75 be b8 e6 3f be af 87 cb be
       -0.26191965 -0.23945639 -0.18740356 -0.39751956
0001d0 c0 6a a3 be 62 aa 8e be 01 8b 8c be bb 41 62 be
       -0.3191738 -0.27864367 -0.27449802 -0.22095387
0001e0 4a ce b7 be 43 55 9e be 54 2c 8a be 58 32 7e be
       -0.35899574 -0.30924425 -0.26986945 -0.24823892
0001f0 4e 2e 46 be 83 20 02 bd 1b 57 98 3d 69 7d 0c 3e
       -0.19353601 -0.031769287 0.07438489 0.13719715
000200 c5 5b 20 3e 68 0b 57 3e ad c9 61 bd 2b a7 64 3d
       0.15660007 0.21000445 -0.055123974 0.055823486
000210 e9 78 f1 3d 8d ce 0b 3e e6 e6 37 3e b2 49 43 bd
       0.1179064 0.13653012 0.17959175 -0.047677703
000220 77 36 44 3d 70 9c cb 3d e7 bd d1 3d c4 b4 0f 3e
       0.047903504 0.099419475 0.10241299 0.140338
000230 9b a5 91 bc 7d 55 59 3d 98 57 b2 3d 22 e3 b2 3d
       -0.017779162 0.053060044 0.087081134 0.087347284
000240 45 4a 04 3e 42 ea 6c 3c 8d d5 88 3d 53 b0 d9 3d
       0.12918957 0.014460148 0.066813566 0.10629334
000250 7a ff fd 3d 20 bb 2a 3e 72 6d 92 bd 07 42 a6 bd
       0.12402244 0.16672945 -0.07149781 -0.081180625
000260 12 b7 90 bd 17 8e 22 bd 0d b1 84 3a 4e fd 9a bd
       -0.07066168 -0.03968629 0.0010123566 -0.07567845
000270 7d 44 c0 bd 31 d9 8a bd ac 9e 9d bc ba 1b e5 3c
       -0.09388063 -0.06779707 -0.0192407 0.027967323
000280 61 06 95 bd 92 d5 b1 bd cd d8 74 bd ff 3e 28 bb
       -0.07276607 -0.086833134 -0.05977707 -0.0025672314
000290 ba 7f 37 3d 00 1a 6d bd a3 ae 90 bd 8b 5e 3a bd
       0.044799544 -0.057886124 -0.07064559 -0.04550032
0002a0 8d 1b a0 39 e3 89 08 3d a9 1c 1a bd 66 ca 4a bd
       0.00030538105 0.033334624 -0.03762499 -0.04950943
0002b0 e0 3c 04 bd ce 00 a6 3a 31 ae cc 3c 1b e9 93 bd
       -0.032284617 0.0012665035 0.024985405 -0.07222196
0002c0 6c 8d 74 bd 89 06 0c bd 04 05 0d bc 84 d1 69 3b
       -0.059705183 -0.03418592 -0.008607153 0.003567786
0002d0 40 82 92 bd 0b 07 6a bd 36 df 69 bc 59 4a 01 3d
       -0.071537495 -0.057135623 -0.014274409 0.031565044
0002e0 1f 39 69 3d 18 17 8a bd 2e c6 59 bd bd f3 fe ba
       0.05693924 -0.06742686 -0.053167515 -0.0019451302
0002f0 cd ab 62 3d 15 d4 a0 3d c3 6c 6f bd 1c 4a 22 bd
       0.055339623 0.078529514 -0.058453333 -0.039621457
000300 18 80 44 3c 46 e7 70 3d 94 5e 9a 3d ae a8 39 bd
       0.011993431 0.05881431 0.075375706 -0.04532688
000310 3d 9e ca bc 9e 18 51 3c b0 dd 32 3d 28 32 54 3d
       -0.024733657 0.012762217 0.04366845 0.051805645
000320 63 27 37 bd 27 fb 7f bc 49 bd e8 3c 3d b5 4a 3d
       -0.044715296 -0.015623844 0.02841057 0.04948925
000330 ec 21 2c 3d 0f ca c4 bc 9e 4e 44 3c c3 c1 81 3d
       0.042024538 -0.02402213 0.011981634 0.06335785
000340 37 3b d8 3d a9 cb d9 3d 38 d5 64 bb cd 3f 12 3d
       0.10558169 0.10634548 -0.0034917127 0.035705376
000350 8b 70 c2 3d 59 a8 17 3e 40 16 0e 3e a4 43 32 3c
       0.09494122 0.14810313 0.13875675 0.010880385
000360 c2 35 58 3d 3a 9e da 3d fd 24 18 3e d1 7a 0c 3e
       0.052785642 0.106747106 0.1485786 0.13718726
000370 1e b7 bb 3c 08 76 63 3d 77 47 d3 3d cc 65 01 3e
       0.022914466 0.055532485 0.10316365 0.12636489
000380 79 ac d2 3d d5 2e 21 3c f7 1a 21 3e 28 02 33 3e
       0.10286803 0.009837826 0.15732943 0.17481291
000390 e0 55 ee 3d 1c ae cc 3d 0c 70 e2 bc 0e 57 19 3e
       0.11637473 0.09994146 -0.027641319 0.14974615
0003a0 3b 72 43 3e 2b f9 0a 3e b3 f3 03 3e e9 25 e4 bc
       0.19086544 0.13571613 0.12885933 -0.027850108
0003b0 77 6f f9 3d a9 73 1a 3e 86 50 df 3d b6 ba ea 3d
       0.12179463 0.15083183 0.109040305 0.114613935
0003c0 0f ca e2 bb 56 40 b0 3d 4c da b6 3d 66 8a 52 3d
       -0.00692106 0.08606021 0.089283556 0.05140152
0003d0 f5 0d 80 3d 01 ad fa 3c fe 5f 92 3d 82 77 67 3d
       0.06252662 0.030600073 0.07147215 0.056510456
0003e0 30 f2 a7 3c c9 68 a3 3c 50 ad 4a be 80 ba 8f bc
       0.020501226 0.019947426 -0.19792676 -0.017544985
0003f0 ac b7 36 3d 33 e9 39 3d 16 c2 b8 3d 57 2a 97 be
       0.044608757 0.04538841 0.09021394 -0.2952449

conv1.bias f4 [64]
000000 a3 ef 66 be ed 33 dc be cd 0c 84 be c1 b4 91 be
       -0.22552352 -0.43008366 -0.25791016 -0.28458217
000010 51 ad 9c bf 6b bc 64 be 5f 67 80 bf 7f bf b9 be
       -1.2240392 -0.22337501 -1.0031546 -0.36278912
000020 f5 5b 1c bf ad a4 e4 be 97 5a 35 bf b4 fb 67 be
       -0.61077815 -0.44656888 -0.70841354 -0.22654611
000030 e5 52 2b bf c3 81 82 3e 7d f1 47 be af 53 c8 be
       -0.6692336 0.25489625 -0.19525714 -0.39126346
000040 71 57 c7 be 00 75 8c 3d 50 7b de bd d4 9b 2c bf
       -0.389339 0.068582535 -0.10863364 -0.67425275
000050 36 90 16 be 9c 21 8f be fa 87 6a be fd 46 2c bf
       -0.1470345 -0.2795533 -0.22903433 -0.6729582
000060 94 76 aa bf 64 88 4b be 71 80 29 be f3 ae 4f bd
       -1.3317437 -0.19876248 -0.16552903 -0.050703954
000070 82 90 53 bf b8 bb 9d 3d 20 ce ee be b2 39 61 be
       -0.82642376 0.0770182 -0.46641636 -0.21994665
000080 03 b6 05 bf 55 1e ff be 1e d1 75 bf 66 91 03 bf
       -0.5223085 -0.4982783 -0.9602221 -0.51393735
000090 6e d4 ac be 94 1b a6 be 4c 11 5f be ef 84 9e be
       -0.3375582 -0.32442915 -0.21783942 -0.30960795
0000a0 30 89 34 bf a3 e1 fb be 99 1c c0 be 30 08 a3 be
       -0.7052183 -0.49195585 -0.37521818 -0.31842184
0000b0 53 19 87 bf 98 57 cd bf 90 fa d9 3d dc b3 21 be
       -1.0554603 -1.6042356 0.10643494 -0.15791267
0000c0 24 f7 33 be 33 9e e4 be de 76 ee be 2c 04 8c be
       -0.17574745 -0.44651946 -0.46575063 -0.27346933
0000d0 aa a9 f8 be 7d 44 08 bf 41 78 88 be 8c f2 31 bf
       -0.48566943 -0.53229505 -0.26654246 -0.6951072
0000e0 9d 67 7e be 98 5b dd be 43 2d 08 be 64 b1 9c be
       -0.24844213 -0.43233943 -0.13298516 -0.30604088
0000f0 44 28 a9 be cd 4b 1c bf f3 2d 3e be 02 2d bb bf
       -0.33038533 -0.6105316 -0.18572216 -1.462311

conv2.weight f4 [128, 64, 5, 5]
000000 0c be ab bc 30 3e 04 bd d8 6f ae bc a8 70 b1 bc
       -0.020964645 -0.03228587 -0.021293566 -0.021660164
000010 5b 2d 78 bd 3b 0b c0 bc f9 f6 1a bd ea e3 91 bc
       -0.06059013 -0.023442855 -0.037833188 -0.017808873
000020 cb 22 2c bc c7 de 6a bd 03 f4 c8 bc 8a 09 8c bc
       -0.010506342 -0.057341363 -0.024530416 -0.017094392
000030 67 fa 48 bc 8c 50 51 bc c1 06 65 bd c2 64 a5 bc
       -0.012266732 -0.0127755515 -0.055914644 -0.020189647
000040 da 96 68 bc 84 bf b7 bb e8 0e 78 bc 00 46 74 bd
       -0.014196122 -0.0056075472 -0.015140273 -0.05963707
000050 4d 4c 68 bc f8 f0 d3 bc d6 8d e9 bb 91 a4 bc bb
       -0.014178348 -0.025871739 -0.007127504 -0.0057569225
000060 21 5e 8c bd 4a 09 06 bd ca 59 49 bd 30 fb 4b bd
       -0.06853891 -0.032723702 -0.049157895 -0.049800098
000070 98 ce 25 bd 9c 5d 58 bd a0 8e e3 bc 7d 96 1a bd
       -0.040480226 -0.052823648 -0.02777797 -0.037741173
000080 f1 64 fc bc c7 ef ee bc fb 39 28 bd 56 00 d9 bc
       -0.030809851 -0.02916707 -0.04107092 -0.026489418
000090 5d 8b f1 bc 60 40 91 bc 7d 65 bf bc 6b 7a 0f bd
       -0.029485399 -0.017730892 -0.023363823 -0.035028856
0000a0 d0 c1 ca bc 25 00 c3 bc b9 cf 2a bc cf 32 7c bc
       -0.02475062 -0.02380378 -0.0104255015 -0.015392973
0000b0 1c a6 0e bd 5e 28 f0 bc 9c d2 1c bd d7 c3 41 bc
       -0.034826383 -0.029316124 -0.03828679 -0.011826477
0000c0 7c d2 e3 bb c5 c7 00 bd d9 9b de bc e3 66 a3 bc
       -0.006952582 -0.031440515 -0.027173923 -0.019946521
0000d0 c6 db 8d bc 01 25 94 bc 15 06 02 bd 0d b1 b2 bc
       -0.01731671 -0.018084051 -0.03174408 -0.02181294
0000e0 6f 74 8f bc c6 94 88 bc 9c bc 76 bc 75 c0 eb bc
       -0.017511575 -0.016672503 -0.015059616 -0.028778294
0000f0 dd fa b4 bc 7d 1a 85 bc 30 5f 68 bc 52 c5 88 bc
       -0.022092277 -0.016247982 -0.014182851 -0.016695652
000100 0c b4 f1 bc 6b d2 9d bc 25 92 68 bc 13 68 65 bc
       -0.029504798 -0.019265374 -0.014195 -0.014001864
000110 20 6e 93 bc 88 82 f4 bc 3a 1f 1d bc f3 40 69 bc
       -0.017996848 -0.029847398 -0.0095899645 -0.0142366765
000120 4f 97 74 bc cd ee a5 bc 84 32 fb bc 94 ca 30 bd
       -0.014928653 -0.02025547 -0.030663736 -0.043161944
000130 f1 fc 68 bd 1f 9a 71 bd 26 f4 82 bd 27 4a c9 bd
       -0.05688185 -0.058984872 -0.06394224 -0.098285966
000140 ee 7c 09 bd ef a6 41 bd 93 90 28 bd 50 58 26 bd
       -0.033566408 -0.04727834 -0.0411535 -0.040611565
000150 2c 91 88 bd 5e 70 fc bc eb 9c 12 bd fa fc c1 bc
       -0.06668314 -0.0308153 -0.03579418 -0.023680199
000160 a2 c2 e3 bc e9 b4 41 bd 3c 0d fd bc a3 54 e4 bc
       -0.02780277 -0.04729167 -0.0308901 -0.02787239
000170 cf 17 2c bc 58 3a 67 bc 2e 28 2a bd 3e c3 d5 bc
       -0.010503723 -0.014113031 -0.041542225 -0.026094075
000180 25 b3 10 bd a7 5a 07 bc a4 a0 77 38 b2 86 18 bd
       -0.035327096 -0.008261359 5.9038997e-05 -0.03723783
000190 86 72 7c bd 9d b6 7a bd fa 87 5b bd d8 00 6f bd
       -0.061632656 -0.06120931 -0.053596474 -0.058350414
0001a0 ff b2 b8 bd e3 90 7a bd 96 d5 78 bd 09 28 55 bd
       -0.09018516 -0.06117333 -0.060750566 -0.052040134
0001b0 a7 97 f8 bc fb 04 3c bd 92 ba 65 bd b7 52 56 bd
       -0.030345751 -0.045903187 -0.05608613 -0.052324977
0001c0 9e a3 35 bd 61 bd 96 bc b7 a9 ae bc 08 15 3f bd
       -0.04434549 -0.01840085 -0.02132116 -0.046650916
0001d0 f7 f0 30 bd 55 08 f4 bc ef ac 51 bc 53 61 aa bc
       -0.043198552 -0.02978913 -0.012797578 -0.02079836
0001e0 3b a1 3d bd 4e fc 41 bd 4f 83 88 bc 58 b0 b5 3b
       -0.04629634 -0.047359757 -0.016664175 0.0055447035
0001f0 3f f2 c0 bb 38 00 51 bc 68 78 7a bc 5a bd 9b bc
       -0.005888253 -0.0127564 -0.015287496 -0.019011188
000200 58 74 b6 bc 0b 28 08 bd a3 32 08 bc 76 19 64 bc
       -0.022272274 -0.033241313 -0.008312854 -0.013922086
000210 c7 c2 67 bc 01 ee 77 bc 5b 33 c0 bc b4 c0 f2 bb
       -0.01414556 -0.015132428 -0.023461988 -0.007408226
000220 40 44 3e bc 65 b1 3b bc 08 0f 41 bc ae aa 8d bc
       -0.011612952 -0.011455868 -0.011783369 -0.0172933
000230 26 cd 00 bc e3 56 0c bc b1 ca 10 bc 20 00 15 bc
       -0.007861411 -0.008565637 -0.008837388 -0.009094268
000240 ef c6 80 bc c8 3f 98 bb e9 7a ea bb 2e e9 aa bb
       -0.015719859 -0.004646275 -0.0071557653 -0.0052157855
000250 f6 d6 b1 bb 54 68 5d bc d6 8e 24 bd 5b f5 1c bd
       -0.0054272367 -0.013513643 -0.04017528 -0.038319927
000260 c7 78 b1 3b c4 42 06 3d 66 ae 7e 3d 59 08 6c bd
       0.005416009 0.032778516 0.062178038 -0.05762515
000270 50 82 85 bd f7 e7 57 bc 39 16 6c 3c c7 ea 17 3d
       -0.06518996 -0.013177863 0.014409595 0.037089135
000280 fe 2b 5d bd 38 47 85 bd 1e e5 c1 bc ae a9 07 3c
       -0.053997032 -0.065077245 -0.023668822 0.008280201
000290 28 48 c9 3c 19 3c 33 bd fb 3e 60 bd bd 15 ba bc
       0.02457054 -0.043758485 -0.054747563 -0.022715444
0002a0 9f be 76 bc a7 6b a4 3c 5f 5a b9 bb 08 cc 10 bc
       -0.015060096 0.020070864 -0.005656525 -0.008837707
0002b0 1d ff ea bb 41 5a e3 bc d2 29 d8 3b 67 a8 39 bc
       -0.007171525 -0.027752997 0.0065967822 -0.011331654
0002c0 5b a5 a6 bc b3 57 aa bc 10 f7 7e bc 77 8a b3 bc
       -0.02034252 -0.020793771 -0.015561834 -0.021916611
0002d0 4a 2a 98 bc a6 fe a0 bc eb 9d 7c bc 29 04 1b bc
       -0.018574852 -0.019652676 -0.01541851 -0.009461441
0002e0 5d 45 37 bc 18 79 a6 bc f2 af 5c bc 1e c9 14 bc
       -0.011185971 -0.020321414 -0.013469683 -0.009081153
0002f0 da 94 9a bb 1a 44 cf bb 33 2b 7e bc cb 94 24 bc
       -0.0047174515 -0.006325257 -0.015513229 -0.010045241
000300 c8 1a f6 bb ae 2d cd bb 20 a5 37 bc e0 6b 7e bc
       -0.007510517 -0.006261549 -0.011208802 -0.015528649
000310 2a 4b 48 bc 55 ce 3a bc 4d 9d 35 bc b8 dc 61 bc
       -0.012224952 -0.011401732 -0.011084867 -0.013785534
000320 99 3f 72 bb 8c c4 72 bc 72 51 95 3a 93 da b0 bb
       -0.0036964177 -0.014817368 0.001139207 -0.00539715
000330 70 45 08 3c 5b 7c b1 bc d5 dd 21 bc 57 2d 59 3b
       0.008317336 -0.021665743 -0.009879549 0.0033138597
000340 60 08 08 bc 69 e0 27 bc 25 54 a3 bc b9 3c fe bb
       -0.008302778 -0.010246375 -0.019937584 -0.0077587035
000350 4f 9a 74 bb cd e0 2a bb 17 04 83 3b 7b 33 f6 bb
       -0.003732342 -0.0026073933 0.0039982903 -0.007513461
000360 06 d2 87 3b 90 ed 64 3c da d3 93 bb 40 c2 60 3b
       0.00414491 0.013972655 -0.0045113387 0.003429547
000370 de 59 85 3c 72 ac 1d 3d f0 0d 14 3d 5d 2b d8 bb
       0.016278204 0.038494535 0.036146104 -0.006596966
000380 72 09 08 ba 4a f0 34 bb 80 a9 e2 bb 18 62 be bc
       -0.0005189396 -0.0027609044 -0.0069171786 -0.023240134
000390 d5 c8 da bc 3e 75 d4 bc 24 3f 9e bc 82 e5 e5 bc
       -0.026707092 -0.025934812 -0.019317217 -0.02806354
0003a0 21 0d c8 bc ec 21 77 bc 4e b0 3b bc 48 5f 2c bd
       -0.024420323 -0.015083771 -0.0114556085 -0.042083055
0003b0 f2 69 fc bc e5 b0 7e bc 83 08 df bb 7f 61 bb bb
       -0.030812237 -0.015545105 -0.0068064346 -0.0057184095
0003c0 3c f3 44 bd ba d3 04 bd 20 26 68 bc 29 c0 b7 bb
       -0.04808353 -0.03242848 -0.014169246 -0.005607624
0003d0 1a 43 02 bc 38 b9 73 bd 9f aa 11 bd af aa 48 bc
       -0.007950569 -0.05950281 -0.035563108 -0.012247725
0003e0 88 4c 5a bb 67 9e 01 bc af 66 02 3e 48 66 70 bd
       -0.0033309776 -0.007911301 0.12734483 -0.058691293
0003f0 e2 07 8d bd cd e8 26 bd 8e ed 07 bd bb e9 dd 3d
       -0.06886269 -0.04074936 -0.033185534 0.10835596

conv2.bias f4 [128]
000000 b7 b3 92 be f5 1a 9d 3c 55 b2 5f 3e 2a fd 15 bc
       -0.28652737 0.019177893 0.21845372 -0.009154597
000010 5f d1 7c bc 2b 9d d4 bd 26 dd 09 be bf 01 a8 bd
       -0.015430777 -0.1038154 -0.13463268 -0.08203458
000020 33 da 98 3c 8f 19 89 3e bd 05 02 3b 4e eb 99 3a
       0.018658733 0.26777312 0.0019839846 0.00117431
000030 51 2d e2 bd 7c bb 6a be af 4e 89 3d e0 63 a7 bd
       -0.110438 -0.22923082 0.06704461 -0.081733465
000040 1a b3 83 bd 98 45 c4 bc 05 33 3e ba 28 a8 b1 3c
       -0.06430645 -0.023958966 -0.00072555273 0.021686628
000050 d7 7f 05 bc 99 35 e0 3d ab 2b 13 be 2f ef 2d 3d
       -0.008148155 0.10947723 -0.14372127 0.04246443
000060 6a da 1f 3b 0f 7c df bd e3 13 51 bd c3 29 ab 3e
       0.002439166 -0.10912334 -0.051044356 0.334303
000070 59 c4 1d 3d 7f 70 27 bd 64 26 8e bc d3 7e 80 3d
       0.03851733 -0.04087877 -0.01735229 0.0627419
000080 89 a0 91 ba aa 24 22 bd e9 32 87 3d a2 b4 2b be
       -0.0011110465 -0.039585747 0.06601507 -0.16768125
000090 35 36 22 bb 5f 24 46 bd cf 28 48 bd ed 3f 26 bd
       -0.0024751548 -0.04837453 -0.048867043 -0.040588308
0000a0 55 2d 79 bd 2a 8a 31 bb 95 8b 5e be b7 a1 21 be
       -0.060834248 -0.002709041 -0.21732934 -0.15784346
0000b0 69 48 9c 3d 9c b3 03 3d fc 1f 7e bc ff d1 27 3c
       0.07630999 0.03215371 -0.015510555 0.010242938
0000c0 c0 95 86 bd c5 01 c3 3e de a4 80 be 57 b3 e8 bc
       -0.06571531 0.38087288 -0.25125784 -0.028405828
0000d0 bc c6 05 be 90 24 f7 bd e0 1d fc bd cb 15 85 bb
       -0.13064092 -0.120675206 -0.12310386 -0.004061436
0000e0 9c 70 c2 3c fc c6 25 bd 0e b2 ae bd d6 ba ca 3e
       0.023735337 -0.04047297 -0.08530055 0.3959567
0000f0 14 c8 51 3e aa 0c 0e ba 30 40 b6 bd 8c b6 d8 be
       0.2048648 -0.0005418757 -0.088989615 -0.42326772
000100 90 88 a8 3c b9 78 49 bd dd 77 71 bd 01 df ae 3a
       0.02057293 -0.049187396 -0.0589522 0.0013341607
000110 da 33 78 be 06 26 b1 bd d2 58 f6 3c d0 31 39 3e
       -0.2423853 -0.086498305 0.03007165 0.18085408
000120 64 94 33 3d 97 72 04 bd 8b e9 c9 3e 92 a1 db be
       0.04384269 -0.032335844 0.39435992 -0.42896706
000130 37 f3 eb be 80 38 4a 3d ed 82 63 bc 51 a3 92 3d
       -0.46083996 0.04937029 -0.013886196 0.071600564
000140 5b d2 f6 bd d5 4d b4 bc bd 03 75 3b a9 2a 57 be
       -0.12051841 -0.02200977 0.0037386261 -0.21012367
000150 41 8a 40 be 42 cb df be 14 5b 29 3e 0e a0 a2 3c
       -0.1880274 -0.4370976 0.1653865 0.01985171
000160 35 07 f5 3d 91 7f 87 3e ca fc e9 bd a5 90 2e 3e
       0.11964265 0.26464513 -0.11425169 0.17047365
000170 d1 72 e7 bd 5f 66 50 b9 dd bf 1e 3e 1f 40 c4 be
       -0.11301196 -0.00019874562 0.15502878 -0.3833017
000180 77 de a4 be f3 06 67 be d6 dd f3 bb 94 f9 f4 bc
       -0.32200977 -0.22561245 -0.0074422164 -0.029904164
000190 9b 66 9e bc 76 e0 b5 bc 94 3a 86 ba 7e f9 9e bd
       -0.019336035 -0.022201758 -0.0010240846 -0.077624306
0001a0 1d 62 8b ba 20 24 d6 bd 02 11 95 3e 35 3a be be
       -0.0010634098 -0.10456109 0.29114538 -0.37153783
0001b0 de 7d 8a bd 79 79 b8 3c e8 b9 fe 3d 2c 4a d0 3e
       -0.067622885 0.02251886 0.124378026 0.4068159
0001c0 23 71 9d 3b 99 94 20 be b4 a0 2c bc 77 c5 f1 bd
       0.0048047467 -0.15681686 -0.0105363615 -0.118052416
0001d0 b0 b6 34 3d e8 ee 18 3d 50 01 96 be 42 99 8c bd
       0.044119537 0.037337214 -0.29297876 -0.06865169
0001e0 89 56 4b 3a 3f 83 16 be f7 90 68 bd 15 d5 75 bd
       0.000775673 -0.14698504 -0.056778874 -0.060017664
0001f0 f3 b0 68 bf 8f eb c7 be b3 8c 65 3e 86 16 32 3d
       -0.90895003 -0.39046904 0.22416954 0.04347851

fc1.weight f4 [64, 128]
000000 6e 43 69 be 2c 19 93 bd b7 26 38 3e de 7b 48 be
       -0.22779629 -0.071825355 0.17983519 -0.19578502
000010 50 37 55 3d a6 98 92 3e 28 82 42 3e b5 37 a6 3d
       0.052054703 0.28632087 0.18994963 0.08116094
000020 a7 6d ec bd 3e da d3 bc d0 b1 6e be 67 dc 18 3a
       -0.11544352 -0.025860902 -0.23310018 0.00058311824
000030 05 cb c8 be c3 66 35 3e 4f 82 97 be fb 9f 89 be
       -0.39217392 0.17714982 -0.29591605 -0.26879868
000040 72 e1 43 3d 88 e2 a0 3c 05 25 21 3a 80 3a e7 be
       0.047822423 0.019639269 0.0006147179 -0.4516182
000050 c3 05 4f 3c c4 8c ba 3c 9a b7 f0 3c 0f d6 5b 3c
       0.012635651 0.0227722 0.029384423 0.013417735
000060 e4 fb 48 bc 38 15 e5 3d d3 22 28 3d 9b 30 26 be
       -0.012267087 0.11185688 0.041048836 -0.16229479
000070 b5 1c b5 3c e2 da c5 3d 17 42 ea bb 92 bb 57 3e
       0.022108415 0.09660889 -0.007148992 0.21067646
000080 31 b8 ab b9 b9 f4 8a be af 3b dc be 25 12 80 bd
       -0.00032752895 -0.27139834 -0.43014285 -0.06253461
000090 fc 67 4c bc 06 6c d7 3d fd 83 2c 3e ae 90 9f 3d
       -0.012475964 0.10518651 0.16847225 0.07791267
0000a0 17 dc 8f 3e 62 50 de ba ef fb 88 3d d3 6e 83 3e
       0.28097603 -0.0016961212 0.066886775 0.2567049
0000b0 7a 32 8a bd b9 7d 9b bc eb 11 0a 3e 38 79 56 bd
       -0.06747909 -0.018980848 0.13483398 -0.052361697
0000c0 dc 9b ab bd 75 08 bd 3d 72 7f 4a be 6b 19 de be
       -0.08379337 0.09230129 -0.19775179 -0.43378767
0000d0 2b 0f d0 bd 39 d9 38 3a d1 cc 29 3e 39 c1 55 3b
       -0.10159143 0.00070514117 0.16582038 0.003261639
0000e0 a0 ec 6f 3e 9f ee a6 be 7c a4 72 be 61 ca 14 bd
       0.23430109 -0.32603928 -0.23695558 -0.036325816
0000f0 19 99 10 3d ce af 45 ba b1 f4 0b be f2 cf 91 bd
       0.035302255 -0.00075411506 -0.13667561 -0.071197405
000100 74 c9 dc bc d4 79 9f be 85 f9 db bd 58 07 bd 3b
       -0.02695153 -0.31147635 -0.107409514 0.0057686977
000110 fd 3b 80 3e 52 e6 03 bd 5c ac 61 be 47 7a 6f 3d
       0.25045767 -0.032202072 -0.22038406 0.058466222
000120 79 94 d2 bd 91 da c6 bd 07 78 71 3d af 09 bf 3d
       -0.10282225 -0.09709657 0.058952358 0.09328019
000130 ef 6f 9b 3e 05 09 de 3e ef 2c bf bd 42 da 90 be
       0.30358836 0.43366256 -0.09334742 -0.28291517
000140 8e 50 92 be 73 91 38 be 29 ed 7e bd ae 7f 42 3d
       -0.28577083 -0.18024234 -0.062237892 0.047485046
000150 8d e3 b8 be 4a 25 61 3e 69 8a cb 3c 93 65 dc 3c
       -0.36111107 0.21986881 0.024846273 0.026903903
000160 3a dd 54 3e 78 86 91 bd 23 fb 82 be d0 c3 ff bb
       0.20787516 -0.07105726 -0.25582227 -0.007805325
000170 ed e5 e1 3d be 3e 54 3b 81 64 be 3e c8 c6 9e 3d
       0.11030183 0.003238603 0.37186053 0.07752758
000180 be cb b6 3e 00 e6 3a 3e 9b 5e 26 3c 49 10 07 3d
       0.35702318 0.182518 0.010154392 0.032974515
000190 52 5b 1f bc 77 b1 04 3d 7d 22 2a 3b 8a cb 17 bd
       -0.009726362 0.032395806 0.0025960498 -0.037059344
0001a0 56 0a 9e 3a 14 91 80 bd 12 4d 82 3e be 1d ef 3e
       0.0012057524 -0.062776715 0.25449425 0.4670238
0001b0 ed 99 e4 3c b3 59 2d be 9f f7 36 3c d0 0f d0 bd
       0.027905429 -0.16928749 0.011167436 -0.10159266
0001c0 4f 0d 48 bd 65 88 49 3b 26 9e 3e bd 31 f5 96 3d
       -0.048840817 0.0030751463 -0.04653754 0.07370985
0001d0 1d ed 03 bd cf d7 4b be 25 3d bc 3e ef 0e 7c be
       -0.03220855 -0.19906543 0.367654 -0.24615072
0001e0 4b 41 55 bb 85 93 d6 3c a3 78 6a be 22 9f e5 3c
       -0.0032540138 0.02619339 -0.22897582 0.028029982
0001f0 4a 0b 83 3d ee 89 ad be dd 53 b5 3d 35 98 34 3d
       0.063986376 -0.33894295 0.08853886 0.04409047
000200 6c ef bd bc 1f 85 09 3c 7d 84 cf 3d dc c2 e7 3c
       -0.023185454 0.008393555 0.10132692 0.028291158
000210 23 f2 51 3c 4b 74 23 3e 9a 7d b7 bd 13 7f 24 bd
       0.012814078 0.15962331 -0.089595035 -0.04016025
000220 db 93 9a be c3 52 fe bc 4c 74 14 bd c1 b3 1f 3b
       -0.3019093 -0.031045323 -0.03624372 0.0024368616
000230 5a b8 1a bc 59 ca 0b be b5 45 d4 bc 1c 45 0d 3e
       -0.009443367 -0.13651408 -0.025912145 0.13795894
000240 07 7b 83 3c fd e7 aa bc 97 39 7f b9 b5 31 8f 3d
       0.016049875 -0.020862574 -0.00024340149 0.06991903
000250 42 65 b5 3b cb 86 e9 3c 4f 19 47 bd b9 85 20 3c
       0.0055357525 0.028506657 -0.04860812 0.009797507
000260 12 30 b7 bd 08 30 c4 bd a9 e1 4d 3c 65 b3 51 3d
       -0.089447156 -0.09579474 0.012566009 0.051196475
000270 c5 c6 4f bd 80 0f 7b be ac bc 7b bd e8 e1 f1 bd
       -0.05072667 -0.24517632 -0.06145923 -0.11810666
000280 39 d2 b4 3a d9 d6 66 3e 82 a7 1d 3c 78 e9 e6 3d
       0.0013795561 0.22542895 0.0096224565 0.112749994
000290 54 7e 4a bb e7 16 c8 bc 76 fc 16 3d 44 de 9a 3b
       -0.0030898051 -0.024424983 0.03686186 0.004726203
0002a0 e7 dc aa bc 94 f2 81 ba e3 aa 9a 3d 56 88 19 be
       -0.020857288 -0.0009914213 0.07552125 -0.14993414
0002b0 3c 37 06 be 2f 31 b0 bd b5 b3 9a bd 1b 67 7e bc
       -0.13107008 -0.08603131 -0.07553808 -0.015527512
0002c0 81 00 b1 bd 24 50 9a 3c 7c 57 15 be e9 3a 8e 3d
       -0.08642674 0.018837042 -0.14584154 0.0694483
0002d0 24 68 83 bd 0e 2d 4e be b3 26 53 3d a4 39 de ba
       -0.064163476 -0.20134374 0.05155058 -0.0016954434
0002e0 42 8a 0e be f1 56 55 bd a4 93 45 3c ee 30 28 3e
       -0.13919929 -0.052084867 0.012059126 0.16424915
0002f0 f5 a2 1f 3d 9a ed 93 ba a5 45 ff bc 06 53 e8 bc
       0.038973767 -0.0011286021 -0.031161139 -0.028359901
000300 5f ba 88 ba f9 c0 20 be c9 3e 67 3d aa d1 c1 3b
       -0.001043152 -0.15698613 0.05645636 0.0059148865
000310 1b 3d ab 3d 95 b4 38 bd 18 43 e2 3d a5 d2 90 3d
       0.08361264 -0.04509409 0.11047953 0.07071427
000320 0e 2a 32 be fa 4f 69 bd 84 d7 9c 3d 6c 86 45 3e
       -0.17398855 -0.056961037 0.07658294 0.19289559
000330 28 06 d2 ba b8 62 7a be cb 05 b2 be f4 50 44 bd
       -0.0016023563 -0.2445172 -0.34770045 -0.047928765
000340 d0 2e 03 bd 0d 08 c8 3d 3f 1f e4 bd dd fa e5 3c
       -0.032027066 0.097671606 -0.11138772 0.028073722
000350 a2 8a 9d 3e 34 98 21 3d d0 bb f6 3c 70 6d eb bc
       0.3076983 0.039451793 0.030118853 -0.028738707
000360 23 f7 75 be d8 93 3f bb e7 c4 32 3e b2 e3 24 bc
       -0.24020056 -0.002923241 0.17457925 -0.010064052
000370 b5 f0 4a bd 89 41 58 bb 02 93 97 be 91 c1 35 bd
       -0.049545962 -0.0032998046 -0.29604346 -0.044374052
000380 b8 1e 8b bc 55 5f 83 bd ce 0d 1e bc 4b 9d e5 bd
       -0.016982421 -0.064146675 -0.009646846 -0.11211642
000390 16 4d b5 bd b5 12 3b bc 69 91 f2 ba fe f3 3d bd
       -0.088525936 -0.011418034 -0.001850647 -0.046375267
0003a0 09 29 ae ba 9e a6 c3 bd 0a 5b 96 3d be 5b 45 3e
       -0.0013287376 -0.09553264 0.07341583 0.19273278
0003b0 82 9e 0c be c8 7c 92 3a b7 3e 80 3c 97 2e 04 be
       -0.13732341 0.0011176104 0.015654905 -0.12908398
0003c0 87 20 ee bd 02 f8 2e be 95 39 32 bc 96 b7 d3 bc
       -0.11627298 -0.17086795 -0.010877986 -0.025844377
0003d0 28 eb 8f bd 01 72 98 bc 53 f7 7a 3b 5c 7f 22 3e
       -0.07027274 -0.018609049 0.003829439 0.15868896
0003e0 bf 7d 36 3b ca 4d 22 be e0 8a 5b 3e c3 46 14 be
       0.0027845947 -0.15849987 0.21439695 -0.14480118
0003f0 90 8e 0c 3e 90 8a 4f 3e 7c 5f 8e 3c c5 a7 a4 bd
       0.13726258 0.20267701 0.017379515 -0.08039812

fc1.bias f4 [64]
000000 33 ee b8 bc b7 41 2a be f4 9e 28 3f 4d 81 bd 3d
       -0.02257452 -0.1662663 0.65867543 0.09253178
000010 62 e0 61 3e 5e f3 64 3e dd 81 15 3f 94 47 4b 3e
       0.22058252 0.22358462 0.5840128 0.19851524
000020 e7 11 c7 3e 2f dd 0c bd 13 44 48 3e c5 6e 2f bc
       0.38880846 -0.034390625 0.19557218 -0.010707562
000030 47 7e 84 be 8b 6c 05 bd 40 f2 db 3e 2c 4f b6 be
       -0.25877592 -0.032574218 0.4295826 -0.35607278
000040 6e 33 21 bc b5 65 c5 3e a1 45 6f 3e 2e c6 c3 3e
       -0.009838922 0.3855416 0.23366405 0.38237137
000050 e3 4d dd 3e 34 ce 8f 3e 1d a1 8f 3e df dd 91 3b
       0.43223485 0.28087008 0.28052607 0.004451498
000060 09 1f d9 39 bc b7 a3 3e 8a 45 7b bd c9 d6 8c bc
       0.00041412588 0.31976116 -0.061345614 -0.017192261
000070 b8 bc 41 bc 6e 71 b0 3d 98 e6 37 3e fc 1e 11 3e
       -0.011824779 0.08615385 0.17959058 0.14171976
000080 0d 12 77 bd c7 4f dc bc ab e2 df 3d f0 e0 10 be
       -0.06031995 -0.02689351 0.10931905 -0.14148307
000090 42 4a 22 be b2 8d a6 3e f2 21 2f bb ff 8f 32 3e
       -0.1584864 0.3252998 -0.0026723114 0.17437743
0000a0 fc f0 80 bb b3 87 11 3f 12 ad 8b 3d 6a 4c 50 be
       -0.0039349776 0.56847686 0.0682012 -0.2034165
0000b0 2d 18 24 3e 6c 79 b0 3e ea 78 c0 bc 55 f2 98 bc
       0.16024847 0.34467638 -0.023495156 -0.01867024
0000c0 d2 86 8c bc 4f 60 69 3e 1a ff 9e 3e 20 be 4c bd
       -0.017154131 0.22790645 0.31054002 -0.049986005
0000d0 55 82 17 be cb 92 10 3f 3c f1 4b be d0 1c 98 bb
       -0.14795811 0.5647399 -0.19916242 -0.0046421066
0000e0 c0 ff 92 3e e4 3e c9 3e 9b 75 be 3e b6 7a 98 3e
       0.28710747 0.39305794 0.371991 0.2978112
0000f0 5c d9 a9 3d d2 43 dc bb 92 0d 9c bd 8c 3d 9a 3d
       0.08293411 -0.006721952 -0.07619776 0.075312704

fc2.weight f4 [32, 64]
000000 dd d7 c6 bd 25 bc 0f bd e1 b9 33 be 15 02 a8 bc
       -0.097091414 -0.035091538 -0.17551376 -0.020508805
000010 47 4e 22 bd 75 a0 0d 3c bd fa fd bd d2 c5 3b bc
       -0.039625432 0.008644213 -0.1240134 -0.011460738
000020 76 f2 b2 bd db ce 45 bc 4c 0c 29 be e2 0f 3c bb
       -0.08737652 -0.012073244 -0.16508597 -0.002869599
000030 5b a8 17 bd 32 31 84 be 7e 7a 42 bd a4 33 f4 be
       -0.03702579 -0.25818783 -0.0474801 -0.4769565
000040 97 38 8c 3a 6e 9e 60 be e6 f8 3c 3e 09 7e 41 3d
       0.0010698017 -0.21935436 0.18454322 0.047239337
000050 4f 38 76 3d 6e 29 60 be 69 f4 90 bd c7 08 5a 3c
       0.060112294 -0.21890804 -0.070778675 0.013307757
000060 b4 7a a9 ba 3b dc a7 bc f5 75 5a be 2f 41 39 bd
       -0.0012930245 -0.020490756 -0.2133406 -0.04522818
000070 13 d3 ec bb 63 94 0b bd f7 0f 84 be 9b 52 59 be
       -0.0072273104 -0.03407706 -0.2579343 -0.21222918
000080 dc 8f 52 bd 35 fd 40 bc c6 2f 2d bc 2e 46 ef bd
       -0.051406726 -0.011779119 -0.010570472 -0.116833076
000090 73 cb 09 3f c7 45 39 be 24 ec ab 3a a3 c8 f9 ba
       0.53826064 -0.18093024 0.001311664 -0.0019056987
0000a0 ef cc 45 ba 5c 6f 72 be 5d dd ab bd 19 dd a7 bd
       -0.0007545491 -0.23675293 -0.08391831 -0.08196468
0000b0 50 8a f6 bb f4 e8 0a 3d 56 8e 6d bc ce 53 81 bb
       -0.0075238124 0.033913568 -0.014499268 -0.003946758
0000c0 75 c7 23 bb 8c 41 35 bd 92 bc 1d bd a2 ff 38 bc
       -0.0024990712 -0.044251963 -0.038509913 -0.011291416
0000d0 ee 5b f0 3d 31 da b4 3e 07 07 16 be 3f e4 2e 3b
       0.11736284 0.35322717 -0.14651118 0.0026686338
0000e0 e8 0f 8f bd 33 0a 15 bb 31 ed a2 3c 68 1d 8b 3d
       -0.06985456 -0.0022741675 0.019888492 0.06792718
0000f0 0c 79 23 bc 42 2d 94 bb 16 02 2d 3c 08 be ce bd
       -0.00997759 -0.0045219967 0.010559579 -0.10094839
000100 46 1d 28 be 84 ee 72 3d db d3 a3 be ff 2f 01 bc
       -0.16417417 0.059309497 -0.3199757 -0.007884978
000110 8f 55 d2 bd 52 eb 5c 3e f7 d4 9e be 39 f5 ca bc
       -0.10270225 0.21574143 -0.31021854 -0.024775134
000120 ed 68 46 3d 5b 76 fd bb 57 20 90 bd 59 59 25 bc
       0.04843991 -0.0077350563 -0.07037418 -0.010092103
000130 c8 49 fb bb f9 71 f0 3d c3 b7 96 bc 1b 05 10 3f
       -0.0076687075 0.117404886 -0.018398171 0.5625779
000140 b7 9b 78 bc cd c0 ac bd 87 60 07 bd 3c b7 1f be
       -0.015173844 -0.08435211 -0.03305104 -0.15597242
000150 87 c9 d5 bb b3 da 4b bd 69 78 8f bd e5 46 27 3c
       -0.006524268 -0.049769115 -0.07005388 0.010209774
000160 3c 8e 34 bc d8 6f 4d 3c bc c2 fe 3e 7f 59 92 3e
       -0.011020239 0.012538873 0.49757946 0.28583905
000170 93 63 b3 3a 4d b9 14 bd 72 ce 2f bd cf 4e aa be
       0.0013686292 -0.03630953 -0.04292149 -0.3326325
000180 dd 87 85 bd b1 38 b0 bc f1 b7 d5 bc 0a 53 08 3e
       -0.065200545 -0.021511408 -0.026088687 0.13312927
000190 f8 c3 d2 be 10 e1 0e bd ca a6 61 bc 4d 98 ec bd
       -0.41165137 -0.034882605 -0.013772676 -0.115524866
0001a0 d0 82 85 ba ce 6c ae be ae b4 40 be 6f 5f 35 3d
       -0.001018608 -0.34067386 -0.18818924 0.044280466
0001b0 29 b4 c9 bd f3 0c c1 bc 58 e7 80 bc 3a d8 32 3b
       -0.09848816 -0.023565745 -0.015735313 0.0027289526
0001c0 9b 57 de bb a4 e2 eb bd 6f 4f 6f bd a2 29 b2 bc
       -0.0067853457 -0.11517838 -0.058425363 -0.021748368
0001d0 e4 7c f8 bd a3 29 02 bf 0d 05 ce bc f1 4f af b9
       -0.12133196 -0.5084478 -0.025148893 -0.00033438162
0001e0 59 94 f9 bc 8b 61 82 3d b3 09 17 3e 05 92 bd be
       -0.030466245 0.06366261 0.14749794 -0.37025467
0001f0 7f ad 4b bd 49 2f 36 ba e2 47 8c bb 1f ac 54 3e
       -0.049726006 -0.0006949795 -0.00428103 0.20768784
000200 11 b5 44 3e eb 95 81 bd 3a 15 a1 3d d8 6a 4f 3c
       0.19209696 -0.06327423 0.07865377 0.012659751
000210 b9 3a 0d 3e 52 a2 c4 ba 36 7f 96 bd 37 f0 16 3d
       0.13791932 -0.0015001989 -0.07348482 0.03685018
000220 e3 89 2d 3d 03 02 11 3c 5a 73 1e 3d 70 9c ae 3a
       0.042367827 0.008850577 0.038684227 0.0013321768
000230 a9 51 4e 3d cd 34 9b 3e 16 5d 8c 3d 0e eb f1 3d
       0.050370846 0.3031372 0.06853692 0.11812411
000240 90 63 dd b9 18 d9 81 3e d1 f5 88 bb 12 56 62 3c
       -0.00042226585 0.25360942 -0.004179694 0.013814466
000250 a5 1c 35 bc 92 af 71 be ba da 42 bd 0e 35 9f bc
       -0.011054193 -0.23602131 -0.047571875 -0.019434478
000260 79 50 ba b8 79 0b f3 3c b2 f5 40 3d 9c 1d 96 bb
       -8.88416e-05 0.029668557 0.047109313 -0.0045811664
000270 d2 a8 4e bb 6d 58 af 3c fe 4b 14 be 41 28 8e bd
       -0.003153373 0.02140447 -0.14482114 -0.069412716
000280 ed e4 c7 3d 77 c3 2e bc 6b d3 85 3d ab 1c a3 3c
       0.09760461 -0.01066672 0.065344654 0.01991113
000290 8e f5 80 be c9 5b 2c 3e 34 f6 b7 39 40 df 9c 3c
       -0.25187343 0.16831888 0.00035087916 0.019149423
0002a0 ab 32 2f 3b 20 8a ec 3d cc 8c 89 3d 58 c7 92 bd
       0.0026733081 0.11549783 0.06716308 -0.07166928
0002b0 f9 23 1b bd 9c 50 ed 3c 42 1a 2a 3d c2 cb d8 ba
       -0.037876103 0.028969102 0.041528948 -0.0016540217
0002c0 a7 f1 9c bb f5 8a 3c 3e 8c 69 9c 3d ef cb a8 3c
       -0.0047895494 0.18412383 0.07637319 0.020605056
0002d0 67 65 23 bd 7f dc 60 bc 8e c5 0c bd 94 a7 24 bb
       -0.039891627 -0.013724445 -0.03436809 -0.0025124298
0002e0 2c 80 91 3c ab 34 10 3d 10 af 21 bc a6 18 5b be
       0.017761312 0.035206478 -0.009868398 -0.21396121
0002f0 41 ad e2 3c 84 fe 1e bb 5b 5d 6d bc bb a3 30 bd
       0.027670505 -0.002426059 -0.01448759 -0.043124896
000300 15 c2 8d be 16 f1 9a be 28 fb 1a be 1a bc 11 bb
       -0.27687135 -0.3026206 -0.15134871 -0.0022237361
000310 6b 58 28 be ef 9c ae 3c 74 4d a5 3d 00 6a 8d bc
       -0.16439979 0.021315066 0.08071414 -0.017262459
000320 51 ee cc bc 94 f3 94 bc 82 d0 85 be d3 15 e8 bb
       -0.025015982 -0.018182553 -0.2613564 -0.00708268
000330 1d d6 23 be 66 88 fc bd 7d 05 e4 bd 86 9b de be
       -0.15999646 -0.123307034 -0.11133859 -0.4347803
000340 57 e4 35 bb db 68 65 be 58 3f 79 be 46 d6 82 be
       -0.002775451 -0.2240328 -0.2434057 -0.25554103
000350 85 0c 36 be a3 33 80 3e ae bd 99 be 60 fe ba bc
       -0.17778213 0.25039396 -0.30027527 -0.022826374
000360 04 5e 2e bb 2f 0f b6 bd 5d b1 9c be 13 8e e0 bd
       -0.002660633 -0.08889615 -0.30604067 -0.109645985
000370 a8 4e 67 3a 73 39 ab bd 2e ff 98 3d 91 23 6e be
       0.00088236714 -0.08360567 0.07470547 -0.23255755
000380 07 48 a1 bd 5f 00 25 3d 08 e5 c1 bd 13 4c 80 be
       -0.07875066 0.040283557 -0.09467512 -0.2505804
000390 86 0a 27 be 47 ef 06 bc 83 43 e7 bb a1 6a 33 be
       -0.16312608 -0.008235759 -0.0070576086 -0.17521144
0003a0 1e 0e 6c bb 64 fc da 3d d8 e0 eb 3d ca 49 4c be
       -0.0036019157 0.10692671 0.11517495 -0.19950023
0003b0 2b 61 df 3c 30 51 dd bd f8 df 48 be 44 55 12 3b
       0.027268013 -0.10806501 -0.19616687 0.0022328654
0003c0 5b 42 78 bb e5 4c 45 bd 27 e1 97 bd 8e 03 a2 bd
       -0.0037881348 -0.048169035 -0.07415991 -0.07910834
0003d0 21 9b 94 3d f1 0e 1c 3e 24 6d 42 be 40 f0 55 3b
       0.07256151 0.15240075 -0.18986946 0.003264442
0003e0 07 9e cc bd 6a 2b c6 bd 39 83 07 be e0 79 63 3e
       -0.09991079 -0.09676249 -0.13233651 0.2221446
0003f0 12 3c c7 3b 94 8e 86 bb af 1f 26 bd 9f ff 19 be
       0.006080159 -0.004106352 -0.04055756 -0.15038918

fc2.bias f4 [32]
000000 65 75 c3 3e b0 66 c2 3e d5 8d b9 bd 51 3a ea 3e
       0.38175502 0.3796897 -0.090602554 0.45747617
000010 e7 ee 09 be b3 33 3b 3f 89 22 e1 bb 82 c5 fa bc
       -0.1347004 0.7312576 -0.006870572 -0.030611757
000020 9d ee 7b 3d df c8 69 3d 23 d7 d3 bb 87 ac 15 3f
       0.061506856 0.05707633 -0.0064648553 0.5846638
000030 c3 a0 12 bb 96 79 02 be 64 67 2b bb ae d4 8d 3d
       -0.0022373653 -0.12741694 -0.0026154155 0.06925331
000040 14 ab 9c bb e5 d7 9b 3e fe 5f a5 3c 63 de 01 bc
       -0.0047811363 0.30438152 0.020187374 -0.007926556
000050 49 3b c9 3e bd a2 3f 3e b5 16 5f 3d d0 3f d9 3c
       0.39303043 0.18714423 0.054465014 0.026519686
000060 d1 eb a5 bb 9a ed 9e bb 7f dc e6 3d 8e 26 f5 3e
       -0.005063512 -0.0048501017 0.11272525 0.47880977
000070 ab 7b db bd 4d 75 b7 bb cd 66 d5 bd 5d 56 8b bb
       -0.10716947 -0.0055987 -0.10419998 -0.0042522387

fc3.weight f4 [5, 32]
000000 59 32 60 3d d0 40 7b bd d9 04 2d 3e fe b9 63 bf
       0.054735515 -0.061341107 0.1689638 -0.88955677
000010 94 ac 2c 3f c0 8b 63 bf 82 33 d7 ba 01 46 65 bd
       0.67450833 -0.88885117 -0.0016418549 -0.055974964
000020 be 56 d0 3e 6a 36 af 3e 60 46 10 b9 20 34 67 bf
       0.4069118 0.34221202 -0.00013759127 -0.9031391
000030 de 73 93 ba 7d 39 12 3e 26 37 a8 3b 57 6d 8c 3e
       -0.0011249741 0.14279743 0.0051335273 0.2742717
000040 15 c0 8f 3a 0f 66 d4 3e 40 66 88 3d 88 28 88 bb
       0.0010967279 0.41484115 0.06660128 -0.0041552223
000050 45 71 51 bf 88 fe 84 be 3d 71 4a be 36 57 b6 3e
       -0.8181346 -0.25975442 -0.1976976 0.35613412
000060 81 70 a5 bb 50 92 4b bb 6c 7e 71 3e bd b0 07 bf
       -0.005048812 -0.003106255 0.23583382 -0.53004056
000070 ca 6b e3 3b bc 0f 98 3b 3a dd 8e 3e 6b 5d 31 bb
       0.0069403397 0.0046405476 0.27903157 -0.0027063738
000080 1d a5 9f 3e 57 bf 5e 3e a9 e8 3b be 54 e9 10 3e
       0.3118066 0.21752678 -0.18350472 0.14151508
000090 0e 51 9c be 9d c2 09 3f 11 de 87 bb 27 be 82 3e
       -0.3053059 0.5381258 -0.0041463454 0.255357
0000a0 55 0d aa 3e 05 a5 0b be b3 b1 1b bb 5c 1f 0a be
       0.33213297 -0.13637169 -0.002375704 -0.13488525
0000b0 fe 69 cb 3a 93 92 a6 bd b1 ae 01 3b 70 0d 6f be
       0.0015519259 -0.081334256 0.0019787962 -0.2334497
0000c0 dd 19 8c 3b 8e e8 1e be ed 65 53 3e 5f 47 cc ba
       0.004275544 -0.155184 0.2064435 -0.0015585235
0000d0 a2 9f 18 3f 39 b4 05 be 5f 2a 28 be 97 fc 9f bd
       0.5961858 -0.1305703 -0.16422413 -0.078118496
0000e0 e8 0a 05 ba 7f 35 17 ba 25 c9 2f 3e f3 1f 48 3e
       -0.00050751725 -0.00057681644 0.17166574 0.19543438
0000f0 64 f4 e8 be bb 2c e1 b9 44 4c 68 3e 8e 6d a4 ba
       -0.45498955 -0.0004294867 0.22685343 -0.0012544857
000100 f3 f5 81 3d a5 f5 d7 be 3e 56 89 be 8e af 0f 3f
       0.06345739 -0.421796 -0.2682361 0.5612725
000110 c8 59 8d be 77 0d 26 be 75 8e 7a 3b e4 a6 b0 be
       -0.2760756 -0.16216074 0.0038231884 -0.34502327
000120 2c ab 68 be 94 d3 f0 3d 2c 83 11 bb 6c ed f5 3e
       -0.22721547 0.11759105 -0.0022203429 0.480327
000130 c7 c8 69 3b e5 d7 38 bc d7 84 70 bb c8 cd 35 3d
       0.003567265 -0.011281942 -0.0036700272 0.0443857
000140 96 fd 9a 3b 80 a1 d0 3e b1 71 90 bd 64 c4 b6 bb
       0.004729937 0.40748215 -0.07052935 -0.005577611
000150 b9 bb 9a 3e 65 e4 09 bd 41 2b 3c 3e d6 5c f3 bd
       0.30221346 -0.03366508 0.18375875 -0.118829414
000160 33 fa 41 bb 54 73 a0 b9 93 9c cb 3e 2a a8 2f 3f
       -0.0029598593 -0.00030603504 0.39767894 0.68615973
000170 b3 24 e0 3e f0 96 76 3b bc ff 0b bf 91 29 88 b8
       0.43778 0.0037626587 -0.54687095 -6.492728e-05
000180 6d 83 c7 bd d2 ba 1d 3f 91 10 b7 3d d1 fe 0d be
       -0.09741864 0.6161319 0.08938707 -0.13866736
000190 b4 ce 9e bd 5b fd b7 3e 58 28 71 3b df 75 55 be
       -0.07754269 0.35935482 0.0036797728 -0.20845746
0001a0 9e 72 56 3d b3 ff 29 bf 37 30 59 3b 91 19 00 3e
       0.0523554 -0.6640579 0.003314031 0.12509753
0001b0 f7 13 e0 3a a3 2b e9 3d 66 db 49 3b 8f 69 8f be
       0.0017095794 0.11385276 0.0030800938 -0.28010222
0001c0 0c 1b 43 bb 86 3b 62 be 62 4e 8b 3d 35 c3 fb b8
       -0.002977076 -0.22093019 0.0680206 -0.00012004973
0001d0 be 3c 07 3f 59 b6 a0 be e2 d4 30 3e 4c ce 5f be
       0.5282706 -0.3138912 0.17268708 -0.2185604
0001e0 1d a5 9c bb 91 ed 77 bb fd 62 03 3e 71 79 12 3c
       -0.004780425 -0.003783081 0.1283073 0.008940087
0001f0 67 8e e4 3d 02 40 8b bb 87 ae 9a 3e 9f a5 04 bb
       0.111599736 -0.0042495737 0.3021128 -0.002024032
000200 46 19 ad be a9 7d b5 be 5a 2f 38 3e a9 a3 a7 3e
       -0.33808345 -0.35447434 0.17986813 0.3274205
000210 fc ab 3d bc 37 a0 16 3e f2 90 2a 39 c0 c5 bc 3e
       -0.011576649 0.14709555 0.0001626646 0.3686962
000220 09 ee 0d bf 40 9a b1 3e cb a3 53 bb dc 56 dd 3e
       -0.5544134 0.34687996 -0.0032293673 0.4323033
000230 2f 58 4a bb 92 53 2c be eb a3 a0 3b bb e1 3b 3e
       -0.0030875315 -0.16828755 0.004902353 0.18347828
000240 99 c5 80 3b 68 07 e3 be fc 7c 89 be 64 23 4b bb
       0.0039298055 -0.44341588 -0.26853168 -0.0030996436
000250 df f2 18 bf d1 cc 3b 3f cd f6 8a ba 3e 58 70 3d
       -0.5974559 0.733594 -0.0010602117 0.058677904
000260 6b 37 55 bb 6c 48 7a bb 1e c1 70 bf 93 a7 bd be
       -0.0032534252 -0.003819014 -0.94044673 -0.3704191
000270 e8 91 dd bd 90 49 56 3b 1e cc 87 be 05 31 96 3b
       -0.10818845 0.0032697655 -0.26522917 0.0045834803

fc3.bias f4 [5]
000000 02 4c 4b be df 32 e7 3e 49 77 8b be 85 1d 16 3e
       -0.19853213 0.45156 -0.27239445 0.14659698
000010 79 d2 08 be
       -0.13361539
