Assignment_1/1/CNN_Layers/Models/2CNN/model-8.pth (torch_old, 882610 bytes, 10 tensors)

conv1.weight f4 [64, 3, 5, 5]
00000000: e585 a43d 30d2 0e3d 478d f0b8 6d43 7fbc
00000010: 9379 2c3c 1c5d db3b b5f7 c83a 6e1e c73c
00000020: 4d26 9b3d b8aa 033e 4114 0bbd b5cb 30bd
00000030: eaf7 e93c 6ae3 f03d 1028 1c3e ec03 a1bc
00000040: cc00 0dbd 94fa 6e3c 6845 893d bcc8 883d
00000050: c7dd 793d 5c5d 863c 4970 26bb d085 b8bc
00000060: 476b 97bd 74b4 38be f7ac 37be 41a0 15be
00000070: d1d7 9dbd a5ff 623d 9f79 81be d389 5ebe
00000080: dd37 b4bd 70de 563d de03 553e f283 92be
00000090: b5af 71be c90c 97bd 46d5 fb3d 2d14 913e
000000a0: ddc7 64be ea94 40be a0c8 70bd 3e05 d63d
000000b0: e254 6f3e d479 bcbd 99b4 aabd 2349 bbbc
000000c0: e423 663d 21b0 023e 7f75 04be 2d81 e7bd
000000d0: fc76 99bd 79e3 dabb d0e7 d63d 6a2d 4bbe
000000e0: 2acf 15be 493c debc da91 dd3d 3c36 853e
000000f0: 60c0 6abe bc4c 23be 5f0e 03bc 42ff 2b3e
00000100: 2ea4 a53e 3843 1fbe 563e d9bd 9411 913c
00000110: 1be2 263e 0859 8d3e 4685 a8bb 9ee7 633b
00000120: 1672 683d c137 0e3e c586 4a3e 31af 86bd
00000130: 9af6 b43d 7509 233e 44bd 203e a087 1c3e
00000140: 9ed7 33bc 6b92 163e 66bd 623e 1d41 503e
00000150: c690 3d3e b553 5c3c f0ef 2a3e caae 573e
00000160: 7285 3e3e 7175 1f3e 4772 ae3c 66f8 133e
00000170: f4cf 2e3e 5a76 0e3e 31f5 d43d 3276 913c
00000180: 39ab b13d d7d3 df3d 88e8 b93d c838 843d
00000190: 9a21 aebe 1b32 56be 721c f7bd 6644 9dbd
000001a0: 481d c53b 5cba c6be db72 87be f427 2cbe
000001b0: 7f8f febd 9c68 4fbd a7a4 d4be e7c8 9abe
000001c0: 9f5e 70be d54d 45be 04ed f4bd f1ce c8be
000001d0: 6992 9abe 6782 7dbe a869 6ebe b2b0 20be
000001e0: b20a b0be 6811 92be 186b 6ebe 9102 4fbe
000001f0: 542a 0abe 2a75 7abc df2a ce3d 3fd9 2c3e
00000200: 0bd0 473e d343 8d3e 9adb 6cbd c283 723d
00000210: f088 083e f993 313e 8269 793e b305 78bd
00000220: 74aa 273d cbcc e53d 2c30 0e3e 5c43 513e
00000230: 24e8 06bd 7c41 383d 5519 c53d 0b6e f33d
00000240: ddc3 413e 1f51 543c 2efa 913d 5d0a 003e
00000250: b0da 223e 26a8 633e 2a8b 42bd 9f8b 85bd
00000260: de0a 81bd 7bd4 0ebd af35 163c 8eaf 62bd
00000270: 707e adbd 6507 82bd a0ba 99bc 37a3 f73c
00000280: 4e34 65bd fe55 a1bd 9dd3 73bd 07e6 49bb
00000290: c95a 433d ec6d 29bd 24de 84bd 34df 33bd
000002a0: 6472 0f3b 94b6 0a3d 9c3c c0bc e5ef 3bbd
000002b0: e2d5 d5bc 9c30 793c 5174 173d d2fe 84bd
000002c0: 4ad1 6abd 91f9 0fbd 7ab4 1cbc 404d 193b
000002d0: ed9b 90bd c227 6fbd ed88 98bc 95e3 c83c
000002e0: 5e65 5f3d 8575 93bd b5ea 7bbd 759f 58bc
000002f0: 8382 363d f31a 8f3d 1d23 88bd 758a 4abd
00000300: c640 b23b c4ee 573d 5624 913d 852a 60bd
00000310: 9865 fabc 7fb5 593c b4c5 433d b164 613d
00000320: ee96 19bd ebde 31bc a196 1b3d 6007 703d
00000330: 6b88 593d d857 92bc 1935 a63c 53a7 893d
00000340: 8d2d de3d f4fb e93d 343b 453b e30e 343d
00000350: 956f cb3d 7f8a 203e aa6f 153e d9e5 713c
00000360: e16c 753d 0ea0 e83d 14aa 243e 3a00 1d3e
00000370: 88b9 f73c cb2e 823d 4249 fc3d 7cf0 1d3e
00000380: 267f 043e 496f 373c e0d5 0d3e 14a5 0e3e
00000390: 7e8a 9c3d 1a7f 963d d295 babc eaec 0a3e
000003a0: 954f 2d3e 0426 e53d 97ef ea3d 26e1 86bc
000003b0: 2a42 e33d 449e 053e 4afa bd3d 06a6 d53d
000003c0: 3d14 23bb fb94 913d d076 823d 2aa6 e43c
000003d0: 662f 303d 8e9c 1e3d 9401 7c3d f9f5 fe3c
000003e0: 707d 6fbc 2a11 b4bc ea2e 74be 0ad7 7fbd
000003f0: c31f 14bb 06f3 b73b aae9 783d 97da a1be
0.08033351 0.03486842 -0.00011470407 -0.01558004 0.010527032 0.006694449 0.0015332612 0.024306502
0.07575665 0.12858093 -0.033954863 -0.04316302 0.028560597 0.11762126 0.15249658 -0.01965519
-0.034424588 0.01458611 0.06702691 0.06678912 0.06100252 0.01640194 -0.0025396517 -0.022524744
-0.073935084 -0.18037587 -0.17937075 -0.14611913 -0.07707179 0.055419583 -0.25288102 -0.21732263
-0.087997176 0.052458227 0.20802256 -0.2861629 -0.23602183 -0.073754855 0.12296538 0.28335705
-0.22341867 -0.18806806 -0.05878508 0.104502186 0.23372224 -0.09202924 -0.083352275 -0.022862023
0.05618657 0.127625 -0.12935446 -0.11303935 -0.074933976 -0.006679949 0.104934335 -0.19841543
-0.14629808 -0.027128356 0.108188346 0.2601794 -0.22924948 -0.1594724 -0.007999032 0.16796592
0.32351822 -0.15552986 -0.10607593 0.017708577 0.1629719 0.27606988 -0.0051428406 0.0034775506
0.056749426 0.13888456 0.19777973 -0.06576384 0.08836098 0.15921576 0.15697199 0.15286112
-0.0109767 0.14704292 0.22142562 0.20337339 0.18512258 0.013447692 0.16693091 0.2106277
0.18605593 0.15572144 0.021294726 0.14450225 0.17071515 0.13912335 0.10398329 0.017756555
0.08675236 0.10929077 0.09077555 0.06456143 -0.3401001 -0.20917551 -0.120659724 -0.076790616
0.0060154535 -0.38814056 -0.26454815 -0.16812116 -0.124297135 -0.050636873 -0.4153187 -0.302314
-0.23473595 -0.19267972 -0.1195927 -0.39220384 -0.30189827 -0.24756776 -0.23282492 -0.15692404
-0.3438316 -0.28528905 -0.2328304 -0.20215823 -0.1349271 -0.015286723 0.10066771 0.16879748
0.19512956 0.27590808 -0.057826616 0.059207685 0.13333488 0.17341603 0.24356654 -0.06055231
0.04093404 0.11220702 0.13885564 0.20435852 -0.03293623 0.044984326 0.09623972 0.118862234
0.18922372 0.012958794 0.07127796 0.12503953 0.15903735 0.22232112 -0.047496 -0.06520771
-0.06300901 -0.034870606 0.009168073 -0.055343203 -0.08471382 -0.06349067 -0.018765748 0.030229194
-0.055958085 -0.0787773 -0.059527982 -0.0030807273 0.047694 -0.041364595 -0.064876825 -0.043914035
0.002188825 0.033865526 -0.0234664 -0.045883078 -0.026102964 0.015209343 0.036976162 -0.064939156
-0.0573285 -0.035150114 -0.009564513 0.0023391992 -0.070609905 -0.058387525 -0.018619979 0.024522582
0.05454003 -0.072001494 -0.06150313 -0.013221611 0.04455806 0.06987562 -0.06647322 -0.04944845
0.0054398505 0.05271794 0.07087009 -0.05472805 -0.030566022 0.013287901 0.047795966 0.055027667
-0.037497453 -0.01085637 0.037985448 0.058600783 0.053108614 -0.017864153 0.02028899 0.06721368
0.10848532 0.11425009 0.0030095102 0.04395951 0.09933392 0.15677832 0.14593378 0.014764273
0.05991829 0.11358653 0.16080505 0.15332118 0.030239835 0.06356581 0.1231866 0.15423769
0.12939128 0.011195966 0.13851118 0.1393016 0.07643603 0.073484614 -0.022776518 0.13566938
0.1692489 0.111888915 0.114714794 -0.016464781 0.11096604 0.13048655 0.092762545 0.10432057
-0.002488389 0.07108494 0.06370318 0.027911264 0.043013953 0.03872352 0.061524943 0.031123148
-0.014617309 -0.02198084 -0.23846021 -0.062460937 -0.002260194 0.0056136874 0.060769714 -0.31612083

conv1.bias f4 [64]
00000000: ea25 0abe 3fbc c5be 0719 5ebe 8393 6bbe
00000010: 8b98 97bf 2b07 63be 49e7 54bf f296 d1be
00000020: 3d09 f2be ab6e f2be ded1 3dbf c6c6 50be
00000030: 9fe4 29bf c80d d43e 1c1b 26bd 1b81 d3be
00000040: aaf9 adbe 109c 063c 6e1d bbbd a13a 31bf
00000050: 2d53 fdbd a024 95be e4b2 48be 0ff8 31bf
00000060: 20b2 cdbf b262 07be 8944 35be ed34 26bd
00000070: ea30 5bbf 282e f43d 9b58 0fbf 51c6 8ebe
00000080: 5275 bdbe 80d5 ccbe 2eec 84bf eef2 86be
00000090: 026d 68be bda1 b9be 9148 ffbd d3ab 8bbe
000000a0: 9d10 3abf e02d e6be 01c2 93be be85 8fbe
000000b0: 8a2c 81bf be9c cebf 2d76 b7bd 8b96 1ebe
000000c0: 28a7 e9bd 930e 00bf 67d7 e8be 5286 54be
000000d0: fca1 00bf 38d5 0cbf 8381 88be 5a70 2dbf
000000e0: 7287 6abe de66 e6be f72e dcbd 7bf4 90be
000000f0: 1f33 92be 39bc 0cbf 436b fbbd 787e b2bf
-0.13491026 -0.38620183 -0.21689235 -0.2300549 -1.1843427 -0.22170703 -0.83165413 -0.40935475
-0.47272673 -0.47350058 -0.74148357 -0.20388326 -0.66364473 0.41416764 -0.040553197 -0.41309437
-0.3397954 0.008215919 -0.09136473 -0.69230086 -0.1236938 -0.29129505 -0.19599491 -0.6951913
-1.6069984 -0.13221243 -0.17701925 -0.040577818 -0.8562151 0.11922866 -0.55994576 -0.27885678
-0.3700357 -0.40006638 -1.0384576 -0.26357216 -0.22697833 -0.3625621 -0.12465013 -0.2727953
-0.726816 -0.44956875 -0.2885895 -0.28031725 -1.0091717 -1.6141584 -0.08958087 -0.15487115
-0.11408836 -0.5002224 -0.4547684 -0.20754364 -0.5024717 -0.55012846 -0.2666131 -0.6774956
-0.22903231 -0.45000356 -0.10751145 -0.28311524 -0.28554627 -0.54974705 -0.12276318 -1.3944845

conv2.weight f4 [128, 64, 5, 5]
00000000: ac45 92bc bee5 0fbd cc6e 17bd 6ff0 14bd
00000010: f39c 7bbd 5364 96bc c950 15bd deec 13bd
00000020: 27ba d7bc 55a9 5cbd 79b8 94bc 3f56 93bc
00000030: 6a7f d2bc dd71 97bc d224 49bd 04a7 97bc
00000040: 6cfb 51bc 3be7 3fbc 7cd0 58bc b579 47bd
00000050: 73a0 70bc 1ad8 a5bc 2d8a a8bb 05c3 19bb
00000060: 31f5 58bd d262 a6bc ddc6 37bd 4cb9 63bd
00000070: ecbf 4ebd ab7c 93bd a87c 9bbc 8fbf 00bd
00000080: eaea 26bd a72c 28bd 7c1d 71bd 5478 92bc
00000090: 4df0 adbc a4c9 d2bc 2de4 0abd 79db 3ebd
000000a0: 9d97 5bbc e4e4 5dbc 1059 84bc a854 d2bc
000000b0: 162f 34bd 491e 74bc 4f3a b4bc 383f 29bc
000000c0: 8b33 9cbc 214e 26bd c517 e0bc 3fcc b2bc
000000d0: eef5 a6bc 8960 c1bc 8d4d 17bd d4cd b5bc
000000e0: 6a9d 97bc 7ee1 95bc b030 a5bc b6a7 05bd
000000f0: 53ec babc 6e72 7bbc 8d35 57bc da10 a6bc
00000100: 0fcd f9bc 428b 9dbc 6704 59bc 8ba7 58bc
00000110: 7964 92bc 3d0a f4bc f834 59bc 7f73 90bc
00000120: 051d 5fbc 5493 99bc 0d4f edbc 5bf8 bfbc
00000130: 2124 34bd 0f09 6ebd 04f5 7bbd 3114 b8bd
00000140: 0e82 b6bc 7955 04bd 058b 1dbd 3469 30bd
00000150: 8eb3 8abd 4d69 a4bc 8209 adbc 83e0 c1bc
00000160: 04da 00bd 1cdc 4ebd 1bcf 90bc 4eb3 67bc
00000170: ac19 35bc 0959 9ebc b270 2bbd 6478 8cbc
00000180: 9a29 a0bc 31dd 55bb dfa5 53bb 49ad 19bd
00000190: c4c7 48bd f938 7dbd aaaa 7dbd c754 60bd
000001a0: 2213 85bd 7ac8 4cbd 07d5 46bd 2bd5 3cbd
000001b0: e12f 09bd 0504 27bd 028b 43bd 9824 1abd
000001c0: e985 08bd 4940 aabc a3ff dbbc 995d 34bd
000001d0: e361 0bbd 96c6 d9bc 336b 91bc 295c 9abc
000001e0: 868f 62bd afe2 17bd d210 a1ba 3919 113c
000001f0: 5067 78bb c3e0 2dbc ee06 68bc b989 a6bc
00000200: bbdf cfbc 4e19 12bd d881 ffbb 28aa 4fbc
00000210: 9bcd 65bc ac6b 90bc c2f1 debc 6093 d8bb
00000220: 0645 0cbc 806d 26bc 62a7 52bc 818c 9bbc
00000230: b6bb cbbb 95c3 ccbb bb5c edbb a59b 16bc
00000240: 6537 80bc 85c0 7cbb 9692 b1bb 1821 8dba
00000250: a494 8dbb f2f4 36bc 4254 fcbc 3310 50bd
00000260: 7260 88bb 0c9e b63c e7bf 3b3d 2c34 49bd
00000270: c00a 91bd ad8a 3cbc b118 6d3c 3211 e13c
00000280: 75e9 35bd 56b5 86bd 4248 c6bc 1ed8 593a
00000290: b376 2a3c 8a87 e8bc b0c0 46bd 2bd1 01bd
000002a0: 7a67 bdbc 9db4 443c c6d2 d03b 7be0 873b
000002b0: 7f5b 1dbc d2ab 14bd 2da4 5c3a 63db 8bbc
000002c0: 45f7 afbc 98ef adbc b28f 5ebc 63ba 94bc
000002d0: ddfc b2bc 213e a4bc e9b3 8cbc ed70 1dbc
000002e0: 4534 17bc 28ae b7bc 6216 71bc 8439 18bc
000002f0: ea3b c3bb 42f3 afbb 6f63 b7bc 2ea5 5fbc
00000300: ad73 0bbc d6ba fbbb 35a6 38bc 5477 f3bc
00000310: 8f25 7bbc c607 0fbc 21f3 f4bb 0857 33bc
00000320: 3a14 35bb c58f 2cbc dc43 143b 4ea5 8b3a
00000330: 5546 9b3c 4c28 83bc 46c9 dabb adaf d63a
00000340: 3c27 43bc 1bf4 a1ba 9664 9fbc 5ed1 2cbc
00000350: 6f78 5bbc 23ca 47bc 46c7 503b 58df 5cbc
00000360: 40c2 caba 210f b9bb 8ed7 99bc a396 9f3a
00000370: 283b 2c3b 2a78 fc3c 1ebf 883c 2c33 debc
00000380: ec34 36bc f058 36bb 5591 95bb 8d0c 84bc
00000390: 558d 98bc d1d3 8dbc 6878 8abc 92d1 d5bc
000003a0: c3bc a5bc 9b83 32bc 1567 ffbb d16b 00bd
000003b0: 7569 d7bc 19b1 7abc cb8c d8bb 7991 c6bb
000003c0: 2cf6 27bd 91a0 fbbc 1ecb 73bc d79e 0abc
000003d0: e03e 27bc d8fa 68bd 4d9d 06bd af22 2fbc
000003e0: 0d93 90ba 8924 e4bb 8c8d d23d a64f 80bd
000003f0: 7553 8dbd dee9 4cbd c634 26bd e837 b33d
-0.017855488 -0.03513121 -0.0369709 -0.036362108 -0.061428975 -0.018358385 -0.036453996 -0.036114566
-0.026333882 -0.053872425 -0.01815437 -0.017985461 -0.025695521 -0.018486911 -0.04910738 -0.018512256
-0.012816291 -0.0117128445 -0.0132333 -0.048700053 -0.014686692 -0.020244647 -0.005143425 -0.0023462188
-0.052968208 -0.020310793 -0.044867385 -0.055596635 -0.050476 -0.07201513 -0.01898034 -0.031432685
-0.040751375 -0.04105821 -0.05886601 -0.017879643 -0.021232748 -0.025730915 -0.03390901 -0.046596024
-0.013402847 -0.013543341 -0.01615575 -0.025675133 -0.043990217 -0.014899799 -0.02200046 -0.010330014
-0.019067546 -0.040601853 -0.027355084 -0.021825908 -0.02038094 -0.023605602 -0.036939193 -0.022192873
-0.018507678 -0.018296 -0.020164818 -0.032630645 -0.022817766 -0.015347106 -0.013135326 -0.020271707
-0.030493287 -0.019231442 -0.0132456785 -0.013223539 -0.017870175 -0.029790038 -0.013257258 -0.017633198
-0.013617759 -0.01874701 -0.028968358 -0.023433855 -0.043979768 -0.058114108 -0.061512962 -0.08988226
-0.022278812 -0.032308076 -0.038462657 -0.04306908 -0.067725286 -0.020069743 -0.021122698 -0.023666626
-0.031457916 -0.05050288 -0.01767688 -0.014141871 -0.011053484 -0.019329565 -0.04185552 -0.01714725
-0.019551087 -0.003263306 -0.0032294912 -0.037518773 -0.049018636 -0.06182191 -0.061930336 -0.05476835
-0.0649779 -0.049995877 -0.048543002 -0.04610173 -0.033492927 -0.040775318 -0.04773999 -0.037632555
-0.03333083 -0.020782607 -0.026855296 -0.044034574 -0.0340289 -0.026583951 -0.017751312 -0.018842774
-0.055312656 -0.037081417 -0.0012288338 0.008856111 -0.0037903376 -0.010612669 -0.014161808 -0.020329343
-0.025375238 -0.035668664 -0.007797461 -0.012674846 -0.014026071 -0.017629467 -0.027214888 -0.0066093653
-0.008561378 -0.010157943 -0.01285729 -0.018987896 -0.0062174452 -0.006248901 -0.0072437203 -0.009192382
-0.015651414 -0.00385669 -0.0054190857 -0.0010767309 -0.004320698 -0.011166798 -0.030801896 -0.0507967
-0.004161888 0.02229216 0.04583731 -0.04912202 -0.070821285 -0.011507672 0.014471219 0.02747402
-0.044412095 -0.06577556 -0.024204377 0.0008310097 0.010404277 -0.028384943 -0.048523605 -0.03169362
-0.02312063 0.012005952 0.0063727824 0.004146633 -0.009604334 -0.036296673 0.0008416798 -0.017072385
-0.021480212 -0.021232411 -0.013584064 -0.018155282 -0.02184909 -0.020049157 -0.017175632 -0.009609443
-0.009228771 -0.022421911 -0.014714809 -0.009291057 -0.00595807 -0.0053695748 -0.02238628 -0.013650222
-0.008511466 -0.0076821847 -0.011270096 -0.029719986 -0.015328779 -0.008729881 -0.0074752723 -0.010946043
-0.0027630464 -0.010532324 0.0022623455 0.0010654123 0.018954435 -0.016010426 -0.0066768257 0.001637926
-0.01191121 -0.0012356074 -0.019457143 -0.010547964 -0.013395413 -0.012194189 0.0031857057 -0.013480984
-0.0015469268 -0.0056475555 -0.018779542 0.001217563 0.0026280377 0.030819017 0.016692694 -0.02712401
-0.011121016 -0.0027824007 -0.004564444 -0.016119266 -0.01862208 -0.017312916 -0.016903117 -0.026100907
-0.02023161 -0.010895635 -0.0077942708 -0.03135282 -0.026295403 -0.015301012 -0.0066085807 -0.006059822
-0.041006252 -0.030716212 -0.01487997 -0.008460722 -0.010207862 -0.05687985 -0.032864857 -0.010689422
-0.0011030153 -0.006962363 0.10280904 -0.06265192 -0.06900684 -0.05002772 -0.040577672 0.08750898

conv2.bias f4 [128]
00000000: 28b2 7fbe 5f2e b33b d839 77bd 3060 803b
00000010: 9889 c0bc ce43 9dbd 4674 11be a942 1ebe
00000020: 9b46 ffbc 11b7 633e f6c3 bfba 836a 063b
00000030: d864 d3bd 2307 66be 63b3 463d e15a 03bd
00000040: 9b0d 4ebd 079a b8bc 2e8b a4ba 3645 0c3d
00000050: cb2f 75bc 9c7b e63d ee2a 07be 3d00 0f3d
00000060: d123 b5ba dce4 02be 4466 2bbd 8df6 7f3e
00000070: 42ee 343d 3c05 27bd 1002 cebc aebb 623d
00000080: 18e0 e9ba febd 2bbd 3155 7a3b 4247 10be
00000090: ed97 9abb 73fe 7cbd 763f 33bd f77d 46bd
000000a0: 90fc 1cbe 2d63 d6ba 0b9c 3fbe 410e 49be
000000b0: 9c53 1d3d 63fd d53c ff31 9b3c 4ed5 b93d
000000c0: f10b fcbc b579 a33e a707 f5bd 486b 1dbe
000000d0: dcd6 9ebd 3cce 00be 87ba 16be f020 0cbc
000000e0: 7aff f63c a8dd 94bd 2549 21bd fd1a a43e
000000f0: 7ff8 3f3e 870e 7dba be50 a1bd 6b43 9ebe
00000100: 0c5b 0f3d ea72 24bd e915 e9bc 636e 5b3b
00000110: 71d7 82be b578 92bd 3cbb 093d 0334 a33d
00000120: db53 213d 5863 0fbd 8cc7 e83e e7cc eebe
00000130: 8298 ecbe a0a4 af3d 4fdd 39bd 13c9 203d
00000140: 0e7b 90bd ed57 843c d233 513b a001 25be
00000150: d368 63be 008a babe 0543 fd3d 2d2c 01bb
00000160: ee51 243d 3b90 803e b11b c1bd 784f 743e
00000170: a13c 17be 7e6c a0b9 8cbb 0d3e 6df0 c6be
00000180: 1037 a9be ce0f 89be 5d20 9fbb 15c7 babc
00000190: 9aaa c1bc f670 0dbd 06ad 01bb 70d3 8bbd
000001a0: 99c0 01bb 7b43 aebd b761 6a3e be1d a6be
000001b0: c209 25bd c002 573d 978e e03d 46ec ba3e
000001c0: c743 4a3b ac3d 1ebe 3acb c9bb b5f2 d7bd
000001d0: 3c47 b63c fc2e 353d 984d 8abe 24c5 d4bd
000001e0: 7b44 0a3b 4e21 24be 5ee6 b3bd bf2e 45bd
000001f0: 9c4b 4fbf 3074 c4be c82b 3d3e ab22 453a
-0.24970305 0.0054681743 -0.0603579 0.0039177164 -0.02350311 -0.07678948 -0.14204511 -0.15455116
-0.031161597 0.22237803 -0.0014630544 0.0020510263 -0.10321969 -0.2246366 0.04851092 -0.03206909
-0.050305944 -0.022534383 -0.0012553686 0.034245692 -0.014965008 0.11254045 -0.1319997 0.034912337
-0.0013819878 -0.12782615 -0.041845575 0.24996395 0.044172533 -0.040776476 -0.025147468 0.055354767
-0.0017843274 -0.041929238 0.003819775 -0.14089683 -0.004717818 -0.0617661 -0.043761693 -0.048459973
-0.1533072 -0.0016356461 -0.1871187 -0.19634344 0.038409814 0.0261218 0.018944738 0.09073888
-0.030767413 0.31928793 -0.1196435 -0.15372956 -0.07755825 -0.12578672 -0.14719592 -0.008552775
0.030151118 -0.0726884 -0.039376397 0.3205184 0.18747137 -0.0009653349 -0.078767285 -0.3091081
0.03499894 -0.040148653 -0.02845283 0.0033482544 -0.25554994 -0.07151929 0.033625826 0.07968905
0.03938661 -0.03500685 0.45464742 -0.46640703 -0.46210104 0.085763216 -0.045377072 0.03925426
-0.07054721 0.016155208 0.0031921756 -0.16113901 -0.22207956 -0.3643341 0.123662986 -0.0019710169
0.040117197 0.2511004 -0.0942911 0.2385844 -0.14769222 -0.0003059841 0.13841075 -0.38855305
-0.33049822 -0.2676987 -0.004856153 -0.022800008 -0.02364092 -0.034531556 -0.0019786968 -0.06827438
-0.0019798635 -0.08508965 0.22888838 -0.32444566 -0.04029251 0.052492857 0.10964697 0.36508387
0.0030863152 -0.15453213 -0.0061582597 -0.105443396 0.022250764 0.04423426 -0.27012324 -0.10389164
0.0021097946 -0.1602833 -0.087841734 -0.048140284 -0.80974746 -0.38369894 0.18473732 0.00075201195

fc1.weight f4 [64, 128]
00000000: 1540 90be a743 74bd c41d 813e d017 3bbe
00000010: 5189 643d 4618 9f3e db2c 6b3e 6fbf ae3d
00000020: f500 44be 5acc a6bc a283 64be 6ba7 383a
00000030: 0f55 a4be 2c88 a43d 626e 94be 5ce2 6cbe
00000040: ab5c 473d 69a5 083d 6b17 953a be6f babe
00000050: 4493 c23c edc9 213c cfbe e63c 6d94 cd3b
00000060: a6c7 2ebd d7b4 f33d 13dc 383d 47fb 76be
00000070: c054 613d 3778 903d 6714 90bc ff5e 2abd
00000080: 1eb6 59bb 24f7 cabe 9f43 ccbe 35e3 ccbd
00000090: ac15 bfbc 106a d83d a0af 6a3e 5137 a03d
000000a0: 77d7 013e 7613 e4ba 86ff efbc 7cfa 333e
000000b0: 93f3 59bd 3349 36bd 241e a7bb 91ce 3f3b
000000c0: dc37 94bd 9f65 483d 61a4 1dbe 9a1b dbbe
000000d0: 09b9 cdbd a8bf 9ebd c258 693e 5b46 c63b
000000e0: 82a7 753e 3551 95be c2d9 70be 6c6d 833c
000000f0: 9cda 223d 9ddc bbba d055 1bbe 54b1 073c
00000100: c774 25bd 9442 2cbe 0bf3 44be 2db6 323c
00000110: 8a20 193e 8f0f 97bd 3eab 78be 37c3 ac3d
00000120: 7364 11be a357 efbd 4ca5 4a3d 93ac 733e
00000130: d397 913e 2117 2f3e 101e 22be 5a7c 70be
00000140: 6431 7dbe a89c 17be 058c d9bd e173 913d
00000150: 9cd0 95be d9e5 343e fa66 f93b 8ed6 3c3c
00000160: 1965 373e 0b23 8f3d 2db6 88be c659 603d
00000170: 9d93 d03d d040 c63b 7df6 763e d6b6 423e
00000180: f516 e13e 7aff 2c3e 09c5 6a3b 954c 2f3d
00000190: 8afc c1bc 2af0 703d 5efd 9e3b fa15 6ebb
000001a0: d3a5 133b d064 c8bd bc82 8d3e 0e2a f33e
000001b0: b7dc a93b f149 fbbd f15b d73b 1f99 74bc
000001c0: dc48 02bb e59b 653c 599c 28bc 3709 b03d
000001d0: 4f44 1abd 0d4c 56be a168 823e ad46 d6bc
000001e0: 411f fabb 6a5b 8fbb 05ea 8ebd f3e9 0b3d
000001f0: 6a80 233e ce6b acbe 1f99 d33b e659 db3c
00000200: 9c23 b9bd cd3d d43c 971f ab3d ee94 af3d
00000210: 66b7 f53c e906 2a3e ad27 4fbd 6c01 00bd
00000220: 1c02 bfbe bb3e f63c c8e5 5fbd 1ec7 903b
00000230: 60c1 0f3d e8c8 f1bd 1850 1a3d f273 903d
00000240: d43b e33b 0154 843b e6cc eeb9 01bd d83d
00000250: 4842 293c 54dc 083c 5aa5 e93b f279 ba3b
00000260: 00d1 f6bd f2f7 b3bd 1a06 223c 5b4a 9a3d
00000270: 94d2 efbd d221 80be 0cf1 8cbd 17f4 37be
00000280: 1819 213b b3d9 803e 26c0 a23d cf1c 873d
00000290: 1eba b6bb 6b75 e03b 4e54 713d 9351 1c3d
000002a0: 84bb 6ebd 0ba7 79bb 35e8 353d 4f50 0bbe
000002b0: e184 6fbe 69f5 0bbe 002c bbbd 0faa 263c
000002c0: 123e 08be 2dfc 863d cc3b 58be 403c a0bd
000002d0: 788d 01be df9f 60be e2f9 993d ebbc 51bb
000002e0: 135c 0fbe 0b0c ebbd 4a6f 403d 8b0d 983d
000002f0: f0db 773c 9f15 0abb 8739 55bd 5b8d 103d
00000300: e3b9 2a38 e243 913c 5b68 883b 55bf 343c
00000310: e98a c53c 6c53 97bd c3d3 bc3d 8744 1e3d
00000320: 2280 aabe 5536 63bd d5e6 963d 2975 513e
00000330: 3004 413d 2ff7 8dbe 0065 e7be cf4e cfbc
00000340: 0897 25bd 09b5 8c3c cf22 2fbe bcf3 153d
00000350: 7283 6c3e 6890 123e d11b 573c f8df 62bc
00000360: 220b 11be 666c c23c 225f 3a3d 7d8d 843c
00000370: ffe3 04bd 541c cabb 401b acbe bf35 50be
00000380: 41d4 823c 246d 4abd 09db bdbb 7b95 d4bd
00000390: 20ff fdbd 1fed 1abc 85a2 62bb f4c3 5bbd
000003a0: b0ba 22bb eaaa 05be 7fec e0bb 41ed e53c
000003b0: f923 04be 218d 413d 4885 bd3b 1307 09be
000003c0: 4987 9fbd 410b 79be 3f44 e43c 91cd 5d3c
000003d0: 59c6 0cbe ea4a 1bbd 0fec 0cbd 8f10 d43d
000003e0: 2fb1 5d3b 9ee7 f4bd 417f 043e a069 0ebe
000003f0: de7c 2f3e 5874 443d f3f5 1b3d ad63 babd
-0.2817389 -0.05963483 0.25218022 -0.18270802 0.055795018 0.31073207 0.2296633 0.08532607
-0.1914099 -0.020361114 -0.22315839 0.000704399 -0.32096145 0.08033785 -0.28990465 -0.23133224
0.04867236 0.033360872 0.0011374777 -0.36413378 0.023751862 0.009874803 0.028167157 0.0062737972
-0.04267087 0.11899727 0.045131754 -0.24119292 0.055012465 0.07054179 -0.017587854 -0.0415945
-0.0033220123 -0.39641678 -0.3989534 -0.10004274 -0.023325764 0.10567105 0.22918558 0.07823051
0.1267985 -0.0017400819 -0.029296648 0.17576021 -0.053210806 -0.044503402 -0.0051000286 0.002926741
-0.07237217 0.04892504 -0.15394737 -0.42794496 -0.10045058 -0.07751399 0.22787765 0.0060508675
0.2398968 -0.2916352 -0.23520568 0.016043387 0.039759263 -0.0014332716 -0.15169454 0.008282024
-0.04039457 -0.16822273 -0.19233339 0.010907692 0.14953819 -0.073760144 -0.24284074 0.08435672
-0.14198475 -0.11686637 0.049474046 0.237963 0.28436145 0.17098667 -0.1583178 -0.23484936
-0.24725872 -0.14805853 -0.1062241 0.0710218 -0.2926072 0.17665805 0.0076111527 0.011525763
0.1790966 0.06989106 -0.2670149 0.054773115 0.10184405 0.0060502067 0.24117465 0.19015059
0.43962827 0.16894332 0.0035823009 0.042797644 -0.02367999 0.05882279 0.004851981 -0.0036329017
0.002252926 -0.097848535 0.27638805 0.47493023 0.005183782 -0.122699626 0.0065722396 -0.014929085
-0.0019879853 0.014014219 -0.010291182 0.085955076 -0.0376628 -0.20927449 0.2547045 -0.026156748
-0.0076331203 -0.004374911 -0.069782294 0.03415866 0.15966955 -0.33675998 0.0064574624 0.026776265
-0.09039995 0.025908375 0.08355635 0.08573328 0.029994678 0.16604199 -0.050574947 -0.031251356
-0.37306297 0.03005921 -0.054662496 0.004418268 0.035096526 -0.11805898 0.03767404 0.07053365
0.0069346223 0.0040383344 -0.0004554756 0.10582925 0.010330744 0.008353312 0.007130307 0.0056908065
-0.12051582 -0.08787526 0.00988915 0.075337134 -0.117100865 -0.25025803 -0.068819135 -0.17964207
0.0024581607 0.2516609 0.07946806 0.06597292 -0.005576386 0.006849935 0.05891829 0.038163733
-0.058284298 -0.003809395 0.044410903 -0.13604854 -0.23390533 -0.13667835 -0.09139252 0.010172381
-0.13304928 0.065910675 -0.2111656 -0.07823992 -0.12651622 -0.21935986 0.075183645 -0.0032003473
-0.13999967 -0.114769064 0.046981134 0.07424458 0.015128121 -0.0021070016 -0.052056815 0.035291057
4.070428e-05 0.017732564 0.0041628308 0.011031945 0.02411409 -0.07388958 0.09220078 0.03863957
-0.33300883 -0.055471737 0.073682465 0.2045485 0.047123134 -0.2772765 -0.45194244 -0.025306134
-0.040427238 0.017176168 -0.17103122 0.036609396 0.23097017 0.14312899 0.013129191 -0.013847344
-0.14164403 0.023733329 0.045500882 0.016180748 -0.032443997 -0.0061679278 -0.3361454 -0.20333003
0.015970351 -0.04942049 -0.0057939333 -0.10380074 -0.12402177 -0.009455948 -0.0034581732 -0.053653672
-0.0024830513 -0.1305348 -0.00686413 0.028067233 -0.12904347 0.04725373 0.0057837106 -0.13381605
-0.077894755 -0.243207 0.027864574 0.01353778 -0.13747539 -0.03791324 -0.03440481 0.10354721
0.0033827533 -0.1195824 0.12939169 -0.1390748 0.17137477 0.047962517 0.038076352 -0.09101043

fc1.bias f4 [64]
00000000: 4461 363e 99b3 15bd b971 3a3f e496 ab3d
00000010: ac3b 8c3e 39f4 f23d b790 233f d878 173e
00000020: 818a ec3e 7034 94bc de7a f83e 3825 99bb
00000030: 15ae aebd f46f 923e 5eff c23e 1beb 06be
00000040: 1a44 c8bb f77e d63e 625d 7c3e 319c e53e
00000050: b066 eb3e 87db a73e b7a3 4b3e 5f7e 603d
00000060: 013d b4bb 8559 663e dc3f 78bc b3cb dbbd
00000070: 91da b7bc c2dd 2f3e 9ac5 613e f15b bc3e
00000080: 7a3b ebbd 2e62 c5bd 49e9 823e cc7d b73a
00000090: c905 83be 2e71 a93d e305 0bbc c47e 5b3e
000000a0: 21da e8bb 66ec 4e3f b063 d23c 6542 2fbe
000000b0: 4145 003e 8640 873e 6ede bd3d fe23 30bc
000000c0: 5924 87bc 8fda 383e b4d6 993e 249e 31bd
000000d0: e1c5 30bd 2d33 d83e 6ec2 53be 2d56 0fbc
000000e0: 84ef b23e c452 ba3e 3cb5 bc3e 37f5 133e
000000f0: 83b7 023e 7259 d5bb 2277 4cbd b508 513e
0.17810541 -0.03654823 0.72829777 0.083783895 0.27389276 0.11862988 0.6389269 0.14792192
0.4619942 -0.01809141 0.4853124 -0.0046736263 -0.08529297 0.28601038 0.38085455 -0.13175623
-0.006111634 0.4189374 0.24644998 0.44845727 0.45976782 0.32784674 0.19886671 0.054808017
-0.0055004363 0.22495086 -0.015151944 -0.10732212 -0.022443088 0.17174438 0.22048035 0.36788896
-0.11485954 -0.09637867 0.25568607 0.0013999282 -0.2559035 0.082735404 -0.00848529 0.21435076
-0.007106081 0.80829465 0.0256823 -0.17115171 0.12526418 0.26416415 0.09270941 -0.010750769
-0.016496824 0.18052123 0.30046618 -0.043363705 -0.043157462 0.42226544 -0.20679638 -0.008748573
0.3494836 0.3639127 0.3685702 0.14449011 0.12765317 -0.006510907 -0.0499183 0.20413478

fc2.weight f4 [32, 64]
00000000: 1007 f0bd d8c8 ff3c 7ce4 69be 0da1 b9bc
00000010: 0563 29be 858e 453d f3a2 debd 64f9 a2bc
00000020: 53d5 aabd 81df 8bbc 0205 03be 5fe4 48bc
00000030: 5feb 303d 8c9b b7be 7209 9fbd cd78 0ebf
00000040: 35e9 053b 17b9 9ebe 7732 873d 21b3 323d
00000050: 2d37 223d 2ce5 18be 4595 b93d a326 2dbc
00000060: 35cc 71bb e285 41bd dba5 81be a6d7 0e3d
00000070: f7da 47bc 7157 68bd 3728 acbe 76a3 88be
00000080: 1cff 75be 6ba2 b1bc 957b c2bd ef25 b73c
00000090: 0b55 b63e d6b6 9dbe ee26 313b e7cc 93bd
000000a0: ffdf c2ba 8739 4fbe b7e0 3bbe 4851 e4bb
000000b0: e9c6 a63d 2a72 923c 1887 613d b96b aabb
000000c0: 1515 aaba bc16 a9bd 6e05 45bd 0c89 8cbc
000000d0: de41 233d 66b6 be3d 36e8 06be 891c a33b
000000e0: 0187 95bd c963 6dbd db40 023e 1323 2d3d
000000f0: 7f83 5abc 440b f8bb ddf8 043c d664 0f3d
00000100: 673f 22be ead5 7c3d feb8 89be 7c0c 41bb
00000110: 2738 d7bd 3016 173e 4049 84be 2d53 52bc
00000120: 0d52 1d3c bba9 c2bc 8687 adbd 924a f7bb
00000130: eed4 96bc d3c9 d33d fb30 58bd 41b6 e83e
00000140: abaa 6ebc 35a3 5fbe 8f2e d4bd 9a49 33be
00000150: 0e49 1d3d 9d1d 81bd 5ffe fb3c e81e ff3c
00000160: f96b 69bc 947b bf3a 7677 e93e 0e7e 513e
00000170: 97f7 163c 0c98 96bd 27cd 46be e9ab 7bbe
00000180: a995 89bc 6f7e ffbc 894b 54bd b5d6 5d3e
00000190: 5096 b4be e1a0 2dbe 3887 a8bc 2fe7 8dbd
000001a0: d797 e1ba 23ae a5be cc18 80be 0f50 763c
000001b0: dda3 dcbd e6d9 ccbc cbfc bdbd ab7d 943b
000001c0: 4c5e 0e3b fa73 04be af3d 97bd 95cd 28bd
000001d0: 2e2b 80bd 2ce0 c9be b3f6 c6b8 1f98 21ba
000001e0: d314 1bba 9bff 5b3d 0279 793e a996 4dbe
000001f0: ec16 4dbd 022c 2c39 ddc5 21bc 516d a33d
00000200: 4d43 0d3e e860 14bd 8cba f5bc 2942 193c
00000210: cf52 e73d 5b09 3b3d 75c0 7fbd 2b34 563c
00000220: be31 443c 85f8 423c 438d d2bb ba3a 0f3b
00000230: 8831 053c a925 193e 8deb 09bb f74a 6e3e
00000240: ae65 113b 4f8c 1f3e 387a 23bd 4087 8cbb
00000250: 2ee9 86b9 c1cf 11be 227b 2fbc 8d17 40bc
00000260: da44 363a dbb4 ad3b 6a8f e93d 9bcb 5b3c
00000270: 3ebd bfbb 6828 b03c 7e9d d2bd ad91 72bd
00000280: 3a85 793d cc55 96bc 05b5 273d fbf6 3d3d
00000290: 1f0a 54be b945 aa3d aea5 403b 087d 5fbc
000002a0: 4327 a53b 999f 4a3e fb55 26bd bcd8 bf3b
000002b0: f7f0 04bd 0449 c73b 0cc8 6d3c 8600 16bb
000002c0: adfe 81bb 4ed7 a93d 1d28 2b3d 0c1a 8e3a
000002d0: 07bb bcbc 349f bebd 8188 873c 3151 98bb
000002e0: 2abd 8abc b974 30bc 5fcf 473b 1a0b 74bd
000002f0: e8b8 4c3c a635 abbb 52b4 643b ad58 04bd
00000300: 46fe 8fbe 4667 a1be 2051 01be c261 853c
00000310: 1828 23be 9fec e5bc ca74 953d cac0 b8bc
00000320: 2474 ca3d 7411 9abc 6974 61be 5b8f 84bc
00000330: d205 19be ccce 69bc 173b adbd c2de 8ebe
00000340: 4d89 7c39 6d76 5abd ed58 55be 9045 42be
00000350: b1e8 44be 5fbd d93d eaff 91be cc85 29bc
00000360: f081 b8ba a079 5bbd 5bc8 2abe 053c 92bd
00000370: 7568 cc3a 1788 a0bd 7ba0 72bd ca7e f6be
00000380: f27a 30bd 4db7 ab3d 561c a3bd fede 6ebe
00000390: cb46 14ba 9a00 bf3d 636e 45bc b609 28be
000003a0: b732 dfbb f284 1e3e 8fab b83d 1a12 65bc
000003b0: 2ba2 aa3d 2673 0abd 22d1 7cbe 1959 c03b
000003c0: fe7c 11ba 1f10 bbbd 5ec1 24bd 2410 acbd
000003d0: b5f5 e73c c412 9f3e 83ce 35be 0950 c93b
000003e0: 8712 a1bd dad4 a4bd 6fd7 30be 9709 243e
000003f0: 416c 593c 611c febb 28f4 44bd 8772 3f3c
-0.11720097 0.0312237 -0.22841066 -0.022659803 -0.16541679 0.04823162 -0.10870924 -0.01989431
-0.083414696 -0.017074348 -0.12794879 -0.012261479 0.043193217 -0.3586086 -0.077654734 -0.5565308
0.0020433192 -0.31000587 0.06601422 0.043627862 0.0396034 -0.14931172 0.09061674 -0.010568294
-0.0036895399 -0.04724682 -0.2532185 0.034873627 -0.012198201 -0.056724016 -0.33624431 -0.2668721
-0.24023098 -0.021683892 -0.09496228 0.022356955 0.35611758 -0.30803555 0.002703126 -0.072168164
-0.0014867781 -0.20236789 -0.1834744 -0.0069676973 0.08143408 0.017876703 0.055060476 -0.00520083
-0.0012976254 -0.08256289 -0.04810088 -0.017155193 0.039857738 0.093121335 -0.13174519 0.004977767
-0.073011406 -0.05795649 0.12720053 0.042269778 -0.013337015 -0.0075697023 0.008115974 0.035008274
-0.15844499 0.06172744 -0.2689895 -0.0029456904 -0.10508757 0.14754558 -0.25837135 -0.012837213
0.009602082 -0.023762574 -0.08473115 -0.0075467313 -0.01841208 0.10341229 -0.052781086 0.4545155
-0.014567058 -0.21839602 -0.10360443 -0.17508546 0.03839975 -0.063044764 0.030760942 0.031142667
-0.014246934 0.0014608973 0.45598954 0.20458242 0.009214303 -0.073532194 -0.19414197 -0.24577297
-0.016794996 -0.031188218 -0.05182985 0.21663935 -0.3527093 -0.16955902 -0.02057229 -0.069288604
-0.001721139 -0.32359418 -0.2501892 0.015033736 -0.10773442 -0.025006246 -0.09276732 0.0045315824
0.0021723686 -0.12934867 -0.07384812 -0.041211683 -0.06258236 -0.39428842 -9.487327e-05 -0.00061643304
-0.0005915884 0.05371056 0.24362567 -0.20077004 -0.050070688 0.00016419592 -0.009873834 0.07979835
0.13795204 -0.03622523 -0.029996179 0.009354153 0.11295091 0.04566322 -0.0624394 0.013073961
0.01197475 0.011900072 -0.006425531 0.0021855072 0.008129485 0.14955772 -0.002104494 0.23270784
0.002218585 0.15580867 -0.03991148 -0.004288584 -0.00025732204 -0.14239408 -0.0107105095 -0.011724365
0.00069530087 0.0053011007 0.11404307 0.013415243 -0.005851417 0.021503642 -0.102839455 -0.05922096
0.06091807 -0.018351458 0.040944118 0.046378117 -0.20706986 0.0831408 0.0029395628 -0.01364065
0.0050400808 0.19787444 -0.04060934 0.005854694 -0.032456364 0.006081702 0.014513027 -0.0022888496
-0.0039671273 0.08293019 0.041786302 0.0010841503 -0.0230384 -0.09307709 0.016544582 -0.0046483506
-0.016935904 -0.010770016 0.0030488593 -0.0595809 0.012495257 -0.0052249013 0.0034897518 -0.03231113
-0.28123683 -0.31524104 -0.12628603 0.016281966 -0.15933263 -0.028066931 0.07297666 -0.022552866
0.09885433 -0.01880715 -0.22017063 -0.016181638 -0.14943627 -0.014270496 -0.08458536 -0.27904326
0.00024083741 -0.053335596 -0.20834704 -0.18971848 -0.1922939 0.10631823 -0.2851556 -0.010346841
-0.001407681 -0.053582788 -0.16677992 -0.07140354 0.0015595095 -0.07838457 -0.059235077 -0.48143607
-0.043086 0.08384571 -0.07964389 -0.23327252 -0.0005656301 0.093262866 -0.012050244 -0.16409954
-0.0068114656 0.15480402 0.09017097 -0.0139813665 0.08331712 -0.03380122 -0.24689153 0.0058699963
-0.00055499363 -0.09133934 -0.04022347 -0.08401516 0.028315404 0.31069005 -0.17754559 0.006143574
-0.07864862 -0.08048411 -0.17269681 0.16019283 0.013270439 -0.007754848 -0.048084408 0.01168502

fc2.bias f4 [32]
00000000: 5ac2 a73e ce85 8c3e d3e6 b0bc 31c9 373f
00000010: 320c b6be 3cf0 083f 8c00 57bc d580 383e
00000020: 900c 41be 5c97 fb3d 8aab 45bc 4c2e 833e
00000030: 62bf 85bb aa2a b93c f3f7 8ebb 4254 413b
00000040: 8f2e 0abc abe9 c83e 03e6 903d b691 59bc
00000050: 2bd2 0f3f d185 0d3e 8994 3e3e edeb 06bc
00000060: c336 17bc 3f32 14bc 6c19 af3e a2be e93e
00000070: 55e6 7d3c 314c 16bc 385b bcbe 1043 06bc
0.32765466 0.27445835 -0.02159444 0.7179137 -0.3555618 0.5349157 -0.013122689 0.18017896
-0.18852448 0.12284729 -0.012064824 0.2562126 -0.0040816525 0.022603352 -0.004363054 0.0029499684
-0.008433952 0.39240775 0.07075121 -0.013279369 0.56180066 0.13820578 0.18611349 -0.00823496
-0.009229365 -0.009045183 0.34199083 0.45653254 0.01549681 -0.009173439 -0.36788344 -0.0081947

fc3.weight f4 [5, 32]
00000000: 7908 a43d ef57 753d fd0c 093e cf89 93bf
00000010: 0140 363f 3ba0 3fbf e002 45bb 94f3 f4bd
00000020: 652e 0f3f e938 8b3e a500 87b9 3941 32bf
00000030: 9f3b 65b9 93ea 6b3e d43d 1d3c c1be 963e
00000040: b816 363b 4148 003f 740d 593d da52 d7bb
00000050: e464 4dbf 0210 55be 79fc 8cbe 488f 863e
00000060: 653c 1cbc a0ea bebb 5f92 d83d 6176 9fbe
00000070: ef95 c93d c7f6 0d3c 2628 7e3e fb45 a3bb
00000080: 2cd7 013f 4f62 253d f0f5 04be 77c9 df3e
00000090: 6784 86be d287 053f 0f7a febb 68dc 5b3e
000000a0: 5fb3 823e 4bd6 5abe 956d 91bb aa01 7abe
000000b0: dbc1 39bb 8200 f7bd edc0 733b c98c 6abe
000000c0: 20d9 d33b fc9a 7fbd 5239 e03d b2ff 67bb
000000d0: e13f d53e 1f56 49bd 92ef 57be fc8e c7bd
000000e0: 969a 72ba 87ee 87ba e672 333e cba4 3cbd
000000f0: 238d edbe f86a 31ba ef6e b03d 6e7d 1dbb
00000100: ff5c a8bd f196 e6be 2098 6bbe 551d cf3e
00000110: 490b 11be ba10 76be f051 e73b 29af 70be
00000120: b65a 68be b822 323e 18f1 87bb 849a f13e
00000130: 252b e93b 2330 3cbd ab4a e1bb 574e a33d
00000140: a0bb 0d3c 6abf ae3e cd1f 3abd fdf4 3bbc
00000150: 7e9e 783e fb22 d13d 3e55 523e 7d56 b83c
00000160: 189d b3bb b0cc 19ba ee0f b93e 9f61 3e3f
00000170: 5fcd 923e e4eb e33b 9ea8 07bf 8462 68b8
00000180: ec88 efbd b1c3 253f e2f1 c53c f45e aabc
00000190: d90f f6be 11d7 fe3e b0c5 de3b 8e01 05be
000001a0: 9c98 c83d c06e ccbe 9ff4 ca3b 4a88 f53c
000001b0: c953 c83b 4bd6 043e 51e8 bd3b c439 91be
000001c0: b662 a2bb bb47 70be ff73 973d f956 59b9
000001d0: e49e 113f 88f1 e7be 7c41 343e 42d3 8fbe
000001e0: 2c9c 11bc 95ff e7bb 4cb0 5a3e 91d3 ad3d
000001f0: f800 fcba c9b9 04bc 8182 b43e d2da 7cbb
00000200: f5fa cbbe ab0f 9cbe 17e2 343e cdcb ab3e
00000210: 4dde 383e c233 2ebd 0fb6 dd39 421e 983e
00000220: 77d7 2abf 9917 373e 07d6 c5bb 0048 e03e
00000230: 203e adbb ba58 4ebe d651 153c 9906 f03d
00000240: 24ff fc3b 7346 0abf 2abc 3fbe d195 aebb
00000250: f26a cfbe 77a0 193f 399e bd3d 49e2 bb3d
00000260: 88d7 c7bb dbaf e9bb 9e77 5ebf 88ac fabe
00000270: 0519 8b3d 9f10 cc3b 989b 28be d73b 0c3c
0.080094285 0.059898313 0.13383861 -1.1526431 0.7119141 -0.7485387 -0.0030061528 -0.11960521
0.5593017 0.27191857 -0.00025749687 -0.6963077 -0.00021861352 0.23038702 0.0095972605 0.2944241
0.0027784538 0.5011025 0.052991346 -0.006571156 -0.8023207 -0.20806888 -0.2753637 0.2628119
-0.009535884 -0.0058263093 0.10574793 -0.31145003 0.09843051 0.008664793 0.24820003 -0.0049827076
0.5071895 0.040376958 -0.12984443 0.43708393 -0.2627289 0.5216037 -0.0077660154 0.21470797
0.25527474 -0.21370809 -0.004438112 -0.24414697 -0.0028344307 -0.12060644 0.003719385 -0.22905268
0.0064650923 -0.062403664 0.10948433 -0.003540021 0.41650298 -0.049154397 -0.21087483 -0.09744069
-0.00092546025 -0.0010370769 0.17524299 -0.046055596 -0.4639674 -0.0006767954 0.08614909 -0.002403106
-0.082208626 -0.45037034 -0.2300725 0.40452066 -0.14164461 -0.24029818 0.0070593283 -0.23504318
-0.22690853 0.17396057 -0.0041486137 0.471882 0.007115739 -0.045944344 -0.006875356 0.079739265
0.00865069 0.34130412 -0.045440484 -0.011471984 0.2427921 0.1021175 0.2054033 0.022502178
-0.0054813735 -0.00058669876 0.36144966 0.7436771 0.2867231 0.0069556106 -0.52991664 -5.540486e-05
-0.11696038 0.64751726 0.02416319 -0.02079723 -0.48058966 0.49773458 0.0067984685 -0.12988874
0.09794733 -0.39928246 0.006193712 0.029972214 0.0061135036 0.12972371 0.0057955165 -0.28364384
-0.004955615 -0.23464863 0.073951714 -0.00020727133 0.5688307 -0.4530146 0.17603105 -0.28090864
-0.008887332 -0.0070800283 0.21356314 0.08487619 -0.0019226363 -0.008100935 0.35255817 -0.0038582576
-0.39839903 -0.30480704 0.17664371 0.33553925 0.18053551 -0.04252983 0.0004228805 0.29710585
-0.66735023 0.17880096 -0.006037477 0.43804932 -0.005286947 -0.20151034 0.0091137495 0.117200084
0.007720845 -0.54013747 -0.18724123 -0.005327918 -0.4051128 0.60010475 0.09258694 0.0917402
-0.0060986914 -0.0071315593 -0.8690127 -0.48959756 0.067918815 0.0062275673 -0.16465604 0.008559189

fc3.bias f4 [5]
00000000: 6714 94be a316 143f 80ea 9dbe ce0d a33d
00000010: 7b37 94bd
-0.28921816 0.5784704 -0.30842972 0.079616174 -0.072371446
