Assignment_1/1/CNN_Layers/Models/2CNN/model-5.pth (torch_old, 882610 bytes, 10 tensors)

conv1.weight f4 [64, 3, 5, 5]
0	0x3d9201ab	0.071292244
1	0x3d38ab4b	0.045085233
2	0x3ba71d9d	0.0050999657
3	0xbd1c49b0	-0.03815621
4	0xbd82c45b	-0.06385108
5	0xbccb36c2	-0.024806384
6	0x3cb56866	0.022144508
7	0x3cd2f70e	0.02575257
8	0x3d77c11a	0.06048689
9	0x3dd801c4	0.10547212
10	0xbd009660	-0.03139341
11	0xbd15f348	-0.036608964
12	0x3cc3546a	0.023843963
13	0x3de6b23b	0.112644635
14	0x3e229f97	0.15881191
15	0xbb03b2c5	-0.0020095569
16	0xbd0147e9	-0.03156272
17	0xb9cded3f	-0.0003927741
18	0x3d720926	0.059090756
19	0x3ddd0dc9	0.10793645
20	0x3dd75079	0.10513396
21	0x3cf55ea9	0.029952364
22	0xbc8bcf75	-0.017066697
23	0xbcb3d7d7	-0.021953506
24	0xbc985bf7	-0.01859854
25	0xbe32febc	-0.17479986
26	0xbe1685a7	-0.14699422
27	0xbdfd51cd	-0.12369118
28	0xbdc79382	-0.09744932
29	0xbc869234	-0.016427137
30	0xbe8a429c	-0.27003944
31	0xbe455466	-0.19270477
32	0xbd4a4dbe	-0.049390547
33	0x3d2b9d0d	0.041897822
34	0x3e23806b	0.15966956
35	0xbe963fb1	-0.29345468
36	0xbe677e84	-0.22606856
37	0xbd9e7a13	-0.077381276
38	0x3dcfe716	0.10151498
39	0x3e858487	0.26077673
40	0xbe5c702d	-0.21527167
41	0xbe4a994f	-0.19785045
42	0xbdd51e79	-0.10406203
43	0x3d6241ec	0.05523865
44	0x3e604e16	0.21904787
45	0xbda8f3a4	-0.08249596
46	0xbdc321f6	-0.09527962
47	0xbd929d5d	-0.07158921
48	0x3b1722be	0.002306148
49	0x3de72029	0.11285431
50	0xbdd63fe5	-0.10461406
51	0xbd665835	-0.056236465
52	0xbc94177a	-0.0180776
53	0x3cf75320	0.030191004
54	0x3dba7e39	0.09106106
55	0xbe525098	-0.20538557
56	0xbdcebb14	-0.10094276
57	0x3cd0c632	0.025485132
58	0x3e06837f	0.131361
59	0x3e8c13bc	0.27358806
60	0xbe736cf6	-0.23772034
61	0xbe051f22	-0.13000157
62	0x3c03541b	0.008015658
63	0x3e28799e	0.16452643
64	0x3ead491d	0.33844844
65	0xbe1f3309	-0.15546812
66	0xbdd849c0	-0.10560942
67	0xbbbaa061	-0.005695388
68	0x3e096d7f	0.13420676
69	0x3e8ddec2	0.27709013
70	0xbc3663ba	-0.011132175
71	0xbd0014a1	-0.031269673
72	0xbbaab43a	-0.005209473
73	0x3dcb93b1	0.09940279
74	0x3e45334c	0.1925785
75	0x3ca2710d	0.019829297
76	0x3e1727ff	0.14761351
77	0x3e277e08	0.16356671
78	0x3dec5548	0.115397036
79	0x3dd6b88c	0.10484418
80	0x3d20a358	0.039218277
81	0x3e1d0fdc	0.15338081
82	0x3e30d14e	0.17267343
83	0x3dfdca00	0.12392044
84	0x3e00fb66	0.12595901
85	0x3d4735fd	0.04863547
86	0x3e2cd3e6	0.16877708
87	0x3e0cf9cf	0.1376717
88	0x3dd32e57	0.10311573
89	0x3ddbae37	0.10726588
90	0x3d74460c	0.059637114
91	0x3e224a79	0.15848722
92	0x3df66a73	0.12032022
93	0x3dabbae4	0.08385256
94	0x3da2bb16	0.0794584
95	0x3d985aff	0.07439231
96	0x3dd061f5	0.10174934
97	0x3d96e2c9	0.073674746
98	0x3d486e5f	0.048933383
99	0x3d386f4e	0.045028023
100	0xbea9f33a	-0.3319338
101	0xbe33d848	-0.17562973
102	0xbddcb07e	-0.10775851
103	0xbddf8a99	-0.10915107
104	0xbd185484	-0.037189975
105	0xbebced21	-0.36899665
106	0xbe70dac4	-0.23520952
107	0xbe1416a0	-0.14461756
108	0xbdfc7c6b	-0.12328418
109	0xbd4f26a7	-0.05057397
110	0xbec6dfa0	-0.38842487
111	0xbe85b73b	-0.26116356
112	0xbe60511a	-0.21905938
113	0xbe360816	-0.17776522
114	0xbdb9239e	-0.090399966
115	0xbebaa36b	-0.36452803
116	0xbe81fa0b	-0.2538608
117	0xbe5d0723	-0.21584754
118	0xbe696204	-0.22791296
119	0xbdfee0b8	-0.124452055
120	0xbeae1718	-0.34001994
121	0xbe8bd6c0	-0.2731228
122	0xbe6b5ad7	-0.22983871
123	0xbe5ea25a	-0.2174162
124	0xbe0ff3f7	-0.14057909
125	0xbd3842da	-0.04498563
126	0x3dd9e46e	0.10639273
127	0x3e30c857	0.17263924
128	0x3e2def20	0.1698575
129	0x3e88032b	0.26564917
130	0xbdcfa35c	-0.1013858
131	0x3d21994b	0.039452832
132	0x3de6d4b6	0.1127104
133	0x3e23abb8	0.15983474
134	0x3e7bb2b1	0.24579884
135	0xbdb5b540	-0.08872461
136	0x3cd27924	0.02569253
137	0x3dd179e5	0.10228328
138	0x3e023cc6	0.12718496
139	0x3e59de86	0.21276292
140	0xbd45faed	-0.048335005
141	0x3d14dac2	0.036341436
142	0x3da0c1cd	0.078494646
143	0x3dc64e21	0.09682871
144	0x3e4e1029	0.20123352
145	0xbbd520d2	-0.0065041566
146	0x3d7b2bc9	0.061321054
147	0x3de43a40	0.11143923
148	0x3e0fbcf3	0.14036922
149	0x3e62f93c	0.22165388
150	0xbce2a65f	-0.027667223
151	0xbd2b3751	-0.0418008
152	0xbd56d2fc	-0.052447304
153	0xbd2b7210	-0.041856825
154	0xbc7f6f13	-0.015590447
155	0xbce1f70e	-0.027583625
156	0xbd927188	-0.071505606
157	0xbd691ef0	-0.05691427
158	0xbd0bf090	-0.034164965
159	0xbbf52859	-0.0074816165
160	0xbd04c351	-0.03241283
161	0xbd80bc6c	-0.062859386
162	0xbd8cdc35	-0.06877939
163	0xbcf1a8fe	-0.029499527
164	0x3c0b433e	0.0084999185
165	0xbcaa8f46	-0.020820271
166	0xbd74d719	-0.059775446
167	0xbd7176b6	-0.058951102
168	0xbd0b1a07	-0.03396037
169	0xbcba4fb7	-0.02274309
170	0xbc83dc97	-0.016096396
171	0xbd575510	-0.052571356
172	0xbd129d58	-0.035794586
173	0x3bf3dcc7	0.00744209
174	0x3c8f6cb9	0.017507898
175	0xbd4d565a	-0.05013118
176	0xbd1b11fb	-0.037858944
177	0xbc8caebf	-0.01717317
178	0xba5bc4d1	-0.0008383515
179	0xbc5663e8	-0.013085343
180	0xbd619301	-0.055071834
181	0xbd112f6a	-0.03544561
182	0xba3e2888	-0.00072539644
183	0x3cbcbe5e	0.023039993
184	0x3d34f990	0.044183314
185	0xbd81cbfd	-0.06337736
186	0xbd5a2688	-0.053259403
187	0xbc845ea7	-0.016158415
188	0x3cd5d2dd	0.026101524
189	0x3d16e54b	0.036839765
190	0xbd8aac88	-0.06771189
191	0xbd3c628a	-0.04599241
192	0x3c1862e3	0.00930092
193	0x3d0a2f7a	0.033736683
194	0x3d311486	0.043232463
195	0xbd8162a8	-0.06317645
196	0xbc9894c8	-0.018625632
197	0x3ce95b12	0.028485809
198	0x3d4f74bf	0.050648447
199	0x3d52bcb1	0.05144948
200	0xbcc04150	-0.023468643
201	0x3beb76f9	0.0071858135
202	0x3d9d5683	0.076825164
203	0x3dada397	0.08478468
204	0x3d8c3484	0.06845954
205	0x3bc3f805	0.005980494
206	0x3d6223b4	0.05520983
207	0x3db2f8f7	0.087388925
208	0x3deae52b	0.114694916
209	0x3df48e95	0.11941258
210	0x3cfe78d6	0.031063478
211	0x3da55c73	0.08074274
212	0x3dee95b1	0.11649645
213	0x3e2eeaa1	0.17081691
214	0x3e0f2eb6	0.13982663
215	0x3cf3eda3	0.0297764
216	0x3db61540	0.08890772
217	0x3e0159bd	0.12631889
218	0x3e2c1969	0.16806568
219	0x3e2884e3	0.16456942
220	0x3d4bfcb1	0.049801532
221	0x3db4aac5	0.08821634
222	0x3e2cceca	0.16875759
223	0x3e4efa97	0.2021278
224	0x3e31c763	0.17361216
225	0x3d88d334	0.06680909
226	0x3e1bb23a	0.15204707
227	0x3de2b29b	0.110692225
228	0x3d2d5dd2	0.042325802
229	0x3d889c16	0.06670396
230	0x3c965314	0.018350162
231	0x3e11eb95	0.14250024
232	0x3e15985d	0.14608903
233	0x3d8ef876	0.06980984
234	0x3dbf98c7	0.09355312
235	0x3d4f69f7	0.050638165
236	0x3e04fd35	0.12987216
237	0x3dd6cae4	0.10487917
238	0x3d7942d8	0.060854763
239	0x3db353d1	0.08756221
240	0x3d5e9abb	0.05434678
241	0x3db629e7	0.08894711
242	0x3d31f0e0	0.043442607
243	0x3c692e0e	0.014232172
244	0x3d50eff8	0.051010102
245	0x3dc97106	0.09836011
246	0x3db3e274	0.08783427
247	0x3cdb161c	0.026743941
248	0xbc88d68c	-0.016703866
249	0xbc965622	-0.018351618
250	0xbe8e33a4	-0.27773774
251	0xbddacceb	-0.10683616
252	0xbd9843f1	-0.07434834
253	0xbd82d518	-0.06388301
254	0x3b48a93e	0.0030618454
255	0xbea3055b	-0.31840023

conv1.bias f4 [64]
0	0xbe24beb8	-0.16088378
1	0xbe7cc838	-0.24685752
2	0xbe0f1f59	-0.13976802
3	0xbe3efbd1	-0.18650748
4	0xbf8297dc	-1.0202594
5	0xbe4d3f81	-0.20043756
6	0xbef79ad3	-0.4836031
7	0xbeca8cdc	-0.39560592
8	0xbee9ceba	-0.45665532
9	0xbf040231	-0.51565844
10	0xbf41520d	-0.75515825
11	0xbe82699e	-0.25471205
12	0xbf02edcb	-0.51144093
13	0x3ebd96a1	0.37028983
14	0xbe18f822	-0.14938405
15	0xbee57995	-0.44819322
16	0xbebd335a	-0.3695324
17	0x3d8c2554	0.06843057
18	0xbd4e0a6c	-0.050302908
19	0xbf264dee	-0.6496266
20	0xbda4827e	-0.08032702
21	0xbe877a3f	-0.26460454
22	0xbe74a73c	-0.2389192
23	0xbf2ce7d9	-0.6754127
24	0xbfb6327c	-1.4234157
25	0xbe001e4b	-0.12511556
26	0xbe2a48c7	-0.16629325
27	0xbd585d2c	-0.05282323
28	0xbf3f855a	-0.74812853
29	0x3e08823c	0.1333093
30	0xbeca543e	-0.39517397
31	0xbe683fda	-0.22680607
32	0xbe8f4e7c	-0.27989566
33	0xbee14d66	-0.44004363
34	0xbf7e69fd	-0.99380475
35	0xbec098b7	-0.37616512
36	0xbe81bab8	-0.25337768
37	0xbebaa0d8	-0.3645084
38	0xbe378e1f	-0.17925309
39	0xbe4b5c3e	-0.19859406
40	0xbf418f42	-0.7560922
41	0xbeee6fab	-0.4656957
42	0xbea67cb9	-0.3251703
43	0xbe839e95	-0.25706926
44	0xbf728a49	-0.94742256
45	0xbfd380dd	-1.6523701
46	0xbc86b44e	-0.016443398
47	0xbdba6bd5	-0.091025986
48	0xbdfa13f9	-0.12210841
49	0xbefd38e5	-0.4945747
50	0xbef9b9f3	-0.4877468
51	0xbe85a535	-0.26102605
52	0xbee6e36b	-0.4509538
53	0xbeff7bab	-0.4989904
54	0xbe924044	-0.28564656
55	0xbf20e453	-0.62848395
56	0xbe3040a5	-0.1721216
57	0xbeab149b	-0.33414158
58	0xbd8cdd37	-0.06878131
59	0xbe1786c7	-0.14797507
60	0xbeacd079	-0.33752802
61	0xbf1212cc	-0.5705993
62	0xbdd7f3dd	-0.1054456
63	0xbf977dd9	-1.1835281

conv2.weight f4 [128, 64, 5, 5]
0	0xbc8a49e5	-0.016880939
1	0xbc9bf19a	-0.019036103
2	0xbc771c9c	-0.015082505
3	0xbca34484	-0.019930132
4	0xbd7db06e	-0.061935835
5	0xbc84ef02	-0.016227249
6	0xbccb3a07	-0.024807943
7	0xbcb2e635	-0.021838287
8	0xbc753960	-0.014967293
9	0xbd354402	-0.04425431
10	0xbcb72d9b	-0.022360614
11	0xbc860a68	-0.016362384
12	0xbc76019e	-0.015015034
13	0xbc28bd8d	-0.010299099
14	0xbd14d451	-0.036335293
15	0xbca59053	-0.02021042
16	0xbc4fcefb	-0.012683625
17	0xbbd644f1	-0.00653898
18	0xbc0d4522	-0.00862244
19	0xbd0bcf76	-0.034133397
20	0xbc78708c	-0.015163552
21	0xbc630fe1	-0.013858766
22	0xbbaca87d	-0.005269109
23	0xbb18fccc	-0.0023344038
24	0xbd0eea79	-0.03489158
25	0xbc2d6a7a	-0.010584468
26	0xbcec61b1	-0.028855177
27	0xbd0f4e1a	-0.034986593
28	0xbceacfe5	-0.028663585
29	0xbd79cae6	-0.060984515
30	0xbc68607a	-0.014183158
31	0xbce4c5a2	-0.02792627
32	0xbd1b518e	-0.037919573
33	0xbcf078e3	-0.029354518
34	0xbd3b96b3	-0.045798015
35	0xbc863a9f	-0.016385375
36	0xbcea9c0f	-0.028638868
37	0xbcfed569	-0.031107621
38	0xbca88397	-0.02057056
39	0xbcff5e3c	-0.031172864
40	0xbc6dea49	-0.01452119
41	0xbcabd555	-0.020975748
42	0xbcb4c897	-0.022068305
43	0xbc5e29f6	-0.013559809
44	0xbceab15f	-0.02864903
45	0xbc8725b7	-0.016497476
46	0xbcabce8d	-0.020972515
47	0xbc578813	-0.013155001
48	0xbc363a0a	-0.011122236
49	0xbcb09231	-0.021554084
50	0xbcf275ce	-0.02959719
51	0xbd0620cc	-0.03274612
52	0xbd0176ef	-0.031607565
53	0xbd0671be	-0.032823317
54	0xbd41928b	-0.047258895
55	0xbcd81c6c	-0.02638074
56	0xbcd0a435	-0.025468925
57	0xbccc0ab8	-0.024907455
58	0xbcda573a	-0.026652921
59	0xbd241a78	-0.040064305
60	0xbcb93348	-0.02260746
61	0xbcb9506f	-0.022621362
62	0xbc84ef10	-0.016227275
63	0xbcbe7263	-0.023247903
64	0xbcf8a784	-0.030353315
65	0xbc57c373	-0.013169157
66	0xbc75f6a0	-0.015012413
67	0xbc8eb319	-0.017419385
68	0xbc6b2abb	-0.014353449
69	0xbccbee03	-0.024893766
70	0x3b110690	0.0022129156
71	0xbc3aa126	-0.01139096
72	0xbc066bfd	-0.008204457
73	0xbc2db65f	-0.010602563
74	0xbc53f2b5	-0.012936284
75	0xbc47f49e	-0.012204317
76	0xbccd211e	-0.025040206
77	0xbd0c4f1e	-0.03425514
78	0xbd0f4e71	-0.034986917
79	0xbd9acfc4	-0.075591594
80	0xbc41b5b5	-0.0118231075
81	0xbca4c809	-0.020114915
82	0xbcd5ac0e	-0.026083019
83	0xbcd60dad	-0.026129568
84	0xbd6edfa7	-0.05831876
85	0xbc3c5402	-0.011494638
86	0xbc6480a0	-0.013946682
87	0xbca200b7	-0.019775731
88	0xbc880f6d	-0.016608918
89	0xbd23b888	-0.039970905
90	0xbc94b10c	-0.018150829
91	0xbc43ce82	-0.011951091
92	0xbc1fffcd	-0.0097655775
93	0xbc3efef4	-0.011657465
94	0xbcead9f3	-0.02866838
95	0xbc79b5ad	-0.015241069
96	0xbc866b54	-0.0164086
97	0xbc2402a8	-0.010010399
98	0xbbc81252	-0.0061056996
99	0xbcf5f303	-0.030023104
100	0xbd15bf45	-0.036559362
101	0xbd1b6da1	-0.037946347
102	0xbcda95eb	-0.026682815
103	0xbc37af29	-0.011211195
104	0xbc2b8945	-0.010469739
105	0xbd411736	-0.047141276
106	0xbd34531c	-0.04402457
107	0xbce7dc16	-0.028303187
108	0xbc27bcf6	-0.010237923
109	0xbb38590b	-0.0028129246
110	0xbd3de3de	-0.04635989
111	0xbd2411cc	-0.040056035
112	0xbcb50477	-0.022096856
113	0xbb0e5f87	-0.002172442
114	0x3ae99cd9	0.0017823234
115	0xbd276157	-0.040864315
116	0xbd126fd0	-0.035751164
117	0xbca44e8e	-0.020056989
118	0xbba78878	-0.005112704
119	0x38177a2c	3.6114987e-05
120	0xbd02ea37	-0.031961646
121	0xbcb975b5	-0.022639135
122	0xbbaac6f2	-0.0052117044
123	0x3bba9531	0.0056940545
124	0xba5cea54	-0.00084272516
125	0xbc2f23f2	-0.010689722
126	0xbc4c3a5f	-0.012465089
127	0xbc8f2d4d	-0.017477656
128	0xbca60c79	-0.02026962
129	0xbcd81a20	-0.026379645
130	0xbc0ea7bf	-0.008706986
131	0xbc4848d0	-0.012224391
132	0xbc3f31f0	-0.011669621
133	0xbc81d6f6	-0.015849572
134	0xbcbea20c	-0.02327063
135	0xbbf69eb4	-0.007526243
136	0xbbe4ad88	-0.0069786943
137	0xbc005fcd	-0.007835341
138	0xbc518f01	-0.012790442
139	0xbc7be866	-0.015375232
140	0xbc2b3e3a	-0.010451848
141	0xbbf1c4c0	-0.0073781908
142	0xbc22100d	-0.009891522
143	0xbbdedbbb	-0.0068010963
144	0xbc524924	-0.012834821
145	0xbc052b0a	-0.008127937
146	0xbc11d227	-0.008900202
147	0xbb5adfab	-0.0033397477
148	0xbb88b49d	-0.0041719214
149	0xbb95bea2	-0.0045698443
150	0xbd4d421d	-0.05011188
151	0xbd1dedab	-0.038556736
152	0x3c401806	0.011724478
153	0x3c2a7738	0.0104044005
154	0x3cd6c1d3	0.02621547
155	0xbd56b421	-0.052417878
156	0xbd5749ba	-0.052560546
157	0x3b0bc89a	0.0021329285
158	0x3c885d85	0.016646156
159	0x3cfdc574	0.030977942
160	0xbd2df8d2	-0.04247362
161	0xbd22a3b8	-0.039706916
162	0xbc0606e0	-0.00818035
163	0x3c5387e0	0.012910813
164	0x3c9b699a	0.018971253
165	0xbcc020b1	-0.023453088
166	0xbd05e869	-0.032692347
167	0xbc8a7d3a	-0.016905416
168	0xbb87ec0d	-0.0041480125
169	0x3c539c19	0.012915635
170	0x3ae315c8	0.0017325217
171	0xbb9b964c	-0.0047481414
172	0xbc513367	-0.012768603
173	0xbbede530	-0.0072599873
174	0x3c4f9e25	0.012671982
175	0xbca4bbff	-0.020109175
176	0xbc61b24d	-0.01377542
177	0xbc832df5	-0.016013125
178	0xbbd14561	-0.0063864444
179	0xbc137ce9	-0.009001949
180	0xbcc70a13	-0.024296796
181	0xbc80dfbd	-0.015731687
182	0xbc82454c	-0.015902184
183	0xbc2341a0	-0.009964377
184	0xbbe290a4	-0.006914215
185	0xbcb72151	-0.022354754
186	0xbc7693a4	-0.015049849
187	0xbc04cb1c	-0.008105066
188	0xbbd0849d	-0.006363465
189	0xbb0cf759	-0.0021509735
190	0xbcc98c85	-0.024603138
191	0xbc885728	-0.016643122
192	0xbbdd8b9b	-0.006761027
193	0xbbecd850	-0.007227935
194	0xbbf2ee73	-0.0074136793
195	0xbcf4354a	-0.029810566
196	0xbc7a9033	-0.015293169
197	0xbbc42bc8	-0.0059866644
198	0xbb721623	-0.0036939464
199	0xbbae5310	-0.0053199604
200	0xbcf1ddc7	-0.029524697
201	0xbcaa7466	-0.020807456
202	0xba5d95b1	-0.0008452787
203	0x38ae47f7	8.310371e-05
204	0x3c4ef4d3	0.012631613
205	0xbd18e129	-0.037324104
206	0xbce9d81a	-0.028545428
207	0xbc0b0dd0	-0.00848718
208	0x3b4b7844	0.0031047026
209	0x3bc5e8db	0.0060397214
210	0xbce0e8f6	-0.027454834
211	0xbcc399e7	-0.023877097
212	0xbc3ab19d	-0.011394885
213	0x3b794c5f	0.0038039905
214	0x3b52ff42	0.0032195603
215	0xbcb24e5a	-0.021765877
216	0xbc40e426	-0.011773145
217	0xbbd45657	-0.006480019
218	0xbb5ae033	-0.0033397793
219	0x3b6e2df7	0.0036343315
220	0xba42d350	-0.0007432001
221	0x3cae4ae6	0.021275949
222	0x3bb25993	0.005442807
223	0xbc9faa62	-0.019490425
224	0xbb0e4309	-0.0021707437
225	0xbca4016f	-0.020020215
226	0xbc9ba6f9	-0.019000517
227	0xbc2e29a6	-0.010630047
228	0xbb52cc17	-0.0032165104
229	0x39b99f5d	0.00035404685
230	0xbd02b5fb	-0.03191183
231	0xbce43d93	-0.027861392
232	0xbc87f070	-0.016594142
233	0xb8848e01	-6.320701e-05
234	0x3c17e9fb	0.009272094
235	0xbd11a592	-0.03555829
236	0xbcb7035b	-0.022340467
237	0xbc151b6a	-0.009100774
238	0x3b56ffb8	0.003280623
239	0x3bfd3ccd	0.0077281953
240	0xbcfbfb3c	-0.030759446
241	0xbcc8c634	-0.024508573
242	0xbc064e33	-0.008197355
243	0x3b4fccdc	0.00317078
244	0x3c0ecea4	0.008716259
245	0xbcc3859b	-0.023867419
246	0xbc7558bd	-0.01497477
247	0xbbbf6cf6	-0.0058418466
248	0x3b1fe525	0.0024398055
249	0x3bd99007	0.006639484
250	0x3d5a07b9	0.05323002
251	0xbd819817	-0.06327837
252	0xbdab272a	-0.08357079
253	0xbd83620e	-0.06415187
254	0xbd28f75b	-0.04125152
255	0x3d457179	0.04820392

conv2.bias f4 [128]
0	0xbdcb139c	-0.099158496
1	0x3ae73501	0.0017639698
2	0xbe4a1c49	-0.19737352
3	0x3c193cd5	0.009352882
4	0x3c0b5731	0.008504675
5	0xbe177dfc	-0.14794153
6	0xbe012c0c	-0.12614459
7	0xbe1a499c	-0.15067142
8	0xbc55fc37	-0.013060621
9	0x3e8f0a37	0.2793748
10	0xbc8b2c51	-0.016988905
11	0x3bc2a817	0.005940448
12	0xbcf3d53a	-0.02976476
13	0xbe0f528c	-0.13996333
14	0x3b7f985b	0.0039000723
15	0xbd82416b	-0.06360134
16	0xbd2945ad	-0.041326214
17	0xbcb578e4	-0.022152372
18	0xbb4dee18	-0.0031422433
19	0x3e4ec962	0.20194009
20	0xbd1ffdff	-0.03906059
21	0x3e073d63	0.13207011
22	0xbe0d44dd	-0.137958
23	0x3ccd111e	0.025032576
24	0xbc9a307f	-0.018821953
25	0xbe1aaa93	-0.15104131
26	0xbce2e26f	-0.027695863
27	0x3e2fb3f7	0.17158495
28	0x3d59d3a9	0.05318037
29	0xbc1ab631	-0.009442852
30	0xbbd37c93	-0.0064540594
31	0x3ae3b89d	0.0017373745
32	0xbb906a3e	-0.0044071963
33	0xbd9284aa	-0.0715421
34	0xbdaf4ef6	-0.085599825
35	0xbd375396	-0.044757448
36	0xbbdb7b72	-0.0066980654
37	0xbd490566	-0.049077414
38	0xbc7237c7	-0.014783806
39	0xbd5e5f63	-0.054290187
40	0xbdeef912	-0.116686
41	0xbbd5ed2e	-0.006528518
42	0xbd89e794	-0.06733623
43	0xbd02a863	-0.031898867
44	0x3cbfbc5b	0.023405245
45	0xbc38e88b	-0.011285911
46	0x3cb1ebdc	0.021718912
47	0x3d65ee28	0.056135327
48	0xbd4c6bdb	-0.049907546
49	0x3ea7d186	0.3277704
50	0xbdd71798	-0.10502547
51	0xbdc6ea10	-0.09712613
52	0xbd15835a	-0.03650222
53	0xbdbf4605	-0.09339527
54	0xbe13701a	-0.14398232
55	0xbcb54840	-0.022129178
56	0x3d88e579	0.066843934
57	0xbd92d164	-0.07168844
58	0x3b1e98d1	0.0024199972
59	0x3eb6e238	0.35719466
60	0x3e170961	0.14749672
61	0xbb30a514	-0.0026953863
62	0xbd1b96c6	-0.037985586
63	0xbe3eef17	-0.18645893
64	0x3d844ce4	0.06459978
65	0xbd813ca3	-0.06310394
66	0xbdb4f1d9	-0.08835191
67	0x3c3e2107	0.011604554
68	0xbe86f250	-0.26356745
69	0xbdcf6185	-0.10126022
70	0x3c66415f	0.014053672
71	0xbc1a4498	-0.009415768
72	0x3bfd313a	0.0077268155
73	0xbbe0cf1a	-0.006860626
74	0x3efad248	0.48988557
75	0xbed76b90	-0.4207425
76	0xbefe59ec	-0.4967798
77	0x3e2d8910	0.16946816
78	0xba882e14	-0.0010389709
79	0x3be384ae	0.006943307
80	0xbd60b9c4	-0.05486466
81	0x3dc4c8fb	0.096086465
82	0x3b651177	0.0034953037
83	0xbe4125e9	-0.18862118
84	0xbdd8cd41	-0.10586024
85	0xbea542e4	-0.32277596
86	0x3dc70a21	0.09718729
87	0x3b9c01f9	0.0047609773
88	0x3ec31501	0.38101962
89	0x3eac402e	0.33642715
90	0xbdb73104	-0.08944896
91	0x3e211cc6	0.15733632
92	0xbe56b0d2	-0.20965889
93	0xbb298c8d	-0.0025871128
94	0x3eb77f1d	0.35839167
95	0xbe987a48	-0.29780793
96	0xbe8e6587	-0.27811834
97	0xbea188ed	-0.3154978
98	0xbc02fb26	-0.007994449
99	0xbc735ca3	-0.014853629
100	0xbaf88be8	-0.0018962594
101	0xbdbbe78c	-0.091750234
102	0xbb973630	-0.004614614
103	0xbd3f4579	-0.046697114
104	0xbba63197	-0.0050718295
105	0xbde79cc9	-0.11309201
106	0x3e50262d	0.20327063
107	0xbe6c9720	-0.23104525
108	0xbd8f4acc	-0.06996688
109	0x3c35982f	0.011083647
110	0x3df8a9fa	0.121417955
111	0x3ecb4490	0.39700747
112	0x3ccb6d4b	0.024832388
113	0xbe5c6cc7	-0.2152587
114	0xbc9fa20f	-0.019486455
115	0xbdf0ccba	-0.117577985
116	0x3adb983e	0.0016753746
117	0x3c1b3bac	0.009474676
118	0xbd479dfd	-0.048734654
119	0xbe065c26	-0.1312109
120	0x398d89dd	0.00026996332
121	0xbe522cea	-0.20524946
122	0x3c29e8ae	0.010370417
123	0xbca0f6c3	-0.019648915
124	0xbf1a5a7f	-0.60294336
125	0xbe8f6178	-0.2800405
126	0x3e89252d	0.26786175
127	0x3c8252dc	0.015908651

fc1.weight f4 [64, 128]
0	0xbe2f3689	-0.17110647
1	0xbd37cf5b	-0.044875484
2	0x3e117706	0.1420556
3	0xbe0df431	-0.13862683
4	0x3d46db2d	0.048548866
5	0x3e86aef1	0.26305345
6	0x3cab7136	0.020928007
7	0x3d8a3a93	0.067494534
8	0xbdad1540	-0.08451319
9	0x3dc2bc23	0.095085405
10	0xbe5c2f0b	-0.2150232
11	0x3aa0210b	0.0012216879
12	0xbea8b79d	-0.32952586
13	0x3d3c040b	0.045902293
14	0xbeac3f0c	-0.3364185
15	0xbeb45dbd	-0.35227767
16	0x3d01adbb	0.031659823
17	0xbceb41d5	-0.028717915
18	0x3b3a728a	0.0028449618
19	0xbe62cd22	-0.22148564
20	0x3d798169	0.06091443
21	0x3cf74d37	0.030188186
22	0x3dc3b029	0.09555084
23	0x3c09b934	0.008405972
24	0xbcaa29a7	-0.020771815
25	0x3d993c76	0.07482235
26	0x3c46e368	0.012139179
27	0xbe7f6fe7	-0.24945031
28	0xbc5ba4e8	-0.013406016
29	0xbdf1fe0c	-0.11816034
30	0x3b9da0a6	0.0048104106
31	0xbd275c41	-0.040859465
32	0xbc0b1d3d	-0.008490858
33	0xbf0d9141	-0.55299765
34	0xbe9f024d	-0.31056443
35	0xbe32aac3	-0.17447953
36	0xbd537132	-0.051621623
37	0x3c15fe3a	0.009154851
38	0xbdc0d86a	-0.09416278
39	0x3d0073e4	0.031360522
40	0x3e1a0ff3	0.15045147
41	0x39a5ddae	0.00031636417
42	0x3c6ae583	0.014336946
43	0x3e4a7e3c	0.19774717
44	0xbdafa963	-0.0857723
45	0xbd4a5c97	-0.049404707
46	0xbc3ced69	-0.011531212
47	0xbcccd3d2	-0.025003348
48	0xbcc1211a	-0.023575354
49	0x3e096f96	0.13421473
50	0xbdae4b17	-0.08510416
51	0xbec9fb2a	-0.39449435
52	0x3d97f75d	0.07420228
53	0xbd87791e	-0.06614898
54	0x3e08e44b	0.13368337
55	0x3c78c474	0.015183557
56	0x3dbcf27e	0.09225939
57	0xbe5099fe	-0.20371243
58	0xbe1d826c	-0.15381783
59	0x3d022127	0.031769898
60	0xbce9c9b1	-0.028538557
61	0xbb73721a	-0.0037146867
62	0xbde3838e	-0.111090764
63	0x3d3f84e8	0.04675761
64	0x3c0325d5	0.008004625
65	0xbe5c4dfc	-0.21514124
66	0xbe38d794	-0.18050987
67	0x3c648154	0.01394685
68	0x3db64d6a	0.08901484
69	0xbd035265	-0.032061
70	0xbe5f846c	-0.21827859
71	0x3d32d682	0.0436616
72	0xbd686884	-0.0567403
73	0xbd9decdf	-0.07711195
74	0x3ddd5dae	0.108088836
75	0x3e13e656	0.14443335
76	0x3e9e3d76	0.30906266
77	0x3e6e7f19	0.23290671
78	0xbd888b70	-0.066672206
79	0xbe833cd3	-0.25632343
80	0xbe2ad02f	-0.16680978
81	0xbdee4393	-0.116339825
82	0xbd4201de	-0.047365062
83	0x3e0cc05a	0.13745251
84	0xbea2595c	-0.317088
85	0x3e760c6f	0.2402818
86	0x3c61b8ec	0.013776999
87	0xbd53ea7d	-0.051737297
88	0x3e23bc45	0.15989788
89	0x3c9671c6	0.018364798
90	0xbe268252	-0.16260651
91	0x3d9a98e3	0.07548692
92	0x3dadb874	0.08482447
93	0x3b584ff5	0.0033006642
94	0x3e47c812	0.19509915
95	0x3e1a16f8	0.15047824
96	0x3eb1112e	0.3458342
97	0x3e228631	0.15871502
98	0x3c089791	0.0083369175
99	0xbd4e978c	-0.050437495
100	0xbcf286af	-0.029605238
101	0x3e1a7d69	0.15086903
102	0x3c4b1001	0.012393952
103	0xbc96b79d	-0.0183981
104	0x3bbc8295	0.0057528713
105	0x3b7d7141	0.003867224
106	0xbc2744fb	-0.010209317
107	0x3e511154	0.20416766
108	0xbc0a641b	-0.008446719
109	0xbddbad62	-0.107264295
110	0x3c9e9510	0.019358188
111	0xbde63702	-0.11240961
112	0xbda78b37	-0.0818085
113	0x3a8fbe78	0.0010966798
114	0x3c6fe1d4	0.014641244
115	0x3e02a740	0.12759113
116	0xbc81a7f9	-0.015827166
117	0xbe1c763c	-0.15279478
118	0x3e98951f	0.2980127
119	0xbddf0269	-0.108891316
120	0xbbe1ca6f	-0.006890587
121	0x3b25747b	0.002524643
122	0x3d869b45	0.06572584
123	0xbd9a6e1a	-0.075405315
124	0x3e3d7ffe	0.18505856
125	0xbedbe4d0	-0.42948008
126	0x3dbd7271	0.092503436
127	0x3cc545c9	0.024081128
128	0xbe27fbc5	-0.16404636
129	0xbc78f65f	-0.015195458
130	0x3e1c2279	0.15247525
131	0xbc36ea2f	-0.011164232
132	0x3ce4d777	0.027934773
133	0x3e313d13	0.17308454
134	0xbd255204	-0.04036142
135	0xbba998bd	-0.0051756785
136	0xbe82f80b	-0.25579867
137	0x3d99281d	0.07478354
138	0xbd9961a6	-0.07489328
139	0x3c3218be	0.010870157
140	0xbb7a83af	-0.0038225462
141	0xbd137783	-0.036002647
142	0xbc9a0481	-0.018800976
143	0xbc90bb62	-0.017667476
144	0x3d3ec5b2	0.046575256
145	0x3bcb3c72	0.006202274
146	0xba945c05	-0.0011318928
147	0xbb9662ac	-0.0045893993
148	0x3cd91953	0.026501333
149	0x3c53300d	0.012889874
150	0x3a59c24f	0.00083068473
151	0x3c116c5a	0.008875931
152	0xbdc3a391	-0.09552682
153	0xbcc8639b	-0.024461558
154	0x3c39c424	0.0113382675
155	0x3da75502	0.08170511
156	0xbe2bce5c	-0.16777939
157	0xbe3d47e0	-0.1848445
158	0xbd4bfe17	-0.049802866
159	0xbe18c73c	-0.14919752
160	0x3bce3eac	0.006294092
161	0x3e3b0cc3	0.18266587
162	0xbddc29d8	-0.107501686
163	0xbc9a4724	-0.01883275
164	0x3c77245d	0.015084353
165	0x3ccbd91f	0.024883805
166	0xbcd9bf94	-0.02658061
167	0x3d3da413	0.04629905
168	0x3e2a5948	0.1663562
169	0xbc0b90ed	-0.00851844
170	0xbd841049	-0.06448419
171	0x3dd8db2b	0.10588678
172	0xbe2211e6	-0.1582714
173	0xbdf128c8	-0.117753565
174	0xbd90c820	-0.07069421
175	0x3cac9ef5	0.02107189
176	0xbdd5c003	-0.10437014
177	0x3dac5f58	0.08416623
178	0xbe34b429	-0.1764685
179	0xbde16273	-0.11005106
180	0xbe1a79cb	-0.15085523
181	0xbda9750a	-0.082742766
182	0x3cce9729	0.025218563
183	0xbc0e83d3	-0.0086984215
184	0xbde3cb32	-0.11122741
185	0xbd0a5367	-0.033770945
186	0x3c59fba6	0.013304627
187	0x3d125168	0.035722166
188	0x3d8d02e4	0.06885317
189	0xbbb0d594	-0.0053965542
190	0xbd92bab3	-0.07164516
191	0x3d626021	0.055267457
192	0xbcdb5116	-0.026772063
193	0xbcd519b6	-0.026013236
194	0xbd68a737	-0.056800094
195	0x3c5cf3ce	0.013485862
196	0x3d9ca758	0.07649106
197	0xbdc0834f	-0.09400045
198	0x3d93a930	0.07210004
199	0x3d711d37	0.058865752
200	0xbe8960c9	-0.26831654
201	0xbbfb3813	-0.0076665967
202	0x3df8751a	0.1213171
203	0x3e8b2293	0.27174816
204	0x3e5734de	0.21016261
205	0xbe54d538	-0.20784461
206	0xbeb759fc	-0.3581084
207	0x3c0d304a	0.00861747
208	0xbe0249ca	-0.12723461
209	0x3d3004c5	0.0429733
210	0xbde302ed	-0.110845424
211	0x3ddfb2fe	0.10922812
212	0x3df79aee	0.12090097
213	0x3e074f8e	0.13213941
214	0x3d04f78b	0.032462638
215	0xbcf5980a	-0.029979724
216	0xbaba3995	-0.0014207835
217	0x3d7a502f	0.061111625
218	0xbcd96a16	-0.026539844
219	0x3d8a4cdc	0.06752941
220	0x3d483500	0.04887867
221	0xbc7a35b9	-0.015271598
222	0xbe0f6aab	-0.14005534
223	0x3c89fadf	0.016843257
224	0x3dbdef4f	0.0927416
225	0x3e025c48	0.12730515
226	0xbbb5ea6f	-0.0055516283
227	0xbd5523df	-0.052036162
228	0xbda7ba65	-0.08189849
229	0xbcd1b253	-0.025597727
230	0xbc10d0f4	-0.008838881
231	0xbd5e0502	-0.054203995
232	0xbbcff621	-0.0063464795
233	0xbe0e72c9	-0.13910975
234	0x3d8574fe	0.06516455
235	0x3e2260ba	0.15857211
236	0xbd928b39	-0.07155461
237	0x3b25511f	0.0025225354
238	0xbb3cecd8	-0.0028827693
239	0xbe0458ff	-0.12924574
240	0xbdbd60a0	-0.092469454
241	0xbe027258	-0.12738931
242	0x3c90b8db	0.017666271
243	0x3d28c05d	0.041199077
244	0xbdf02073	-0.11724939
245	0xbd37748e	-0.04478889
246	0x3d5b76d3	0.053580116
247	0xbd37f7cd	-0.044914056
248	0x3c04eb85	0.008112793
249	0xbb3c4ea7	-0.0028733404
250	0x3b810126	0.0039369045
251	0xbd82efae	-0.063933715
252	0x3e5a2d28	0.21306288
253	0xbd2181f6	-0.03943058
254	0x3dc1564e	0.094402894
255	0xbd94c5c7	-0.072642855

fc1.bias f4 [64]
0	0x3db35148	0.087557375
1	0x3e9b9d02	0.30393225
2	0x3f2c715d	0.6736048
3	0x3d631064	0.055435553
4	0x3e71252e	0.23549339
5	0xbbdd8e7c	-0.00676137
6	0x3f0140a6	0.5048927
7	0x3df68984	0.12037948
8	0x3e8c2a70	0.27376127
9	0xbd0fc873	-0.035103273
10	0x3eed42df	0.4634008
11	0xbc01d0b2	-0.007923292
12	0xbea27390	-0.31728792
13	0x3e971fe4	0.29516518
14	0x3ebb75b3	0.36613235
15	0xbdb474fd	-0.08811376
16	0xbb99e98b	-0.00469703
17	0x3f053e49	0.52048165
18	0x3e1e3f19	0.15453757
19	0x3ea01248	0.31263947
20	0x3ed15d9e	0.40891737
21	0x3e8b53a6	0.27212256
22	0x3eaadda2	0.33372217
23	0xbe0dbb82	-0.1384106
24	0xbc8af6dc	-0.016963415
25	0x3e4956dc	0.1966204
26	0x3e379a88	0.17930043
27	0xbcf7c6a6	-0.03024609
28	0xbd50f99d	-0.0510193
29	0x3dd63f0d	0.10461245
30	0x3e9b5166	0.3033554
31	0x3ecde83d	0.40216246
32	0x3c24c075	0.010055651
33	0x3d5681f0	0.05237001
34	0x3dff86b2	0.12476863
35	0x3e29c901	0.16580583
36	0xbe9feed6	-0.31236905
37	0x3e0b27b1	0.1358936
38	0xbc33e02f	-0.0109787425
39	0x3e6801de	0.22656962
40	0xbc96ad34	-0.018393137
41	0x3f6a82b0	0.91605663
42	0x3e46c9c8	0.19412911
43	0xbb1377cb	-0.0022501822
44	0x3e227b22	0.15867284
45	0x3e5709e7	0.20999871
46	0x3e4f95fb	0.20272057
47	0xbd251689	-0.040304694
48	0xbca47c9d	-0.020078951
49	0x3e53b480	0.20674324
50	0x3e499ecc	0.19689482
51	0xbd836d99	-0.064173885
52	0xbcb9f071	-0.02269766
53	0x3efb20ce	0.49048465
54	0xbe38d249	-0.18048967
55	0xbcb355c2	-0.021891478
56	0x3e681857	0.22665535
57	0x3e7f2cd1	0.2491944
58	0x3e430242	0.1904383
59	0x3e8cabd1	0.27474836
60	0x3daf0246	0.085453555
61	0xbca4331b	-0.0200439
62	0xbd8b9383	-0.06815245
63	0x3e26426a	0.16236272

fc2.weight f4 [32, 64]
0	0xbe0c2509	-0.13686003
1	0x3de59dff	0.11211776
2	0xbe2ea79f	-0.1705613
3	0xbcfbbae9	-0.030728774
4	0xbdbeade4	-0.09310511
5	0x3d8a8e08	0.067653716
6	0xbd8e5942	-0.06950618
7	0xbca749b7	-0.020420892
8	0xbde2e8e2	-0.11079575
9	0xbbb676d4	-0.0055683646
10	0xbdfa0ec2	-0.12209846
11	0xbca18103	-0.019714838
12	0x3e489a55	0.19590123
13	0xbc03b38a	-0.008038411
14	0xbdc94260	-0.09827113
15	0xbeae131c	-0.33998954
16	0x3c84784d	0.016170645
17	0xbda2ae98	-0.07943457
18	0xbb3743fb	-0.0027964104
19	0xbbe81abc	-0.007083265
20	0x3c8a049a	0.016847897
21	0xbd664b31	-0.056224052
22	0x3e7d60fa	0.24744025
23	0xbd5c467a	-0.05377815
24	0xbc1e0b52	-0.009646254
25	0xbd3c32ed	-0.045947004
26	0xbe4b03b1	-0.19825627
27	0xbb988837	-0.00465491
28	0xbcc46e1d	-0.023978287
29	0xbc8ee7a6	-0.017444443
30	0xbd269b37	-0.04067537
31	0xbe5f71f0	-0.21820807
32	0xbe7c02e8	-0.24610484
33	0xbd0b2f54	-0.033980682
34	0x3c984cf2	0.018591378
35	0x3dc0b94b	0.09410342
36	0x3eb88652	0.36039978
37	0xbe654c2c	-0.22392339
38	0x3bc806c4	0.006104322
39	0xbda545f3	-0.080699824
40	0xbb7d19d6	-0.0038620136
41	0xbe43d7d5	-0.19125302
42	0xbe046aaf	-0.12931322
43	0xbcc0746f	-0.02349302
44	0x3cfbd3d7	0.030740662
45	0x3d51e0e5	0.051239867
46	0x3c47dda5	0.01219884
47	0xbb831ff8	-0.0040016137
48	0xbb662fcd	-0.0035123706
49	0xbdb3ad06	-0.08773236
50	0xbd878124	-0.066164285
51	0x3c8ce3b7	0.017198427
52	0x3ce0467f	0.027377365
53	0x3eac8bfd	0.33700553
54	0xbcdbdb54	-0.026837982
55	0x3c50a974	0.012735713
56	0xbda8d567	-0.08243828
57	0xbd324f60	-0.04353273
58	0x3e2d7c53	0.16941957
59	0x3e34d201	0.17658235
60	0xbc93136b	-0.017953595
61	0xbc75e06d	-0.015007121
62	0x3ca2deff	0.019881723
63	0x3d9f1ff3	0.07769766
64	0xbca30f24	-0.01990468
65	0x3da5f6c8	0.081037104
66	0xbd95f828	-0.07322723
67	0xbd00b4c5	-0.031422395
68	0xbdebeaa7	-0.11519366
69	0x3dfa2a28	0.12215072
70	0xbe2c4435	-0.16822894
71	0xbb1a7768	-0.0023569707
72	0xbd9e7b69	-0.07738382
73	0xbccad683	-0.02476049
74	0xbe1015b6	-0.14070782
75	0xbc0f0423	-0.008729014
76	0xbd25c900	-0.04047489
77	0xbdd3efa5	-0.10348443
78	0xbbff2984	-0.0077869315
79	0x3f1ef077	0.6208567
80	0xbc79099e	-0.015200047
81	0x3c845c3b	0.01615726
82	0xbdc59f1b	-0.096494876
83	0xbd014f4b	-0.03156976
84	0x3d357cac	0.04430835
85	0xbe9fe7c2	-0.31231505
86	0x3dd433cc	0.10361442
87	0x3dd59b37	0.104299955
88	0xbcdae08d	-0.026718402
89	0xbd1a41ef	-0.037660535
90	0x3ef4ba32	0.47798306
91	0x3e1efb73	0.15525608
92	0x3cd2f1ad	0.025750006
93	0xbd0fff68	-0.035155684
94	0xbeb282db	-0.3486546
95	0xbe95361d	-0.29142848
96	0xbe930ec1	-0.28722194
97	0xbddb6101	-0.107118614
98	0xbdca0eee	-0.09866129
99	0x3e3ddbd0	0.18540883
100	0xbda98b23	-0.08278491
101	0xbe3e96d7	-0.18612228
102	0xbce3b06b	-0.027794084
103	0xbd25dd7e	-0.040494435
104	0xbb55d636	-0.00326289
105	0xbe978825	-0.29596058
106	0xbe9acd3d	-0.3023471
107	0x3d4d6db0	0.050153434
108	0xbdcaff6d	-0.09912
109	0x3da2b8d2	0.07945408
110	0x3c6525df	0.01398608
111	0x3bafc339	0.0053638485
112	0x3b93d762	0.0045117596
113	0xbe1902e5	-0.1494251
114	0xbd591fec	-0.05300896
115	0xbd03897d	-0.03211354
116	0xbcf9f1bc	-0.030510776
117	0xbddbfbee	-0.10741411
118	0xbd8f0795	-0.06983868
119	0xbad6af79	-0.0016379199
120	0x3c63fd63	0.013915393
121	0xbd24fc33	-0.04027958
122	0x3e381af8	0.17979038
123	0xbe9a9936	-0.30195016
124	0xbcd72ad9	-0.026265549
125	0x3b4ef196	0.0031577102
126	0xbcd379ea	-0.02581497
127	0x3e3c4e05	0.18389137
128	0x3ba41fa1	0.0050086533
129	0xbc40794f	-0.011747672
130	0xbd1f56f5	-0.038901288
131	0x3c382d2b	0.011241238
132	0x3d114d2c	0.035473987
133	0xbc4c5088	-0.012470372
134	0xbd5dc9d1	-0.054147545
135	0x3c41e0b9	0.011833363
136	0xbb76ae8d	-0.0037640661
137	0x3c9e6827	0.019336773
138	0x3c14e286	0.0090872105
139	0x3b13c97b	0.0022550512
140	0x3c62ab77	0.013834826
141	0x3dcbed0c	0.099573225
142	0xbcd9a290	-0.026566774
143	0xbc309120	-0.010776788
144	0x3be81fbb	0.0070838607
145	0x3dc772b3	0.09738674
146	0xbbe3f607	-0.006956819
147	0xbc0d13ee	-0.008610709
148	0xbc9453ea	-0.01810642
149	0xbd0fc508	-0.035100013
150	0x3b61883d	0.003441348
151	0xbcd5c184	-0.026093252
152	0xb8dedec6	-0.0001062728
153	0xbba6f908	-0.005095605
154	0xba0023f7	-0.00048881717
155	0xbb4fb2b0	-0.00316922
156	0xbc84f4fa	-0.016230095
157	0x3c18b0d2	0.009319501
158	0xbdaa6518	-0.08320063
159	0xbd3e664e	-0.046484284
160	0x3d14426a	0.03619615
161	0xbcb14ae6	-0.02164216
162	0x3d1de896	0.03855189
163	0x3c1376ab	0.009000461
164	0x3c9156bc	0.017741553
165	0x3d8b9fd6	0.06817596
166	0x3b2cb060	0.0026350245
167	0xbcc6ff96	-0.024291795
168	0x3c52506e	0.012836559
169	0xbd36e409	-0.044651065
170	0xbbbc5edc	-0.005748613
171	0x3bc20a21	0.0059216176
172	0xbb901e1d	-0.004398121
173	0x3c34e3ca	0.011040637
174	0x3c188e97	0.00931134
175	0xbbb70a09	-0.005585913
176	0xbbfc6ac2	-0.007703156
177	0xba943c16	-0.0011309411
178	0x3b2ecc6c	0.0026672138
179	0x3bd403a7	0.006470162
180	0xbbf8a88e	-0.0075884527
181	0x3da91b29	0.082571335
182	0x3ce1811b	0.027527383
183	0xbc42f7fc	-0.011899944
184	0xbd0f45d3	-0.0349787
185	0xbcb3782d	-0.02190789
186	0x3d537f5d	0.051635135
187	0xbc622be7	-0.013804412
188	0xbc870448	-0.016481534
189	0xbc638afa	-0.013888115
190	0x3c916b01	0.017751219
191	0xbd82a1b5	-0.063784994
192	0xbe5bce7e	-0.2146549
193	0xbe807c6f	-0.25094935
194	0xbe42a323	-0.19007544
195	0x3b40c169	0.0029412156
196	0xbcbac9be	-0.022801276
197	0xbe326210	-0.1742022
198	0x3d1a2bb2	0.037639327
199	0xbbb9af29	-0.0056666327
200	0xbd9f9ba5	-0.07793359
201	0xbc8aa189	-0.01692273
202	0xbe600685	-0.21877487
203	0xbc1becb9	-0.009516888
204	0xbe2ddd5f	-0.16978978
205	0xbce222ea	-0.027604539
206	0xbe34c662	-0.17653802
207	0xbd978e4d	-0.074001886
208	0xbb858f72	-0.004075938
209	0xbdaa28a6	-0.08308534
210	0xbde36c61	-0.11104656
211	0xbe107ac0	-0.14109325
212	0xbe10f0b3	-0.1415432
213	0xbd6af039	-0.057358
214	0xbe99f535	-0.3006989
215	0xbd5ecd07	-0.054394748
216	0x3b38ba1e	0.0028187106
217	0xbd50ffb8	-0.051025122
218	0xbe4e73dd	-0.20161386
219	0xbd281789	-0.04103807
220	0x3bb743f0	0.0055928156
221	0xbd3b4f19	-0.04572973
222	0x3e11194c	0.14169806
223	0xbed6f50e	-0.41983837
224	0xbd1efc18	-0.038814634
225	0x3daa8d03	0.08327677
226	0xbd8d82c6	-0.06909709
227	0xbe8bcd2e	-0.27304977
228	0xbe77be3c	-0.24193662
229	0x3dceab4e	0.100912675
230	0xbb630c46	-0.0034644767
231	0xbd9ae6c2	-0.07563545
232	0xbc8be79c	-0.017078213
233	0x3eabbafc	0.33541095
234	0x3dd954c5	0.10611872
235	0xbd18d494	-0.037312105
236	0x3cf05cce	0.029341128
237	0xbe03f85a	-0.12887707
238	0xbe77c732	-0.2419708
239	0x3c621e18	0.01380112
240	0xba1f6e81	-0.0006081835
241	0x3dab2e5a	0.0835845
242	0xbd849051	-0.06472839
243	0xbd8aea23	-0.06782939
244	0xbc686ae8	-0.014185645
245	0x3d517b6d	0.0511431
246	0xbe03ac20	-0.12858629
247	0x3c80931a	0.015695143
248	0xbe03363c	-0.12813658
249	0xbdd6a3f9	-0.10480494
250	0xbe6623fc	-0.22474664
251	0x3d7f7905	0.062371273
252	0x3cd9b148	0.026573792
253	0xbbe0405a	-0.006843609
254	0xbd26300c	-0.040573165
255	0xbc36f1f5	-0.0111660855

fc2.bias f4 [32]
0	0x3ea0f08d	0.31433526
1	0xbdf9c582	-0.12195875
2	0xbd9632f9	-0.07333941
3	0x3f3093c0	0.6897545
4	0xbe81b0d1	-0.25330213
5	0x3ebcca87	0.36873266
6	0xbd086a68	-0.033304602
7	0x3e2704ec	0.16310471
8	0x3da5a1eb	0.08087524
9	0x3dcca641	0.09992648
10	0xbcfba07f	-0.030716179
11	0x3e8cfb41	0.27535442
12	0xbc5c2d90	-0.013438597
13	0xbce5bf98	-0.02804546
14	0xbbfdafbb	-0.007741896
15	0xbd8baf97	-0.068206005
16	0xbc9090f2	-0.01764724
17	0x3e80b7e7	0.25140306
18	0xbc204cc6	-0.009783929
19	0xbcee5154	-0.029091515
20	0x3f14177e	0.57848346
21	0x3e833851	0.25628904
22	0x3e9352ee	0.28774208
23	0xbdd297a0	-0.102828264
24	0xbcc095ba	-0.023508895
25	0xbcbaac6a	-0.022787292
26	0x3e5d1f51	0.21593978
27	0x3f2aa49d	0.6665743
28	0x3dc45f9d	0.09588549
29	0xbc93bfb1	-0.018035742
30	0xbde6bb3d	-0.112661816
31	0xbca8cdce	-0.020605948

fc3.weight f4 [5, 32]
0	0x3da18533	0.07886734
1	0x3d879e88	0.06622034
2	0x3d170dfa	0.036878563
3	0xbf651ed4	-0.89500165
4	0x3f367078	0.71265364
5	0xbf4e462d	-0.8057583
6	0xbbfcc08b	-0.0077133826
7	0xbe78bf2f	-0.24291681
8	0x3f20b560	0.62776756
9	0x3e88862d	0.26664868
10	0xba249e3b	-0.00062796817
11	0xbf40c959	-0.7530723
12	0x3a26fe7c	0.00063703186
13	0x3e100fd6	0.14068541
14	0x3cc90431	0.024538131
15	0x3ea448a0	0.32086658
16	0x3c3328aa	0.010934988
17	0x3efd2acf	0.49446723
18	0x3b859a73	0.0040772497
19	0xbc6458be	-0.013937173
20	0xbf8d977b	-1.1061853
21	0xbe885991	-0.26630834
22	0xbe28d45a	-0.16487256
23	0x3dc5aa1d	0.09651587
24	0xbcc82e24	-0.024436064
25	0xbc735f0f	-0.014854207
26	0x3d355267	0.044268038
27	0xbea2bf43	-0.31786546
28	0x3e0bb11b	0.13641779
29	0x3cae66fb	0.02128934
30	0x3e511c57	0.20420967
31	0xbc52f17e	-0.012874959
32	0x3ece2767	0.40264437
33	0xbb869dfc	-0.0041081887
34	0x3c3ccd14	0.011523504
35	0x3d0a727d	0.03380059
36	0xbe89b91e	-0.26899046
37	0x3e9e88e7	0.30963823
38	0xbca19b6a	-0.019727428
39	0x3edf49ac	0.43610895
40	0x3cb11f71	0.021621438
41	0xbe393174	-0.18085271
42	0xbc39c10d	-0.011337531
43	0xbdbaeeda	-0.091275886
44	0xbbeb08cd	-0.00717268
45	0xbe97670a	-0.295708
46	0x3c293f17	0.010329983
47	0xbe57859b	-0.2104706
48	0x3c7e8bcf	0.015536263
49	0xbdfea43f	-0.12433671
50	0x3d4d408b	0.05011038
51	0xbc2ffee7	-0.010741926
52	0x3f0488b8	0.51771116
53	0xbe1cad48	-0.15300477
54	0xbe62afb2	-0.22137335
55	0xbe345264	-0.17609555
56	0xbb218495	-0.0024645675
57	0xbb3781bc	-0.0028000912
58	0xbd731e32	-0.05935497
59	0xbd878a95	-0.06618229
60	0xbec6d42f	-0.38833758
61	0xbb543713	-0.003238146
62	0x3e18cd42	0.1492205
63	0xbbc04788	-0.005867902
64	0xbd99a8b5	-0.075028814
65	0xbf0770d3	-0.5290653
66	0xbe1aa957	-0.1510366
67	0x3eb924b5	0.36160818
68	0xbea8079c	-0.32818305
69	0x3cfebc69	0.0310957
70	0x3c945700	0.018107891
71	0xbe83d4d4	-0.25748312
72	0xbd209c2a	-0.03921143
73	0x3dda987a	0.10673614
74	0xbc2e2c5f	-0.010630696
75	0x3f0c93d2	0.54913056
76	0x3c8ddefc	0.017318241
77	0xba4a20be	-0.00077105674
78	0xbc94d7b4	-0.018169262
79	0x3d5aaf39	0.05338976
80	0x3cc5a7ae	0.024127807
81	0x3ed70c26	0.42001456
82	0x3cdcee07	0.026968969
83	0xbcd09f02	-0.025466446
84	0x3eca1d68	0.3947556
85	0x3da66215	0.081241764
86	0x3e5c9daa	0.21544519
87	0x3d874da2	0.06606604
88	0xbc6368da	-0.013879979
89	0xbaaeea9f	-0.0013345069
90	0x3eacfd7e	0.3378715
91	0x3f389782	0.7210618
92	0x3e8f2275	0.27955976
93	0x3ca5fb62	0.02026147
94	0xbec4488d	-0.38336602
95	0xb90185d3	-0.00012352252
96	0x3d82f873	0.06395044
97	0x3f349bca	0.70550215
98	0xbcc503aa	-0.024049599
99	0xbd71be03	-0.0590191
100	0xbeaedc9c	-0.34152687
101	0x3eb60eb1	0.35558084
102	0x3c8e9d0b	0.017408868
103	0xbe49d748	-0.1971103
104	0x3da74358	0.08167142
105	0xbe9e87c4	-0.30962956
106	0x3c81a12f	0.015823929
107	0xbdb21200	-0.086948395
108	0x3c7ea851	0.015543059
109	0x3e78a4f9	0.24281682
110	0x3c74fbe5	0.014952634
111	0xbe688bb3	-0.22709541
112	0xbc756cda	-0.0149795655
113	0xbea589dc	-0.3233174
114	0x3d4ee0e9	0.05050746
115	0xbc124edd	-0.008929935
116	0x3f226b30	0.63444805
117	0xbea96750	-0.33086634
118	0x3de9de71	0.114193805
119	0xbe26cedb	-0.16289847
120	0xbcba3feb	-0.022735557
121	0xbc9346a3	-0.017978018
122	0x3e93171d	0.28728572
123	0xbd8eec39	-0.0697865
124	0xbe20b9b8	-0.15695846
125	0xbcaef012	-0.021354709
126	0x3e3bd2f2	0.18342188
127	0xbc242caf	-0.010020419
128	0xbefe5025	-0.4967052
129	0xbe83cb47	-0.25741026
130	0x3d7e73b3	0.062122058
131	0x3f116cc6	0.568066
132	0x3e7b0e8f	0.24517272
133	0x3da1353f	0.07871484
134	0x3a689ea9	0.000887374
135	0x3ea983f2	0.3310848
136	0xbf252b89	-0.64519554
137	0x3e167cda	0.14696065
138	0xbc7cb18c	-0.01542319
139	0x3ec2f269	0.3807557
140	0xbc62abf2	-0.01383494
141	0xbddbd0e2	-0.107332006
142	0x3cbb8aac	0.022893272
143	0x3c105d8a	0.008811364
144	0x3c8c92ca	0.017159838
145	0xbee82fd4	-0.4534899
146	0xbdfa0d2a	-0.12209542
147	0xbc2730b8	-0.010204487
148	0xbec695b9	-0.38786104
149	0x3f260155	0.6484578
150	0x3cd011e4	0.025399156
151	0x3e314247	0.17310439
152	0xbc7dec7e	-0.015498279
153	0xbc9682a9	-0.01837285
154	0xbf24af66	-0.64330137
155	0xbea11520	-0.3146143
156	0x3dc5c59d	0.09656832
157	0x3c869df0	0.016432732
158	0xbe313980	-0.17307091
159	0x3cb34a8c	0.021886133

fc3.bias f4 [5]
0	0xbe506132	-0.20349577
1	0x3e9cd20d	0.30629006
2	0xbeb6afa6	-0.35680884
3	0x3e3d489b	0.18484728
4	0x3d1e70fb	0.038681965
