Assignment_1/1/CNN_Layers/Models/2CNN/model-12.pth (torch_old, 882610 bytes, 10 tensors)

conv1.weight f4 [64, 3, 5, 5]
0	0x3e017a41	0.12644292
1	0x3da373a1	0.07981039
2	0x3c71815c	0.014740314
3	0xbc44afbb	-0.012004788
4	0x3d506b93	0.05088384
5	0x3d935e2c	0.07195696
6	0x3d56b998	0.05242309
7	0x3d01cab9	0.031687472
8	0x3d3262fd	0.043551434
9	0x3dd655ac	0.10465559
10	0x3c2ade4e	0.010428978
11	0x3c0f9ebd	0.0087658735
12	0x3cc69a7d	0.024243588
13	0x3d4e470d	0.050360728
14	0x3da41fd3	0.080138825
15	0xbbf81ada	-0.0075715603
16	0xbb8d1908	-0.0043059625
17	0x3b35f491	0.002776418
18	0xbae6978a	-0.001759277
19	0xbc9b145c	-0.018930607
20	0x3cde928f	0.027169494
21	0x3c6063cd	0.013695669
22	0xbc7562f1	-0.014977203
23	0xbd86c6b9	-0.06580872
24	0xbe017ee2	-0.12646058
25	0xbe556573	-0.20839481
26	0xbe569a78	-0.20957363
27	0xbe44f4e5	-0.19234045
28	0xbde0500e	-0.10952769
29	0x3d9f236d	0.07770429
30	0xbe82af39	-0.2552431
31	0xbe641e7a	-0.22277251
32	0xbe0dde89	-0.13854422
33	0xbb813dcc	-0.0039441343
34	0x3e4427c8	0.191558
35	0xbe8dfeb9	-0.277334
36	0xbe5bf9da	-0.2148203
37	0xbdbfcc51	-0.09365142
38	0x3d885648	0.06657082
39	0x3e75c5e1	0.24001266
40	0xbe649f21	-0.22326328
41	0xbe1f78f0	-0.15573478
42	0xbd404577	-0.046941247
43	0x3da3f844	0.08006337
44	0x3e537265	0.20649107
45	0xbde0fc03	-0.109855674
46	0xbd808dbc	-0.06277034
47	0x3b0ee784	0.0021805475
48	0x3d92e79c	0.07173082
49	0x3e163e32	0.14672163
50	0xbe6281ab	-0.22119777
51	0xbe4a661d	-0.19765516
52	0xbe2570c8	-0.16156304
53	0xbd821c06	-0.06353001
54	0x3e0471fc	0.12934107
55	0xbe77fe58	-0.24218118
56	0xbe3eb0d4	-0.18622142
57	0xbdb3a173	-0.08771028
58	0x3d6dff97	0.058105078
59	0x3e85e9cb	0.26154932
60	0xbe6df80f	-0.23239158
61	0xbe16a060	-0.14709616
62	0xbc698aa4	-0.014254246
63	0x3e195eae	0.14977524
64	0x3ea8ed63	0.32993612
65	0xbe0ef4ea	-0.13960615
66	0xbd52df8c	-0.051482722
67	0x3d8e1ea4	0.06939438
68	0x3e4d87c5	0.20071323
69	0x3ea7e287	0.32790014
70	0x3c97915a	0.018501926
71	0x3dab59d5	0.083667435
72	0x3e239687	0.1597539
73	0x3e74c692	0.23903874
74	0x3ea1a9a4	0.31574738
75	0xbe1b3c8a	-0.15159813
76	0x3cb23432	0.021753404
77	0x3e066d86	0.13127717
78	0x3e1f9616	0.15584597
79	0x3e0f81e7	0.14014398
80	0xbd75b2dd	-0.05998503
81	0x3e0df541	0.13863088
82	0x3e8131c9	0.25233296
83	0x3e802153	0.25025424
84	0x3e4bfd72	0.199209
85	0xbbf2f681	-0.0074146395
86	0x3e496c3b	0.19670193
87	0x3e95f9cd	0.29292145
88	0x3e895e64	0.26829827
89	0x3e43250a	0.19057098
90	0x394bc1a3	0.00019431724
91	0x3e38e167	0.18054734
92	0x3e83a17c	0.2570914
93	0x3e62a713	0.22134046
94	0x3e10aa30	0.14127421
95	0xbd379f03	-0.04482938
96	0x3db88700	0.09010124
97	0x3e1d43b7	0.15357862
98	0x3e0772f6	0.13227448
99	0x3d93d9fd	0.07219312
100	0xbeb799b4	-0.35859454
101	0xbe823803	-0.2543336
102	0xbe258a5e	-0.16166064
103	0xbdd0c44d	-0.101936914
104	0xbcfc6f38	-0.030814752
105	0xbecafb63	-0.39644918
106	0xbe93b3bc	-0.28848064
107	0xbe4b938d	-0.19880505
108	0xbe1f7c49	-0.15574755
109	0xbdd35fa4	-0.103209764
110	0xbed05528	-0.4068997
111	0xbe9d06f7	-0.30669376
112	0xbe73c82c	-0.23806828
113	0xbe59c81f	-0.21267746
114	0xbe317eb0	-0.17333484
115	0xbec3beef	-0.38231608
116	0xbe9aa757	-0.30205795
117	0xbe805af1	-0.25069383
118	0xbe77cebb	-0.24199955
119	0xbe51593e	-0.204442
120	0xbeb33643	-0.35002336
121	0xbe962521	-0.29325202
122	0xbe7f686e	-0.2494218
123	0xbe6b895d	-0.23001619
124	0xbe3ec13a	-0.18628398
125	0x3c15b627	0.009137667
126	0x3dc09f7d	0.0940542
127	0x3e23f37e	0.16010854
128	0x3e413aae	0.18870041
129	0x3e6f11d4	0.23346645
130	0xbc351a8e	-0.011053694
131	0x3daffb2d	0.0859283
132	0x3e1f3bf5	0.15550216
133	0x3e34adf6	0.17644486
134	0x3e4e7706	0.20162591
135	0xbbd2efa3	-0.0064372583
136	0x3db1e338	0.08685917
137	0x3e18ca48	0.14920914
138	0x3e1da69e	0.1539559
139	0x3e2b8055	0.16748174
140	0x3c6312ab	0.013859431
141	0x3db85ec1	0.09002448
142	0x3e0d55e7	0.138023
143	0x3e0e06cd	0.13869782
144	0x3e1ee87e	0.15518376
145	0x3d0dae5a	0.034590103
146	0x3dbbf07a	0.09176727
147	0x3e0c06cc	0.13674468
148	0x3e1a3412	0.15058926
149	0x3e342b1a	0.17594567
150	0xbd8f4b31	-0.069967635
151	0xbd9c0b62	-0.076193586
152	0xbd822545	-0.06354765
153	0xbd0e3c0f	-0.034725245
154	0x3b830c25	0.0039992505
155	0xbd9ea246	-0.07745795
156	0xbdb8b459	-0.090187736
157	0xbd857316	-0.065160915
158	0xbc9cf864	-0.01916141
159	0x3ce1912b	0.027535042
160	0xbd9793cd	-0.07401238
161	0xbda9a987	-0.08284288
162	0xbd5b821d	-0.053590883
163	0xb8e42a5d	-0.00010879778
164	0x3d3a6928	0.04551044
165	0xbd71e155	-0.059052784
166	0xbd82e8e9	-0.0639208
167	0xbd1144bf	-0.035465952
168	0x3c1c2ccf	0.009532168
169	0x3d318e25	0.04334845
170	0xbd1de525	-0.038548607
171	0xbd2bda00	-0.041955948
172	0xbcaf3ae2	-0.021390382
173	0x3c3d45b9	0.011552268
174	0x3d157d80	0.03649664
175	0xbd837df7	-0.0642051
176	0xbd45d0aa	-0.0482947
177	0xbcb33e82	-0.021880392
178	0x3ae446a0	0.0017416067
179	0x3c60f838	0.013731055
180	0xbd8880ab	-0.066651665
181	0xbd4be764	-0.04978122
182	0xbbf4712e	-0.007459781
183	0x3d14c4bc	0.036320433
184	0x3d754ff1	0.05989069
185	0xbd7e08b8	-0.062020034
186	0xbd2e9592	-0.04262311
187	0x3c14a843	0.00907332
188	0x3d80f75c	0.0629718
189	0x3dadf671	0.084942706
190	0xbd52b717	-0.05144414
191	0xbcdd3100	-0.027000904
192	0x3ccbc7f4	0.024875619
193	0x3d922e4b	0.07137736
194	0x3db1f5b8	0.08689445
195	0xbd1c5620	-0.038168073
196	0xbc64d503	-0.013966802
197	0x3cd6d2f5	0.026223639
198	0x3d70ce03	0.058790218
199	0x3d8b328a	0.06796749
200	0xbd0dd41d	-0.034626115
201	0xb9e2d87d	-0.00043267375
202	0x3d234ed9	0.039870117
203	0x3d6f1dd8	0.05837807
204	0x3d4d41cc	0.050111577
205	0xbca0548f	-0.01957157
206	0x3c9e9d4d	0.019362116
207	0x3d912e13	0.07088866
208	0x3ddfd3c0	0.1092906
209	0x3dde989a	0.1086895
210	0xba8857d0	-0.0010402147
211	0x3d2f125f	0.04274213
212	0x3dd41107	0.1035481
213	0x3e1a8291	0.1508887
214	0x3e1262fc	0.14295572
215	0x3c7097ae	0.014684601
216	0x3d7dbc5b	0.061947208
217	0x3df4e46b	0.1195763
218	0x3e227870	0.15866256
219	0x3e155871	0.14584519
220	0x3ccb4396	0.0248125
221	0x3d8529a5	0.06502084
222	0x3dea7299	0.11447639
223	0x3e0dc640	0.13845158
224	0x3defb7fd	0.11705015
225	0xbcc58cde	-0.024115022
226	0x3ddbe34c	0.10736713
227	0x3df27b37	0.118399076
228	0x3d7e3a28	0.06206718
229	0x3d49e480	0.04929018
230	0xbd3989cd	-0.045297433
231	0x3deb67f4	0.11494437
232	0x3e0ec371	0.13941742
233	0x3da05b45	0.07829908
234	0x3d8d22dc	0.068914145
235	0xbd222762	-0.03958834
236	0x3de43ed2	0.111447945
237	0x3e07354d	0.13203926
238	0x3d9aed3c	0.0756478
239	0x3d8a01cc	0.06738624
240	0xbcad937d	-0.021188492
241	0x3dbc0c9c	0.091820925
242	0x3dc866f1	0.097852595
243	0x3d3634bd	0.04448389
244	0x3d0b5186	0.034013294
245	0xbb0c3d27	-0.0021398754
246	0x3d899a14	0.06718841
247	0x3d816ebb	0.06319948
248	0x3c8a2866	0.016864967
249	0xbb2b2152	-0.002611239
250	0xbe62ebcb	-0.2216026
251	0xbd7fe1e9	-0.062471304
252	0xbbb02eb6	-0.005376662
253	0x3a8b4909	0.0010626625
254	0x3d654cdc	0.055981502
255	0xbe9dbd0b	-0.3080829

conv1.bias f4 [64]
0	0xbe8eae82	-0.27867514
1	0xbf1a4ba8	-0.6027169
2	0xbe6c6ea8	-0.23089087
3	0xbeb459f6	-0.35224885
4	0xbf9b6c2d	-1.2142388
5	0xbe665299	-0.22492446
6	0xbf865fd1	-1.0497991
7	0xbebc7316	-0.36806554
8	0xbf243a84	-0.6415179
9	0xbede1d74	-0.43381846
10	0xbf3a7d11	-0.72847086
11	0xbe403387	-0.18769656
12	0xbf2ab5b9	-0.66683537
13	0x3e734151	0.23755385
14	0xbe78f965	-0.24313886
15	0xbecfaece	-0.40563053
16	0xbeadfffb	-0.3398436
17	0x3c0df90a	0.008665333
18	0xbdb715b2	-0.08939685
19	0xbf333f17	-0.7001814
20	0xbe6ac9eb	-0.22928588
21	0xbe80d358	-0.25161242
22	0xbed03b53	-0.4067026
23	0xbf14b7d7	-0.5809302
24	0xbfa7bd6e	-1.3104684
25	0xbe52f196	-0.2059997
26	0xbe2177b5	-0.15768321
27	0xbddcac6a	-0.10775073
28	0xbf4a5c56	-0.79047143
29	0xbbf8e5e6	-0.0075957654
30	0xbf05d98f	-0.52285093
31	0xbe8d4383	-0.2759057
32	0xbf2034df	-0.62580675
33	0xbeef89a5	-0.46784702
34	0xbf8831fd	-1.0640255
35	0xbeeb6a52	-0.45979553
36	0xbe98fd59	-0.2988079
37	0xbea6f440	-0.32608223
38	0xbe0d6c53	-0.13810854
39	0xbebd9177	-0.37025043
40	0xbf233de6	-0.63766325
41	0xbee61171	-0.44935182
42	0xbead1c3f	-0.33810613
43	0xbeb13200	-0.3460846
44	0xbf87b874	-1.0603166
45	0xbfd83f21	-1.6894265
46	0xbdbc569c	-0.09196207
47	0xbe766926	-0.24063548
48	0xbe44cf56	-0.19219717
49	0xbef14009	-0.47119167
50	0xbef631b1	-0.48084787
51	0xbe83fda0	-0.25779438
52	0xbf046715	-0.5171979
53	0xbf0bee13	-0.5466015
54	0xbe948466	-0.29007262
55	0xbf0333fb	-0.5125119
56	0xbe5ce9cd	-0.21573563
57	0xbeda38d6	-0.42621487
58	0xbe34f8b5	-0.17672999
59	0xbea9529c	-0.33070838
60	0xbe968658	-0.2939937
61	0xbf156a8d	-0.5836571
62	0xbe22625b	-0.15857832
63	0xbfc1dde2	-1.5145838

conv2.weight f4 [128, 64, 5, 5]
0	0xbcc695ae	-0.024241295
1	0xbd284408	-0.041080505
2	0xbd51e40b	-0.05124287
3	0xbd2ea9bd	-0.042642344
4	0xbda219b4	-0.07915059
5	0xbcd73817	-0.026271863
6	0xbd3fa005	-0.046783466
7	0xbd324681	-0.04352427
8	0xbce8c4d1	-0.028414162
9	0xbd9ff924	-0.07811192
10	0xbce7852a	-0.02826174
11	0xbd0765ae	-0.033055954
12	0xbd0f31af	-0.03495949
13	0xbce738d1	-0.028225334
14	0xbd9ee678	-0.07758802
15	0xbccbb408	-0.024866119
16	0xbcf114c4	-0.029428847
17	0xbccf8bff	-0.02533531
18	0xbcec5092	-0.028847013
19	0xbd993aea	-0.0748194
20	0xbcaa5759	-0.020793604
21	0xbd075315	-0.033038218
22	0xbcc7186e	-0.024303641
23	0xbca49d78	-0.020094618
24	0xbd9900cb	-0.07470854
25	0xbd1c326b	-0.03813402
26	0xbd614a6f	-0.055002626
27	0xbd8cb911	-0.06871236
28	0xbd77de13	-0.06051452
29	0xbd883330	-0.06650388
30	0xbd1523ee	-0.03641122
31	0xbd363699	-0.044485662
32	0xbd4936e3	-0.04912461
33	0xbd4f1151	-0.050553624
34	0xbd63f025	-0.05564894
35	0xbcf63924	-0.030056544
36	0xbd0153c6	-0.031574033
37	0xbd13eaa4	-0.036112443
38	0xbd3248d1	-0.043526474
39	0xbd481591	-0.048848692
40	0xbca9b40f	-0.020715741
41	0xbcd01f84	-0.025405653
42	0xbcd99713	-0.026561296
43	0xbd0be319	-0.034152124
44	0xbd420c84	-0.047375217
45	0xbcbad9a7	-0.022808863
46	0xbd0b75ec	-0.034048006
47	0xbcb4ab3b	-0.022054305
48	0xbcc2b623	-0.02376849
49	0xbd2655d6	-0.040609203
50	0xbcc1a754	-0.023639359
51	0xbc90cfb5	-0.017677167
52	0xbca792e9	-0.020455794
53	0xbcaeeb4e	-0.021352436
54	0xbd195d4b	-0.037442487
55	0xbc9e9cdd	-0.019361908
56	0xbc86b234	-0.016442396
57	0xbca87835	-0.020565132
58	0xbc97a372	-0.018510554
59	0xbd0acd4d	-0.033887196
60	0xbca29822	-0.019847933
61	0xbc90825c	-0.017640285
62	0xbc9d171a	-0.019176055
63	0xbc9451b3	-0.018105363
64	0xbd0baa53	-0.03409798
65	0xbc95c5df	-0.018282829
66	0xbc82ed34	-0.015982248
67	0xbc86ff2e	-0.016479101
68	0xbc9c3b37	-0.019071205
69	0xbd0ffbe5	-0.035152335
70	0xbc0d9784	-0.008642081
71	0xbc40ed24	-0.011775289
72	0xbc649b63	-0.013953063
73	0xbcb8dc06	-0.022565853
74	0xbd11a212	-0.035554953
75	0xbd580cd6	-0.052746616
76	0xbd5ce2cd	-0.05392723
77	0xbd8dcd35	-0.06923906
78	0xbd980bae	-0.07424103
79	0xbdd23eca	-0.10265882
80	0xbd277bef	-0.040889677
81	0xbd29ceba	-0.041456915
82	0xbd47abca	-0.048747815
83	0xbd3de770	-0.046363294
84	0xbd92ea17	-0.07173555
85	0xbd06761e	-0.03282749
86	0xbce5028e	-0.02795532
87	0xbcbdc5e1	-0.023165645
88	0xbcd907b8	-0.026492938
89	0xbd46b8fb	-0.048516255
90	0xbcdb08c7	-0.026737584
91	0xbcb1f0bb	-0.021721235
92	0xbb940c50	-0.0045180693
93	0xbb1c8926	-0.0023885458
94	0xbd11da9d	-0.035608876
95	0xbca900dc	-0.020630293
96	0xbce69206	-0.028145801
97	0x3a5a9cb9	0.00083393935
98	0x3c5b8c19	0.013400101
99	0xbcc8ebd2	-0.02452651
100	0xbd6df2dc	-0.058092937
101	0xbd7a5ebb	-0.0611255
102	0xbd8ca47d	-0.06867311
103	0xbd926089	-0.07147319
104	0xbdd5855b	-0.10425826
105	0xbd546d6c	-0.051862165
106	0xbd5ef2c8	-0.054430753
107	0xbd813fc4	-0.063109905
108	0xbd15e5e2	-0.036596186
109	0xbd662866	-0.05619087
110	0xbd2c0d1d	-0.042004693
111	0xbd21e357	-0.03952345
112	0xbd347b01	-0.04406262
113	0xbcb555e4	-0.022135682
114	0xbccb37c5	-0.024806866
115	0xbd1a1f49	-0.037627492
116	0xbd0f45d8	-0.034978718
117	0xbc81d1d1	-0.015847119
118	0xb98e0e6d	-0.000270951
119	0xbc9f6b6e	-0.019460406
120	0xbd5d9622	-0.054098256
121	0xbd500930	-0.050790012
122	0xbc16b523	-0.00919846
123	0x3c97d37a	0.018533457
124	0xbac21900	-0.0014808476
125	0xbc64d924	-0.013967786
126	0xbc8dbe0e	-0.01730254
127	0xbcd2614d	-0.025681162
128	0xbce0cffe	-0.027442928
129	0xbd229078	-0.039688557
130	0xbc2cf284	-0.010555867
131	0xbc8af7b0	-0.01696381
132	0xbca7f018	-0.020500228
133	0xbca09eb4	-0.019606926
134	0xbcfdd0ec	-0.03098341
135	0xbc176e1b	-0.00924256
136	0xbc758a35	-0.014986564
137	0xbc80d14b	-0.015724799
138	0xbc6cac4b	-0.014445375
139	0xbcbe750c	-0.023249172
140	0xbc010691	-0.007875101
141	0xbc3c1a69	-0.011480906
142	0xbc3834b2	-0.011243032
143	0xbc30e667	-0.01079712
144	0xbca3f6fe	-0.020015236
145	0xbb933c73	-0.00449329
146	0xbc1693dc	-0.009190526
147	0xbc0e1430	-0.008671805
148	0xbc0fc39c	-0.008774664
149	0xbc95c3b3	-0.018281793
150	0xbcde8faf	-0.027168123
151	0xbcc59b7f	-0.024121998
152	0x3cc0f55d	0.023554498
153	0x3d504307	0.050845172
154	0x3d9d1d2a	0.07671578
155	0xbd5a85be	-0.053350203
156	0xbd4f4825	-0.05060591
157	0x3c032872	0.008005248
158	0x3cefe740	0.029285073
159	0x3d442d3e	0.04789471
160	0xbd3e7fdf	-0.046508666
161	0xbd4c97aa	-0.049949326
162	0xba908be8	-0.0011028023
163	0x3cdc2eac	0.026877724
164	0x3d11b5d5	0.0355738
165	0xbcfc0044	-0.030761845
166	0xbd159052	-0.036514588
167	0xbb2c9ff5	-0.002634046
168	0x3bccc29e	0.006248786
169	0x3ce04f25	0.027381489
170	0x3c026c24	0.007960353
171	0x3bb6c2f1	0.005577438
172	0x3b9ddc04	0.0048174877
173	0xbc94f468	-0.018182948
174	0x3c8d62e5	0.01725907
175	0xbc19d99c	-0.009390261
176	0xbca90058	-0.020630047
177	0xbc99d55a	-0.018778492
178	0xbc9435ab	-0.018091997
179	0xbce0e4c1	-0.027452828
180	0xbc9d013f	-0.019165633
181	0xbc97b91a	-0.01852088
182	0xbc5423a8	-0.012947954
183	0xbc162483	-0.0091639785
184	0xbc63187b	-0.013860817
185	0xbca1d6ee	-0.019755807
186	0xbc3d10b4	-0.011539627
187	0xbc04d5c8	-0.00810761
188	0xbb8c891c	-0.0042888056
189	0xbbf8f9d4	-0.007598141
190	0xbc7be756	-0.015374979
191	0xbc1212dd	-0.00891563
192	0xbbe137a4	-0.006873088
193	0xbbc570c5	-0.006025406
194	0xbc47dabe	-0.012198148
195	0xbc8496a4	-0.016185112
196	0xbc356ee0	-0.011073798
197	0xbc1d22e1	-0.009590835
198	0xbc213c6d	-0.009841067
199	0xbc6b2d20	-0.01435402
200	0xbba915b5	-0.0051600584
201	0xbc2c0217	-0.010498545
202	0x3a4acd3b	0.000773627
203	0xbc56c4bc	-0.013108429
204	0xbc99803f	-0.01873791
205	0xbcc60805	-0.024173746
206	0xbbd95281	-0.0066321497
207	0x3bf16643	0.007366927
208	0xbc67e6e2	-0.014154168
209	0xbd0ef666	-0.034902953
210	0xbc886df7	-0.016653998
211	0xbbaf5458	-0.0053506307
212	0xbbd3fed7	-0.0064695883
213	0xbc4b8723	-0.012422356
214	0xbcbcae10	-0.023032218
215	0xbbb3d970	-0.005488567
216	0x3bf7e968	0.007565666
217	0x3b5bca04	0.0033537159
218	0xbcb89982	-0.022534136
219	0xbcc8699a	-0.024464417
220	0x3c00aa42	0.007853093
221	0x3cd66561	0.026171388
222	0x3c5461b1	0.012962745
223	0xbce7f6f5	-0.028316
224	0xbcc204c9	-0.023683922
225	0x3cd3b3e1	0.025842609
226	0x3c212149	0.009834596
227	0xbc1d2fc0	-0.009593904
228	0xbc90044b	-0.017580172
229	0xbcc0b525	-0.023523876
230	0xbb186c9b	-0.0023258093
231	0xbccb109f	-0.024788199
232	0xbc7e83c1	-0.015534342
233	0xbc15e1a1	-0.009148032
234	0xbc1b3e75	-0.00947534
235	0xbd0aecae	-0.03391712
236	0xbcdeff4b	-0.027221343
237	0xbc578b44	-0.013155762
238	0xbbf0d819	-0.0073499796
239	0xbbfcdcac	-0.007716736
240	0xbd44e57b	-0.048070412
241	0xbcea9b0f	-0.02863839
242	0xbc03a0ee	-0.008033974
243	0xbb2d8e73	-0.0026482611
244	0xbbb030e0	-0.00537692
245	0xbd8cf48f	-0.06882583
246	0xbd0a51e1	-0.033769492
247	0xbb8355b9	-0.0040080217
248	0x3b75792f	0.0037456264
249	0x3aa58cb7	0.0012630437
250	0x3dfbde40	0.1229825
251	0xbd897fd5	-0.06713835
252	0xbd8389db	-0.06422778
253	0xbd5b6885	-0.053566474
254	0xbd22514f	-0.039628323
255	0x3de3a1ed	0.11114869

conv2.bias f4 [128]
0	0xbe9fb3ac	-0.31191766
1	0x3cbefb28	0.02331312
2	0x3eafcdf9	0.34336832
3	0x3c727dab	0.014800469
4	0xbcf59018	-0.029975936
5	0xbe1b6f5e	-0.15179202
6	0xbe215499	-0.15754928
7	0xbdb41cdb	-0.08794566
8	0xbd7aa8ba	-0.061196066
9	0x3deabf7f	0.11462306
10	0x3d04b5e2	0.03240002
11	0x3a34de7c	0.0006899608
12	0xbe32eca3	-0.17473082
13	0xbe2042e3	-0.15650515
14	0x3dbcce61	0.09219051
15	0x3d4d1be6	0.050075434
16	0xbd8854e6	-0.06656818
17	0xbd1bb5a4	-0.038015023
18	0xb9e23b22	-0.00043150136
19	0xbd0a3b74	-0.033748105
20	0xbb86a39e	-0.00410886
21	0x3dd30485	0.103035964
22	0xbe243b84	-0.16038328
23	0x3d4f6643	0.050634634
24	0xbb7f85ba	-0.003898962
25	0xbdd0398b	-0.101672255
26	0xbd84a993	-0.06477656
27	0x3e947a0e	0.2899937
28	0xbb8ac1cd	-0.0042345286
29	0xbcbb8335	-0.022889713
30	0xbd15b50c	-0.036549613
31	0x3d1cf958	0.03832373
32	0xba1bfa58	-0.0005950085
33	0xbdc867bb	-0.0978541
34	0x3d95366d	0.072857715
35	0xbe883f66	-0.2661087
36	0xbae8abc8	-0.001775139
37	0xbda87cc9	-0.08226926
38	0xbcdb8d10	-0.026800662
39	0xbd7d169c	-0.06178914
40	0xbdc26785	-0.09492401
41	0xbb026824	-0.0019898498
42	0xbe364cb9	-0.17802705
43	0xbde0c4fc	-0.10975072
44	0x3d4b6bc9	0.04966334
45	0x3d3b2287	0.045687225
46	0x3a78a0ae	0.00094843924
47	0xb8e17405	-0.000107504464
48	0xbde3fa0d	-0.11131678
49	0x3ea9a45f	0.33133218
50	0xbe554964	-0.20828778
51	0xbdd4fd10	-0.1039983
52	0xbe397e47	-0.18114577
53	0xbe11c231	-0.14234234
54	0xbe18dcd3	-0.14927988
55	0xbb25f803	-0.0025324828
56	0x3c63378c	0.013868224
57	0x3b89d638	0.004206445
58	0x3c86098e	0.016361978
59	0x3eb68404	0.35647595
60	0x3e3e79b7	0.18601118
61	0xb9889170	-0.000260483
62	0xbddf5a53	-0.109059
63	0xbec622ba	-0.3869837
64	0x3c803457	0.015649958
65	0xbce8064c	-0.028323315
66	0xbd31f38c	-0.043445155
67	0x3a9fc057	0.0012188059
68	0xbe57c9f8	-0.21073139
69	0xbdc85e9b	-0.097836696
70	0x3dae4892	0.085099354
71	0x3e815fc2	0.2526837
72	0x3b0be9ae	0.0021349
73	0xbc4d0dfd	-0.012515542
74	0x3ed99093	0.42493114
75	0xbee4a33d	-0.4465579
76	0xbee72ade	-0.45149893
77	0x3d9f9c38	0.07793468
78	0xbd84264f	-0.06452619
79	0xb9571d76	-0.00020514973
80	0xbe00b102	-0.12567523
81	0xbbc36d2f	-0.0059639434
82	0x3c67224c	0.014107298
83	0xbe43c52a	-0.19118181
84	0xbe7f8429	-0.24952759
85	0xbeee3520	-0.46524906
86	0x3e49c261	0.19703056
87	0xbcbdc018	-0.023162887
88	0x3e0b6e5d	0.13616319
89	0x3e824223	0.25441083
90	0xbdc894ed	-0.0979403
91	0x3db3864c	0.087658495
92	0xbe1506eb	-0.1455342
93	0xb898354c	-7.257852e-05
94	0x3dd9d9b7	0.10637229
95	0xbec5f81e	-0.3866586
96	0xbec139ae	-0.3773932
97	0xbe86451d	-0.26224604
98	0xbc593866	-0.013258075
99	0xbca9a76a	-0.020709712
100	0xbd39de88	-0.045378238
101	0xbc417cf9	-0.011809581
102	0xba2024e6	-0.0006109014
103	0xbdc3c364	-0.09558752
104	0xba142c4d	-0.0005652353
105	0xbda02b67	-0.07820778
106	0x3e78aa66	0.24283752
107	0xbece1645	-0.40251365
108	0xbdcafcef	-0.099115245
109	0x3dbdcae4	0.09267214
110	0x3e06f768	0.13180315
111	0x3ef7cd90	0.4839902
112	0x3ba141c5	0.0049211704
113	0xbe4a181d	-0.19735761
114	0x3c026a74	0.007959951
115	0xbdf30e82	-0.118680015
116	0x3d2eacf1	0.0426454
117	0x3d821229	0.0635112
118	0xbea25ad8	-0.31709933
119	0xbd7a7d76	-0.061154805
120	0x3a594fbb	0.0008289774
121	0xbe31ae87	-0.17351733
122	0xbd15d78d	-0.03658252
123	0xbd124696	-0.035711847
124	0xbf6924b6	-0.9107164
125	0xbee07278	-0.43837333
126	0x3e295e92	0.16539982
127	0x3c540a4d	0.012941909

fc1.weight f4 [64, 128]
0	0xbe84780d	-0.2587284
1	0xbd8b5ab4	-0.068044096
2	0x3dd7155f	0.10502123
3	0xbe4bb93f	-0.19894885
4	0x3d11775f	0.03551423
5	0x3e44a6da	0.19204274
6	0x3e08a784	0.13345152
7	0x3d899f94	0.0671989
8	0xbd96bf60	-0.07360721
9	0x3ab43f2d	0.0013751738
10	0xbe817c85	-0.25290313
11	0x39a6d54d	0.0003182091
12	0xbedb168b	-0.42790636
13	0x3d2c8954	0.042123154
14	0xbe843f9a	-0.25829774
15	0xbe916e44	-0.28404438
16	0x3d9e933f	0.07742929
17	0xbc08bf69	-0.008346417
18	0x39afa5f9	0.0003350226
19	0xbed65436	-0.41861123
20	0x3bdda87b	0.006764469
21	0x3d2dab04	0.04239942
22	0x3d0f52c2	0.034991033
23	0x3bd1bf0d	0.006400949
24	0xbc2c3a8f	-0.010512008
25	0x3dc3405f	0.09533762
26	0x3d38c9c3	0.04511429
27	0xbded109f	-0.11575436
28	0x3dc71b0c	0.09721956
29	0x3d18d3ab	0.037311237
30	0xbcdecab2	-0.027196262
31	0x3d406e17	0.04697999
32	0xb937b646	-0.00017520142
33	0xbe907d89	-0.28220776
34	0xbec7d033	-0.3902603
35	0xbc5a985a	-0.0133419875
36	0xbbd8b845	-0.0066137635
37	0x3d54b159	0.051926944
38	0x3db876cf	0.09007036
39	0x3d5ed0b3	0.05439825
40	0x3e34f8bf	0.17673014
41	0xbae30b89	-0.0017322163
42	0x3d373b56	0.04473432
43	0x3e905179	0.2818716
44	0xbdc593f0	-0.096473575
45	0xbb0f698f	-0.0021882986
46	0x3d8dc9c5	0.0692325
47	0xbce563ce	-0.028001692
48	0xbd844a92	-0.06459536
49	0x3d4ff03c	0.050766215
50	0xbe3390be	-0.17535684
51	0xbebb339d	-0.36562815
52	0xbdf3cd7d	-0.11904428
53	0x3ca1cf6e	0.01975223
54	0x3e3d71a6	0.18500385
55	0x3c0a1418	0.008427642
56	0x3d8d7e19	0.06908817
57	0xbe95ed18	-0.2928245
58	0xbe91fe5c	-0.28514373
59	0xbdef8180	-0.11694622
60	0xbd025b2a	-0.031825222
61	0xb9d29240	-0.00040163286
62	0xbe03573e	-0.12826249
63	0xbde46956	-0.11152904
64	0xbc68c4cb	-0.014207075
65	0xbe9671d5	-0.29383722
66	0xbdd46fdf	-0.103729
67	0x3b52f337	0.0032188424
68	0x3e57ce44	0.21074778
69	0xbc4e0cfb	-0.012576337
70	0xbe80e8fa	-0.25177747
71	0x3c91bfe1	0.01779169
72	0xbdaf4959	-0.08558912
73	0xbe56bcba	-0.20970431
74	0x3d861f22	0.06548907
75	0x3e681256	0.22663245
76	0x3eb5f980	0.35541916
77	0x3e5d330f	0.21601509
78	0xbcac700b	-0.02104952
79	0xbe9437e5	-0.28948894
80	0xbec1be48	-0.37840486
81	0xbdfbfdae	-0.12304245
82	0xbcda7d6a	-0.02667113
83	0x3d89bc64	0.06725386
84	0xbeb9d949	-0.36298588
85	0x3e4b6804	0.19863898
86	0x3d102171	0.035188142
87	0x3aec8f04	0.0018047993
88	0xbcf39811	-0.029735597
89	0xbd01f539	-0.031728003
90	0xbe941525	-0.28922382
91	0x3b24c1db	0.002513996
92	0x3d0fb419	0.035083864
93	0x3ae30d01	0.0017322601
94	0x3eb9d311	0.36293843
95	0x3d3671d1	0.044542138
96	0x3ef2ad6b	0.47397932
97	0x3deaf693	0.114728115
98	0x3be31d98	0.006931018
99	0xbc94ba2f	-0.018155186
100	0x3c00e774	0.007867683
101	0x3c8d84ca	0.017275233
102	0x3ab63a55	0.0013902882
103	0xbc8dd3bb	-0.017312875
104	0x3a292e1c	0.0006453709
105	0xbe14ab65	-0.14518507
106	0x3e05d4a2	0.13069394
107	0x3ec4bf4d	0.384272
108	0x3cf24e75	0.029578427
109	0xbe55a3ad	-0.20863219
110	0x3c7b4b25	0.01533774
111	0xbd7fd035	-0.06245442
112	0xbd86a1f8	-0.06573862
113	0x3c7e18e2	0.015508862
114	0xbc107533	-0.008817005
115	0x3d81f8f0	0.06346309
116	0xbbc53ca0	-0.00601919
117	0xbe41fe96	-0.18944773
118	0x3e5bce33	0.21465378
119	0xbe9c32f7	-0.30507633
120	0xbac0f61e	-0.0014721786
121	0xbbc716bc	-0.006075708
122	0xbe877178	-0.26453757
123	0xbcc8a68a	-0.024493475
124	0x3e221b0a	0.15830627
125	0xbe744a0a	-0.23856369
126	0x3c7bde5d	0.01537284
127	0x3bc788bd	0.0060892985
128	0x3af2323b	0.0018478105
129	0x3c839cc9	0.016065972
130	0x3da62e42	0.08114292
131	0x3dce6ba5	0.10079125
132	0xbad7d695	-0.0016467149
133	0x3e8bbf07	0.2729418
134	0xbd9896e3	-0.07450654
135	0xbc558515	-0.0130322175
136	0xbe8ca4d2	-0.27469498
137	0xbd12c2ff	-0.035830494
138	0xbd423791	-0.047416274
139	0x3aab3d6f	0.0013064573
140	0x3c78ff9e	0.015197663
141	0xbc073fef	-0.008254989
142	0x3d603525	0.054738183
143	0x3d8a88af	0.067643516
144	0x3d37ff6c	0.044921324
145	0xbd1b520b	-0.03792004
146	0xb90b0632	-0.00013258381
147	0x3ce385cd	0.027773762
148	0x3b420296	0.0029603592
149	0x3b8bb3fc	0.004263399
150	0xbd9d6db8	-0.07686943
151	0x3c166ead	0.009181661
152	0xbdb30d7d	-0.08742807
153	0xbd23567d	-0.039877404
154	0x3cfb72e2	0.030694429
155	0x3e22f624	0.15914208
156	0xbddaa440	-0.106758595
157	0xbe546426	-0.20741329
158	0xbd1bb368	-0.038012892
159	0xbd7d2469	-0.0618023
160	0x3a4184a7	0.00073821325
161	0x3e79d302	0.243969
162	0x3daa4baf	0.08315217
163	0x3e52d737	0.2058991
164	0xbb071622	-0.0020612557
165	0xbd64ea31	-0.055887405
166	0x3c9d1a2f	0.019177524
167	0xbc84fc2a	-0.016233522
168	0x3d214b73	0.039378595
169	0xba77f68f	-0.00094590423
170	0x3de710c4	0.11282495
171	0xbd6801ef	-0.05664247
172	0xbdcc6ac3	-0.09981301
173	0xbdde6f5e	-0.10861085
174	0xbd9675a2	-0.073466554
175	0xbc079674	-0.008275617
176	0xbde2fd80	-0.110835075
177	0x3cc1c13d	0.023651714
178	0x3d8c2453	0.06842866
179	0x3d6a25a9	0.05716482
180	0xbd4cf69b	-0.05003987
181	0xbe5ef5c5	-0.21773441
182	0x3db6c42a	0.08924134
183	0xbb2c6ef7	-0.0026311257
184	0xbe1aab20	-0.15104342
185	0xbd67f91d	-0.056634057
186	0x3d96c43f	0.0736165
187	0x3e306ff7	0.17230211
188	0x3cccadd2	0.024985228
189	0xba1d5ee9	-0.00060032174
190	0xbd0dbd77	-0.034604516
191	0xbd876fb9	-0.06613106
192	0xb95787d7	-0.00020554602
193	0xbd10a7e1	-0.03531635
194	0x3d8a7a03	0.06761553
195	0x3b4dd023	0.0031404577
196	0xbc956eaf	-0.018241255
197	0xbd3a5af3	-0.045496892
198	0x3d9c0b8b	0.07619389
199	0x3d7971c6	0.06089952
200	0xbe521145	-0.205144
201	0xbd040f84	-0.03224136
202	0xbcbfe3de	-0.023424085
203	0x3e867d8c	0.2626766
204	0xbd2bd1cd	-0.04194813
205	0xbe49d0b8	-0.19708526
206	0xbea383c0	-0.31936455
207	0xbc8e0042	-0.017334107
208	0x3d8b9070	0.06814659
209	0x3d84f015	0.064911045
210	0xbdc4cc06	-0.09609227
211	0x3cdc0277	0.026856644
212	0x3eba80cb	0.36426386
213	0x3bbb4ba6	0.005715805
214	0x3c42c309	0.01188732
215	0xbd269fa7	-0.0406796
216	0xbea4f59f	-0.32218644
217	0x3c685c94	0.014182229
218	0x3e3a6767	0.18203507
219	0x3b84b6c7	0.004050109
220	0xbda23b79	-0.079215
221	0xbae754d4	-0.0017649182
222	0xbe727711	-0.23678233
223	0x3dfd75f5	0.12376014
224	0x3d44ed77	0.048078027
225	0xbdf0b695	-0.11753575
226	0xbad2109b	-0.0016026677
227	0xbdacd0b9	-0.08438248
228	0xbd965a26	-0.07341413
229	0xbbce481a	-0.0062952163
230	0xba81c99b	-0.0009902002
231	0xbd375e7c	-0.04476784
232	0xba3a623b	-0.00071099744
233	0xbd5b2bb7	-0.053508487
234	0x3e323888	0.17404377
235	0x3e382aed	0.17985125
236	0xbe101547	-0.14070617
237	0x3d1d31d4	0.038377598
238	0x3c9e36fc	0.019313328
239	0xbdde77e1	-0.10862709
240	0xbdb6a7ba	-0.0891871
241	0xbdab3ec5	-0.08361582
242	0x3d1bc95d	0.038033832
243	0xbd3f88c3	-0.046761286
244	0xbd96fe1e	-0.07372688
245	0xbdb7c02f	-0.08972203
246	0x3e19029e	0.14942405
247	0x3e1e1c95	0.1544059
248	0x3aa90f33	0.0012898206
249	0xbe8c72aa	-0.27431232
250	0x3e9a293d	0.30109587
251	0xbdfc452b	-0.1231788
252	0x3e07b1c9	0.13251413
253	0x3e21283b	0.15738003
254	0xbbac4ed6	-0.0052584214
255	0xbda0a135	-0.07843248

fc1.bias f4 [64]
0	0xbe288c42	-0.16459754
1	0xbe6007d8	-0.21877992
2	0x3f26944d	0.6507004
3	0x3dd3b0fb	0.10336491
4	0x3eb10996	0.34577626
5	0x3de06809	0.10957343
6	0x3f090b19	0.5353256
7	0x3e47f676	0.19527611
8	0x3ea7b79e	0.32757276
9	0xbd0b284b	-0.033973973
10	0x3e982d94	0.29722273
11	0xbc9da79e	-0.019244965
12	0xbe81c3ce	-0.253447
13	0x3e330898	0.17483747
14	0x3eaec17d	0.34131995
15	0xbe685822	-0.2268987
16	0xbc99ff76	-0.018798571
17	0x3f1695c7	0.5882229
18	0x3edefae8	0.435508
19	0x3ec01e25	0.37522998
20	0x3ebc35f5	0.36759916
21	0x3e7a16f9	0.24422826
22	0x3dd41d30	0.103571296
23	0x3d055a55	0.03255685
24	0xbb8da7bb	-0.0043229735
25	0x3e87a2e9	0.26491478
26	0x3d8303bc	0.06397197
27	0x3bebdbf2	0.0071978504
28	0xbc2df556	-0.010617575
29	0x3dca5956	0.09880321
30	0x3dccfa44	0.10008672
31	0x3e346b77	0.1761912
32	0xbc68359b	-0.014172937
33	0xbb644f55	-0.0034837325
34	0x3dae8c62	0.0852287
35	0xbeb6077f	-0.35552594
36	0x3d16e1ee	0.036836557
37	0x3e403fff	0.18774413
38	0xbb9ddc6e	-0.004817537
39	0x3e4f42d0	0.2024033
40	0xbb0d7f0b	-0.0021590616
41	0x3f149032	0.58032525
42	0x3e0eca2d	0.13944311
43	0xbe860f36	-0.2618348
44	0x3e90fc86	0.2831766
45	0x3ea93027	0.3304455
46	0x3dc79a75	0.09746257
47	0xbcb99857	-0.02265565
48	0xbc6f89c9	-0.014620253
49	0x3e85679c	0.2605561
50	0x3ea0ed3b	0.31430992
51	0xbd3bdbfb	-0.045864087
52	0xbe878d90	-0.2647519
53	0x3f091e03	0.5356142
54	0xbea7c22a	-0.32765323
55	0xbb26727b	-0.0025397826
56	0x3e7d44f9	0.24733342
57	0x3edb611b	0.42847523
58	0x3ebe980d	0.3722538
59	0x3ee996f4	0.4562298
60	0x3e0e323d	0.13886352
61	0xbc3f6758	-0.011682354
62	0xbe17d49d	-0.148272
63	0x3e0ee4df	0.13954495

fc2.weight f4 [32, 64]
0	0x3d31768b	0.043325942
1	0xbcb1d24d	-0.021706725
2	0xbde02028	-0.10943633
3	0xbc344f75	-0.011005272
4	0xbe2e00ef	-0.16992544
5	0xbde34d61	-0.11098743
6	0xbe33d122	-0.17560247
7	0x395d23dc	0.00021089561
8	0xbd67142e	-0.05641573
9	0xbc312294	-0.010811467
10	0xbdc2d6a3	-0.09513595
11	0xbc41cfaf	-0.011829301
12	0xbd2b6da1	-0.041852597
13	0xbec6fe80	-0.38866043
14	0xbda33e79	-0.079709
15	0xbee2882f	-0.44244525
16	0x3bd061eb	0.006359329
17	0xbdeb64ad	-0.11493812
18	0x3e24f4b4	0.16108972
19	0x3d946aba	0.07246919
20	0xbcc4433c	-0.023957841
21	0xbe85516b	-0.2603868
22	0xbdbac9ea	-0.09120543
23	0xbd05229c	-0.03250371
24	0x39567923	0.00020453757
25	0xbc0db397	-0.008648775
26	0xbe841218	-0.25795054
27	0xbd3fd868	-0.04683724
28	0xbb887311	-0.0041641076
29	0xbd80f333	-0.062963866
30	0xbe6da14d	-0.23206063
31	0xbe633579	-0.22188367
32	0x390f881f	0.00013688252
33	0xbd46d104	-0.048539177
34	0xbdb5014c	-0.08838138
35	0xbdfbab81	-0.12288571
36	0x3eabc831	0.3355117
37	0xbd19949e	-0.037495248
38	0x39f26fec	0.00046241225
39	0xbbd47762	-0.006483958
40	0xb9c95e2c	-0.0003840787
41	0xbe60b3fa	-0.21943656
42	0xbd16a6a1	-0.036780003
43	0xbca8d931	-0.020611377
44	0xbc221d6f	-0.009894713
45	0x3d68d47b	0.056843262
46	0xbd0faad4	-0.035075024
47	0xbba4fb6e	-0.0050348556
48	0xbb052c3e	-0.002032056
49	0xbce7e88a	-0.028309125
50	0xbcf32905	-0.029682646
51	0xbc31f817	-0.010862372
52	0x3dfb559f	0.1227219
53	0x3ec43a98	0.38325953
54	0xbe5080ea	-0.20361677
55	0x3ab8e724	0.0014106971
56	0xbd8b7c3c	-0.06810805
57	0xbbe38950	-0.006943859
58	0xbe133008	-0.14373791
59	0x3e588b1a	0.21146813
60	0xbc2d38ac	-0.010572594
61	0xbbcc8bee	-0.006242267
62	0x3c830d2c	0.015997492
63	0xbdbc1748	-0.09184128
64	0xbead001b	-0.33789143
65	0x3da3c43d	0.07996414
66	0xbe8a6c97	-0.27035972
67	0xbc96114f	-0.0183188
68	0xbdecf322	-0.115698114
69	0x3e4df363	0.20112376
70	0xbecff307	-0.40615103
71	0xbcb61cc3	-0.022230512
72	0xbc8f6ba8	-0.01750739
73	0xbac8cbd7	-0.0015319538
74	0xbe3dd106	-0.18536767
75	0xbc0e9fce	-0.008705093
76	0xbd06f168	-0.032945067
77	0xbc7ea6e0	-0.015542716
78	0xbcea2662	-0.028582755
79	0x3eee31f5	0.4652249
80	0xbc9f600c	-0.019454978
81	0xbe28ba33	-0.1647728
82	0xbdeca7ed	-0.11555467
83	0xbe6a0b14	-0.22855788
84	0xbd808c48	-0.062767565
85	0x3c7bb6b0	0.01536338
86	0xbc748728	-0.014924802
87	0x3c9f27b0	0.019428104
88	0xbc429d9c	-0.011878397
89	0x3ccaf996	0.024777215
90	0x3ea7fe9e	0.32811445
91	0x3ea4c10c	0.32178533
92	0xba8099e9	-0.0009811494
93	0xbdff4532	-0.1246437
94	0xbdde6374	-0.10858813
95	0xbebfba65	-0.37446895
96	0xbd770c39	-0.06031439
97	0x3ca53860	0.020168483
98	0xbd435f77	-0.047698464
99	0x3e19d3c3	0.15022187
100	0xbe85a002	-0.2609864
101	0xbe26e4a4	-0.16298157
102	0xbc3d1607	-0.011540896
103	0xbe577fe1	-0.21044876
104	0xba1214c4	-0.00055725523
105	0xbebc7598	-0.36808467
106	0xbe7013ac	-0.23445004
107	0x3db20861	0.086930044
108	0xbe6837b1	-0.22677495
109	0xbd5267d2	-0.051368542
110	0xbe588deb	-0.21147887
111	0xbb9edea6	-0.004848319
112	0xbb9f82ed	-0.0048679025
113	0xbe3a8288	-0.18213856
114	0xbddf137c	-0.10892388
115	0xbd8c628e	-0.06854735
116	0xbdf73b2d	-0.12071834
117	0xbe914cd1	-0.2837892
118	0x3c415d25	0.011801993
119	0xb94cdde9	-0.00019537624
120	0xbd75a29f	-0.05996954
121	0x3d31bab1	0.043390933
122	0x3e01b448	0.12666428
123	0xbeb4a132	-0.35279232
124	0xbd264d04	-0.04060079
125	0xb9d44e99	-0.0004049435
126	0x3d0fdab5	0.035120685
127	0x3e8c7d68	0.27439427
128	0x3e180c60	0.1484847
129	0x3d26516c	0.040604994
130	0xbd2885e6	-0.04114332
131	0xbc94608a	-0.01811244
132	0x3e434b7f	0.19071768
133	0x3d4aca3f	0.049509283
134	0xbeb16132	-0.34644467
135	0x3cd554be	0.026041385
136	0xbd8714ce	-0.06595765
137	0x3cd69e30	0.026198477
138	0xbd83bd83	-0.06432631
139	0xbaae2cfd	-0.0013288554
140	0x3ddd6da9	0.10811932
141	0x3df252b2	0.11832179
142	0x3d89d8e9	0.067308255
143	0x3ea7b019	0.3275154
144	0xbb3fd3b5	-0.0029270474
145	0x3d5142d5	0.051089127
146	0xbdd81f52	-0.10552849
147	0xbdb459fa	-0.08806224
148	0xbdcdd5f3	-0.10050573
149	0xbe5e5f22	-0.21715978
150	0x3d1b394e	0.037896447
151	0xbca3d38a	-0.01999833
152	0xb9fdc79b	-0.00048404638
153	0x3d101516	0.03517636
154	0x3dffb6d5	0.12486044
155	0x3d93e653	0.07221665
156	0xbb3e49e2	-0.0029035737
157	0xbc65f0a9	-0.014034429
158	0xbe900361	-0.28127578
159	0xbe48110f	-0.19537757
160	0xbd0353fc	-0.032062516
161	0xbc6777c3	-0.0141276745
162	0x3cf416d2	0.029796038
163	0x3e16a40b	0.14711015
164	0xbe7c7363	-0.24653392
165	0x3daea998	0.08528441
166	0xbaf5aa61	-0.0018742793
167	0x3cb674c8	0.022272483
168	0x3ac25938	0.0014827615
169	0x3de6b7c1	0.11265517
170	0xba45a700	-0.00075398386
171	0xbd7ff103	-0.062485706
172	0xbddde5c8	-0.10834843
173	0xbc465049	-0.012104102
174	0x3c0bfe0c	0.008544456
175	0xba1fa783	-0.000609033
176	0xbb3049af	-0.0026899388
177	0x3e087feb	0.13330047
178	0x3c0651f2	0.008198248
179	0x3d49b6f9	0.049246762
180	0xbe097cce	-0.13426515
181	0xbdd223ba	-0.102607206
182	0x3d384e78	0.04499671
183	0xbab03842	-0.00134445
184	0x3d0613ee	0.03273385
185	0xbc8dcf8e	-0.017310884
186	0x3ce6baa5	0.02816517
187	0xbe829bd7	-0.2550952
188	0x3c1cb003	0.009563449
189	0x39e17309	0.00043001052
190	0x3ccc58d0	0.024944693
191	0xbd136f9b	-0.035995107
192	0xbe51162e	-0.20418617
193	0xbe43a955	-0.19107564
194	0xbd931b3f	-0.07182931
195	0xbc7a1e2e	-0.015265984
196	0xbe3204ff	-0.17384718
197	0xbea8ba9a	-0.32954866
198	0x3cf3d1f8	0.029763207
199	0xbcdef61b	-0.027216962
200	0xbdf0e515	-0.11762444
201	0xbcf920a8	-0.03041108
202	0xbeb2febe	-0.34959978
203	0xbb62b785	-0.003459425
204	0xbe2d59c2	-0.16928771
205	0xbdbe0604	-0.09278491
206	0xbe318d88	-0.17339146
207	0xbe4f9564	-0.20271832
208	0xbb3a4332	-0.00284214
209	0xbd808649	-0.06275613
210	0xbe35857a	-0.17726699
211	0xbe1f4285	-0.15552719
212	0xbe8dfb78	-0.27730918
213	0x3e93f336	0.28896493
214	0xbebd0e7f	-0.36925122
215	0x3b9a964d	0.0047176243
216	0xbb507c5b	-0.0031812403
217	0xbd61a549	-0.05508927
218	0xbe99bd61	-0.30027297
219	0xbe0098f4	-0.12558347
220	0x390aabff	0.00013224779
221	0xbdf06bc2	-0.11739303
222	0x3d74da7f	0.059778687
223	0xbeb75b9c	-0.3581208
224	0x3d871f2b	0.06597742
225	0x3c6526a7	0.013986266
226	0xbe1386ad	-0.14406843
227	0xbeacd25f	-0.3375425
228	0xbeb8f007	-0.36120626
229	0x3dd45311	0.10367406
230	0xbb86754e	-0.0041033393
231	0xbe5f324d	-0.21796532
232	0xbafc1a07	-0.0019233831
233	0x3e217e8e	0.15770933
234	0x3e20b996	0.15695795
235	0xbdc219e9	-0.09477598
236	0x3dbcacf1	0.092126735
237	0xbdf04bb1	-0.11733187
238	0xbe7da0bc	-0.24768347
239	0x3a13b996	0.00056352594
240	0xbafa88c3	-0.0019114244
241	0x3be37235	0.006941105
242	0xba9816dd	-0.0011603493
243	0xbdd79469	-0.10526354
244	0x3d9f451c	0.077768534
245	0x3ddc757b	0.10764595
246	0xbe5ff8c2	-0.21872237
247	0x3ae4f53c	0.0017468105
248	0xbdc3184a	-0.09526117
249	0xbda63b75	-0.08116809
250	0xbdf9992e	-0.1218742
251	0x3e82e3c4	0.25564396
252	0x3bf6eacb	0.0075353137
253	0xbb3c66cd	-0.0028747797
254	0xbe08547f	-0.13313483
255	0x3db13047	0.08651786

fc2.bias f4 [32]
0	0x3ed633e7	0.41836473
1	0x3eaf4b22	0.3423701
2	0xbd8bef29	-0.068327256
3	0x3ef358c0	0.47528648
4	0xbde7e701	-0.113233574
5	0x3f23b4a8	0.63947535
6	0xbb7eb3ce	-0.0038864496
7	0x3da62ed5	0.08114401
8	0xbd559f99	-0.052154157
9	0x3bee383d	0.0072698877
10	0xbb62b670	-0.0034593605
11	0x3f03951e	0.5139941
12	0xbac09fc5	-0.0014696053
13	0x3d3bd42b	0.045856636
14	0xbab08817	-0.0013468292
15	0xbdd76bb0	-0.10518587
16	0xbb205b26	-0.0024468391
17	0x3e8aadd1	0.27085736
18	0xbbe1378e	-0.0068730777
19	0xbb948faf	-0.00453373
20	0x3f05f24f	0.5232286
21	0x3e2710de	0.16315028
22	0x3e446cb0	0.19182086
23	0x3db4f0f5	0.088350214
24	0xbb374d31	-0.0027969594
25	0xbb29b7c0	-0.0025896877
26	0x3e367957	0.17819725
27	0x3f08e140	0.53468704
28	0xbdef8674	-0.11695567
29	0xbb40470d	-0.0029339225
30	0xbdf1f171	-0.118136294
31	0xbb13e201	-0.0022565129

fc3.weight f4 [5, 32]
0	0x3bca0d0b	0.0061661056
1	0xbe228e14	-0.15874511
2	0x3e479e29	0.19493927
3	0xbf7fc0ae	-0.9990338
4	0x3f201275	0.62528163
5	0xbf4ad87b	-0.79236573
6	0xba60ce31	-0.0008575647
7	0xbe4324d0	-0.19057012
8	0x3f095464	0.53644395
9	0x3e94592b	0.2897428
10	0xb89a675f	-7.3625466e-05
11	0xbf84dbda	-1.0379593
12	0xb9bcdaeb	-0.0003602126
13	0x3e6b422a	0.22974458
14	0x3b33fb2f	0.002746295
15	0x3eb6b0b6	0.35681695
16	0xb9a5a645	-0.00031595133
17	0x3ed45dec	0.41477907
18	0x3d49bf66	0.049254797
19	0xbb78a138	-0.003793789
20	0xbf5bce8d	-0.85862046
21	0xbe934cd9	-0.28769568
22	0xbe1acdf9	-0.15117635
23	0x3ec509b5	0.38483968
24	0xbb30a0b3	-0.0026951253
25	0xbad94f61	-0.0016579443
26	0x3ea4ecb5	0.32211843
27	0xbe8caae3	-0.27474126
28	0x3b9a4a72	0.0047085816
29	0x3b23106f	0.0024881621
30	0x3e89b94e	0.2689919
31	0xbabeb167	-0.001454872
32	0x3eec7ae1	0.461875
33	0xbcab6e0d	-0.0209265
34	0xbd940bfd	-0.07228849
35	0x3e848242	0.2588063
36	0xbddfde23	-0.10931041
37	0x3ebce94b	0.36896738
38	0xbb1139f0	-0.0022159778
39	0x3e84cd6a	0.25937968
40	0x3e9cb32e	0.30605453
41	0xbe410444	-0.18849283
42	0xbaa69fe2	-0.0012712444
43	0xbe15d22f	-0.1463096
44	0x3a67349f	0.0008819792
45	0xbde7109a	-0.11282463
46	0x3a884c3d	0.0010398697
47	0xbeb7225e	-0.35768408
48	0x3b47e430	0.0030501
49	0xbe4ac718	-0.1980251
50	0x3e41ddbc	0.18932241
51	0xba5bcc28	-0.00083846087
52	0x3f15fcf4	0.585891
53	0xbd9518a9	-0.07280094
54	0xbebe3193	-0.37147197
55	0x3d5bba90	0.053644717
56	0xb993e9d0	-0.0002821223
57	0xb989ac8e	-0.0002625924
58	0xbbaa8453	-0.0052037626
59	0x3dece9da	0.11568041
60	0xbeff834f	-0.49904868
61	0xb973b75b	-0.00023242591
62	0x3e50c9fb	0.2038955
63	0xba2e5f2d	-0.00066517555
64	0xbd85264e	-0.06501447
65	0xbe7fe7ca	-0.24990764
66	0xbec81701	-0.3908005
67	0x3ee8da03	0.4547883
68	0xbe781f19	-0.24230613
69	0xbe125265	-0.14289244
70	0x3b0077d8	0.0019602682
71	0xbe954073	-0.29150733
72	0xbed0025c	-0.406268
73	0x3e779ea0	0.24181604
74	0xba9bba58	-0.0011881096
75	0x3f148b86	0.58025396
76	0x3ad6b235	0.0016380014
77	0xbd225a47	-0.039636876
78	0xbb00df3b	-0.0019664306
79	0x3de3f2be	0.11130284
80	0x3b1901bd	0.0023346983
81	0x3ef55ca4	0.47922242
82	0xbd8eb126	-0.06967382
83	0xbb4869b5	-0.0030580584
84	0x3e7d99c6	0.24765691
85	0x3c8ce9d1	0.017201336
86	0x3e5a20bd	0.21301551
87	0xbd4b60cf	-0.04965287
88	0xbad0b84e	-0.0015924068
89	0xb944660d	-0.00018730033
90	0x3ec2b0f0	0.38025618
91	0x3ef56f43	0.47936448
92	0x3ea01b21	0.31270698
93	0x3b03db97	0.00201199
94	0xbf0523ce	-0.5200776
95	0xb7e1d9cc	-2.692351e-05
96	0xbe1dd59d	-0.15413518
97	0x3f3ca57b	0.73690003
98	0x3df7344b	0.12070521
99	0xbdeebc26	-0.1165698
100	0xbed6c019	-0.41943434
101	0x3f0ff133	0.56227416
102	0x3b07d8d1	0.0020728598
103	0xbe1077d7	-0.14108215
104	0x3e19819b	0.14990847
105	0xbf212840	-0.6295204
106	0x3ae86f98	0.0017733453
107	0x3e10f1cc	0.14154738
108	0x3a856af6	0.0010178972
109	0x3e1a2d80	0.1505642
110	0x3adab0f3	0.0016684815
111	0xbe5744af	-0.21022294
112	0xbb097c25	-0.0020978537
113	0xbe1507e2	-0.14553788
114	0x3c5d2d94	0.013499636
115	0x3b0f7b31	0.0021893496
116	0x3f28e7c6	0.6597866
117	0xbecf90f7	-0.40540287
118	0x3e50983c	0.20370573
119	0xbefbafd1	-0.49157575
120	0xbb26ea65	-0.00254693
121	0xbb06279e	-0.002047039
122	0x3e172073	0.14758472
123	0x3d933fe3	0.0718992
124	0x3eacff0c	0.33788335
125	0xbb1515bb	-0.0022748548
126	0x3ed16865	0.4089996
127	0xba8e7593	-0.001086878
128	0xbe80f0c0	-0.25183678
129	0xbe9e6ea1	-0.30943778
130	0x3e0f92c0	0.14020824
131	0x3ece5f5a	0.40307122
132	0x3e177699	0.14791335
133	0x3a168e04	0.0005743208
134	0x383ce23d	4.5033394e-05
135	0x3ebe4157	0.37159225
136	0xbf14b692	-0.5809108
137	0x3e94608e	0.28979915
138	0xbae27f74	-0.0017280416
139	0x3eecb368	0.46230626
140	0xbae901ac	-0.0017776988
141	0xbe6ba52d	-0.23012228
142	0x3b2c0b69	0.0026251918
143	0x3dbfdb6a	0.09368022
144	0x3b40f903	0.0029445298
145	0xbf0c878c	-0.5489433
146	0xbe39ae9d	-0.18133016
147	0xbb145ecf	-0.0022639518
148	0xbf20f83f	-0.62878793
149	0x3f3f1459	0.74640423
150	0x3dd1c645	0.10242895
151	0x3dd1a75b	0.10236999
152	0xbae3fbdb	-0.0017393784
153	0xbb06314b	-0.0020476158
154	0xbf593606	-0.8484806
155	0xbecb86cf	-0.39751288
156	0xbe23c241	-0.1599207
157	0x3ae5523a	0.0017495819
158	0xbeba5f1a	-0.36400682
159	0x3b2082e5	0.0024492082

fc3.bias f4 [5]
0	0xbec81bc8	-0.39083695
1	0x3ead3c80	0.3383522
2	0xbeb6c6d7	-0.35698578
3	0x3e84a343	0.2590581
4	0x3e16864a	0.14699665
