Assignment_1/1/CNN_Layers/Models/2CNN/model-0.pth (torch_old, 882610 bytes, 10 tensors)

conv1.weight f4 [64, 3, 5, 5]
00000000: b4f8 383c 2faf c4bc ce9e 203c a86e 673d
00000010: a0c5 4939 2d89 cdbd 0a07 a03d a257 0dbd
00000020: d9ba 7f3c 1148 1f3e 420a 943c 0fdc f6bc
00000030: aee8 9d3b f9a8 bc3d ad1f df3d f0e1 b1bd
00000040: 759a 5abd 168d 003d fbe0 a03d ec29 013e
00000050: b271 a8bd 9ccf 42bd 0d9a 02bd 29b6 203b
00000060: f2c8 a7ba c2d6 abbd 7b13 d5bd 9546 85bd
00000070: 4448 9ebc 6006 d93d eb7e 41be cd18 0abe
00000080: 8044 9d3d 8285 893c 74a4 083e 4ad7 24be
00000090: c980 0ebe 4651 5cbd cc16 5a3d a8af 413e
000000a0: b591 bfbd 1cec e2bd e1fd c4bd 06b3 383c
000000b0: de5f 313e a35c bcbd 599a 3ebc 4dec 15bc
000000c0: 45a9 793b d069 b63d d9e9 b6bd 43f9 e2bd
000000d0: 7607 52bd c54e a93d eb7e c03d 2732 3ebe
000000e0: fdf2 b0bd c12c 703c 6c48 223d c596 873e
000000f0: 54d8 3bbe e975 05bd d8d2 ed3b 86d7 1a3d
00000100: 56de 7d3e c728 e9bd 4b74 83bc 59af 3b3d
00000110: ec17 ce3d 6b13 213e 16c6 cbbd f58c ddbd
00000120: 88ed 80bd 3b3f 043e 707d fb3d 1851 c1bc
00000130: 892f 8c3d e35a 0a3e 45ac 023e db5c de3d
00000140: ca19 423d 29b3 c33c fc5a 953d 7a99 5e3d
00000150: 839e a43d 452f 99b7 ea96 aa3d f399 60bd
00000160: b232 da3b cda5 363d 73a0 6bbd f2a5 d33d
00000170: 1683 6d3c 9748 b13d a54d da3d bf65 edbc
00000180: cfc0 a7bc 49ce b2bc 102e a03d 61f2 e93d
00000190: aa9c 67be 40f3 cbbd c893 323b 5e4d 28bd
000001a0: ffc6 953d 0cd0 fdbd 321a 17be f486 ca3c
000001b0: f4f2 573d ad33 d93d 298b 19be 3fc1 f5bd
000001c0: 72d2 09be 7ef1 06bc 5552 bb3d df3e 24be
000001d0: 1164 52bd 1dd8 a0b9 e7d5 d5bd 4f2a ce3d
000001e0: e417 69be 08da 27be 484b 61bd 9c67 6fbd
000001f0: ec3b 563d 5146 0ebe 7b71 cfba 08b3 bf3d
00000200: 9b53 a53c 2c68 623e acb5 20be 7047 eabd
00000210: be02 f2bc 3672 bc3d 35a0 393e 1f8d babd
00000220: f4ee c6bd 5e7a 4a3d 8e8f 8a3d f42a 063e
00000230: 8803 a9bd 343b a4bd 6ae4 ccbc 4f4a 3ebc
00000240: ac41 373e e789 f9bd 4d14 81bd 92a9 743d
00000250: d813 f33d 8672 7b3e c972 06be bfa1 30bd
00000260: d619 48bd a657 35bd 336f 89bd 4a20 babd
00000270: bc17 03be 02a9 28bd b348 f0bc c808 aabd
00000280: 0c0f 93bd cf82 13bd 72f2 6cbd f2d3 603c
00000290: ca2b a13c b64b 4cbc a267 09bd 429b fdbc
000002a0: 9630 8fbc 9601 d4bd d5c9 a9bd 340d 08be
000002b0: a1f6 91bd 5d62 2c3d f20e 02bc c97d 03bd
000002c0: 9eba 9bb9 a1aa af3c c93e 3f3d 458b 06bd
000002d0: aeaf 83bd e8f1 9fbb 5156 133d ad01 033d
000002e0: b954 b73d e0eb adbd f1eb 92bd daee 4abd
000002f0: 7e25 e23b abde 863c 5d57 afbd bb9c 14bd
00000300: a137 6b3d d16c e93c 16a1 5e3d 7776 d3bd
00000310: b0f5 d63c 2dce 8c3d 9506 253d 0a46 473d
00000320: 3c52 df3c e0f3 223c abac 3d3e e08e 203e
00000330: 05f8 1a3e 4b23 483d 24f4 c93d dffd 163d
00000340: 0e49 173d 9a24 e63d c560 c23d 17e5 0b3e
00000350: 288c 7a3d 7ff9 263e a49a 973d efc8 1e3d
00000360: 19f8 de3d 2b7e 083d f65b a33d 9e24 123e
00000370: 8034 6d3d d88a 7b3c d819 143e 380a 2a3e
00000380: 9242 023e 7e8b 593d 3233 483d f433 79bc
00000390: 9b87 a73b b20e 1e3e 31a4 b6bd fb06 253d
000003a0: 6918 eb3d 90ac 6e3c f930 9a3d 6b1d 383d
000003b0: 6c54 8c3d 95c8 323d 72f7 3c3d 41b6 353d
000003c0: 514c 8bbd ea0a 21bd 3442 68bd 2142 2c3d
000003d0: a65f cc3d 51d5 9ebb 3f4e 2a3b cf8f a9bc
000003e0: 3bbe 3a3d d9f1 4c3c 24f6 52be c897 4bbd
000003f0: aa5f b7bd ab6c bfbc 438f 443d 703a 0bbe
0.011289764 -0.024009315 0.009803487 0.056502014 0.00019242475 -0.1003593 0.078138426 -0.0345074
0.015608513 0.15554835 0.018071298 -0.030134229 0.0048189973 0.092119165 0.108947136 -0.08685672
-0.053369958 0.03138455 0.078554116 0.12613648 -0.08224811 -0.047561273 -0.031885196 0.0024522638
-0.0012800975 -0.08390571 -0.10404106 -0.06507603 -0.019321568 0.10596919 -0.18896072 -0.13486023
0.07679081 0.016787294 0.13343984 -0.16097751 -0.13916315 -0.053788446 0.053244397 0.18914664
-0.09353963 -0.110801905 -0.09618736 0.011273151 0.17321727 -0.091973566 -0.011633479 -0.009150577
0.0038095277 0.08906901 -0.08931322 -0.11082699 -0.051276647 0.08266977 0.09399208 -0.18573819
-0.08640096 0.014659108 0.039619848 0.26482216 -0.18344241 -0.03258315 0.0072578005 0.037803195
0.24791846 -0.11384731 -0.016046664 0.04582152 0.100631565 0.15730064 -0.09949891 -0.10817901
-0.062953055 0.12914746 0.12279785 -0.023598239 0.06845004 0.13511233 0.12761028 0.108575545
0.047387876 0.023889141 0.072927445 0.054345585 0.08038046 -1.8261033e-05 0.08329566 -0.054834317
0.0066588754 0.044591714 -0.057526063 0.10334386 0.014496585 0.086564235 0.10659341 -0.02897918
-0.02047768 -0.02182688 0.07821286 0.11423183 -0.22618356 -0.09958506 0.002724873 -0.041089408
0.07313346 -0.123931974 -0.14756086 0.024722554 0.052721933 0.106055595 -0.14994492 -0.119997494
-0.13459185 -0.008236287 0.09146563 -0.16039608 -0.051364962 -0.00030678595 -0.10441189 0.100666635
-0.2276302 -0.16391766 -0.055003434 -0.05844842 0.05230324 -0.13894011 -0.0015826666 0.093603194
0.020181468 0.22110051 -0.15694302 -0.11439407 -0.029542323 0.092014715 0.1812752 -0.09108948
-0.097135454 0.049433105 0.06765662 0.13102323 -0.08252627 -0.080191046 -0.02501126 -0.011614396
0.17896146 -0.12184506 -0.063027 0.059732027 0.11869019 0.24555406 -0.13129725 -0.043123003
-0.048852764 -0.04427304 -0.06710663 -0.0908819 -0.12802023 -0.041176803 -0.02933154 -0.08302456
-0.07180604 -0.03601342 -0.0578484 0.013722407 0.0196742 -0.012469223 -0.033546098 -0.030957822
-0.017479222 -0.10351865 -0.082904495 -0.13286287 -0.07127119 0.042085994 -0.007938134 -0.03210238
-0.00029702944 0.021443667 0.046690736 -0.03284766 -0.064299926 -0.0048811324 0.03597099 0.03198402
0.089517064 -0.08492255 -0.071739085 -0.049544193 0.006901442 0.016463598 -0.08561585 -0.036282282
0.0574261 0.02849427 0.054352842 -0.1032533 0.0262402 0.068752624 0.04028948 0.04865078
0.027260892 0.00994584 0.18522899 0.15679502 0.15133674 0.048861783 0.09861019 0.036863204
0.036934905 0.1123745 0.094911136 0.1366161 0.06116882 0.16306113 0.07402542 0.038765844
0.108871646 0.03332345 0.079765245 0.14271781 0.057911396 0.015352927 0.14462984 0.1660546
0.12720707 0.053111546 0.04887695 -0.0152101405 0.005112601 0.15435293 -0.08918036 0.04028986
0.11479265 0.014567509 0.07528872 0.04494993 0.0685204 0.04364832 0.04613442 0.044363264
-0.068016656 -0.03931705 -0.05670376 0.042055253 0.09979181 -0.0048472066 0.002598658 -0.020698456
0.045591574 0.012508833 -0.20601708 -0.049705297 -0.08953793 -0.023367247 0.047988188 -0.13596511

conv1.bias f4 [64]
00000000: a651 0bbe e542 20be 7f85 8c3e e097 0ebe
00000010: df17 0cbf ef8a 12be 00b6 1abe dd6a a4be
00000020: 2f14 26be 7e9c abbe 52ed e93d 1159 03bc
00000030: 2af2 fe3c 1420 8c3e ee1a a5bd 1c6a 67bc
00000040: b654 50be 6611 3b3e 6c31 7dbc 7d5b 2fbe
00000050: b488 3bbd 491a 44be e2e3 e1bd 5832 8ebe
00000060: e620 2ebf 9157 d2bc 5e92 00be 9c66 953d
00000070: bde4 f0be 7eea f7bc 85e9 a3be edc3 7ebe
00000080: 1f51 d3bc 4473 71be 03e3 37be ff83 2cbe
00000090: 565d 3abe 0236 96bd 5eae 51bd 77ff 0cbe
000000a0: 9f61 07bf bcbc 01be 9e84 07be eb52 3bbe
000000b0: e424 15bf 31a4 1abf 4ddf 823d 5ee2 cbbd
000000c0: 35a1 0fbe 27d5 1abc f28c 27be 2285 abbd
000000d0: a6f4 2cbe 8cc6 bdbe 861e 91bd ae48 0bbe
000000e0: 8d6b 25be 1b26 44be 9838 433e c5f8 04be
000000f0: 0527 a1bd 97ad 8ebc dd00 8fbd 2542 23bf
-0.13605365 -0.15650518 0.274456 -0.13925123 -0.54723924 -0.14310811 -0.1510849 -0.3211278
-0.16218637 -0.33517832 0.114222184 -0.008016841 0.031121332 0.27368224 -0.08061777 -0.01412442
-0.20344815 0.18268356 -0.015453678 -0.17124744 -0.045784667 -0.19150652 -0.11029793 -0.27772784
-0.6801895 -0.02567652 -0.12555835 0.07294962 -0.47049513 -0.030263182 -0.320141 -0.24879427
-0.025795517 -0.23579127 -0.17957692 -0.16847228 -0.18199667 -0.0733452 -0.05119168 -0.13769327
-0.5288333 -0.12669653 -0.13234183 -0.1829335 -0.58259416 -0.60406786 0.063902475 -0.099552855
-0.1402634 -0.009450234 -0.1636236 -0.083750024 -0.16890201 -0.37065542 -0.070859 -0.13601944
-0.16154309 -0.19155161 0.19064558 -0.12985523 -0.078687705 -0.017416758 -0.069825865 -0.63772804

conv2.weight f4 [128, 64, 5, 5]
00000000: 1326 01bc d852 9c3b bbe3 4c3a 4926 66bc
00000010: 5ada 8cbc 4ce2 d03a 413a cbbc 9a92 f9bc
00000020: 897c 01bd 7a61 24bc 8bd2 dcbc d98b 53bb
00000030: a374 82bc 2276 80bc 8157 aebc d7fc f5bb
00000040: 574a 153b eabf 13bc 5836 d7bc 9049 d5bc
00000050: cb4f f9bb 1623 87bc b47d ebbc 58bd 4abc
00000060: 4fc1 65bc 0ba4 a4bc d55b 69bc a7dd 0dbc
00000070: 5f67 d3bb 5d46 13bd 461f cebc 63e7 9cba
00000080: 95e7 a3bc e5c6 e6bc 6747 a2bc ce4a 7dbc
00000090: 925d a6bc 0be9 a0bc 677d 40bc 05c7 42ba
000000a0: 4f82 9dbb 8109 163a 5f01 5fbc 4db4 9ebb
000000b0: 56e9 36bc 23c3 32bc bd51 c8bb 7b9f f3bb
000000c0: 8a13 debc 1f78 703b 1acf a73c 3ba4 473b
000000d0: 850a b4bb f62c 21bc 97ed eebc 5098 383c
000000e0: 7820 5e3b ef61 0dbc b8de 6fbc 9c2b 1dbd
000000f0: 85a6 803b 6c61 1fbb 2866 c83b a336 b8bc
00000100: b6fe adbc 6217 e03c 295c 5b3c e5b6 c0bc
00000110: fd89 97bb 0db6 02bd dc27 433d c27b 643c
00000120: d806 f03a d607 8fbc 17e3 1bbc 64de 28bc
00000130: 8a73 c6bc 2ea4 cdbc 0fd2 19bc 556b 1abd
00000140: 3b95 24bc 1d30 4ebc dbe3 22bc 1fc9 93bc
00000150: ea54 18bd e682 97ba 3a38 bc3a 3204 1dbc
00000160: 5677 11bc 4e30 e9bc 2c3d f0bc 771d 8f3b
00000170: b61b bb38 be78 98bc ed7b e8bb c514 a0bc
00000180: 0045 c1bc 2276 0cbd b41c f6bc 764e efbc
00000190: 3891 b03b cfc3 74bc 1792 01bd c82d ccbc
000001a0: a403 35bc e6f6 82bc 3294 11bd a4ac bbbc
000001b0: 34c6 d8bb ed52 f4bb a18a 2cbc d4ba d6bc
000001c0: 8c9d a8bc 066e b6bb c669 5bbc db18 42bb
000001d0: 3220 a1bc a2ea d1bc 7119 83bc 34b9 46bc
000001e0: c4d3 923c a717 8bbc 6f66 fcbb 9a5c 173b
000001f0: ca26 9ebc acc2 ee3b 4b87 713a 2389 87bc
00000200: 624b 6cbc fef0 b93b 7807 453c c961 24bc
00000210: 47d3 05bb 97c5 7bbc 632a 46bc c0a4 4a3c
00000220: ac0a 153c 493a af3b 35ab 7bbc be16 f039
00000230: 6de7 39bc 8153 153b 585e 81bc 413f 2dbb
00000240: 6918 1bbc 4446 80bc 853f 2cbc 8fb6 b93b
00000250: 3007 f5bb a0de 553c dfd7 453b 1ff7 8bbb
00000260: 5421 2f3c 4d0a 9b3b 1f59 7f3c d3e4 0d3c
00000270: 4f98 10bc d598 733c 58a5 4f3b 263a 623c
00000280: 7194 f2bb 5d33 6e3b 925b 18b8 4b7f d93b
00000290: 0dd9 a4bc 9013 153c 631e 1dbc 122a 88bc
000002a0: 6b5a 8339 76c5 23bc caf5 59bc 88f0 b1bc
000002b0: 6adf abbc 5215 963b 831d da3b b839 8ebc
000002c0: 83d7 283b 9783 04bd 9b58 c7bc 4182 d7bc
000002d0: b508 c0bc 0f91 f1b9 9e91 00bd 3cac f5bc
000002e0: 2d56 e0bc 51d9 77bb d4dd cc39 ecca 43ba
000002f0: 58e7 69bc 23d7 e03a 88d4 ebbb c75e 99bb
00000300: fcdc a83a d815 c7bc eb37 bebc e92a 4cbc
00000310: 96a4 b1ba eada 403b 53ad 41b8 88f1 06bc
00000320: 2e73 8cbc d55d b33b 9cbb 75bc 99e3 81bc
00000330: f508 173c a959 b1bc 37e6 9e3a 41a4 5cbc
00000340: 5065 5dbc 39d1 babc ce9a 7f3b 4c98 b0bc
00000350: 3a3a bcbc ed6d 003a 1fb6 bebc ac95 56bc
00000360: e126 c2bc baa9 febb 5e64 6cba f3a1 1dbc
00000370: bbb9 b7bc 0bf5 8bbb b382 06bc e3c7 0bbd
00000380: eaab fbbb ae7e 75bb 100c 28bb ecfa 1ebb
00000390: 08a0 a3bc c043 48bc f32d 84bc 54da 4cbc
000003a0: 2715 64bc 9d14 ee3b 0f88 553b 5dd1 b8bc
000003b0: 70b8 8f3b 231a c9ba f77a c5ba 8ac3 49bc
000003c0: 07ef 1bbc 736e 38bb 0872 79b9 a149 773b
000003d0: fa7e 933c e117 a83a ffc3 26bb 263a 81bc
000003e0: 6c5a 38bc 117f e43b f8e6 2c3d ce62 5ebb
000003f0: ff7a 9cbc 61b4 16bd 25ab 49bc e90e 263d
-0.007882613 0.004770618 0.0007815917 -0.014047214 -0.017193962 0.0015936582 -0.024808051 -0.030465413
-0.031612907 -0.010033006 -0.026955863 -0.00322794 -0.015924757 -0.01568133 -0.02128196 -0.0075069475
0.0022779906 -0.009017924 -0.02627103 -0.026036054 -0.007608389 -0.016496222 -0.028746463 -0.012374245
-0.014023139 -0.020097753 -0.014243086 -0.008658803 -0.006451532 -0.035955776 -0.025161397 -0.0011970814
-0.020007888 -0.028171012 -0.019809438 -0.015459729 -0.02030829 -0.019642374 -0.011748648 -0.0007430169
-0.0048067938 0.0005723462 -0.013611167 -0.004843271 -0.01116403 -0.010910782 -0.0061132596 -0.007434783
-0.027108926 0.0036692692 0.020484496 0.003046288 -0.005494418 -0.00983738 -0.029166026 0.011266783
0.0033893865 -0.008629306 -0.014640503 -0.038371667 0.0039261007 -0.0024319543 0.0061156936 -0.02248699
-0.02123962 0.0273549 0.013388672 -0.02352471 -0.004624604 -0.0319119 0.047645435 0.013945522
0.0018312586 -0.017459791 -0.009514592 -0.010306928 -0.024225015 -0.025102701 -0.009388461 -0.037700016
-0.010045345 -0.012584713 -0.00994202 -0.018040238 -0.037190355 -0.0011559397 0.0014360019 -0.00958352
-0.00887855 -0.028465416 -0.029326044 0.004367526 8.9220164e-05 -0.018612262 -0.007094851 -0.019541154
-0.023592472 -0.034292348 -0.030042984 -0.029212218 0.005388405 -0.0149392625 -0.031633463 -0.024924174
-0.011048231 -0.015986871 -0.03554172 -0.02290947 -0.0066154245 -0.0074561746 -0.010531099 -0.026212133
-0.020582937 -0.005567315 -0.013391918 -0.0029616866 -0.019668672 -0.025624577 -0.016003342 -0.012129117
0.017923243 -0.016979052 -0.0077026407 0.0023095966 -0.019305605 0.0072863903 0.00092135806 -0.016544884
-0.01442227 0.0056744805 0.0120257065 -0.010033079 -0.002042012 -0.015366933 -0.012095067 0.012368381
0.009096783 0.0053475243 -0.015360643 0.0004579331 -0.01134668 0.0022785368 -0.015792057 -0.0026435407
-0.009466269 -0.015658505 -0.010513191 0.0056675146 -0.0074776635 0.013053566 0.0030188484 -0.0042714025
0.010689098 0.0047314526 0.015585213 0.008660513 -0.008825376 0.014867981 0.0031684246 0.013807809
-0.0074029495 0.0036346533 -3.6324906e-05 0.006637489 -0.02012303 0.009098902 -0.009589764 -0.016621623
0.00025053634 -0.009995809 -0.01330323 -0.02172114 -0.020980556 0.0045801783 0.00665635 -0.017361507
0.002576322 -0.032352056 -0.024334243 -0.026307227 -0.023441652 -0.0004607518 -0.03138887 -0.029989354
-0.027384842 -0.003781874 0.00039075187 -0.00074688974 -0.014276348 0.001715396 -0.0071969666 -0.004680488
0.0012883241 -0.024302408 -0.023220023 -0.012461402 -0.0013553079 0.0029427358 -4.6176207e-05 -0.0082362965
-0.017144766 0.005473832 -0.014998343 -0.015855597 0.009218444 -0.021649199 0.0012123053 -0.013466896
-0.013512924 -0.022804843 0.0039002183 -0.021556996 -0.022976983 0.0004899193 -0.023280201 -0.013097208
-0.02370018 -0.007771698 -0.00090176414 -0.009621131 -0.02242743 -0.0042711548 -0.008209872 -0.034126174
-0.007680406 -0.003745954 -0.0025641955 -0.0024258448 -0.01997377 -0.012223184 -0.016135192 -0.012503225
-0.013921059 0.007265641 0.0032582318 -0.02256077 0.0043860003 -0.0015342872 -0.0015066554 -0.012314687
-0.009517438 -0.0028142005 -0.0002378897 0.0037733095 0.018004883 0.0012824499 -0.0025446413 -0.015774798
-0.011252027 0.0069731553 0.042212456 -0.0033933404 -0.019101618 -0.036793116 -0.01230887 0.040541563

conv2.bias f4 [128]
00000000: 0c42 9b3d 3586 77bb 9f6b 76bd 61b4 17bd
00000010: 0f45 93bc dbcf 703c 1511 e0bd 5e8d b5bd
00000020: c659 c73c 9b52 253d e400 d23c 42c6 d5bb
00000030: 19bb 06bd 8897 923c c40a b3bd a257 e63d
00000040: 96d7 223c b01d 33bd 16a4 c0bb 0b31 7e3d
00000050: 22de 903b 6526 fc3b 9b5c 18bc 8de2 873c
00000060: c2c8 993b 569d e5bd e5d1 5c3b 77f4 853d
00000070: aadc 8fbc 6306 713d 177a b3bb 5541 acba
00000080: f785 a3bc 2029 96bd c88f 92bd e819 7e3d
00000090: 074a b7bc c3d8 4cbd 810e 173d 5c06 00bd
000000a0: 4fd9 0c3c 4194 8cbc 902a 093b be0d 60bd
000000b0: d400 fd3b df4a 71bc 7875 64bc 4919 f6bc
000000c0: 7ed5 08bc 78aa 1cbc cb4b de3c 7320 b03c
000000d0: 2df7 7c3d 89f7 103d d6f4 aa3d 7436 113c
000000e0: fa9a b5bc 71d2 5d3d 2d5e 333d 6612 403c
000000f0: 99b0 80bb c365 54bc 9515 763c 9ec3 c43b
00000100: a774 e83b 3dd7 e1bc 8952 e33c 64bd 66bc
00000110: e179 f2bd 868f 9f3c e998 2dbd 68c4 a7bc
00000120: 4a7e 67bc 12f0 023c 4931 1d3d 075c 59bd
00000130: 50bf 2fbd ccd6 793d 3f96 e3bc 789d 4d3d
00000140: 7cf7 8e3d b3d4 73b9 8e74 1abc 9c5f 93bb
00000150: 2a37 6abb ca12 ebbc a696 c5ba 11a2 b1bb
00000160: 5f90 adba becf 053d 847b 8d3d f4d0 623b
00000170: a485 acbd 52d5 58bb d1e3 143e 7a8e 77bd
00000180: 8082 513c 1f32 c8bd bb1f 60bb 3576 a2bc
00000190: 9ac2 eabb 2162 56bc 2b44 833d bd21 27bc
000001a0: d155 babc 1205 2b3c 1278 553d de2b d7bd
000001b0: 7707 c8bc 8d44 853d b08c 1639 8415 283d
000001c0: fae4 f0bc ff81 3cbc 45af 063d 7106 b73b
000001d0: a375 89b8 45bf 8c3d 1453 a2bc 8d38 9f3c
000001e0: 720f ac3a 0e30 04bd 49e8 623d 0c60 49bc
000001f0: 0085 a3bc 38f3 ba3a 3c0a 6f3c f077 04bc
0.07580957 -0.0037769203 -0.06016123 -0.037037257 -0.017977266 0.014697994 -0.10940758 -0.08864854
0.0243348 0.04036198 0.02563519 -0.0065238783 -0.032893274 0.017894521 -0.08742288 0.112471834
0.009939095 -0.043729484 -0.0058789356 0.06205849 0.0044210115 0.0076950067 -0.009299423 0.01658752
0.0046931216 -0.1121165 0.0033694443 0.065407686 -0.017561276 0.05884398 -0.0054772007 -0.0013142029
-0.01996134 -0.07332063 -0.0715633 0.062036425 -0.022374166 -0.050011408 0.036879066 -0.031256065
0.008596732 -0.017160537 0.002092991 -0.054700606 0.007721046 -0.014727323 -0.013944022 -0.030041354
-0.008351682 -0.009562127 0.02713575 0.021499848 0.061759163 0.035392318 0.0834748 0.00886308
-0.022168625 0.05415577 0.043790985 0.0117231365 -0.003927302 -0.012963715 0.015019794 0.0060047647
0.007093984 -0.027568454 0.027749317 -0.01408324 -0.11839653 0.019477617 -0.042382155 -0.020479396
-0.014129231 0.007991808 0.03837708 -0.05306628 -0.04290706 0.060995862 -0.027781604 0.050199002
0.06980798 -0.00023253523 -0.009427203 -0.0044974815 -0.0035738447 -0.028695483 -0.0015074804 -0.005420931
-0.0013241878 0.03266882 0.06908324 0.003460941 -0.084239274 -0.0033086133 0.1454003 -0.06043861
0.012787461 -0.09775185 -0.00341986 -0.019831756 -0.0071643116 -0.013084919 0.064094864 -0.010200915
-0.022745999 0.010438221 0.05211646 -0.10506414 -0.024417622 0.06507216 0.00014357525 0.041036144
-0.02940606 -0.011505603 0.032881994 0.0055854847 -6.5545806e-05 0.06872419 -0.019815005 0.019436145
0.0013127162 -0.03227239 0.055397306 -0.012290966 -0.01996088 0.0014263159 0.014589842 -0.008085236

fc1.weight f4 [64, 128]
00000000: eb81 a3bc 5804 603c b90d c03d e1be fbbd
00000010: 64e2 b83c 86cb c3bb a51e a33d f6fb b73d
00000020: 533e 6d3d d4e1 983d e496 9d3b 1643 833d
00000030: b5fa e9bd 533e 093d f321 40be 4d52 9cbe
00000040: 6e18 8ebc 50b5 9cbd dd4e 1b3c d7ed 583c
00000050: 90f6 483d 9fb6 61bd af2d 563d 60f5 353d
00000060: 4ab6 e13b effa ad3d 0a27 babc d54a 2fbe
00000070: 98c1 1c3d 1fb0 dd3c 2b77 4f3d f7e1 683c
00000080: 80e7 26bd 392c 87be bdf9 27be 4cd5 7cbd
00000090: eb79 a0bd effe d5bb a6a8 e4bd e7b4 013d
000000a0: b718 83bc 3e83 1c3c 697d 3f3b 18c5 033d
000000b0: c5c3 a73c 01c4 9ebc 8827 043d bdcb 83bd
000000c0: 7d6d 6c3d 215b 20bd b7c8 c23d 3325 0fbd
000000d0: b332 4f3b 79d6 66ba 0316 e3bd d7e6 6fbc
000000e0: 04ab 06be dea4 f0bd 1dd0 2dbd bd0f 9c3c
000000f0: 5b09 013d 7fac 8fbc 6e86 84bd ef0c 773d
00000100: a32f fbb9 f411 fbbd faac f2bd 437c f43c
00000110: 8bfe 243d 950d 11bd 6597 09be d7a3 bcbc
00000120: 2367 893d dc36 b1bd 6a46 743b 9fb1 ac3b
00000130: 5a56 113d af83 1e3d 65c0 833d 0111 b2bd
00000140: bce4 dbbd 2453 a5bd 53e7 23bc 8acf d1bc
00000150: 241b c6bd 2802 9e3d 95c4 6abc eeec b1bd
00000160: ee40 09be 0149 143d d41d 62bb 719c 2b3d
00000170: 6119 943c 0196 023d de55 a4bc b32a b13d
00000180: f4ab 283c 1bc1 033e 3eaa 813d a59b 6fbb
00000190: dd44 b83c 599f 173c ae78 333c d851 4a3d
000001a0: f090 e53c dec4 063d 0faf f33c 7b57 8e3c
000001b0: e501 903d abf6 0bbe df0a 1ebd b7c8 2abc
000001c0: 828a 04be 53f9 953c d485 a8bc ff5a 283d
000001d0: 7898 853d e432 92bd 16d2 e539 7791 e2bd
000001e0: 16b1 41bd 1b65 8ebc 5500 28be c346 08bd
000001f0: 7337 3cbc c278 49bd 7843 c6bd 0d37 c8bc
00000200: f792 9a3c 4f15 e53c 4819 a03d 5fb2 493b
00000210: b322 7d3c 6c66 913d 3d95 163d 84cd d23d
00000220: be2e f9bd a38d 6a3d 1b98 94bd 7e36 c0bb
00000230: dc88 353d a304 2ebc 582c f63c c590 2e3c
00000240: e238 d0bc 55b4 663d 96f5 bcbb 2f76 13bc
00000250: 6702 2cbd 96bd eabc 7b13 a8bd 893d 2d3d
00000260: 216f 2bbd 75a6 b73d 412e 58bc 7413 863c
00000270: d681 e6bd b1ff 03bc e473 76bd 4b04 bbbd
00000280: ea0c f53c 197b 323d 36cb 3c3c ccf1 1f3d
00000290: 3652 34bc a6e0 43bc 6694 243c eb55 a73d
000002a0: 40fe efbb 4f0c 62bd 7892 abbd ea74 3a3d
000002b0: 17db f0bd 3692 98bd 04b7 b5bc c5d6 483d
000002c0: d40c 66bd 7b3c 253d 57f0 1dbe f7d1 13be
000002d0: ad9a bc39 b96c 15bd 1fb0 3c3a 9911 2ebd
000002e0: 67b0 7b3c 0ccc 1dbd fee3 80ba c935 83bd
000002f0: 6d6d d7bb db26 cdbc 5e17 d63c 368e c2bc
00000300: 587e 373d 0013 5ebc eda8 623d 7c46 853d
00000310: 3b90 933d 790d e8bb d398 a9bc 4061 4ebd
00000320: 21c0 2abe 3673 4d3d 774e 0b3c 1dbd 123c
00000330: 9e4e 92bd aaea 1abe 5aa3 4fbe 1497 4dbd
00000340: 0b3c 00bd cb64 493d 1c9c 02be 929c 723c
00000350: e736 ab3c 5528 03be a1b8 25bd 040d 1e3d
00000360: e4a9 96bc 192a 213d 8029 15bd 2ecf 703d
00000370: 51c6 ea3c de1e 8cbd fbb8 a4bd 08e4 a3bd
00000380: f024 ca3c b8cf bf3d 6181 1cbc 5bc8 433d
00000390: a387 16bd 34cd 0bbd 359f febc b89c f53a
000003a0: b359 f8bc 90cf f5bd dc12 043d 125a 543c
000003b0: fb7a 4dbc 91d5 d5bc b136 4f3c 80b6 c2bd
000003c0: 2806 8c3d 1f01 00be 53ad c4bc bf1d e7bc
000003d0: e414 edbd edac 20bd bf30 59bd 9781 353d
000003e0: 5743 4f3d fbf4 143c 92e8 9fbd a73c eb3b
000003f0: 6a6f 733d 5559 76bd 30e8 073d 09e0 36bd
-0.01995941 0.013672911 0.093776174 -0.12292267 0.022568889 -0.0059751896 0.07964829 0.089836046
0.057920765 0.07464948 0.0048092473 0.0640928 -0.11424772 0.033506703 -0.1876295 -0.3053154
-0.017345633 -0.0765177 0.009479252 0.013240299 0.049063265 -0.0551058 0.05228966 0.04442346
0.0068881856 0.084951274 -0.022723693 -0.1711839 0.038270563 0.02706152 0.050650757 0.0142140305
-0.04074812 -0.26400927 -0.16403861 -0.061726853 -0.07835754 -0.0065306346 -0.1116498 0.031666663
-0.016002996 0.009552775 0.0029219037 0.032170385 0.020479092 -0.019380571 0.032264262 -0.06435344
0.057721604 -0.039149407 0.095109396 -0.034947585 0.0031615912 -0.00088057626 -0.11088183 -0.014642439
-0.13151175 -0.11750196 -0.0424348 0.019050473 0.031503063 -0.017538307 -0.06470953 0.06031507
-0.00047909943 -0.12259284 -0.11849399 0.029844409 0.040281814 -0.035413343 -0.13436659 -0.023027344
0.06709125 -0.08653042 0.0037273415 0.0052701975 0.035482742 0.038699802 0.06433181 -0.086946495
-0.10736987 -0.080724984 -0.010003882 -0.025611658 -0.096731454 0.07715255 -0.014329095 -0.08687769
-0.13403675 0.036202434 -0.0034502642 0.04189724 0.018078508 0.031881336 -0.020060476 0.08650722
0.010294903 0.12866633 0.06331299 -0.0036561277 0.022493774 0.0092543 0.010954065 0.04939446
0.028023213 0.03290259 0.02974656 0.017375698 0.07031611 -0.13668315 -0.038584586 -0.010423831
-0.12943462 0.018307364 -0.020571627 0.041102406 0.06523222 -0.07138613 0.0004383481 -0.110629015
-0.047288023 -0.017382195 -0.16406377 -0.03327061 -0.0114878295 -0.04918743 -0.096808374 -0.024440313
0.018868906 0.027964262 0.07817322 0.0030776483 0.0154501675 0.070996135 0.03676342 0.10293105
-0.121671185 0.05726398 -0.07255574 -0.005865871 0.044319972 -0.010621223 0.030050442 0.010654633
-0.025417749 0.05632432 -0.005766581 -0.009000345 -0.04199448 -0.028654855 -0.082068406 0.042295013
-0.041854028 0.08967296 -0.013194622 0.016366698 -0.11255233 -0.008056567 -0.060169116 -0.09131678
0.029913384 0.043574426 0.011523059 0.039048955 -0.011005929 -0.011955416 0.010045147 0.081706844
-0.00732401 -0.05518752 -0.08377546 0.045521654 -0.11760538 -0.074497625 -0.022181995 0.049032945
-0.056164578 0.04034088 -0.15423714 -0.14435564 0.00035973397 -0.03648064 0.0007197875 -0.04249725
0.015361882 -0.038524672 -0.0009833572 -0.06406743 -0.006574324 -0.025042942 0.02613419 -0.023749452
0.044798225 -0.013554335 0.05533688 0.065075845 0.07205244 -0.007081684 -0.020702755 -0.050385714
-0.16674854 0.0501587 0.008502594 0.008956221 -0.07143901 -0.1512858 -0.20277157 -0.050192907
-0.03130726 0.04916839 -0.12754864 0.014807837 0.020900203 -0.12808354 -0.04045928 0.03858663
-0.018391557 0.039346788 -0.03641653 0.058791332 0.028659018 -0.06841825 -0.08043095 -0.08002478
0.024675816 0.09365791 -0.009552331 0.047798496 -0.036750447 -0.034131244 -0.031081775 0.0018738722
-0.03031621 -0.1200248 0.03224455 0.012960928 -0.012541528 -0.026102813 0.012647317 -0.09507465
0.06837112 -0.12500428 -0.024008429 -0.028212426 -0.1157625 -0.039227415 -0.053025004 0.04431304
0.05060133 0.009091611 -0.07808031 0.007178861 0.059432425 -0.060143787 0.033180416 -0.04464725

fc1.bias f4 [64]
00000000: f3c9 9c3e 7818 503e 3467 2d3f 1f31 6e3d
00000010: 6690 2e3e 83aa 993d 163b 793e 849d 3d3d
00000020: 0aea 863e f57a 93bd 642e 113f 183a 5abd
00000030: aecc c9bd e1e7 41be 12a9 ee3e 471f 26bd
00000040: a14e 14bd a89e 0a3f 4a60 0a3d 0b8a 6c3e
00000050: b09c 983e 50af 9c3e 0c09 3c3e cfe3 eb3d
00000060: 07e1 58bd b821 933e 84b1 dcbc 5ab4 173c
00000070: e256 c0bd 8cac 0c3d e2c9 043f 483b dd3e
00000080: a945 f93d e376 033d a9a0 133e 72aa 0f3e
00000090: c091 43bd 3a6c e73d ca43 293d 153a 443e
000000a0: b65c 9cbd 21c8 3a3f 3330 de3e 40ee 9b3c
000000b0: da82 353e 04e1 273d 72cf a43e def6 853c
000000c0: f930 68bd 2aee 213e 21f8 ac3d b7df 7ebd
000000d0: e30c 35bd 398f a93c bf54 36be 79bb 8abd
000000e0: 70a7 9f3e 304d 9c3e 4853 4b3e b16c 8c3c
000000f0: c84a 7a3d fd9e 7dbd a407 cbbd 2494 2b3e
0.30622825 0.20321834 0.677356 0.058152314 0.17047271 0.07503226 0.24338946 0.046292797
0.26350433 -0.072011866 0.5671141 -0.05327806 -0.09853493 -0.18936111 0.46613365 -0.040557172
-0.0362078 0.5414834 0.033783235 0.23099534 0.29807043 0.30602503 0.18362826 0.115180604
-0.052948978 0.28736663 -0.026940115 0.009259308 -0.093915716 0.03434424 0.5187055 0.4320929
0.1217149 0.0320958 0.14416756 0.14029863 -0.04774642 0.112999395 0.041324414 0.19162782
-0.07634871 0.7296162 0.43396148 0.019034505 0.17725697 0.040986076 0.32189518 0.016353067
-0.05668733 0.15813509 0.08445764 -0.06222507 -0.044201743 0.020698177 -0.17805766 -0.06774039
0.31182432 0.3052764 0.19855988 0.017141672 0.061106473 -0.0619192 -0.09913567 0.1675573

fc2.weight f4 [32, 64]
00000000: 66f3 ca3c 7f20 6f3d d8fd 01bd c2ac adbd
00000010: 6a4f 90bd 21a6 82bd a83a a2bd ee8f 95bd
00000020: f897 983c 641a 90bd abba a1bd eeb9 b4bd
00000030: afe4 a23d 429c 4abb c435 f0bc a8fd 31bd
00000040: e1db 863d 082c 85bd f3fd e33a 4f9a 9b3d
00000050: 39da 0a3d d359 ff3c cd50 b1bd ec49 213d
00000060: d0a2 43bd 5a44 a33d 180d c4bd fa80 a1bc
00000070: d046 96bd 4114 f1bc cdc6 39bd 2863 cebc
00000080: 7c8b 31bd 9316 b0bd ebb9 a53d be50 2abb
00000090: de1b 183d 1944 88bd 6ce5 963c c8bc a0bd
000000a0: c0e1 8dbc fb46 9e3d b200 023d c91d f23b
000000b0: 83c3 98bd adde aa3c c12f 7d3d 8315 0f3b
000000c0: b7a6 08bd cdda 703d daa6 bcbd 360c b6b8
000000d0: a7bd 193d 60b7 123b 7e59 51bd b8d1 783d
000000e0: fa4b 85bc 17a0 503d 3361 a6bd 2730 543d
000000f0: 1d7b be3b 55af 89bd 006a 953d cd58 8c3d
00000100: 3b92 3bbe 1384 14bd 7fb6 59be e11a c7bd
00000110: 5f5f 1ebe 5968 0e3e d05f 40bd 51b4 24bd
00000120: a2c7 1dbd 087c a4bd eae5 46bd f6d1 84bc
00000130: 613c 97bd 32f2 26be b48a 09be 5e2e 933e
00000140: 1de2 a3bd f9e0 93be 1693 32bd 7c9d dbbd
00000150: 1b2b d4bd 1ca1 813d 8654 2f3c 7abf d63d
00000160: 1c39 b2bd b852 e9bd d067 603e ce32 943d
00000170: 17e1 8e3d 9f01 f9bd 0b6d 22be bb59 34be
00000180: d86f 6dbe 8887 fc3c 7f62 17be 2cb5 d83c
00000190: 7352 953d c87e 0dbe eab6 2ebd c5af e5bd
000001a0: 7a46 7ebc 56e4 70be b53b 75be c8b1 983d
000001b0: 9230 9cbd a29f 09bc 8554 3d3d fc13 aebd
000001c0: 20c3 2b3d d7c1 1fbe cf76 dfbd b136 51bd
000001d0: 1dcf 8fbd c402 d5bd bbe9 053d f940 0f3c
000001e0: 1665 ad3d ca04 f1bd e004 8e3c c527 07bd
000001f0: 6564 ebbd 2ef5 de3c 447b 693d 72c3 433e
00000200: fcdc afbd e9ec cabd a5b6 c4bb 037c 883d
00000210: 5a95 543c 5ffc d2bd 00f3 8d3d 3f3a 783d
00000220: fcd1 663d a3eb 9b3d f7bb 053c dcb8 743c
00000230: 6c77 37bd 831b e03d 77b4 18bd 7a49 dc3c
00000240: 0ab5 0c3d 2218 c83d be71 2fbb b896 e73c
00000250: 2009 79bd 80c1 bd3d ed44 85bd 2815 77bc
00000260: 9768 38bb 6e13 a13c 9d19 78bd 41f7 3a35
00000270: bf08 9fbd 0f46 1dbd 6652 9dbd 41d9 b5bd
00000280: 96b3 123d 03e9 993d 28f6 aa3d a5a3 723d
00000290: 371b 7dbd 9f98 89bd 318f 4b3c 0160 ecbc
000002a0: 8b4d 7c3d cc8d 9c3b 7d3c cdba 0e6c dd3c
000002b0: 9275 3b3b 27b1 92bd 52a5 cbbc 668e 8cbc
000002c0: fe8a 01bd 5e30 57bd d875 123d 83db e43b
000002d0: a590 f7bc ff8c 2d3d b408 9d3c 98a6 69bd
000002e0: e6c6 bfbd e50e 25bd 8c69 033d 6b3f 913d
000002f0: cf10 e1bc 0af4 87bd 313e 413d 64b4 a6bd
00000300: 9848 003d 468a 56be cbf7 5dbd 5a95 823d
00000310: bd74 24bc cf24 83bc 1041 493d f3e9 a4bd
00000320: 83cf a2bd 5658 1b3d c792 2fbe f92e 91bc
00000330: a5e4 cbbd 11f8 19be 620d c5bd e703 11be
00000340: ba39 bbbc cb3d 063d 1445 01bd 8239 c8bd
00000350: c37c 49be 8f04 fe3d fa81 50be 027e c8bd
00000360: 57b3 ca3c 0684 cbbd d549 0fbe 76c9 233e
00000370: a568 813d 008a e7bb 8d89 2d3e a757 c1bc
00000380: efd0 d63d aea9 ef3d 03c9 5ebd bcc6 48be
00000390: fb93 2cbe 04b5 d63d 1700 c83c 951e a1bc
000003a0: 5112 9ebd 5e66 353e da5a 103e 28cc 69bd
000003b0: fcfb 2c3d a31b f9bd 3cd3 90be 7f16 563d
000003c0: fcf9 773c 8155 b23d e493 06be f800 7fbd
000003d0: c3b4 37bc 344f b6be e8a5 5bbc 5e36 b43d
000003e0: ec96 12be 2fbb 37be 27f9 c5bd 8c95 ab3d
000003f0: 01a6 8e3d 2e65 3cbc 80e3 babc 8280 593e
0.024774265 0.0583806 -0.031736225 -0.084802166 -0.07046397 -0.06379343 -0.07921344 -0.07302843
0.018627152 -0.070362836 -0.07896932 -0.08824526 0.07953774 -0.003091589 -0.029322512 -0.043454796
0.06584907 -0.06502539 0.0017394408 0.075977914 0.03389952 0.031170761 -0.0865799 0.039377138
-0.047762692 0.079720214 -0.0957281 -0.019714821 -0.07337725 -0.029428603 -0.045355607 -0.025193766
-0.043345913 -0.08598056 0.08092102 -0.0025988068 0.03713595 -0.066536136 0.018419944 -0.07848507
-0.01731956 0.07728382 0.031738944 0.0073888046 -0.07459166 0.020858133 0.06181312 0.002183289
-0.033362117 0.058802415 -0.09211512 -8.680711e-05 0.037534382 0.0022387132 -0.051110737 0.06074688
-0.01627158 0.050933924 -0.08124008 0.051803734 0.005813016 -0.06722895 0.072956085 0.06852875
-0.18317501 -0.03625877 -0.21261023 -0.097219236 -0.15466069 0.13906993 -0.046966374 -0.040211026
-0.038520463 -0.080314696 -0.048559107 -0.016213398 -0.07384563 -0.16303328 -0.13431817 0.28746313
-0.08002112 -0.28882578 -0.043597303 -0.10723397 -0.10359784 0.06329557 0.010701304 0.1048574
-0.08702299 -0.113927305 0.21914601 0.07236253 0.06976526 -0.12158512 -0.15861909 -0.17612354
-0.23187196 0.030826345 -0.14783667 0.026453577 0.072911166 -0.13817894 -0.04265491 -0.11215166
-0.015519733 -0.23524603 -0.23948558 0.07455784 -0.076264516 -0.008399876 0.046223182 -0.084999055
0.041934133 -0.15601288 -0.10911333 -0.05107755 -0.070219256 -0.10400918 0.032693606 0.008743518
0.08466546 -0.117684916 0.017336309 -0.03299691 -0.11493758 0.02721652 0.05700232 0.19117525
-0.08587071 -0.09908468 -0.0060032182 0.06664278 0.012975061 -0.10302042 0.06931114 0.060602423
0.0563526 0.076133035 0.00816249 0.014936652 -0.044791624 0.109427474 -0.03728148 0.026890505
0.03435234 0.09770228 -0.0026770676 0.02827011 -0.060799718 0.09265423 -0.06507287 -0.015080728
-0.0028138512 0.019662585 -0.0605713 6.96502e-07 -0.0776534 -0.03839689 -0.07681732 -0.088793285
0.035815798 0.075151466 0.08347732 0.059238095 -0.061793532 -0.06718563 0.012424276 -0.028854372
0.06159739 0.0047776457 -0.0015658286 0.027029064 0.0028604013 -0.071626954 -0.024859104 -0.017157745
-0.031626694 -0.05253636 0.035756916 0.0069841756 -0.03022034 0.042370792 0.019169189 -0.05704364
-0.09364109 -0.040297408 0.03208308 0.07092174 -0.027473835 -0.06638344 0.04717845 -0.081398755
0.03131923 -0.20951185 -0.054191392 0.06376143 -0.010037598 -0.016008763 0.049134314 -0.08052435
-0.07949736 0.03792604 -0.17145835 -0.017722594 -0.0995572 -0.15036036 -0.09621693 -0.14161645
-0.022854675 0.032773774 -0.03156002 -0.09776594 -0.19676499 0.12403213 -0.20362082 -0.09789659
0.024743719 -0.09937291 -0.13993008 0.1599482 0.063187875 -0.0070660114 0.16947003 -0.023601366
0.1048907 0.11702286 -0.05439092 -0.19607061 -0.16853325 0.10483745 0.024414105 -0.019667903
-0.07718337 0.17714831 0.14097157 -0.057079464 0.0422325 -0.121634744 -0.2828616 0.052267548
0.0151352845 0.08707715 -0.13142353 -0.062256783 -0.011212531 -0.35607302 -0.013406254 0.08799432
-0.14315385 -0.17942499 -0.09666663 0.08378133 0.069652565 -0.0114987325 -0.022813559 0.21240428

fc2.bias f4 [32]
00000000: 6d05 1bbd 0cee 653e 0b1d b9bd 0c2c ac3e
00000010: 4f55 83bd 42d9 9b3e e543 15be 533f cd3d
00000020: b202 9bbd 8457 dc3c 02a5 d5bd 9271 1f3f
00000030: f9d9 54bd 32f9 933c c76b cfbc 48d9 fe3d
00000040: f157 91bd 1884 ab3e d0ca f6bc 0bc7 a5bd
00000050: ae6b d83e 4e4a 803e 2e27 c33d be84 003d
00000060: 4ac1 ddbd 91dc cbbd ed6f 953d a737 163f
00000070: 88d0 a83e efc8 46bd 3ec7 65bd 1786 99bd
-0.03784697 0.22454089 -0.09038743 0.33627355 -0.06412756 0.30439192 -0.14576681 0.10021844
-0.075688735 0.0268972 -0.10431863 0.6228267 -0.051965687 0.018063162 -0.025319947 0.12443787
-0.070968516 0.33499217 -0.030126005 -0.08094605 0.42269653 0.2505669 0.09528957 0.031376593
-0.108278826 -0.09954179 0.07296739 0.5867867 0.32971597 -0.04853147 -0.056098215 -0.07496279

fc3.weight f4 [5, 32]
00000000: 9d18 9c3d 72a7 99be f6f0 0ebd 194d 1abf
00000010: 7558 a03e b3a3 8abf f434 1cbd 39be b4be
00000020: 230a 363e 8965 3b3e 11fc bdbb 7b39 e5be
00000030: d8e5 863b 7ea8 c93d a8e4 f93d 404e cd3e
00000040: 2dfe ec3d 7869 2b3f 7abf 34bd 733a 85bd
00000050: 0b30 69bf b1cb c8be d793 0dbe 8136 8d3e
00000060: fca7 fcbd 1cc8 9bbd 73f9 92be 313e acbe
00000070: aecd abbd 7889 e23d 97d1 523d f912 8bbd
00000080: 8031 2cbd 8996 993e 1ac1 2abd fc7a 80be
00000090: 374c e93d 7fce 9f3e 250a c6bd 567d d43d
000000a0: 8840 eb3d 8a27 95bd 449c a6bd b38c 23be
000000b0: b0b3 3ebd e07e 453d ced6 333d 3f49 52be
000000c0: e047 983d 86f5 c6bd ad7e 883d 6ed0 6cbd
000000d0: 7aff 6a3e 05f2 52be 8d92 70bd cc88 33be
000000e0: 0e31 2fbc 162a b4bb 3ea7 133e dfc5 d1be
000000f0: 21f8 e3be 113e c2bc c30a 533d 5747 fabc
00000100: 696a ddbd 209d 89be cdb8 28be b944 183f
00000110: 8a6c 2bbe 2970 503d 1af6 b83d 955c e73c
00000120: bef0 af3c e750 513d d893 e7bc 8047 fd3e
00000130: 800d ac3d b150 edbb 6933 afbd eb21 27bd
00000140: e531 873d 5d9a 383e 8c15 fa3d 124b c4bd
00000150: f7ca 053f 99be ad3d c13f ca3d e8ce c1bc
00000160: fc04 83bd aaaa 45bb c645 ac3d b5a2 1a3f
00000170: 8986 b43e 1124 c13d e99b e3bd 6732 ce3a
00000180: 2e61 b0bd e964 153f 5f52 c93b ac5a 6cbc
00000190: 64e2 67be 3bd6 d03e a4a3 ad3d c98c 0b3e
000001a0: a4b5 553e 13ea e4bd 306e af3d 54f3 2abe
000001b0: fc46 a73d 2834 003e 2571 8a3d 2d14 dabe
000001c0: de01 89bd 1b19 b0be 803c de3c 49e0 76bd
000001d0: c711 773e 0e24 b2be a3e9 883c b908 bbbe
000001e0: ac5e debd dd22 babd caf5 bd3e adaa 7ebe
000001f0: 24a4 e1bd e3c8 d0bd ea4f 3cbd 0f16 35bd
00000200: 78d3 0d3d 0836 cfbe 578f 95bd 3609 a33e
00000210: 54ee 6d3d 8781 293e 99e2 253b 9aba d53e
00000220: 36a5 99be 4f9c be3d 6d12 9cbd 66c0 8b3e
00000230: c147 82bd a023 b9be e844 e63d 0ee3 323c
00000240: 7099 803d 42af b0be fe19 01be ad12 54bd
00000250: ddf7 2d3e dd74 433f 232f 8abd 929d 8b3e
00000260: f1a2 90bd b5bd b5bd 4c1c f1be 1181 283e
00000270: 3e82 053e d126 a43d ac52 21bd a483 dc3d
0.07621882 -0.30010563 -0.034897767 -0.6027389 0.31317487 -1.0831207 -0.038136438 -0.35301378
0.17777304 0.18300451 -0.005797871 -0.44770417 0.004116755 0.098465905 0.12201816 0.40098763
0.11571918 0.6695781 -0.04412792 -0.06505289 -0.9108893 -0.39217904 -0.13825928 0.27580646
-0.12336728 -0.07606527 -0.2870594 -0.33641198 -0.0838884 0.11061376 0.05146941 -0.06790728
-0.042039394 0.29997662 -0.041688062 -0.2509383 0.1139149 0.31212232 -0.09669904 0.103754684
0.11486918 -0.07282932 -0.08135274 -0.15971641 -0.046558082 0.0482167 0.043906026 -0.20535754
0.07435584 -0.09714799 0.066647865 -0.05781596 0.22949019 -0.20600136 -0.05873351 -0.17532653
-0.010692848 -0.005498181 0.14419267 -0.40971276 -0.44525245 -0.023711236 0.051523935 -0.030551596
-0.10811312 -0.2687769 -0.16476746 0.5947986 -0.16740623 0.050888214 0.09031315 0.028242389
0.0214771 0.051102545 -0.02826874 0.49468613 0.084010124 -0.007242285 -0.085547276 -0.04080383
0.066013135 0.18027635 0.12211141 -0.09584631 0.52262825 0.08483619 0.09875441 -0.02365823
-0.06397435 -0.0030161538 0.08411746 0.6040452 0.35258892 0.09430707 -0.11113722 0.0015731574
-0.086122856 0.583571 0.0061438526 -0.014425915 -0.22644955 0.40788445 0.084784776 0.13627924
0.20870072 -0.111774586 0.085659385 -0.16694385 0.08167836 0.12519896 0.06759862 -0.42593518
-0.06689809 -0.34394154 0.027128458 -0.06027249 0.24127875 -0.34793133 0.01671297 -0.36530092
-0.10857901 -0.09088681 0.37101585 -0.24869795 -0.110176355 -0.10194566 -0.04597465 -0.04421049
0.0346255 -0.4047091 -0.073027305 0.31842965 0.058088616 0.16553317 0.0025312065 0.41743928
-0.30008858 0.09307157 -0.07620702 0.27295226 -0.06361342 -0.36159992 0.112436116 0.010918392
0.06279266 -0.3450871 -0.12607571 -0.051775623 0.16989084 0.76350194 -0.06747272 0.27268654
-0.070623286 -0.08874074 -0.470919 0.16455485 0.13037965 0.08015216 -0.039385483 0.10767296

fc3.bias f4 [5]
00000000: 6d3c 01be e5d9 dc3e c71b c3bd 0938 18be
00000010: e6bc 53be
-0.12620707 0.4313499 -0.095267825 -0.14865126 -0.20677528
