Assignment_1/1/Max_Pooling_New/Models/without/model-14.pth (torch_old, 882591 bytes, 10 tensors)

conv1.weight f4 [64, 3, 5, 5]
000000 9a 08 a7 bd ce b4 88 bd fd 4d 7b bd 6c ee 49 bd
       -0.081559375 -0.06675111 -0.061353672 -0.049299642
000010 a5 fc 8c bc 24 db cf bd 25 73 c7 bd 70 8c ab bd
       -0.017210314 -0.1014922 -0.09738759 -0.08376396
000020 a1 4c 4f bd d9 d1 06 3c 0c 8f f4 bd 0f 03 f2 bd
       -0.05061019 0.0082287425 -0.119413465 -0.1181699
000030 13 eb b8 bd 12 cf 0c bd 0a b2 28 3d b6 27 f8 bd
       -0.09029212 -0.034377165 0.041185416 -0.12116949
000040 a0 49 ef bd c8 24 9c bd 70 84 d5 bb 04 c2 91 3d
       -0.11683965 -0.07624203 -0.006516032 0.07117084
000050 5c 53 c8 bd 1e 87 b8 bd b4 cd 2b bd 25 bd cd 3c
       -0.097815245 -0.090101466 -0.04194422 0.025114605
000060 f4 4e b8 3d 12 e6 7a bd 75 24 ba bc 46 72 d4 3c
       0.08999434 -0.06125457 -0.022722462 0.025933396
000070 6a 05 9c 3d e3 93 f1 3d 2c 3d cf bd e6 df 8c bd
       0.0761822 0.11795785 -0.101190895 -0.06878643
000080 49 47 a0 bb 87 f6 a4 3d 8e 05 21 3e 47 52 0d be
       -0.0048913104 0.08054834 0.15724775 -0.13800918
000090 ba fd da bd df ee 9e bc 70 5d c6 3d 30 46 49 3e
       -0.10692926 -0.019401012 0.096857905 0.1965568
0000a0 a6 b8 1e be 6f 8a fd bd 48 b3 a6 bc 83 d1 e5 3d
       -0.15500125 -0.1237992 -0.02034916 0.11221602
0000b0 2c aa 5f 3e ae da 0f be 0f 89 e1 bd 88 7f 06 bc
       0.21842259 -0.14048263 -0.1101247 -0.008209117
0000c0 64 ad f0 3d 08 3d 5b 3e d5 1e 0b be 3a cb 44 bd
       0.11751822 0.2141 -0.1358598 -0.048045374
0000d0 39 7e 6f 3d df ed 23 3e e8 aa 73 3e 97 59 0e be
       0.058469985 0.1600871 0.23795664 -0.13901363
0000e0 85 77 4f bd f2 30 9a 3d ce 96 5b 3e 06 84 a4 3e
       -0.050651092 0.07528867 0.21444246 0.32131976
0000f0 7f d4 0e be 60 8b 45 bd a0 59 d0 3d 3a 23 8b 3e
       -0.13948248 -0.04822862 0.101733446 0.27175313
000100 41 0d cb 3e c1 f8 06 be a0 cc 15 bd 59 0c 07 3e
       0.3965855 -0.1318083 -0.0365721 0.13188304
000110 1b d1 9f 3e 9d a4 e0 3e 61 19 db bd 7e 99 10 bc
       0.31214222 0.4387559 -0.106982 -0.008825658
000120 b8 f7 21 3e 17 d6 a8 3e 7c 92 e1 3e d2 33 a8 3d
       0.15817153 0.32975838 0.4405707 0.08213009
000130 0b 97 42 3e 11 e6 81 3e 92 58 6a 3e 24 c6 05 3e
       0.19002931 0.2537084 0.2288535 0.13063866
000140 10 0b 84 3e 3c ef a9 3e 9f bf 83 3e 7d db ba 3d
       0.2578969 0.33190334 0.25732133 0.09123895
000150 22 96 28 bd 58 d8 87 3e 61 67 8c 3e dd 03 14 3e
       -0.041158803 0.26532245 0.27422622 0.14454599
000160 7e 5d 03 bd 9c c5 fd bd 4e b9 c1 3d 45 28 6c 3d
       -0.032071583 -0.123912066 0.09459172 0.05765559
000170 31 8a 53 3c 78 08 de bc bb b5 37 bd 46 18 ef bd
       0.012911365 -0.027103648 -0.044851046 -0.11674552
000180 39 fe 18 be 3e 20 4b bd 93 45 87 3d 6e a8 ad 3d
       -0.14940728 -0.049591295 0.06605067 0.08479391
000190 14 93 4c 3b 3a 74 ec 3c cb e8 60 3d df af bd 3c
       0.0031215595 0.028864015 0.05490951 0.023155151
0001a0 d2 70 81 bd dc ce e7 3d 1a 9f bb 3d a6 d7 cd bc
       -0.06320347 0.11318752 0.091612056 -0.025127243
0001b0 27 9c 46 be d0 77 9e be f2 2a f7 3d 27 d5 8d 3c
       -0.19395505 -0.30950785 0.12068738 0.017313553
0001c0 de f0 2a be a4 55 b3 be e7 7f dc be 49 a7 e5 3b
       -0.16693446 -0.35026276 -0.43066332 0.0070084673
0001d0 ab 79 12 be 3d 00 83 be 61 bf a6 be a1 73 af be
       -0.14304225 -0.2558612 -0.32567886 -0.34267905
0001e0 23 e1 df bd be 49 7f be f7 0b 6f be 33 90 29 be
       -0.10931613 -0.24930474 -0.23344408 -0.16558914
0001f0 66 56 29 be 71 a6 42 3e 50 d9 18 3e 5f 88 d5 3d
       -0.16536865 0.19008805 0.14926648 0.10426401
000200 67 42 1f 3d 2c d2 0d bd dc 52 8f 3e 3c 6c 5e 3e
       0.038881686 -0.034624264 0.27992904 0.21720976
000210 28 2b 63 3d 44 43 07 be 1d a0 6e be 0a af 8f 3e
       0.05546108 -0.13209254 -0.23303266 0.28063232
000220 91 e1 32 3e 9a c0 e4 bc d9 55 66 be cc cb 97 be
       0.1746886 -0.02792387 -0.22493686 -0.29647672
000230 2d a7 39 3e da 79 69 3d 6f 5f 74 bd f5 c7 10 be
       0.18130179 0.057000972 -0.059661325 -0.14138778
000240 c4 80 25 be 7f fb b5 3d cc dc 52 bc bb 20 ac 3b
       -0.16162401 0.0888586 -0.012870025 0.005252925
000250 55 99 60 3d 9d b4 37 3d df f1 69 3e 20 3d 4e 3e
       0.05483373 0.04484998 0.22846173 0.20140505
000260 af 5f 00 3e 12 bd 3a 3d 22 9a 63 3c 97 39 1a 3e
       0.125365 0.045590468 0.013891729 0.15061031
000270 dc fe fd 3d f8 ea 73 3d 1d c4 14 bc d5 67 16 bd
       0.12402126 0.059550256 -0.00907996 -0.036720116
000280 f8 34 af bc 60 d8 87 bd 39 72 bb bd 7d d8 b3 bd
       -0.021387562 -0.06633067 -0.091526456 -0.08781526
000290 a6 0b 80 bd 21 b9 57 be c6 87 8d be b9 88 83 be
       -0.06252222 -0.21066715 -0.2764265 -0.2569025
0002a0 6f 30 31 be 61 77 ad bd 4e e9 ac be c2 3c cf be
       -0.17303632 -0.08470035 -0.33771747 -0.40476042
0002b0 92 f0 b8 be 2b 3e 76 be 62 1b 03 be 16 fa a2 3e
       -0.3612104 -0.24047153 -0.12803414 0.31831425
0002c0 a6 ec a6 3e d8 f3 85 3e 34 c9 29 3e 73 e0 c3 3d
       0.32602423 0.261626 0.16580659 0.09564295
0002d0 ee ae 93 3e 88 fb 96 3e 91 ac 7a 3e 78 ae 29 3e
       0.28844398 0.29488778 0.24479891 0.16570461
0002e0 7a 14 d3 3d bf db 2a 3e 1b 2a 17 3e 87 35 0c 3e
       0.1030664 0.16685389 0.14762156 0.13692294
0002f0 cc ad 0d 3e 1c a2 0c 3e aa db 7b 3c 59 26 f6 bc
       0.1383583 0.13733715 0.015372196 -0.030047582
000300 57 81 f5 39 55 e1 af 3d 5c 16 20 3e 3e 9c c1 bd
       0.00046826407 0.085879005 0.1563353 -0.09453629
000310 f2 1b 1a be 6e ac ca bd 52 31 b4 3c db c8 ff 3d
       -0.15049723 -0.098961696 0.021996174 0.12489482
000320 73 23 54 3d 7d cf 15 3c dc 4c 0b bd 52 c6 4a bd
       0.05179162 0.009143707 -0.034008846 -0.04950554
000330 a2 00 2d bb ac 20 9b 3c 31 61 8d bc 6c ba 4e bd
       -0.0026398082 0.018936478 -0.017258259 -0.050470755
000340 84 9d 63 bd 91 49 57 bc f9 c7 85 bd b2 b8 e7 bd
       -0.05557014 -0.013140098 -0.065322824 -0.11314525
000350 aa f3 e2 bd 6e f4 74 bd 51 95 9a 3c 37 7e 16 be
       -0.110816315 -0.05980342 0.018870028 -0.14696585
000360 b2 ab 5a be 1b b8 36 be 86 ca 83 bd 9b ee 60 3d
       -0.21354559 -0.17843668 -0.06435113 0.054915052
000370 e6 1f 39 be 12 1a 80 be 5e 67 4e be e7 2b 8e bd
       -0.18078575 -0.2501989 -0.20156619 -0.069419675
000380 6e 33 81 3d db e8 8b be 43 a4 9b be 44 bb ad be
       0.063086376 -0.27326092 -0.3039876 -0.33931935
000390 42 af bf be 86 97 ba be 04 ef 43 be 0d 6a 45 be
       -0.374384 -0.36443728 -0.19134146 -0.19278736
0003a0 67 39 5c be ba 83 8c be ac 6c 99 be ac 89 7d bd
       -0.21506272 -0.2744425 -0.29965723 -0.061898872
0003b0 e8 1f f2 bc 52 f3 b7 bc 0c 0b af bd 97 0f 0e be
       -0.02955623 -0.022454891 -0.08547029 -0.13873135
0003c0 f4 0e 8a 3d 32 81 f2 3d 3d 84 1c 3e 6a c4 db 3d
       0.06741133 0.11841048 0.1528482 0.107308224
0003d0 8c 13 5f 3d 8e 7f 1d 3e 3f 0d 4b 3e 48 60 76 3e
       0.054462 0.1538069 0.19829272 0.24060166
0003e0 0b 91 64 3e c9 e3 4b 3e 86 d6 66 3d ad 8f 87 3d
       0.22320955 0.19911112 0.05635693 0.06619201
0003f0 00 9c 5e 3d 22 57 33 3c be 11 3f bc 3a 85 55 3d
       0.054347992 0.010946067 -0.011661945 0.052129008

conv1.bias f4 [64]
000000 d8 e6 04 bf 31 a7 7d be c3 6f b9 be cf 4e 8c be
       -0.5191474 -0.2477081 -0.3621808 -0.27403876
000010 aa b3 d8 bd 8f 27 2c bf f0 6a 03 be 3d 52 03 bf
       -0.10581143 -0.6724786 -0.12833762 -0.5129736
000020 fb 9d c9 be 32 c5 77 be b6 b7 91 bc dc da 54 bd
       -0.39378342 -0.24196318 -0.017787796 -0.051966533
000030 a9 ac f5 3e d8 16 68 be 0e d9 ee be 4e b9 81 bf
       0.47983292 -0.22664964 -0.46649975 -1.0134676
000040 f0 d8 81 be 3f e9 4f bf 6c 65 dd be a8 e8 a4 be
       -0.25360823 -0.8121528 -0.4324144 -0.32208753
000050 9f 48 d5 be 73 34 8e be 31 1c 1f be 93 13 80 bd
       -0.41656968 -0.2777439 -0.15538098 -0.062537335
000060 f5 d4 fc be f4 93 15 bf 3a 02 0a be 00 c1 05 bf
       -0.49381223 -0.58428884 -0.13477412 -0.5224762
000070 ea bd 84 bf 6f 95 d0 be a3 7c ba bd 42 2f 21 bf
       -1.0370457 -0.4073901 -0.09105804 -0.62962735
000080 09 56 8a be 3b e2 d2 be af d8 06 be b9 22 13 bf
       -0.27018765 -0.41188225 -0.13168596 -0.5747486
000090 f6 33 8b 3d fe 47 4f bf 9e 42 ec be c0 ed 00 3e
       0.0679702 -0.80969226 -0.46144575 0.12590694
0000a0 84 48 d1 be f8 67 a0 be 08 17 96 be 92 73 e2 be
       -0.40875638 -0.31329322 -0.29314446 -0.44228798
0000b0 89 f7 ae 3d 25 cd f7 be 98 aa 9b bf b3 b9 37 be
       0.08543307 -0.483987 -1.2161436 -0.17941932
0000c0 7f be ba bf f8 cb e2 be 81 a8 0b be fa 55 09 3e
       -1.4589385 -0.4429624 -0.13638498 0.13411704
0000d0 7c b0 54 bf 1e 5f d9 3d ae 03 65 bd 74 90 2d bf
       -0.83081794 0.10613845 -0.055911712 -0.6779854
0000e0 1f e1 f5 bd c7 8f e8 be b9 c1 23 be e6 e9 76 be
       -0.12005829 -0.45422193 -0.15991868 -0.24112663
0000f0 68 5e cb bf 46 ed 52 bf d6 9b 2a bf e6 9f 82 be
       -1.5888186 -0.823933 -0.66644037 -0.25512618

conv2.weight f4 [128, 64, 5, 5]
000000 ba 22 07 bd 57 f0 80 bc e9 7f 06 bc 48 0b c0 bb
       -0.032992102 -0.015739603 -0.008209207 -0.00586072
000010 f7 8d 09 bc f3 be e9 bc 51 3d 52 bc 38 18 ea bb
       -0.008395663 -0.028533434 -0.012832002 -0.0071440004
000020 b8 e7 b6 bb 8d 60 df bb b6 81 d6 bc bd fc 3b bc
       -0.0055818222 -0.0068169297 -0.026184898 -0.011473832
000030 67 8a d9 bb 54 dc b1 bb 95 d0 d6 bb 5b 81 ce bc
       -0.0066388133 -0.0054278765 -0.0065556266 -0.025208166
000040 16 55 3c bc 2a 96 de bb b4 77 b4 bb e7 de fb bb
       -0.011494895 -0.0067928033 -0.005507434 -0.007686484
000050 59 d0 d5 bc 44 a4 4e bc 4b 62 04 bc f0 dd f3 bb
       -0.026100324 -0.012612406 -0.0080800755 -0.0074422285
000060 d7 e9 3a bc 73 2a 04 3d 3c e0 ed 3c e9 09 97 3c
       -0.011408291 0.032267045 0.029037587 0.018437343
000070 2f 2c 18 3c 62 ce 61 3c 69 a9 01 3d 6d 78 d6 3c
       0.009287878 0.013782116 0.031655703 0.02618047
000080 89 b0 81 3c f9 25 cd 3b 60 9e 3b 3c d7 fc e4 3c
       0.015831249 0.00626063 0.011451334 0.027952595
000090 85 96 b0 3c 01 75 3f 3c 7a 72 98 3b 0a 0b 64 3c
       0.021556148 0.011685611 0.0046523185 0.013918648
0000a0 c0 d0 db 3c fe 6b a6 3c a4 68 43 3c d4 0c 1d 3c
       0.026832938 0.020315167 0.011926804 0.009585578
0000b0 3e c7 b5 3c b3 80 04 3d 23 6d e5 3c c1 db b0 3c
       0.022189733 0.0323493 0.028006142 0.021589162
0000c0 17 69 b1 3c e4 91 0a 3d f2 a3 bd bc 58 ed d1 bc
       0.021656556 0.03383054 -0.023149464 -0.02562587
0000d0 3e ab e0 bc 9e 76 f5 bc b7 44 10 bd 4f a4 d6 bc
       -0.027425405 -0.029963788 -0.03522178 -0.026201395
0000e0 13 c4 e2 bc b3 06 de bc a2 b8 d8 bc a9 a4 eb bc
       -0.027681386 -0.027102804 -0.026455227 -0.02876504
0000f0 a8 e9 04 bd 58 55 06 bd ef f2 ec bc 7b c9 c9 bc
       -0.032449394 -0.032796234 -0.028924434 -0.024632206
000100 e4 a0 be bc fd a9 11 bd 5b d3 0d bd 71 68 e2 bc
       -0.023270078 -0.035562504 -0.034625392 -0.027637692
000110 8d 97 9b bc b0 bc 6f bc c5 bc f6 bc 50 3b ee bc
       -0.018993163 -0.014632389 -0.03011931 -0.029081017
000120 c4 b5 a5 bc 72 50 1b bc 8e 20 2d bb b1 ab 0b bd
       -0.020228274 -0.009479629 -0.002641711 -0.034099285
000130 fe 80 08 bd 31 1f f1 bc 8f 3b c2 bc 98 a2 87 bc
       -0.03332614 -0.029433819 -0.02371004 -0.016557023
000140 0e 09 1a bd b7 79 10 bd 88 aa ff bc 02 82 da bc
       -0.03760629 -0.035272326 -0.031209245 -0.02667332
000150 af f2 b2 bc 87 1f 10 bd 6d 8b 09 bd 7b b4 fb bc
       -0.021844236 -0.035186317 -0.033580232 -0.030725708
000160 25 3c ef bc b5 e0 e1 bc 38 bb ef bc b2 2a f0 bc
       -0.029203484 -0.027572969 -0.029264078 -0.029317234
000170 3d 1c ee bc b3 5a fb bc 97 b7 03 bd 29 87 d3 bc
       -0.0290662 -0.030682897 -0.032157507 -0.025821285
000180 58 4b e4 bc ec a5 f1 bc 5c 57 07 bd 4c c5 15 bd
       -0.027867958 -0.029498063 -0.033042297 -0.03656511
000190 cc 6a 91 bc 26 f4 ab bc f0 7e a8 bc 31 d5 8e bc
       -0.01775112 -0.020990442 -0.020568341 -0.017435642
0001a0 40 bb 41 bc 74 8c 32 bc f4 b0 6a bc f1 95 6a bc
       -0.011824429 -0.010897744 -0.0143244155 -0.014317975
0001b0 e0 1f 30 bc 3a 22 ad bb f9 df cb bb 82 bb 10 bc
       -0.010749787 -0.005283621 -0.006221768 -0.008833768
0001c0 84 d8 08 bc d9 3d 99 bb b6 1c 69 3a 84 c9 72 ba
       -0.008352403 -0.0046765623 0.0008892523 -0.00092615956
0001d0 95 37 08 bb 7b 24 ab ba 96 7f 21 3b 9c a1 00 3c
       -0.0020785083 -0.0013057137 0.0024642698 0.007851031
0001e0 bf 9d e6 3b 8e ff dc 3b ef 27 07 3c a1 68 3b 3c
       0.007037848 0.0067443317 0.008249267 0.01143852
0001f0 cc af 80 3c 28 ff cb bc 75 76 d9 ba da d2 88 3c
       0.015708826 -0.024901941 -0.0016591089 0.016702104
000200 53 eb 04 3d f8 3c 69 3d 04 33 d5 bc 29 98 c4 bb
       0.032450985 0.05694291 -0.026025303 -0.005999584
000210 b3 7b 35 3c 4f d9 d7 3c 21 17 53 3d 48 48 df bc
       0.0110768555 0.026348738 0.05153573 -0.027256146
000220 5a 83 17 bc 66 90 e9 3b bb 19 c9 3c d2 4c 54 3d
       -0.009247625 0.0071278093 0.024548402 0.051831074
000230 b3 0d d7 bc c9 7d 00 bc d7 4f 1c 3c d5 fd f4 3c
       -0.02625165 -0.0078424895 0.00954052 0.029906193
000240 0e 0c 77 3d 47 5c a1 bc 8a d6 f2 3a 68 35 b1 3c
       0.06031423 -0.019697322 0.0018527072 0.021631911
000250 78 74 35 3d ac 6d 96 3d ef 45 61 bc db a3 88 bc
       0.044300526 0.07345137 -0.013749584 -0.016679695
000260 3a 76 79 bc 0f c7 36 bc 43 d7 cb bb 50 92 ac bc
       -0.015225941 -0.011155858 -0.0062207296 -0.021065861
000270 65 70 c0 bc 3d 8b ac bc f6 6b 7e bc 72 6f 1a bc
       -0.023491094 -0.021062488 -0.01552867 -0.009425985
000280 fe 0a b8 bc e6 81 cd bc fc 48 b6 bc df 10 8b bc
       -0.022466179 -0.025086354 -0.022251599 -0.016975818
000290 20 28 46 bc 37 7d 97 bc 9c be aa bc 1d 39 9e bc
       -0.0120945275 -0.018492324 -0.020842843 -0.019314343
0002a0 b6 57 86 bc aa 74 6b bc 28 00 5b bc 55 31 85 bc
       -0.016399246 -0.014371077 -0.0133667365 -0.016258875
0002b0 05 d6 8a bc b9 61 8c bc da 67 91 bc 22 69 67 bb
       -0.016947756 -0.017136442 -0.017749716 -0.0035310467
0002c0 52 8f 43 bc 72 f4 ad bc 95 70 d5 bc 95 a8 aa bc
       -0.011936026 -0.021234725 -0.02605466 -0.02083234
0002d0 fd 66 b0 ba 31 48 0a bc 89 24 85 bc a0 56 a2 bc
       -0.0013458427 -0.008440063 -0.016252773 -0.019816697
0002e0 81 39 75 bc 92 18 00 bb 87 7f c1 bb 3a 63 21 bc
       -0.014967323 -0.0019545895 -0.005905095 -0.009850318
0002f0 09 5d 36 bc 23 89 b4 bb aa f0 e1 3a ce fc 84 3a
       -0.01113058 -0.005509512 0.0017237861 0.0010146142
000300 f0 f2 59 3a 6f d0 20 3b 65 25 10 3c 6c 7a 50 3c
       0.00083140936 0.0024538299 0.008797978 0.0127245
000310 33 9e 72 3c 60 dd 8a 3c ff 23 a2 3c e2 78 c4 3c
       0.014808225 0.016951263 0.019792555 0.023983423
000320 a8 0a 46 bc b3 40 87 bc 6f 88 95 bc 6a 3f 85 bc
       -0.012087502 -0.016510343 -0.018253533 -0.01626559
000330 6d a0 31 bc 3c 45 68 bc cf 30 9c bc 75 49 b1 bc
       -0.010841471 -0.014176663 -0.019066243 -0.021641472
000340 f7 a6 a5 bc 0b 59 81 bc a4 db 64 bc 2c 24 a5 bc
       -0.020221217 -0.01578953 -0.013968382 -0.02015885
000350 83 bf bf bc c4 6a b9 bc 40 70 a0 bc e2 65 35 bc
       -0.02340675 -0.022633918 -0.019584775 -0.011071654
000360 c6 a6 95 bc 37 29 bd bc 24 26 bf bc de f3 ae bc
       -0.018268 -0.023090942 -0.023333617 -0.02135652
000370 8c 89 cc bb bc 00 76 bc b1 b2 ac bc 5e 70 b8 bc
       -0.006241983 -0.0150148235 -0.0210813 -0.022514518
000380 1d f4 ac bc c5 55 fe bc de 0e 03 bd 8d 00 ef bc
       -0.021112496 -0.031046757 -0.0319966 -0.029175067
000390 85 6d b5 bc 2a 5d 3f bc 85 fa 1f bd 18 93 1d bd
       -0.02214695 -0.011679927 -0.039057273 -0.038470358
0003a0 da 9c 0c bd 3d bc d9 bc 5c ed 89 bc 21 f9 25 bd
       -0.034329273 -0.026579017 -0.016836815 -0.04052079
0003b0 b0 26 24 bd b2 2d 10 bd 9e 6c ed bc 8d 6e b6 bc
       -0.040075958 -0.03519983 -0.028982457 -0.022269512
0003c0 07 35 10 bd dc f7 10 bd dd 6f 07 bd 0e 5b f2 bc
       -0.03520682 -0.035392627 -0.033065666 -0.029584434
0003d0 66 f1 d7 bc 1e 22 f0 bc 19 63 01 bd b9 e0 00 bd
       -0.026360225 -0.029313143 -0.031588648 -0.031464312
0003e0 f7 08 00 bd b6 89 f9 bc 0c 6d 8c bd ca 9c 77 bd
       -0.03125855 -0.030461174 -0.068567365 -0.06045226
0003f0 b3 5f 67 bd 25 1b 61 bd 47 46 8b bd 7a f2 83 bd
       -0.05648775 -0.054957528 -0.06800514 -0.06442733

conv2.bias f4 [128]
000000 ec 0e 83 bd ef 77 7a 3e 7d 2a f8 3d 31 47 86 bd
       -0.063993305 0.24459814 0.12117479 -0.065565474
000010 1d 7d 37 3d 61 f6 cc 3b ad c2 ac 3d 1c bd 44 be
       0.04479705 0.0062549566 0.08435569 -0.19212765
000020 d5 88 cf 3b ec dd 1d 3d ed bc cd 36 ae 3f 41 bc
       0.0063334503 0.03854172 6.13147e-06 -0.011794968
000030 0a 6a 0d 3d f9 4f 81 3d 2d 16 10 3d 32 ee 2d bc
       0.034524955 0.06314082 0.0351774 -0.010615872
000040 4d 82 b9 bd 65 45 85 3e 0a e9 24 bd 23 d1 cb 3f
       -0.09058056 0.26029506 -0.040261306 1.5923198
000050 cf be db bc db c5 ee be 6c 22 fe 3c 9a 3a d6 3d
       -0.026824383 -0.46635327 0.031022273 0.10460396
000060 b0 73 72 3d e8 f6 80 3a 04 77 a6 bd 15 31 cc 39
       0.05919236 0.0009839209 -0.08128169 0.0003894648
000070 d0 2f 95 3e 4c 6f 1d be f4 bb 22 bd 01 29 59 bd
       0.2913804 -0.15374488 -0.039730027 -0.05301762
000080 55 d4 3a 3d a3 db a6 3c 66 9c c9 3c 7e e2 1a 3d
       0.04561265 0.020368403 0.02461071 0.037813656
000090 cb cf e4 bc 85 a9 11 bd 21 0e 54 bd d4 c6 01 be
       -0.027931115 -0.035562057 -0.051771287 -0.12673503
0000a0 9e 46 94 bc c0 e2 a1 3c dd b7 1c bf e3 18 14 3d
       -0.01810008 0.019761443 -0.61218053 0.036156546
0000b0 08 96 3f bd ad d2 a0 3d 1d 1d 1e bc de f1 b9 3d
       -0.04677394 0.07852683 -0.009650496 0.09079336
0000c0 de c9 e0 bc 7f c7 25 be da bd 95 bd b7 6f 27 3d
       -0.027440008 -0.16189383 -0.07311602 0.040878024
0000d0 f9 bb e4 ba 4f d3 cd 3c 93 1b 65 be 51 6a 82 bd
       -0.001745104 0.025125174 -0.223738 -0.063679345
0000e0 1a fa 1f 3e 13 94 f3 bd de 0a 1e 3c fb b1 87 be
       0.1562275 -0.11893477 0.009646146 -0.26502976
0000f0 b9 89 9d 3d a0 23 9d bc a9 d4 4c be 02 3e 97 3d
       0.07692284 -0.019182026 -0.20002998 0.07384874
000100 15 07 e0 3d 6d 65 4c be e3 56 d9 b9 88 07 31 3d
       0.10938851 -0.19960566 -0.000414542 0.043220073
000110 34 42 ef bc 93 7a 21 3d 1c a3 12 bb a9 f0 3a bf
       -0.029206373 0.039423537 -0.0022375053 -0.7302347
000120 90 3b ab bd 4f 40 18 bd b0 c5 6c 3b 5c 54 5d be
       -0.0836097 -0.037170704 0.0036128573 -0.21614212
000130 a6 de ed 3c 9c 4f 03 3d b3 63 35 b9 08 d9 da 3c
       0.029036831 0.032058343 -0.00017298646 0.026714817
000140 0e 7e 12 bc f2 67 3b 3d 7c fd 4d 3d eb 71 c1 be
       -0.008941187 0.045753427 0.05029057 -0.37782225
000150 46 fa 21 be 15 0b 81 bd 5d fb ba 3e 41 4a 48 3e
       -0.15818128 -0.06300942 0.365199 0.19559576
000160 40 50 b9 ba 40 1c 54 bd fc 1c 1f 3e 0c 44 4c bc
       -0.0014138296 -0.051784754 0.155384 -0.0124673955
000170 10 c3 d9 bd d6 f5 48 39 09 57 5f bd 05 19 95 ba
       -0.10632908 0.00019165067 -0.054526363 -0.0011375254
000180 46 74 90 3d d0 9a 6e bd 74 66 0e be 98 58 44 bd
       0.070534274 -0.05825311 -0.1390627 -0.047936052
000190 b8 9b 06 b9 26 09 1e bd 1e 1b b6 3d e2 53 1f 3f
       -0.00012837246 -0.038582943 0.08891891 0.6223737
0001a0 76 50 85 3b a8 a1 95 bd 8a 90 17 3f 0a 71 85 3d
       0.0040684296 -0.07306224 0.59204924 0.06515701
0001b0 59 7f c0 bd 87 19 c9 3c a3 84 97 3d 2f 6e 76 bd
       -0.0939929 0.024548305 0.07398345 -0.060163673
0001c0 d5 15 2a bd f9 a6 83 38 2f 8e a3 bd 2e 52 06 bf
       -0.041524727 6.277668e-05 -0.07986104 -0.52469146
0001d0 87 ee 60 be 89 b0 00 ba 63 83 98 bd e9 c2 01 3a
       -0.21965991 -0.0004909118 -0.07446935 0.00049500033
0001e0 c1 19 95 bb a5 c7 8f 3d 93 89 87 3d 29 cb 97 3d
       -0.0045501892 0.07020501 0.06618037 0.074117966
0001f0 8b 0b a2 bd 9c f5 0f 3f 01 21 2d bd 8c 33 73 3d
       -0.07912358 0.56234145 -0.042267803 0.05937533

fc1.weight f4 [64, 128]
000000 03 41 09 3e 9f 5b bc be 05 b8 dd be bd 9f 5d be
       0.13403706 -0.3678865 -0.43304458 -0.21642967
000010 3a 40 3e 3e e3 58 be ba 39 6f a3 bd fc 08 d9 3d
       0.18579188 -0.001452234 -0.079801984 0.10597417
000020 37 db 95 be 7c f8 8d 3d 1d 4c 33 b9 f1 e5 2c bc
       -0.2926881 0.0693216 -0.00017099125 -0.010552869
000030 e9 88 76 3e 5f 90 ab ba bc c9 a5 bc 41 e1 56 3d
       0.24075665 -0.0013089291 -0.020237796 0.052460913
000040 d2 0f 95 3e 6a 70 cf 3d 83 38 25 3d 94 b5 8d 3e
       0.29113632 0.10128863 0.040337097 0.27677596
000050 72 f7 0b bd f5 1d 97 be 73 93 11 3e 99 d9 f2 be
       -0.03417153 -0.29515043 0.14216404 -0.4743164
000060 89 bc 89 3d c4 83 52 ba 68 ca be 3d ed 33 16 ba
       0.06725413 -0.0008030499 0.0931595 -0.00057297834
000070 c9 dd c3 bd 14 7e d6 3d 77 6e 99 b9 f3 b6 05 3e
       -0.095637865 0.10473266 -0.00029264737 0.13058071
000080 a6 6d 1e 3d 42 e1 9a 3c c1 78 f8 bb 82 b9 7c 3d
       0.038678788 0.01890624 -0.0075827544 0.06170035
000090 18 86 b8 be 11 9b 81 3e 7b 1d 09 3d 1d 9c bb 3d
       -0.36039805 0.2531362 0.03347538 0.091606356
0000a0 6b ad c6 3c ed aa c6 3d b9 3d 39 3e 8a 22 9c bc
       0.024252614 0.0970057 0.18089952 -0.019059438
0000b0 3a 31 85 bd 64 6c 99 3d aa c3 ae bb 50 58 15 bd
       -0.0650353 0.07491377 -0.0053333836 -0.036461174
0000c0 5c 40 0b bd 86 db 14 be f9 de 3d 3e d6 94 10 3e
       -0.033996925 -0.14536867 0.18542089 0.14119276
0000d0 79 3c ef b9 83 8d b5 3c 9c d9 00 3f b8 07 a0 3d
       -0.00045630688 0.022162205 0.50332046 0.07813972
0000e0 bd d8 25 bc 71 40 0d 3e 08 8d 18 3c f8 c5 97 3c
       -0.010122475 0.13794114 0.009310968 0.018527016
0000f0 31 9d 99 3d 90 bd b1 3d c6 ef 7c 3e 3c d4 ef 3d
       0.07500685 0.08678734 0.24700841 0.11710402
000100 5e 0f 5b 3e ab 2d 76 3d 76 01 86 be 03 6d c3 3c
       0.21392581 0.060102146 -0.2617299 0.023855692
000110 06 e2 03 3e 06 1c 43 3d 45 da 72 bd 31 5a 65 be
       0.1287919 0.047634147 -0.05929019 -0.22397687
000120 ae e2 cf bd db 56 69 3c ef 8b 22 3a 31 d0 8e 3c
       -0.101506576 0.014241899 0.00062006613 0.017433258
000130 7d 76 13 bd 91 cf e5 3c 6a f1 cd 39 c2 10 a6 3c
       -0.03600167 0.028053077 0.00039280514 0.020271663
000140 17 e2 5d 3d 16 ea 23 3d 0b ce 7a 3d 22 33 e9 3d
       0.054170694 0.040018164 0.061231654 0.11386706
000150 0d 4b ef 3d e6 1e 96 3d c4 20 c7 3d 16 b4 98 be
       0.11684237 0.07330112 0.097230464 -0.29824895
000160 b2 a5 89 bc 67 84 da 3d 24 be 58 be 6c 16 17 bd
       -0.016802642 0.10669785 -0.21166283 -0.036886618
000170 84 19 3a 3e 4b 0f 3f ba 8e 8f 37 3d 7b a2 53 be
       0.18173796 -0.00072883506 0.04481464 -0.2066745
000180 2f 75 93 3d 9f 46 7a b9 86 30 64 3d 39 33 8c 3d
       0.07200085 -0.00023868166 0.055710338 0.068457074
000190 d8 64 f7 ba d4 0a cb be 0e d5 18 3e 11 3d 87 bf
       -0.0018874658 -0.396567 0.14925024 -1.0565511
0001a0 af da f3 bc b0 4f 81 bc ed 69 2a bc 75 6a 78 3d
       -0.029767362 -0.015785068 -0.010401231 0.0606484
0001b0 a2 9b 08 3e dd a5 98 bc d5 ee 12 3e 70 87 a8 be
       0.13340619 -0.018633777 0.1434892 -0.3291583
0001c0 be 85 a5 3e 42 45 77 39 4f 50 97 be 60 45 70 be
       0.323286 0.00023581556 -0.29553458 -0.23463964
0001d0 f6 32 52 3e 58 a3 40 36 3a da a5 3d 8f fe 99 3a
       0.20527253 2.8705308e-06 0.08098264 0.0011748838
0001e0 61 a2 a8 bc bf 59 38 bd 75 e4 e1 bd 13 dd d0 be
       -0.02058524 -0.045007464 -0.11029903 -0.40793666
0001f0 23 00 87 3d c8 85 7e bf e1 d8 9e 3d 7e a1 b4 3d
       0.06591823 -0.99422884 0.0775621 0.08819865
000200 37 2c a6 3d 75 05 20 3e 5f 5f 46 3e a4 2e 0d 3e
       0.08113902 0.15627082 0.19372319 0.13787323
000210 db c5 05 3e 0b fa 95 bb d3 eb e1 bd fa bd 05 3d
       0.13063757 -0.0045769266 -0.11031308 0.03265188
000220 de 44 2b 3e 94 01 3a 3d 55 d2 3d 3a f6 2b 39 bc
       0.1672549 0.04541166 0.000724112 -0.011301985
000230 e2 86 4d 3e 19 86 85 bd d8 26 4f 3c 7a 57 24 bd
       0.20070985 -0.06519718 0.012643538 -0.040122487
000240 6d cd c1 3e c7 b7 31 be ca 1f 45 3d 89 95 a8 be
       0.3785204 -0.17355262 0.04812602 -0.32926586
000250 cc ee 7f bd 5f 65 10 3e e0 a2 bf 3d 49 94 24 3e
       -0.062483594 0.1410117 0.09357238 0.16072191
000260 7f 79 4e 3d 66 20 0c bb 2f de e8 3d b5 89 4c 3a
       0.050408836 -0.0021381616 0.11370503 0.00078025024
000270 65 bc e5 be 14 9c 0a 3e 8e 82 29 3c 3b 8d cf 3d
       -0.44870296 0.13536102 0.010346068 0.101343594
000280 46 7f 01 3d b2 6f cf bc f8 c6 0f bd f3 72 2b 3d
       0.031615518 -0.025321815 -0.03510186 0.04185767
000290 2a ca 97 3c a3 70 93 3e 16 67 49 3d 06 c1 9c 3e
       0.018529017 0.28796872 0.049170576 0.30616015
0002a0 b5 05 95 3a 16 99 81 3d d1 97 3b 3e d0 94 51 bd
       0.0011369499 0.06328027 0.18319632 -0.05116731
0002b0 b3 99 ae bd c3 e7 50 3d f0 28 21 bb 8b 42 15 be
       -0.085254095 0.051002275 -0.002459105 -0.14576165
0002c0 d1 93 bc bc c9 2b b6 3d 99 e7 d5 3d b6 1f d1 bd
       -0.023019703 0.0889507 0.10444564 -0.102111265
0002d0 bb a6 8a ba 0c eb 13 3c 8e f6 78 3e cc 14 da 3d
       -0.0010578254 0.0090282075 0.24312803 0.10648498
0002e0 6c 5a ce bb 83 50 47 3e db e9 89 3b 7d c6 68 3e
       -0.0062974 0.19464307 0.004208786 0.22731967
0002f0 56 36 bd 3d b2 16 12 3e 8a 4f a0 3d 90 33 01 3e
       0.092388794 0.1426647 0.07827671 0.12617326
000300 b1 a0 dd be 92 fe cc 3d 33 49 15 3e 02 78 38 bb
       -0.4328666 0.10009493 0.14578705 -0.0028147702
000310 23 3f ca 3d 66 15 e5 3c 7c e8 f0 3c 35 d2 05 bf
       0.098753236 0.027964305 0.029407732 -0.52273875
000320 42 0e 00 bd b9 66 12 3d 9f 23 0d bb c1 3f ba bd
       -0.031263597 0.035742495 -0.0021536124 -0.09094191
000330 11 e5 1a bd 4e 54 6c 3d b1 f3 3b ba 87 07 1c 3b
       -0.03781611 0.057697587 -0.0007169797 0.0023808198
000340 02 77 89 3d 6d 34 1b 3d 8e 1e ee 3c c5 5d 44 3e
       0.06712152 0.037891794 0.029067304 0.19176395
000350 29 9a 57 3e 26 45 d3 3d f9 06 b6 3a 9c ab 5c 3d
       0.21054901 0.103159234 0.0013887576 0.053874597
000360 e2 8b 25 3c b9 3a 8e bd 74 6d b9 be 1c aa d3 3c
       0.010104151 -0.06944794 -0.3621632 0.02583795
000370 21 45 89 3e b6 d1 f2 b8 ec d0 5c 3d 9e a7 f6 3d
       0.26810554 -0.00011578521 0.05391018 0.12043689
000380 79 1f 16 3d ac 83 c7 3c a0 d8 37 3d 30 ba 98 3d
       0.03665111 0.024354778 0.044884324 0.074573874
000390 83 83 63 bb 33 18 cf bc 8f 40 c4 3d 39 92 2c bf
       -0.0034715838 -0.025280094 0.09582626 -0.6741062
0003a0 ec 15 14 bd 30 85 39 be 07 e0 ff bd 84 b4 02 3d
       -0.03615372 -0.18117213 -0.12493902 0.031910434
0003b0 75 9a 19 3e 55 d5 29 3c af 65 64 be 4e 0b 8f 3e
       0.15000327 0.010365804 -0.22304414 0.27938312
0003c0 de b1 88 3e bb fa bf 39 bc 64 97 3d 12 60 24 bf
       0.26698202 0.00036617168 0.073922604 -0.6420909
0003d0 b6 76 fd bd 26 81 5d 3a 47 c0 db bc 08 f2 bc 39
       -0.12376158 0.00084497256 -0.026825083 0.00036038482
0003e0 2c c9 98 3b cf fd 00 be b7 7a 37 be 95 ed 92 3e
       0.0046626534 -0.1259682 -0.17917906 0.28696886
0003f0 58 18 ca 3d da 46 42 bf 0e 70 65 3d 32 c4 8b 3d
       0.098679245 -0.7588936 0.056015067 0.06824531

fc1.bias f4 [64]
000000 3c 59 9d 3e c7 b7 65 be 30 95 f5 ba 2b 5c 80 be
       0.30732143 -0.22433387 -0.0018736478 -0.2507032
000010 a1 aa b2 3c 06 8b 8b 3c 13 02 40 bd 15 7a f9 3e
       0.021809878 0.017034065 -0.046876978 0.48725954
000020 8c b0 a8 bd 8c cc 17 3e 44 69 1f 3e 24 c0 9f 3e
       -0.08236799 0.14824122 0.155675 0.3120128
000030 d7 cf bc 3e 6f d0 2f 3d ec 1a 9f b9 2c 91 9f 3d
       0.3687732 0.042923387 -0.00030346902 0.07791361
000040 53 e5 93 3e 14 75 79 bd 40 f1 07 3e aa e0 1c bc
       0.28885898 -0.06090267 0.13275623 -0.009575048
000050 f6 da 83 b8 6f 38 38 3f 81 21 4d 3c 18 26 8a ba
       -6.2873514e-05 0.7196111 0.012520195 -0.0010539917
000060 e6 de 6f 3c bf f1 ad b8 7a cb 86 3d e9 b6 6c 3f
       0.0146405455 -8.2943116e-05 0.06581779 0.924666
000070 ae 9b 78 ba fd 2e d8 3a 93 0a 5f b9 e2 a1 44 bc
       -0.00094836473 0.0016493496 -0.00021270876 -0.0120014865
000080 f5 13 a8 ba ef 8f 04 3f 71 3d e2 bd 85 b7 d4 ba
       -0.001282333 0.51782125 -0.11046875 -0.001622901
000090 f5 b0 c1 ba a1 a9 1b bd 02 70 8f ba 2b 89 83 bb
       -0.0014777469 -0.038003568 -0.0010943415 -0.0040141544
0000a0 27 32 1c 3e 1e 33 95 bd 06 0b 36 3f 67 81 d9 bd
       0.15253507 -0.072851405 0.7111057 -0.10620385
0000b0 d5 9a 8d 3e 93 76 a0 ba ab c9 39 3e aa 32 4a 3c
       0.2765719 -0.0012242369 0.18143336 0.012341181
0000c0 0b 88 5f ba 4c 97 43 be c4 ec b7 3c a4 da 6d be
       -0.0008527047 -0.19100684 0.022451766 -0.23227936
0000d0 ec dc 01 bc 98 d7 d7 3e 0b 3c c6 3e bc be fa ba
       -0.007926207 0.42156672 0.38717684 -0.001913033
0000e0 91 8d 8d 3e a6 4e 11 3e ef 13 0d bb 54 c5 80 3c
       0.2764707 0.14190158 -0.0021526774 0.015719093
0000f0 94 e9 1f 3f 81 19 47 3c 90 6d 64 3d c1 7c 5e 3e
       0.62465787 0.012152077 0.05576855 0.21727277

fc2.weight f4 [32, 64]
000000 ce 75 67 3a fc a2 48 ba 7f eb 89 39 8e d5 0a 39
       0.0008829505 -0.0007653681 0.00026306135 0.00013240261
000010 05 e3 11 ba 7f 5b 7c ba 24 a6 c3 39 9e a0 84 39
       -0.00055651396 -0.0009626671 0.00037317083 0.0002529667
000020 07 9d 5f 39 db 53 bc 37 0e 29 02 ba 60 a8 9e 39
       0.00021325434 2.2450395e-05 -0.0004965224 0.00030261558
000030 31 51 92 ba 73 30 91 39 79 12 32 3a 8b 90 13 b9
       -0.0011163113 0.00027692653 0.0006792914 -0.00014072859
000040 29 35 72 b9 82 4c 1a 3a d9 95 c6 b9 a0 27 17 ba
       -0.00023098722 0.00058860343 -0.00037877148 -0.00057660975
000050 8d 8c 6f 3a cb de 68 ba 10 a7 f0 39 f2 2b 51 ba
       0.000913807 -0.00088832964 0.00045900838 -0.00079792656
000060 4a d7 4c b9 c7 f2 95 3a 18 f0 97 38 1e e8 93 ba
       -0.00019535157 0.0011440151 7.244962e-05 -0.0011284386
000070 51 10 06 3a b9 e8 11 3a a6 11 36 b9 62 da 50 3a
       0.00051141257 0.00055659894 -0.00017363447 0.0007967112
000080 9b cf d8 b7 30 94 d7 38 9e bf c4 39 6a bd 57 b9
       -2.584588e-05 0.00010279601 0.000375268 -0.0002057456
000090 60 55 27 3a ff 03 ed b9 f5 41 88 39 39 fe 37 3a
       0.00063832663 -0.0004520714 0.00025989083 0.0007018778
0000a0 bf a3 3d 3a 71 9f 85 ba cb 2f d1 36 d4 dd 55 3a
       0.0007234178 -0.0010194612 6.234249e-06 0.000815836
0000b0 ac 99 85 ba b0 4e 31 b8 a8 6f 13 ba ed 6a 9a ba
       -0.0010192893 -4.2273372e-05 -0.0005624243 -0.0011781134
0000c0 c5 7a d8 38 f9 1d 80 ba e4 73 16 39 83 6b 34 ba
       0.0001032255 -0.0009774558 0.00014348287 -0.00068824756
0000d0 36 bf 39 b9 a1 01 0f b9 f2 33 46 ba 92 01 82 ba
       -0.00017714206 -0.0001363815 -0.0007560841 -0.0009918681
0000e0 f6 1a a6 ba 80 20 bc 39 7a 24 8f b9 17 af 77 3a
       -0.001267283 0.0003588237 -0.00027302263 0.00094483927
0000f0 51 c5 86 b9 36 58 3c 3a 81 60 0a 3a e8 12 4b b9
       -0.00025705484 0.00071847753 0.00052786624 -0.00019366632
000100 7c 2e 38 ba c8 be ce b8 cf 32 27 ba 9f d6 2f ba
       -0.00070259697 -9.858381e-05 -0.00063781155 -0.0006707701
000110 f4 b6 0e b9 06 d3 c3 b8 32 8e 68 39 f6 74 d5 b9
       -0.0001361033 -9.337631e-05 0.00022178216 -0.0004071367
000120 99 de 11 ba 89 0e 98 39 4a dd 94 38 ef aa 73 ba
       -0.00055644807 0.0002900253 7.098408e-05 -0.00092951854
000130 58 73 27 ba cb 73 78 ba fe 05 92 3a 23 c5 b5 b8
       -0.0006387732 -0.0009477704 0.0011140702 -8.667472e-05
000140 ca e7 9a ba 08 e9 32 ba 3b fd 17 b9 71 8f 12 39
       -0.0011818346 -0.00068248855 -0.00014494818 0.00013977081
000150 41 55 2f ba 5c 1a d2 b7 8b a3 80 3a e3 d4 3f ba
       -0.0006688424 -2.5046225e-05 0.0009814365 -0.00073177944
000160 22 e9 be 39 d3 5b 04 3a ca 8d 50 ba 32 69 95 b8
       0.00036413322 0.0005049083 -0.00079556985 -7.124468e-05
000170 37 c0 81 b9 9a b5 7f 3a 05 41 8b ba 10 7f 84 ba
       -0.0002474801 0.0009754539 -0.0010624236 -0.0010108668
000180 4d 4b dd b9 52 cf 8e ba 60 80 6b ba 9c c4 3d ba
       -0.00042208508 -0.0010895527 -0.0008983668 -0.0007239075
000190 34 b3 e2 b9 6b f9 01 3a d1 75 1e ba 76 26 eb b9
       -0.00043239596 0.00049581256 -0.00060447777 -0.00044851349
0001a0 3d c7 67 3a 82 11 5d ba ee 99 4f b7 d5 eb 3a 39
       0.00088416395 -0.000843309 -1.2374001e-05 0.00017826197
0001b0 29 7e 7a ba f7 3d 71 3a ec 78 01 b9 b0 d4 86 b9
       -0.00095555425 0.0009202654 -0.00012347446 -0.00025716936
0001c0 6f 18 09 b9 2f 16 90 3a 62 f7 16 b9 e0 91 e6 39
       -0.0001307444 0.0010992939 -0.00014397272 0.00043977704
0001d0 e4 d9 16 b8 4b e5 52 ba 27 5e 88 38 bb 1d e8 39
       -3.5965713e-05 -0.00080450316 6.5025226e-05 0.0004427264
0001e0 98 20 dd b9 f4 0c a9 b9 c1 68 fa b8 2a 1f fc b9
       -0.0004217669 -0.00032243843 -0.00011940441 -0.00048088405
0001f0 bd 52 05 39 74 d7 b7 b9 89 4a 54 b9 cd b4 ca b7
       0.00012714691 -0.00035065005 -0.00020245662 -2.4164468e-05
000200 b8 02 cd 3a a3 ae 5e 3a c2 0c 0a 39 43 a4 d5 39
       0.0015641069 0.0008494651 0.00013165458 0.0004074891
000210 f1 d2 8c b7 30 c9 be ba b7 14 e0 39 ce 6e 88 ba
       -1.6787528e-05 -0.0014555808 0.00042740043 -0.0010408999
000220 4f 3e 4b 39 ee d3 0a bb 9b e4 ad 39 94 e6 26 ba
       0.000193828 -0.002118345 0.00033167456 -0.0006366756
000230 f3 12 40 39 51 4b 4a 3a 6a 58 c0 37 dc d2 2a 39
       0.00018317606 0.00077169115 2.2929355e-05 0.00016291015
000240 61 f6 6a 3a 57 13 26 ba d5 e7 b5 b9 04 1c 0c 3a
       0.0008963105 -0.00063352793 -0.0003469574 0.0005344751
000250 4c f2 1c b8 0e f7 af ba 70 ed 8a ba 7c c7 58 ba
       -3.7418955e-05 -0.0013425068 -0.0010599326 -0.00082694716
000260 48 59 84 ba f1 00 96 b9 d1 40 05 39 51 b7 c2 ba
       -0.0010097409 -0.0002861093 0.00012708014 -0.0014855658
000270 11 46 c3 39 71 7b a0 39 3c dc 94 39 4f bc 33 b9
       0.00037245502 0.0003060955 0.00028392847 -0.0001714092
000280 10 39 12 ba 96 1b 05 bb ad 52 06 ba 35 af e3 38
       -0.0005577961 -0.0020310632 -0.0005124014 0.00010856838
000290 01 52 48 ba 93 f1 f8 ba dd d4 4d ba 13 12 66 ba
       -0.0007641614 -0.0018992893 -0.00078518485 -0.0008776497
0002a0 9d ee 73 ba e4 86 12 b9 ec 2a ad ba ab d4 14 3a
       -0.00093052705 -0.00013973896 -0.0013211644 0.0005677442
0002b0 41 4d 54 3a c7 02 53 ba bd 13 cf b9 0d c7 55 b9
       0.000809867 -0.0008049425 -0.00039496823 -0.00020387415
0002c0 47 93 fe b9 15 d6 68 b9 03 b2 c6 b9 89 67 fe 38
       -0.00048556385 -0.00022204996 -0.00037898132 0.00012130949
0002d0 ef ce 81 b8 fd 3e af b8 9e d2 73 ba af 40 9d b9
       -6.189744e-05 -8.356383e-05 -0.0009301099 -0.00029993567
0002e0 44 b8 a8 ba df bb 8e 39 81 0c 25 b9 67 bd 39 3a
       -0.0012872298 0.00027224325 -0.00015740284 0.0007085413
0002f0 92 ee 09 b9 2e e0 58 ba 75 5b c5 ba bf dc b5 ba
       -0.00013154213 -0.00082731515 -0.0015057164 -0.0013874992
000300 51 fa d1 be 8b f5 b5 bd e9 b6 10 bb 47 cb 2a bc
       -0.4101129 -0.08884724 -0.002208168 -0.010424442
000310 53 c7 22 bb 34 4e c4 bd 37 6b 9a bd 1e 85 12 be
       -0.0024838045 -0.095852286 -0.07539981 -0.14308593
000320 37 18 56 bd 09 c4 2c be 54 bd b2 bd 4b 39 7b 3d
       -0.052269187 -0.16871656 -0.08727518 0.061333936
000330 7e ae 18 3d 22 b7 71 bd 20 00 2d 3a c4 5f ad 3c
       0.037275784 -0.05901254 0.0006599445 0.021163829
000340 9c 35 4a be b8 61 53 bd 28 3f 83 3c b3 1e 7e bb
       -0.19747013 -0.051606864 0.016021326 -0.0038775622
000350 9b e9 d2 b9 8b 05 bf bc d9 43 b1 bb c2 97 1d b9
       -0.0004022837 -0.023318073 -0.0054096994 -0.00015029221
000360 05 73 51 bb 74 61 15 ba 6b 88 b0 3c fe ef 77 3e
       -0.0031959426 -0.00056984206 0.021549424 0.24212644
000370 4d 4d 5c 3a 44 25 4a b9 72 31 7a b9 d5 6b 45 bb
       0.00084038527 -0.00019278104 -0.00023860278 -0.0030124087
000380 7e fe 4f ba 8e f5 1d 3e 4b 00 96 bc 94 a4 ce ba
       -0.00079343456 0.15425703 -0.018310687 -0.0015765601
000390 96 9f c8 39 bf b5 19 3d d7 22 99 ba 46 7a 2d ba
       0.00038265873 0.037526842 -0.0011683357 -0.00066176464
0003a0 2f d9 a0 bd 61 f2 b1 bd 68 72 1e bd 2e 4f 0a be
       -0.078539245 -0.08688808 -0.038683325 -0.13506767
0003b0 e7 5f 59 be 18 f3 de 39 1e a9 e9 bc 18 62 d0 3b
       -0.2122799 0.0004252426 -0.028523024 0.00635935
0003c0 40 9f d6 b9 af 11 cd bb 3f 0e 87 3d 7a 2a 53 be
       -0.0004093591 -0.0062582116 0.06594514 -0.20621672
0003d0 bb a3 3c bd 19 93 21 3e bb 12 d7 3e f4 3f 54 bb
       -0.046054583 0.1577877 0.42006478 -0.0032386752
0003e0 78 51 c4 be 41 ff 4d bd c4 ef f4 3a 0c 92 0a bc
       -0.38343406 -0.050292257 0.0018687178 -0.008457672
0003f0 1e 11 3d be e1 f5 d6 bb f4 af 58 bd 13 e4 03 3a
       -0.18463561 -0.006560073 -0.052902177 0.0005031239

fc2.bias f4 [32]
000000 e6 4c c1 ba 9e 14 ac ba 24 4a 24 bb 56 32 41 3e
       -0.0014747649 -0.0013128703 -0.0025068605 0.18866858
000010 4c 1f 86 ba 61 4d 1b be bc f9 06 3f 99 e0 00 3f
       -0.0010232716 -0.15166236 0.52724814 0.5034271
000020 aa fe c4 3e e5 42 7f 3e 94 d2 98 ba f5 85 08 3e
       0.38475543 0.24927862 -0.0011659437 0.1333235
000030 92 52 7d be 34 d2 b5 3e 0d 91 a4 3e da 60 87 3e
       -0.2473853 0.35511935 0.32141915 0.2644108
000040 39 87 93 bd b2 70 25 bb a7 81 18 3f 49 fc d1 3e
       -0.07203526 -0.0025244174 0.59572834 0.4101279
000050 5c 22 83 3e fb 00 e4 3e 7a ef 8c 3e 9f b1 c4 3d
       0.25612152 0.44531998 0.27526456 0.09604191
000060 58 dd 13 be 4c 3c 17 bb 1e a7 dd 3e 02 95 84 3e
       -0.14439905 -0.0023076711 0.43291563 0.25894934
000070 c0 7d 31 3e 36 5a c7 3e b8 6e 28 bd 3d df 8f ba
       0.17333126 0.38936013 -0.041121215 -0.0010976564

fc3.weight f4 [5, 32]
000000 f5 d7 ee b9 68 0b e4 39 64 66 16 3a b7 61 1e bd
       -0.00045555798 0.00043496047 0.0005737303 -0.038667407
000010 50 05 8d 39 91 2e 8d 3d 53 8a 90 bf 5e ca 01 bf
       0.00026897574 0.068936475 -1.1292213 -0.5069941
000020 97 6a 8f 3e e0 ca 77 3e a8 7a 00 39 33 d4 a0 be
       0.2801101 0.24198484 0.00012252724 -0.31411895
000030 6b 2c 4f 3f 2b 4d 19 bf 37 97 a8 3e 49 dc 39 bf
       0.8092715 -0.59883374 0.32927868 -0.72601753
000040 2a 15 04 3e f0 db 62 bb 7b 72 83 3d 4b 9f 22 bf
       0.12898698 -0.0034615956 0.0641832 -0.6352431
000050 ef 7a 59 be 20 00 10 bf 2b 0c b8 3e 29 7e 89 be
       -0.21238302 -0.5625019 0.35946783 -0.26854065
000060 e5 d2 d2 3e 3b 44 d1 b9 b3 74 eb 3c 2d 6b 6a be
       0.41176525 -0.00039914422 0.02874217 -0.22892447
000070 61 1a 0c 3f 9b bf 03 3e 63 2d 0e 3f e1 ad 0d ba
       0.5472775 0.1286606 0.55538005 -0.0005404633
000080 5f e2 1b b9 87 9a d1 b9 b6 d4 cf 3a a7 49 76 be
       -0.00014866282 -0.00039978718 0.001585624 -0.24051534
000090 1c e3 c8 b8 c8 bc 66 be b5 c7 90 3e e7 7a f9 3e
       -9.5790456e-05 -0.22532952 0.28277364 0.4872658
0000a0 c4 e6 7d be 53 50 d9 3d fc db 50 ba 7c 44 bb bc
       -0.24795061 0.10611024 -0.00079673505 -0.022859804
0000b0 a4 9b 02 be 72 6f d1 3e d8 04 a4 3d b4 8c bc bd
       -0.12754685 0.4090534 0.08008736 -0.092065245
0000c0 9b d4 d4 3e ab 41 20 3b 40 c6 18 be b4 64 a1 3e
       0.41568455 0.0024453204 -0.14919376 0.31522143
0000d0 5f 0f f0 be 27 80 93 3d d9 01 d7 3d 33 12 74 be
       -0.46886727 0.072021775 0.10498399 -0.23835067
0000e0 7a 45 79 bd d2 7d 1a 3a ae 05 a7 bc 1c 02 93 3d
       -0.060857274 0.00058933825 -0.02038845 0.07178137
0000f0 17 a9 1d 3e d0 29 60 be 7a fa 08 bf 99 85 f0 b8
       0.15396534 -0.2189095 -0.53507197 -0.00011468976
000100 67 ff 97 ba 18 05 29 3a 6a f0 dc ba 92 9b e0 3e
       -0.0011596502 0.00064475974 -0.0016856317 0.4386869
000110 eb 7c 7c 3a 12 67 7f be b4 44 06 3e a7 a4 84 be
       0.00096316513 -0.24941662 0.13112146 -0.2590687
000120 1a 87 a9 3e 01 5c b7 3e ad 09 94 ba c0 03 af 3e
       0.33110887 0.3581238 -0.0011294388 0.3418255
000130 69 6f 3e be d4 5e d4 bd ee 99 88 3e c8 f5 f4 3e
       -0.18597187 -0.103696495 0.2667994 0.47843766
000140 de 76 f5 be 6d 55 a4 ba b0 26 03 3f f1 79 b9 3e
       -0.4794225 -0.0012537666 0.5123091 0.36225846
000150 26 7d ce 3e f7 d8 9a 3e 5f ad ab 3e c1 f7 e5 3e
       0.40329856 0.30243656 0.3353071 0.44915584
000160 f6 58 1f bf 9d 40 c2 ba d1 fa 12 3e 15 65 72 3e
       -0.6224512 -0.0014820282 0.14353491 0.23671372
000170 1d 64 79 3d 95 0b 7a 3c 66 fb 97 3e 39 a3 9a 3a
       0.06088649 0.01526155 0.2968399 0.0011797912
000180 7a f7 92 3a 0c d6 72 3a a7 c0 09 3b 58 e8 28 be
       0.001121267 0.0009263463 0.002101937 -0.16494882
000190 b3 dd 0b ba 59 ea 31 be 49 af 1d 3f 31 96 0b 3f
       -0.0005335465 -0.17374553 0.6159559 0.5452605
0001a0 8a 5e 11 bd cd d3 64 be 9e 4c 79 3a 98 b5 3b be
       -0.03549055 -0.2234642 0.0009510013 -0.18330991
0001b0 29 67 24 bf 3d 89 65 be 65 d6 28 be 61 25 ee bd
       -0.6421991 -0.22415633 -0.16488035 -0.11628223
0001c0 10 8e b0 3e 45 da 18 b9 ee fb 45 3d 5f 56 96 3e
       0.34483385 -0.00014577161 0.048335962 0.2936277
0001d0 d1 14 d1 3d 8f db ba 3e 39 8a 61 bd a3 dc 4d be
       0.102090485 0.36495635 -0.05506346 -0.20103697
0001e0 bf 97 ec 3e 3e 46 19 3a 44 0f 97 3e d8 3e e0 be
       0.46209523 0.0005846954 0.29503834 -0.43797946
0001f0 4b 94 31 bc 12 4e d1 3e ee 25 af be 05 eb d8 39
       -0.010838578 0.40879875 -0.34208626 0.00041373834
000200 a3 4c bd 38 ed 00 04 3a 30 52 47 ba 78 b8 a3 3b
       9.026497e-05 0.00050355383 -0.00076034945 0.0049963556
000210 b1 6e 24 b9 b5 83 14 3f d6 57 cd 3d b2 52 89 be
       -0.00015681495 0.5801347 0.10026519 -0.26820904
000220 d4 80 a7 be 7e 3c f8 be ba af 88 3a f8 a6 34 3e
       -0.32715476 -0.48483652 0.0010428347 0.17641819
000230 10 93 17 3e 3e 16 04 3f e4 88 03 bf 32 c5 e8 3e
       0.14802194 0.5159644 -0.51380754 0.45462948
000240 13 81 d1 be b1 66 15 bb ed 39 f4 be 91 f6 ab be
       -0.40918788 -0.0022796805 -0.47700444 -0.33586553
000250 48 e6 33 3e c7 b5 36 be ab 00 3f bf ab f4 84 3e
       0.17568314 -0.1784278 -0.74610394 0.25967917
000260 49 68 42 be f6 81 01 3a e8 54 e5 be 7a 85 b6 3e
       -0.18985094 0.0004940325 -0.4479134 0.3564871
000270 a4 62 40 bf 31 87 aa be 9f b7 b9 3c 41 9c cd 3a
       -0.75150514 -0.33306268 0.022670565 0.0015686826

fc3.bias f4 [5]
000000 78 ad 19 bf 91 df f1 3e 6f 3b b6 be c0 93 77 3e
       -0.6003032 0.4724088 -0.3559222 0.24177456
000010 99 52 78 3e
       0.24250259
