Assignment_1/1/Max_Pooling_New/Models/without/model-13.pth (torch_old, 882591 bytes, 10 tensors)

conv1.weight f4 [64, 3, 5, 5]
0	0xbd6c238b	-0.057651084
1	0xbd39e117	-0.045380678
2	0xbd2ae62b	-0.04172341
3	0xbcc664fb	-0.024218073
4	0x3ca0d074	0.019630648
5	0xbd88e239	-0.066837735
6	0xbd8d3c2d	-0.06896243
7	0xbd829169	-0.06375391
8	0xbd0d76d3	-0.034537148
9	0x3cf5e6c9	0.030017274
10	0xbda2d355	-0.07950465
11	0xbdadf2e2	-0.08493592
12	0xbd8d90e7	-0.069124036
13	0xbcbd6fee	-0.023124661
14	0x3d5a2c23	0.05326475
15	0xbda684d6	-0.08130805
16	0xbda6fda4	-0.08153847
17	0xbd5844d1	-0.052800003
18	0x3bc8fd1f	0.00613369
19	0x3da94a28	0.08266097
20	0xbd7cb404	-0.061695114
21	0xbd664078	-0.056213826
22	0xbc7b9fd5	-0.015357931
23	0x3d312b24	0.043254033
24	0x3dd9a6da	0.106275275
25	0xbd6913de	-0.056903712
26	0xbc6974c2	-0.014249029
27	0x3d265c85	0.040615577
28	0x3dd21060	0.102570295
29	0x3e220753	0.15823106
30	0xbdb6bebe	-0.089231
31	0xbd60637c	-0.054782376
32	0x3c0fa50d	0.0087673785
33	0x3dc9c1a7	0.098513894
34	0x3e3cab73	0.18424778
35	0xbdfbf808	-0.123031676
36	0xbdb7e78c	-0.08979711
37	0xbb924947	-0.0044643017
38	0x3de28a4d	0.11061535
39	0x3e5bfc32	0.21482924
40	0xbe104d8d	-0.14092083
41	0xbdd924bf	-0.10602712
42	0xbb6493e0	-0.003487818
43	0x3e0242e7	0.12720834
44	0x3e71ade7	0.23601495
45	0xbe03cee2	-0.12871888
46	0xbdbde6d5	-0.09272543
47	0x3c392232	0.011299657
48	0x3e0c5431	0.13703991
49	0x3e719f8b	0.23596017
50	0xbe23289f	-0.15933464
51	0xbd8a6072	-0.06756677
52	0x3d3dc2ec	0.04632847
53	0x3e23fc0f	0.16014121
54	0x3e813026	0.25232047
55	0xbe1f3139	-0.1554612
56	0xbd85011d	-0.06494353
57	0x3d7f8493	0.062382292
58	0x3e54955f	0.20760106
59	0x3ea5bdfa	0.32371503
60	0xbe1ab782	-0.15109065
61	0xbd6d1229	-0.057878647
62	0x3dba3f32	0.09094085
63	0x3e8639e8	0.26216054
64	0x3ec8a555	0.39188638
65	0xbe10beec	-0.14135331
66	0xbd2eaeeb	-0.042647284
67	0x3e014084	0.12622267
68	0x3e9c2c11	0.3050237
69	0x3ede6547	0.43436643
70	0xbdec0ee1	-0.115262754
71	0xbc365a5b	-0.011129941
72	0x3e22bf99	0.15893401
73	0x3ea92faa	0.33044177
74	0x3ee255c0	0.44206047
75	0x3d96c356	0.07361476
76	0x3e39909a	0.18121567
77	0x3e7d645d	0.24745317
78	0x3e65a4dd	0.22426172
79	0x3dfd2474	0.123604685
80	0x3e8313b6	0.25600976
81	0x3eaae48f	0.333775
82	0x3e86333e	0.2621097
83	0x3dc4f24e	0.096165285
84	0xbd1f09f3	-0.038827848
85	0x3e896385	0.2683374
86	0x3e90f577	0.28312275
87	0x3e202bff	0.15641783
88	0xbca64c3b	-0.020300021
89	0xbdebae2c	-0.1150783
90	0x3dbf0a83	0.09328177
91	0x3d79e11d	0.0610057
92	0x3cadd9b1	0.021221967
93	0xbc6932a7	-0.014233268
94	0xbd030c4d	-0.031994153
95	0xbe075f42	-0.13219932
96	0xbe27c910	-0.16385293
97	0xbd682a17	-0.056680765
98	0x3d909e81	0.07061482
99	0x3dc4f4c8	0.09617001
100	0xbbe758f9	-0.007060167
101	0x3c75dc28	0.015006103
102	0x3d20dae5	0.039271254
103	0x3ba5bfdc	0.005058272
104	0xbdac1e67	-0.08404236
105	0x3de9ee78	0.114224374
106	0x3dc1054b	0.09424838
107	0xbcc58564	-0.024111457
108	0xbe4a8123	-0.19775824
109	0xbea2901c	-0.31750572
110	0x3e0780c3	0.13232712
111	0x3d02e5ea	0.031957544
112	0xbe1dc14f	-0.15405773
113	0xbeaefe46	-0.3417837
114	0xbedb5d9c	-0.42844856
115	0x3c962b49	0.018331187
116	0xbe02b36f	-0.12763761
117	0xbe74bae6	-0.23899421
118	0xbe9f06d9	-0.31059912
119	0xbea96ff3	-0.33093223
120	0xbddd4d36	-0.108057424
121	0xbe7ab9c1	-0.24484922
122	0xbe65fc44	-0.22459513
123	0xbe19cdc1	-0.15019895
124	0xbe174b2f	-0.14774774
125	0x3e3c52df	0.18390988
126	0x3e11c024	0.14233452
127	0x3dcb28ea	0.09919913
128	0x3d0c6a82	0.03428126
129	0xbd2c048e	-0.04199653
130	0x3e8d0edd	0.27550402
131	0x3e5bb8d0	0.21457219
132	0x3d606216	0.054781042
133	0xbe0894b7	-0.1333798
134	0xbe729b2f	-0.2369201
135	0x3e8effbf	0.27929494
136	0x3e33671e	0.17519805
137	0xbccf2821	-0.02528769
138	0xbe632b9e	-0.22184607
139	0xbe9739bb	-0.29536232
140	0x3e37599c	0.17905277
141	0x3d6613cb	0.05617122
142	0xbd64a3f8	-0.055820435
143	0xbe081a34	-0.13291246
144	0xbe1b374f	-0.15157817
145	0x3da4de75	0.08050243
146	0xbca5c6c8	-0.020236388
147	0x3bd21e59	0.006412309
148	0x3d8ab07e	0.067719445
149	0x3d83b929	0.06431801
150	0x3e6de2ee	0.23231098
151	0x3e5efde9	0.21776547
152	0x3e17a26c	0.14808053
153	0x3d86e650	0.065868974
154	0x3cc5bbb2	0.024137352
155	0x3e25d6d3	0.1619523
156	0x3e16cc16	0.1472629
157	0x3db6bc0b	0.08922585
158	0x3c8c24f7	0.01710747
159	0xbcb2c4dd	-0.021822387
160	0xbada7cd4	-0.0016669282
161	0xbd1c2255	-0.03811868
162	0xbd774254	-0.06036599
163	0xbd7f1067	-0.062271502
164	0xbd48edc4	-0.049054876
165	0xbe3a576d	-0.18197413
166	0xbe7a3412	-0.24433926
167	0xbe6825c3	-0.22670655
168	0xbe1ab599	-0.15108337
169	0xbd954400	-0.072883606
170	0xbe98f6e3	-0.2987586
171	0xbebc0707	-0.3672411
172	0xbea97233	-0.3309494
173	0xbe61863a	-0.2202386
174	0xbded28c2	-0.115800396
175	0x3ea10c06	0.31454486
176	0x3ea82366	0.32839507
177	0x3e8914d7	0.26773712
178	0x3e2f7dcf	0.17137836
179	0x3dc413a4	0.09574059
180	0x3e91250f	0.28348586
181	0x3e973f41	0.29540446
182	0x3e7f54f5	0.24934752
183	0x3e2ce33a	0.16883555
184	0x3dcb3c13	0.099235676
185	0x3e265a27	0.16245328
186	0x3e13b488	0.14424336
187	0x3e09a863	0.1344314
188	0x3e0898b2	0.13339499
189	0x3e00bdfb	0.12572472
190	0x3c69410e	0.014236702
191	0xbd0e2e73	-0.034712266
192	0xbc0827aa	-0.008310238
193	0x3d939b8c	0.072074026
194	0x3e0d8e4f	0.13823818
195	0xbdb1b8d6	-0.08677833
196	0xbe1ba79f	-0.15200661
197	0xbddfebf8	-0.10933679
198	0x3b761cce	0.003755379
199	0x3dd664b6	0.10468428
200	0x3d91e2db	0.07123347
201	0x3d0382ac	0.03210704
202	0xbc34b5c4	-0.011029664
203	0xbd043024	-0.032272473
204	0x3bf17410	0.007368572
205	0x3d1a7194	0.037705973
206	0x3b6d2727	0.0036186667
207	0xbcf8a474	-0.030351855
208	0xbd204491	-0.03912789
209	0xbb1c4436	-0.0023844368
210	0xbd421bdc	-0.04738985
211	0xbdc3a174	-0.09552279
212	0xbdc24c7c	-0.094872445
213	0xbd414362	-0.047183402
214	0x3ce9342f	0.028467266
215	0xbe01a396	-0.1266006
216	0xbe49988c	-0.19687098
217	0xbe2945e3	-0.16530566
218	0xbd5a80ad	-0.05334537
219	0x3d865785	0.06559662
220	0xbe1c42e1	-0.15259887
221	0xbe69c946	-0.22830686
222	0xbe3da06c	-0.18518227
223	0xbd64647a	-0.055759884
224	0x3da38895	0.07985035
225	0xbe843d9b	-0.2582825
226	0xbe8ddb4d	-0.27706376
227	0xbe9abf63	-0.3022414
228	0xbea8e873	-0.32989845
229	0xbea28dd5	-0.31748834
230	0xbe45be01	-0.19310762
231	0xbe385588	-0.18001378
232	0xbe415bbb	-0.18882649
233	0xbe76dd8c	-0.24107951
234	0xbe872cc1	-0.26401332
235	0xbd9aa1c6	-0.07550387
236	0xbcf7bc42	-0.030241136
237	0xbc0039d4	-0.007826287
238	0xbd7f97b5	-0.06240054
239	0xbde7c6ac	-0.113171905
240	0x3d3f65e6	0.046728037
241	0x3dd8e949	0.105913706
242	0x3e1ee50c	0.15517062
243	0x3df5b25e	0.119969115
244	0x3d944074	0.07238856
245	0x3e06035a	0.13087216
246	0x3e35181e	0.17684981
247	0x3e6b575e	0.22982547
248	0x3e64a6f1	0.22329308
249	0x3e54d08d	0.20782681
250	0x3daa7309	0.083227225
251	0x3dcc915c	0.099886626
252	0x3dc55a09	0.096363135
253	0x3d73c17a	0.059510686
254	0x3d2b3213	0.0417958
255	0x3d8ac510	0.06775868

conv1.bias f4 [64]
0	0xbf1b0f0a	-0.6056982
1	0xbe830f43	-0.2559758
2	0xbed7ffea	-0.42187434
3	0xbe9fca3e	-0.31208986
4	0x3cf64dbd	0.030066365
5	0xbf216b8b	-0.6305472
6	0xbe152def	-0.14568304
7	0xbf01bda0	-0.5067997
8	0xbebbe19e	-0.3669557
9	0xbe83d757	-0.2575023
10	0x3d9e2b37	0.07723086
11	0x3bd2ca23	0.006432788
12	0x3eab89b8	0.3350351
13	0xbe917f0a	-0.28417236
14	0xbeeb82bb	-0.45998177
15	0xbf8fbbbe	-1.1229169
16	0xbebd0548	-0.36918092
17	0xbf43b914	-0.7645428
18	0xbecdb0aa	-0.40173846
19	0xbea40803	-0.32037362
20	0xbefb885c	-0.4912747
21	0xbeaac4fd	-0.33353415
22	0xbda2b100	-0.07943916
23	0xbcecba3b	-0.028897395
24	0xbeff7bff	-0.4989929
25	0xbf14efb5	-0.58178264
26	0xbe21b780	-0.15792656
27	0xbee6d70f	-0.45085952
28	0xbf911351	-1.133402
29	0xbece05ec	-0.40238893
30	0xbce6ca3e	-0.028172608
31	0xbf1e2b5c	-0.6178491
32	0xbe8fd6ad	-0.28093472
33	0xbee52874	-0.44757426
34	0xbe07ede3	-0.1327434
35	0xbf1291f3	-0.5725395
36	0x3d858048	0.06518608
37	0xbf4fcebe	-0.8117484
38	0xbeec8ca4	-0.4620105
39	0x3ab8b4a6	0.0014091923
40	0xbedde80d	-0.43341103
41	0xbe9ed0c6	-0.31018656
42	0xbe94750e	-0.28995556
43	0xbf04a187	-0.5180897
44	0x3d941d0d	0.072321035
45	0xbefc1ece	-0.49242252
46	0xbf9d8493	-1.2306083
47	0xbe507a42	-0.20359138
48	0xbfbc96eb	-1.4733557
49	0xbef266b9	-0.47343996
50	0xbdf933c3	-0.12168076
51	0x3e4feb21	0.20304538
52	0xbf56db89	-0.83928734
53	0x3e88b35d	0.26699343
54	0xbd904e32	-0.070461646
55	0xbf31f265	-0.6951049
56	0xbdd121b8	-0.102115095
57	0xbeb7d46f	-0.3590426
58	0xbda9ec24	-0.082969934
59	0xbe73c99f	-0.23807381
60	0xbfcb4b4e	-1.5882356
61	0xbf4fac05	-0.81121856
62	0xbf3685fc	-0.71298194
63	0xbe7935ab	-0.24336879

conv2.weight f4 [128, 64, 5, 5]
0	0xbd15d0c2	-0.03657604
1	0xbc98495b	-0.018589666
2	0xbc26e037	-0.010185293
3	0xbbff346c	-0.0077882316
4	0xbc30833c	-0.010773476
5	0xbd011412	-0.03151328
6	0xbc7ca77f	-0.015420794
7	0xbc1658fa	-0.009176487
8	0xbbf79cf6	-0.007556553
9	0xbc12d5a8	-0.008962072
10	0xbceb3363	-0.028711027
11	0xbc62730d	-0.013821376
12	0xbc0d825e	-0.008637039
13	0xbbf02dea	-0.007329692
14	0xbc0dee54	-0.008662779
15	0xbcddc63c	-0.027072065
16	0xbc5cbf3f	-0.013473331
17	0xbc0dd896	-0.008657595
18	0xbbef5b1d	-0.0073045627
19	0xbc2150cf	-0.009845926
20	0xbce0a0d1	-0.027420433
21	0xbc67052c	-0.014100354
22	0xbc216db5	-0.009852816
23	0xbc1b568f	-0.009481086
24	0xbc622fa6	-0.013805306
25	0x3cb9c7c1	0.022678258
26	0x3c8ab2ef	0.016931025
27	0x3bdb3ceb	0.0066906116
28	0x3ac5fbb8	0.0015104925
29	0x3c2f42ba	0.010697061
30	0x3cad730c	0.021173023
31	0x3c546441	0.0129633555
32	0x3b7f6d00	0.0038974881
33	0xba9924e2	-0.0011683966
34	0x3c118027	0.008880652
35	0x3c8f2b96	0.017476838
36	0x3c0808a4	0.008302841
37	0x391e586f	0.00015100998
38	0xbb09c86e	-0.0021024006
39	0x3c42db80	0.011893153
40	0x3c8adece	0.016951945
41	0x3bfb8000	0.007675171
42	0x3a6a8b6f	0.0008947169
43	0x3b50806c	0.0031814827
44	0x3ca6d4fd	0.020365233
45	0x3cbd50b8	0.023109779
46	0x3c82fcd3	0.015989697
47	0x3c2feece	0.010738088
48	0x3c79a486	0.015236979
49	0x3d030aa4	0.03199257
50	0xbcb55e5a	-0.022139717
51	0xbcd0de60	-0.025496662
52	0xbce70368	-0.028199866
53	0xbcfcb40f	-0.030847577
54	0xbd0d9a7f	-0.034571167
55	0xbcc9cbe4	-0.024633355
56	0xbcda201d	-0.02662664
57	0xbcd9e0e8	-0.026596501
58	0xbcd4f837	-0.025997264
59	0xbcdd6606	-0.027026188
60	0xbcf7b7a3	-0.030238932
61	0xbcf98068	-0.030456737
62	0xbcdc5e16	-0.026900332
63	0xbcbc6529	-0.022997456
64	0xbca9ce6d	-0.020728314
65	0xbd0ba3c9	-0.034091745
66	0xbd040c24	-0.03223814
67	0xbcd30760	-0.025760353
68	0xbc8f1341	-0.017465236
69	0xbc49b696	-0.012311598
70	0xbcf837f1	-0.030300112
71	0xbce9eba4	-0.028554745
72	0xbca52539	-0.02015935
73	0xbc20d2e4	-0.009815905
74	0xbaed2fe5	-0.0018095939
75	0xbd116e2e	-0.035505466
76	0xbd09f7f4	-0.033683732
77	0xbcf0bbf4	-0.029386498
78	0xbcc1d955	-0.023663202
79	0xbc8465f9	-0.016161906
80	0xbd1b4fdd	-0.03791796
81	0xbd0dc997	-0.03461608
82	0xbcf9357d	-0.030421013
83	0xbcd3b578	-0.025843367
84	0xbcac8b49	-0.02106251
85	0xbd12b50b	-0.035817187
86	0xbd072b64	-0.033000365
87	0xbcf168b5	-0.029468874
88	0xbce511ff	-0.027962683
89	0xbcdae5ab	-0.026720842
90	0xbcfbf489	-0.030756252
91	0xbcf1df71	-0.02952549
92	0xbce9df3c	-0.02854883
93	0xbcf66e19	-0.030081796
94	0xbd02c704	-0.031928077
95	0xbce6e138	-0.028183565
96	0xbceffb49	-0.029294627
97	0xbcf84d52	-0.030310307
98	0xbd0a548c	-0.033772036
99	0xbd1a2303	-0.037631046
100	0xbc6de0bb	-0.014518912
101	0xbc8da733	-0.01729164
102	0xbc84abaa	-0.016195137
103	0xbc46fbc2	-0.012144985
104	0xbba8701d	-0.005140318
105	0xbbdd1045	-0.0067463242
106	0xbc245bcf	-0.0100316545
107	0xbc21ec1a	-0.009882951
108	0xbbaf9153	-0.0053579
109	0x3adc201f	0.0016794241
110	0xbab4f1ec	-0.0013805008
111	0xbb846fa1	-0.0040416275
112	0xbb71dfb3	-0.0036907017
113	0x3a30e997	0.0006748675
114	0x3c00b63a	0.007855946
115	0x3b8af594	0.004240701
116	0x3b482f71	0.0030545855
117	0x3b5dc588	0.0033839662
118	0x3c00b8b1	0.007856534
119	0x3c761662	0.015019985
120	0x3c48d7eb	0.01225851
121	0x3c3f6472	0.011681663
122	0x3c52ef9e	0.012874512
123	0x3c8a45e0	0.016879022
124	0x3cbe0ba2	0.023198906
125	0xbcf81885	-0.03028513
126	0xbc1438ac	-0.009046715
127	0x3c0fcb07	0.008776433
128	0x3cd2c0f2	0.02572677
129	0x3d4e9cef	0.050442632
130	0xbd0113f1	-0.03151316
131	0xbc59cf7f	-0.0132941
132	0x3b9b8e55	0.004747192
133	0x3cb61f51	0.02223173
134	0x3d436280	0.04770136
135	0xbd036da7	-0.032086994
136	0xbc803983	-0.015652424
137	0x3b2625ef	0.00253522
138	0x3cbabb9a	0.022794534
139	0x3d4f7ded	0.0506572
140	0xbcf41d76	-0.029799204
141	0xbc563884	-0.013074998
142	0x3bcf7e02	0.00633216
143	0x3cf3d6f7	0.02976559
144	0x3d7c9b8e	0.061671786
145	0xbcb0dba4	-0.021589108
146	0xbb039db8	-0.0020083021
147	0x3ca0cfc7	0.019630326
148	0x3d3b1b8d	0.04568057
149	0x3d9e0658	0.07716054
150	0xbc98203f	-0.018570064
151	0xbca5e6b6	-0.020251613
152	0xbc9259d6	-0.017865103
153	0xbc571190	-0.013126746
154	0xbbfbcd76	-0.007684405
155	0xbccfa870	-0.025348872
156	0xbcd8b907	-0.026455415
157	0xbcbf4a5e	-0.02335089
158	0xbc8e425c	-0.017365627
159	0xbc323ac3	-0.010878268
160	0xbcd61ced	-0.02613684
161	0xbce5c7b8	-0.028049335
162	0xbcca04c8	-0.024660483
163	0xbc99956b	-0.018748006
164	0xbc58faab	-0.013243358
165	0xbcb4c879	-0.022068249
166	0xbcc46a5b	-0.023976495
167	0xbcb2f998	-0.021847531
168	0xbc946fbe	-0.01811969
169	0xbc7b965a	-0.015355671
170	0xbc8a93b8	-0.01691614
171	0xbca00745	-0.019534716
172	0xbca1fa74	-0.019772746
173	0xbc9eea54	-0.019398846
174	0xbc9e9922	-0.019360129
175	0xbbd27bd7	-0.0064234543
176	0xbc896125	-0.016769955
177	0xbcd3cea7	-0.025855375
178	0xbce6857f	-0.028139828
179	0xbca375e0	-0.019953668
180	0xbb66b165	-0.003520095
181	0xbc4757fe	-0.012166975
182	0xbca0080b	-0.019535085
183	0xbca807c8	-0.020511523
184	0xbc53003b	-0.012878473
185	0xbb7103d6	-0.0036775968
186	0xbc10e665	-0.008843993
187	0xbc3f61e9	-0.011681058
188	0xbc2da461	-0.010598273
189	0xbb244a57	-0.0025068724
190	0xb9c67efa	-0.00037860108
191	0xbae5be61	-0.0017528051
192	0xba05a2e9	-0.0005097823
193	0x3b74c9b6	0.0037351674
194	0x3c4a2194	0.012337107
195	0x3c16a9a9	0.009195724
196	0x3c335ebc	0.010947879
197	0x3c761de3	0.015021774
198	0x3cab11df	0.020882545
199	0x3cddbf5d	0.027068788
200	0xbc307a13	-0.010771292
201	0xbc891cc7	-0.016737355
202	0xbc9c4657	-0.01907651
203	0xbc87ca16	-0.016575854
204	0xbc2b7866	-0.010465717
205	0xbc55efa2	-0.013057621
206	0xbc9eec9a	-0.01939993
207	0xbcb6dad7	-0.022321148
208	0xbca48718	-0.020083949
209	0xbc6f0593	-0.014588731
210	0xbc5fd99e	-0.013662724
211	0xbcae2f24	-0.021262713
212	0xbcc6bade	-0.024259027
213	0xbcb5cbf2	-0.022191975
214	0xbc90e9d0	-0.017689615
215	0xbc3d7c0f	-0.011565222
216	0xbca3ef6b	-0.020011624
217	0xbcc7b592	-0.024378572
218	0xbcbbbc56	-0.022916954
219	0xbc9e6985	-0.019337425
220	0xbbf01add	-0.007327421
221	0xbc8e92a9	-0.017403917
222	0xbcbd5348	-0.023111
223	0xbcb99dd5	-0.022658268
224	0xbca07bad	-0.019590223
225	0xbd07340c	-0.03300862
226	0xbd040823	-0.032234322
227	0xbcec5cc2	-0.028852824
228	0xbcb40c5e	-0.021978553
229	0xbc3a6a8e	-0.011377944
230	0xbd242fc8	-0.04008463
231	0xbd1a04ab	-0.037602108
232	0xbd097233	-0.033556174
233	0xbcd544ce	-0.026033785
234	0xbc85f602	-0.016352657
235	0xbd2a6e47	-0.041609075
236	0xbd21b13d	-0.03947567
237	0xbd0c9737	-0.034323897
238	0xbce6c9f5	-0.028172472
239	0xbcb1e8de	-0.021717485
240	0xbd17cca8	-0.03706041
241	0xbd113f93	-0.03546102
242	0xbd0612f6	-0.032732926
243	0xbcecc728	-0.028903559
244	0xbcd455c7	-0.025919808
245	0xbd01fd2f	-0.031735595
246	0xbd062423	-0.032749306
247	0xbd02bc03	-0.031917583
248	0xbd00e032	-0.03146381
249	0xbcfd9c69	-0.030958371
250	0xbd8c34b6	-0.06845991
251	0xbd72a1de	-0.0592364
252	0xbd655356	-0.05598768
253	0xbd66ed2e	-0.056378536
254	0xbd929cd8	-0.07158822
255	0xbd83c955	-0.064348854

conv2.bias f4 [128]
0	0xbd80df09	-0.062925406
1	0x3e5d190e	0.21591589
2	0x3dd6f7ea	0.104965046
3	0xbd856f50	-0.06515372
4	0x3d3c38db	0.04595266
5	0x3c09bf18	0.008407377
6	0x3db13335	0.08652345
7	0xbe602c5f	-0.21891926
8	0x3cb464f9	0.022020804
9	0x3d0cb9d1	0.034356896
10	0x36db56ad	6.536799e-06
11	0xbc841a87	-0.01612593
12	0x3d075d02	0.033047684
13	0x3db4566a	0.08805545
14	0x3d43e870	0.04782909
15	0x3b357352	0.0027687144
16	0xbdcd70ab	-0.10031255
17	0x3e9181b1	0.2841926
18	0xbd108a2c	-0.03528802
19	0x3fc49781	1.5358735
20	0xbce9a19e	-0.028519448
21	0xbee5fe32	-0.44920498
22	0x3d059897	0.032616224
23	0x3dd41cac	0.10357031
24	0x3d7d3173	0.061814737
25	0x3ab02bdd	0.0013440807
26	0xbd8868ee	-0.06660639
27	0x3a0f7944	0.0005473087
28	0x3ea7adb8	0.32749724
29	0xbe0a1772	-0.13485506
30	0xbd5e76e1	-0.05431259
31	0xbd252c75	-0.0403256
32	0x3d4a812a	0.049439587
33	0x3ca1043a	0.019655336
34	0x3cbedaf9	0.023297774
35	0x3d08af6b	0.033370417
36	0xbceaee9f	-0.028678237
37	0xbd139ccc	-0.036038205
38	0xbd90f1ac	-0.07077345
39	0xbe3dd89f	-0.18539666
40	0xbccab2fe	-0.024743553
41	0x3ca35c7c	0.01994156
42	0xbf28c2b7	-0.6592211
43	0x3ccc8f4a	0.02497067
44	0xbd75430b	-0.05987839
45	0x3da6b8f0	0.08140743
46	0xbc582fe7	-0.013195015
47	0x3dd046b7	0.10169738
48	0xbcc4689f	-0.023975668
49	0xbe20187f	-0.15634345
50	0xbd95e680	-0.07319355
51	0x3d2ec26a	0.042665876
52	0xbb1c1326	-0.0023815124
53	0x3cb6449f	0.022249518
54	0xbe38296e	-0.17984554
55	0xbd388038	-0.045044154
56	0x3e284b55	0.16434987
57	0xbdae8fd5	-0.085235275
58	0x3c27e50f	0.010247483
59	0xbe807681	-0.2509041
60	0x3da5f3ed	0.08103166
61	0xbc7ccb10	-0.015429273
62	0xbe55b931	-0.20871426
63	0x3d8f56ab	0.069989525
64	0x3e1a3daf	0.15062593
65	0xbe48b18e	-0.19598982
66	0x3c30f151	0.010799722
67	0x3d0bc180	0.034120083
68	0xbd17667d	-0.036962975
69	0x3d209cc0	0.03921199
70	0xba8d0df6	-0.0010761607
71	0xbf4cb368	-0.7996125
72	0xbd8abc9a	-0.06774254
73	0xbcf80dcd	-0.030280018
74	0x3ba3aaa7	0.0049947086
75	0xbe57bb2c	-0.21067494
76	0x3c28f68e	0.0103126895
77	0x3cf70799	0.03015499
78	0xb976a77e	-0.00023522784
79	0x3cc5d1be	0.024147864
80	0xbc0b2936	-0.008493712
81	0x3d69fdfd	0.057126988
82	0x3d2fcb9a	0.04291878
83	0xbebe38ae	-0.37152618
84	0xbe226738	-0.15859687
85	0xbd372fef	-0.044723447
86	0x3eb841b7	0.35987636
87	0x3e256d49	0.1615497
88	0xbaa27d44	-0.0012396951
89	0xbd076111	-0.033051554
90	0x3e2332c3	0.15937333
91	0xbb95da49	-0.0045731408
92	0xbe275ddc	-0.16344398
93	0x3988fa69	0.00026126512
94	0xbd5100a1	-0.05102599
95	0x3c03d705	0.00804687
96	0x3d7a3457	0.06108507
97	0xbd506ca6	-0.050884865
98	0xbe0fefad	-0.14056273
99	0xbd0ec174	-0.03485246
100	0xb8655961	-5.4681095e-05
101	0xbca7310a	-0.020409126
102	0x3da06f52	0.07833733
103	0x3f20b486	0.62775457
104	0x3b9887bf	0.004654854
105	0xbdcd6d2d	-0.10030589
106	0x3f2ddd43	0.67915744
107	0x3d82ab3f	0.06380319
108	0xbdafe6ce	-0.085889444
109	0xbc90eb26	-0.017690253
110	0x3de1042b	0.10987123
111	0xbd093cb6	-0.033505164
112	0xbda42b36	-0.08016054
113	0x38cfa351	9.900949e-05
114	0xbd3540a6	-0.044251107
115	0xbf07c287	-0.530312
116	0xbe39d2ca	-0.18146816
117	0xba2fec87	-0.00067109655
118	0xbdd013d3	-0.10160031
119	0x3a93b3e4	0.0011268822
120	0xbb044d3a	-0.0020187632
121	0x3d9b6572	0.075877085
122	0x3d863bf3	0.06554403
123	0x3d9e223d	0.07721374
124	0xbd9b2852	-0.0757605
125	0x3f00b2fc	0.5027311
126	0xbd405fef	-0.04696649
127	0x3d84e8fa	0.06489749

fc1.weight f4 [64, 128]
0	0x3e309546	0.17244443
1	0xbeaaafc3	-0.3333722
2	0xbed604dd	-0.41800585
3	0xbe400a82	-0.18754008
4	0x3e4f202f	0.20227121
5	0xbb027484	-0.0019905875
6	0xbd8985e0	-0.06714988
7	0x3e31014d	0.17285652
8	0xbe91d085	-0.284794
9	0x3d984a05	0.07435993
10	0xb9758ffb	-0.00023418658
11	0xbc6c5b9d	-0.014426139
12	0x3e9e956d	0.30973378
13	0xbb0389f4	-0.002007124
14	0xbce3786d	-0.027767384
15	0x3d58b3a2	0.052905686
16	0x3eab732a	0.334863
17	0x3e7d9eae	0.24767563
18	0x3d3bdb73	0.04586358
19	0x3ed0979a	0.40740663
20	0xbcd06e20	-0.025443137
21	0xbe6b3c65	-0.22972257
22	0x3e1ce5f7	0.153221
23	0xbedc1221	-0.4298258
24	0x3d946151	0.07245124
25	0xba8fe3e7	-0.0010977954
26	0x3dc73cf1	0.097284205
27	0xba4db398	-0.0007846891
28	0xbd7c0288	-0.06152585
29	0x3dab81d6	0.083743736
30	0xb9d1bf45	-0.00040006093
31	0x3de8874d	0.113539316
32	0x3d3e546f	0.04646724
33	0x3cb720db	0.022354534
34	0xbbc6e795	-0.006070087
35	0x3d897968	0.067126095
36	0xbeba3d3c	-0.36374843
37	0x3e911ab1	0.28340676
38	0x3d3b7121	0.045762185
39	0x3dbe1f9d	0.092833735
40	0x3d07ccd4	0.033154324
41	0x3ddccde6	0.107814595
42	0x3e66eb0a	0.22550598
43	0xbc6710f5	-0.014103164
44	0xbdb41121	-0.087923296
45	0x3da9265d	0.0825927
46	0xbbeee8f3	-0.0072909533
47	0xbd359579	-0.044332
48	0xbd35f08a	-0.04441885
49	0xbdd06788	-0.10175997
50	0x3e69493d	0.22781844
51	0x3e0b4dbc	0.13603872
52	0xba23a3d9	-0.0006242372
53	0x3ccd4398	0.025056645
54	0x3ec0f451	0.376864
55	0x3d95c8bd	0.073136784
56	0xbc96f7e3	-0.018428748
57	0x3e045765	0.12923963
58	0x3c22693c	0.009912785
59	0x3cf8ad98	0.030356213
60	0x3db9afde	0.09066747
61	0x3dd47fda	0.10375948
62	0x3e657440	0.22407627
63	0x3de6a328	0.11261588
64	0x3e6f0658	0.23342264
65	0x3e091fa3	0.13390975
66	0xbe816db1	-0.25279
67	0x3d2ab3c5	0.041675348
68	0x3e13cb3e	0.14433
69	0x3d60024d	0.054689694
70	0xbd5cbe02	-0.053892143
71	0xbe6d382d	-0.2316596
72	0xbd73ce22	-0.059522755
73	0x3bc8a423	0.0061230822
74	0x3a5cddfd	0.0008425413
75	0xbc30d019	-0.010791802
76	0xbd4ce18f	-0.050019797
77	0x3d1cf318	0.03831777
78	0x3a0cc4b4	0.0005369887
79	0x3cda65fe	0.026659962
80	0x3d80f1ce	0.062961206
81	0x3d452838	0.04813406
82	0x3d8d0703	0.06886103
83	0x3d237be9	0.03991309
84	0x3e1f8f25	0.15581949
85	0x3d8e5438	0.06949657
86	0x3e4cba74	0.19993001
87	0xbe781a84	-0.24228865
88	0xbc7ae4ae	-0.015313311
89	0x3de039fc	0.1094856
90	0xbe908615	-0.28227296
91	0xbd02a631	-0.031896774
92	0x3e660759	0.2246374
93	0xba8297c3	-0.0009963441
94	0x3d60e182	0.05490256
95	0xbe4ac289	-0.19800772
96	0x3da84a72	0.08217324
97	0x3c257bdc	0.010100331
98	0x3d48275e	0.04886567
99	0x3d8f1583	0.06986525
100	0xbafad11b	-0.0019135805
101	0xbec02905	-0.37531295
102	0x3e214063	0.15747218
103	0xbf79c9df	-0.97573656
104	0xbd26f42f	-0.040760215
105	0xbd398e51	-0.04530174
106	0x3e1e0961	0.15433265
107	0x3d90a555	0.070627846
108	0x3e066e38	0.13127983
109	0x3cdaa318	0.026689097
110	0x3de059c0	0.109546185
111	0xbe9a786f	-0.3017001
112	0x3eb57928	0.35443997
113	0x39b4259c	0.00034360297
114	0xbea01d72	-0.31272465
115	0xbd41591d	-0.047204126
116	0x3e047e49	0.12938799
117	0x3683ac12	3.924136e-06
118	0x3de2be82	0.11071493
119	0xba4c9dd5	-0.0007805501
120	0xbca2e7ef	-0.019885985
121	0xbc7e1e59	-0.015510165
122	0xbc992027	-0.01869209
123	0xbec538a5	-0.3851978
124	0x3da8b214	0.08237091
125	0xbf6cb8fe	-0.92469776
126	0x3da66e29	0.0812648
127	0x3dbf1d9e	0.09331821
128	0x3d8d8266	0.06909637
129	0x3e4364e5	0.19081457
130	0x3e3608c0	0.17776775
131	0x3e066560	0.13124609
132	0x3e13b781	0.1442547
133	0xbbccdd52	-0.0062519694
134	0xbdf0ac7d	-0.117516495
135	0x3d50e3ac	0.050998375
136	0x3e0b786f	0.1362016
137	0x3d4a3cea	0.0493745
138	0x3a81b524	0.0009895903
139	0xbc7d21e7	-0.0154499775
140	0x3e9ce94e	0.30646747
141	0xbdb63d70	-0.08898437
142	0x3c8e035e	0.01733559
143	0xbcf77eba	-0.030211795
144	0x3ecf6714	0.4050833
145	0xbe4315c5	-0.19051273
146	0x3d608259	0.05481181
147	0xbe93f4a4	-0.28897583
148	0xbd863614	-0.06553283
149	0x3e1695ca	0.14705577
150	0x3ddad957	0.106859855
151	0x3e2d0985	0.16898163
152	0x3dac98fc	0.08427617
153	0xbb3f8e35	-0.002922905
154	0x3e0538fb	0.13010018
155	0x3a8c4ade	0.0010703465
156	0xbeff9982	-0.49921805
157	0x3df965a5	0.1217759
158	0x3c67ba1b	0.014143492
159	0x3dd56e65	0.10421447
160	0x3d8a1ce5	0.067437924
161	0xbcd06253	-0.02543751
162	0xbd04b596	-0.032399736
163	0x3d3ed0f9	0.04658601
164	0xbc194768	-0.0093554035
165	0x3e99b460	0.30020428
166	0x3d89a9b3	0.06721821
167	0x3e300934	0.1719101
168	0x3acbb83d	0.0015542578
169	0x3d970e9b	0.07375833
170	0x3e5042af	0.20337938
171	0xbd402018	-0.046905607
172	0xbdde3df5	-0.10851661
173	0x3de547de	0.11195348
174	0xbb5c4f8e	-0.0033616754
175	0xbe11053e	-0.14162156
176	0xbd11fb96	-0.03564032
177	0x3dda3be4	0.106559545
178	0x3dea8390	0.11450875
179	0xbd05e203	-0.032686245
180	0xbabd8e0c	-0.0014461889
181	0x3ca7bf9d	0.02047711
182	0x3e8cab43	0.27474412
183	0x3dff82b2	0.124761
184	0xbd06d72b	-0.032920044
185	0x3e65a3cb	0.22425763
186	0x3c574453	0.013138848
187	0x3e6672a5	0.22504671
188	0x3e526a2e	0.20548317
189	0x3e1e70ff	0.15472792
190	0x3dcd2793	0.10017314
191	0x3e1a4a11	0.15067317
192	0xbeca3a39	-0.39497545
193	0x3ddb8d6e	0.10720335
194	0x3df6185a	0.120163634
195	0x3c8220a1	0.0158847
196	0x3dc5338b	0.09628972
197	0x3d32128e	0.043474726
198	0x3cc6171b	0.02418094
199	0xbf0d13c4	-0.55108285
200	0xbcbbc692	-0.022921834
201	0x3d01a222	0.031648763
202	0xbb40aa3b	-0.002939834
203	0xbd7cc670	-0.061712682
204	0xbcaea15b	-0.021317175
205	0x3e010101	0.12598039
206	0xba807714	-0.0009801113
207	0x3c062b86	0.008189088
208	0x3d95f772	0.07322587
209	0x3db114d8	0.08646554
210	0x3d178f6b	0.03700201
211	0x3e3a9fcb	0.18225019
212	0x3e558b5e	0.20853946
213	0x3df4f997	0.11961668
214	0x3ca098e8	0.019604161
215	0x3d4e1abb	0.05031846
216	0x3c08b5f0	0.0083441585
217	0xbd571fd4	-0.052520588
218	0xbec32bdf	-0.38119408
219	0x3cce6896	0.025196355
220	0x3e1d61bf	0.15369318
221	0xb925d4bb	-0.00015814874
222	0x3d7747c7	0.060371187
223	0x3dcf1f1e	0.10113357
224	0x3d545d6b	0.051846903
225	0x3d0b2c32	0.033977695
226	0x3cd3ba01	0.02584553
227	0x3db15e14	0.08660522
228	0xbb86f659	-0.0041187224
229	0xbd28921a	-0.04115496
230	0x3dd6161f	0.10453438
231	0xbf2fdfd5	-0.68700916
232	0xbd4a83f5	-0.04944225
233	0xbe07d216	-0.13263735
234	0xbe3f3a82	-0.18674663
235	0x3d908d7d	0.07058237
236	0x3e5e23a1	0.21693279
237	0x3de0d83e	0.10978745
238	0xbe4becd2	-0.19914559
239	0x3e789254	0.2427457
240	0x3e85a2f5	0.2610089
241	0x3a0206ba	0.0004960109
242	0xbd0f26f9	-0.034949277
243	0xbf027417	-0.5095839
244	0xbd9c035b	-0.076178275
245	0x3a976721	0.001155112
246	0xbd163e5b	-0.03668056
247	0xb847d807	-4.764649e-05
248	0x3ba570ac	0.005048832
249	0xbe016de6	-0.12639579
250	0xbe13d046	-0.14434919
251	0x3e824d1a	0.2544945
252	0x3dd22b7f	0.102622025
253	0xbf364382	-0.7119676
254	0x3d3134e5	0.043263335
255	0x3dd1debe	0.10247563

fc1.bias f4 [64]
0	0x3ea00eb4	0.31261218
1	0xbe50ce23	-0.20391135
2	0xbb4632c5	-0.0030242663
3	0xbe79bdfd	-0.24388881
4	0x3c595fbd	0.013267455
5	0xbdf17266	-0.11789398
6	0xbd40c59d	-0.04706346
7	0x3ee57b71	0.4482074
8	0xbd79f2f1	-0.061022703
9	0x3e604c6b	0.21904151
10	0x3e82181e	0.25409025
11	0x3e9d2b49	0.30697086
12	0x3ec6326f	0.38710353
13	0x3d9eaa31	0.07747305
14	0xba32df92	-0.00068234757
15	0x3d8f000f	0.06982433
16	0x3e8a4a8e	0.27010006
17	0xbc9f7b3a	-0.019467939
18	0x3e3e85be	0.18605706
19	0xbc467975	-0.012113919
20	0x39eb87de	0.00044923922
21	0x3f13233b	0.5747563
22	0x3c40a79c	0.011758711
23	0xbad183da	-0.0015984729
24	0x3d02d169	0.03193799
25	0xba05a157	-0.0005097589
26	0x3e7546de	0.23952815
27	0x3f34d377	0.7063517
28	0xbac00f13	-0.001465293
29	0x3a5f90c4	0.00085283467
30	0xb98bf569	-0.0002669499
31	0xbc5d9178	-0.013523452
32	0xbae5c508	-0.0017530033
33	0x3ed25ab6	0.41084832
34	0xbdb2c201	-0.087284096
35	0xbb11657a	-0.002218573
36	0x3a79a434	0.00095230644
37	0x3d0ee887	0.034889724
38	0xbad98c67	-0.0016597629
39	0xbb83e44e	-0.004025019
40	0x3e76284b	0.24038808
41	0xbdcbf9db	-0.099597655
42	0x3f21905d	0.63110906
43	0xbd46215c	-0.048371658
44	0x3d6871c0	0.056749105
45	0xba70ce7a	-0.0009186041
46	0x3e7e76b1	0.24849965
47	0x3c7f7be6	0.0155935045
48	0xb93b8f29	-0.00017887041
49	0xbe540412	-0.20704678
50	0xbdbf53db	-0.09342166
51	0xbe8a030a	-0.26955444
52	0x3ce1e1fb	0.027573576
53	0x3ec7b94f	0.39008567
54	0x3ef00518	0.46878886
55	0xbbdf4967	-0.00681417
56	0x3ed638f0	0.41840315
57	0x3de0f5df	0.10984396
58	0xbac3b488	-0.0014931122
59	0xbc9bc2f7	-0.019013865
60	0x3f2251e6	0.6340622
61	0x3c759609	0.014989384
62	0xbdd23471	-0.10263909
63	0x3de6a99e	0.11262821

fc2.weight f4 [32, 64]
0	0x3a9e3530	0.0012070294
1	0xba8923a4	-0.0010462892
2	0x39bc8ac2	0.00035961537
3	0x393dcabf	0.00018099973
4	0xba476eee	-0.00076077774
5	0xbaac7dd3	-0.0013160057
6	0x3a05bace	0.00051013834
7	0x39b54e7c	0.00034581486
8	0x3998d7ef	0.00029152582
9	0x3800b9cf	3.0690626e-05
10	0xba31ef6c	-0.0006787691
11	0x39d8e43e	0.00041368784
12	0xbac80588	-0.0015260438
13	0x39c67ac4	0.0003785697
14	0x3a736e89	0.00092861854
15	0xb949baab	-0.00019238393
16	0xb9a58e28	-0.00031577167
17	0x3a52eed0	0.000804645
18	0xba07bcb9	-0.0005177963
19	0xba4ea281	-0.00078824913
20	0x3aa3bc99	0.001249212
21	0xba9f2bf5	-0.0012143838
22	0x3a247dae	0.0006274831
23	0xba8ef920	-0.0010907985
24	0xb98c035c	-0.00026705384
25	0x3accfc51	0.0015639161
26	0x38cfb487	9.904155e-05
27	0xbaca31cc	-0.0015426218
28	0x3a37454e	0.0006991223
29	0x3a4776b7	0.00076089374
30	0xb978e552	-0.00023736552
31	0x3a8ec15d	0.0010891367
32	0xb81431db	-3.533238e-05
33	0x39135a06	0.00014052549
34	0x3a067b4d	0.00051300676
35	0xb993766e	-0.00028126262
36	0x3a64c07c	0.0008726192
37	0xba22016e	-0.00061800226
38	0x39ba450c	0.00035528129
39	0x3a7b86a3	0.00095949526
40	0x3a819f4a	0.0009889391
41	0xbab6aafd	-0.0013936457
42	0x370ef4a7	8.520822e-06
43	0x3a922e82	0.0011152776
44	0xbab6a30d	-0.0013934091
45	0xb87262e2	-5.7789388e-05
46	0xba498d2a	-0.00076885766
47	0xbad31867	-0.0016105295
48	0x3913f7df	0.00014111352
49	0xbaaf242d	-0.0013362222
50	0x394daccd	0.00019614697
51	0xba76a438	-0.0009408626
52	0xb97dec70	-0.0002421604
53	0xb9437ed6	-0.00018643899
54	0xba8779ca	-0.0010335979
55	0xbab1b944	-0.0013559242
56	0xbae312a7	-0.0017324284
57	0x3a0096ab	0.0004905264
58	0xb9c3ae75	-0.0003732328
59	0x3aa94c0b	0.0012916339
60	0xb9b83d00	-0.00035140663
61	0x3a80bcc9	0.0009821887
62	0x3a3d2ac0	0.0007216148
63	0xb98ace1c	-0.00026474975
64	0xba7bc8a0	-0.00096047856
65	0xb90d508c	-0.00013476814
66	0xba64912f	-0.0008719144
67	0xba7060e2	-0.000916971
68	0xb94318c4	-0.00018605875
69	0xb905d99b	-0.00012764933
70	0x399ef4d7	0.00030318528
71	0xba11e6f3	-0.0005565725
72	0xba4768dd	-0.00076068734
73	0x39cfde31	0.00039647662
74	0x38cb80f7	9.703816e-05
75	0xbaa68d48	-0.00127069
76	0xba64e96f	-0.0008732294
77	0xbaa9d280	-0.0012956411
78	0x3ac79ebb	0.00152298
79	0xb8f87caf	-0.00011848786
80	0xbad3c318	-0.0016156165
81	0xba7493e2	-0.00093298976
82	0xb94fc680	-0.00019815005
83	0x39485aa5	0.00019107254
84	0xba6faff5	-0.0009143346
85	0xb80f9c1a	-3.4239238e-05
86	0x3aafdac9	0.0013416643
87	0xba831eed	-0.0010003723
88	0x3a027dd0	0.0004977854
89	0x3a34f097	0.0006902306
90	0xba8e8d09	-0.0010875772
91	0xb8cc4033	-9.739436e-05
92	0xb9b15ff0	-0.0003383155
93	0x3aaec85b	0.0013334857
94	0xbabe5db5	-0.0014523776
95	0xbab520b7	-0.0013818954
96	0xba174255	-0.0005770077
97	0xbac33a18	-0.0014894633
98	0xbaa0f85b	-0.0012281047
99	0xba81b5dd	-0.0009896118
100	0xba1af43d	-0.0005911028
101	0x3a31ae17	0.00067779556
102	0xba589f2a	-0.00082634634
103	0xba20badf	-0.00061313616
104	0x3a9e6cd5	0.0012086878
105	0xba971ad4	-0.0011528381
106	0xb78de65a	-1.6915776e-05
107	0x397f876a	0.00024369141
108	0xbaab3790	-0.0013062824
109	0x3aa4e4d2	0.0012580401
110	0xb930fe7d	-0.00016879472
111	0xb9b851b9	-0.00035156103
112	0xb93b6a46	-0.000178733
113	0x3ac4f8f3	0.0015027806
114	0xb94e6087	-0.0001968165
115	0x3a1d9968	0.0006011934
116	0xb84e3842	-4.916662e-05
117	0xba9026ca	-0.0010997888
118	0x38ba6b98	8.889212e-05
119	0x3a1ea7f7	0.00060522504
120	0xba17251e	-0.0005765724
121	0xb9e71965	-0.00044078674
122	0xb92b28ed	-0.00016323077
123	0xba2c5497	-0.0006573884
124	0x39364225	0.00017381513
125	0xb9fb51aa	-0.00047935295
126	0xb9911afd	-0.00027676663
127	0xb80a8dd0	-3.3033837e-05
128	0x3b726524	0.0036986554
129	0x3b13cdeb	0.0022553157
130	0x393cda7a	0.00018010466
131	0x39b57ca5	0.00034615878
132	0xb7c44dcc	-2.3401248e-05
133	0xbaf3f185	-0.0018611407
134	0x3a27a9aa	0.00063958263
135	0xba4d616f	-0.0007834648
136	0x398be097	0.00026679478
137	0xbb26d951	-0.002545912
138	0x39c37a07	0.00037284216
139	0xba40ae4e	-0.0007350192
140	0x39f0abeb	0.00045904456
141	0x3a9e0d55	0.0012058417
142	0x380378d8	3.134538e-05
143	0x39c04220	0.0003667036
144	0x3af67e28	0.0018805908
145	0xba47b863	-0.00076187233
146	0xb98dd488	-0.00027051964
147	0x3a3f8907	0.00073064904
148	0xb85541c0	-5.084439e-05
149	0xbaeab832	-0.0017907678
150	0xbabba348	-0.0014315629
151	0xba942c4d	-0.0011304707
152	0xbab3dc60	-0.0013722293
153	0xb9ccfa40	-0.00039096363
154	0x39c6180b	0.00037783416
155	0xbafa4a77	-0.0019095679
156	0x3a05cd98	0.0005104183
157	0x39da911a	0.0004168831
158	0x39cb7f7a	0.00038814155
159	0xb97718d2	-0.00023565002
160	0xba47e48e	-0.0007625305
161	0xbb1e489c	-0.0024152165
162	0xba34b835	-0.0006893904
163	0x391ba083	0.00014841747
164	0xba889b6c	-0.0010422296
165	0xbb069f73	-0.0020541816
166	0xba8cb196	-0.0010734077
167	0xba9d9bc5	-0.0012024572
168	0xba971091	-0.0011525323
169	0xb847335c	-4.749313e-05
170	0xbaf1b9e4	-0.001844224
171	0x3a6a535f	0.0008938815
172	0x3ad0e538	0.0015937453
173	0xba9024ca	-0.0010997292
174	0xb9e9a584	-0.00044564542
175	0xb9934504	-0.00028089446
176	0xba2decc1	-0.00066347054
177	0xb9bd9302	-0.00036158419
178	0xb9ba50a1	-0.00035536758
179	0x39aa3031	0.00032460832
180	0xb8ddfc0c	-0.000105850486
181	0xb63df5c2	-2.8306245e-06
182	0xba8eabdb	-0.0010884957
183	0xb9dd1bda	-0.00042173156
184	0xba55b562	-0.00081523333
185	0x39eb1366	0.00044837146
186	0xb9612c72	-0.0002147423
187	0x3a79680c	0.00095141004
188	0xb94558af	-0.00018820421
189	0xba93367d	-0.0011231449
190	0xbad61751	-0.0016333853
191	0xbaf00724	-0.0018312675
192	0xbeb32419	-0.34988478
193	0xbdcec968	-0.10097009
194	0xbb3cd095	-0.0028810848
195	0x3afe56f7	0.001940458
196	0xbb2e173e	-0.0026564146
197	0xbd9bcebe	-0.07607792
198	0xbdb99e3d	-0.09063385
199	0xbe25d4fd	-0.1619453
200	0xbd9172de	-0.07101987
201	0xbe229e6d	-0.15880747
202	0xbe2831a1	-0.16425182
203	0x3d44ce05	0.048048038
204	0xbc7933f2	-0.015210139
205	0xbd5261b2	-0.0513627
206	0x3a7a06ff	0.00095377857
207	0xbd040dea	-0.032239832
208	0xbe583d1c	-0.21117061
209	0xbd681fa0	-0.056670785
210	0x3b755277	0.0037433186
211	0xbbc2fa60	-0.005950257
212	0xba34d1e6	-0.00068977324
213	0xbc53e4f1	-0.012933002
214	0xbb3b5201	-0.0028582814
215	0xb8fe11d0	-0.00012114982
216	0xba856c2f	-0.0010179336
217	0xba4d82e7	-0.00078396354
218	0xbc90f0e4	-0.01769299
219	0x3e3cbe31	0.18431927
220	0x3a4d2334	0.0007825375
221	0xba98f6e7	-0.0011670262
222	0xb9ab01d3	-0.0003261702
223	0xbb6431fc	-0.0034819832
224	0xba8e2b13	-0.0010846577
225	0x3dd9aa49	0.106281824
226	0xbca911e1	-0.020638408
227	0xbb0d3ea9	-0.002155224
228	0xba79008b	-0.0009498677
229	0x3c999347	0.018746985
230	0xbad1f82b	-0.0016019394
231	0xbaadf79b	-0.0013272645
232	0xbdb53da0	-0.08849645
233	0xbdab38c8	-0.083604395
234	0xbcee4457	-0.029085321
235	0xbe2aec9b	-0.1669182
236	0xbe7b5c3b	-0.24546902
237	0x39a3fd2d	0.00031278413
238	0xbd5caacf	-0.053873833
239	0x3b576e29	0.0032872057
240	0xba0324ef	-0.0005002757
241	0x3aa7c5bd	0.001280002
242	0x3d70852f	0.058720764
243	0xbe854231	-0.26027063
244	0xbd5dca8c	-0.054148242
245	0x3e0cda0f	0.13755058
246	0x3eb031a6	0.3441288
247	0xbbb64134	-0.005561972
248	0xbec11008	-0.37707543
249	0xbd83dc4f	-0.06438505
250	0x3addecf4	0.001693158
251	0xbc38341e	-0.011242894
252	0xbe375842	-0.17904761
253	0xbbf6a91a	-0.0075274827
254	0xbab7a238	-0.0014010137
255	0xbc0155b3	-0.007893967

fc2.bias f4 [32]
0	0xbb041ff9	-0.0020160659
1	0xbaeb3db9	-0.0017947472
2	0xbaf0838c	-0.0018349751
3	0x3e224726	0.15847453
4	0xbab97747	-0.0014149927
5	0xbe2112ca	-0.15729824
6	0x3f2ea30f	0.6821756
7	0x3ee8e33f	0.45485875
8	0x3e5af2ef	0.21381734
9	0x3e828adb	0.25496563
10	0xba9a797d	-0.0011785474
11	0x3e84ce7c	0.25938785
12	0xbea18772	-0.3154865
13	0x3e9bc449	0.3042319
14	0x3daa7424	0.08322933
15	0x3e829895	0.25507036
16	0xbdc68fb3	-0.09695377
17	0xbad9145d	-0.0016561855
18	0x3f1392e6	0.57646024
19	0x3eb013bc	0.34390056
20	0x3eaeea3f	0.3416309
21	0x3ee7ce78	0.4527471
22	0x3de7339c	0.112891406
23	0x3cd07ae0	0.025449216
24	0xbe25a39d	-0.16175695
25	0xbb4ebd20	-0.0031545833
26	0x3e6c2c2b	0.23063724
27	0x3e6ae162	0.22937539
28	0x3dcd7f79	0.10034079
29	0x3eb89280	0.3604927
30	0x3d368ba8	0.04456678
31	0xbabeda9d	-0.0014561001

fc3.weight f4 [5, 32]
0	0xba234193	-0.0006227728
1	0x3a1bdf8c	0.0005946092
2	0x3a8f8751	0.0010950362
3	0xbe25e6a2	-0.1620126
4	0x39c2e6d9	0.00037174558
5	0xbcf5cba9	-0.03000434
6	0xbfa6ea3f	-1.3040236
7	0xbf207e9f	-0.6269321
8	0x3e81cabd	0.2534999
9	0x3df2479b	0.11830064
10	0x38d42845	0.000101164485
11	0xbe871fbd	-0.26391402
12	0x3f5faec4	0.87376046
13	0xbf21bb9b	-0.6317689
14	0x3e7802f3	0.24219875
15	0xbf24ec08	-0.64422655
16	0x3e8244d5	0.2544314
17	0xbb8a89a3	-0.0042278334
18	0xbdb0788a	-0.08616741
19	0xbeff411e	-0.49854368
20	0xbe1f8ccc	-0.15581053
21	0xbf1534a9	-0.5828348
22	0x3e73396e	0.23752376
23	0xbe8e62fb	-0.2780989
24	0x3eb53da6	0.35398597
25	0xba0f0b88	-0.00054567354
26	0x3cf9a4c3	0.030474072
27	0xbe8a152b	-0.26969275
28	0x3f1d7276	0.6150278
29	0x3e5512fe	0.20808026
30	0x3f188931	0.5958434
31	0xba41ad56	-0.0007388195
32	0xb9551931	-0.00020322647
33	0xba0f44b4	-0.00054652547
34	0x3b367f54	0.002784689
35	0xbd84b62a	-0.064800575
36	0xb9007bd2	-0.00012253158
37	0xbda204f8	-0.07911104
38	0x3e710d3d	0.23540206
39	0x3ef1a038	0.4719255
40	0xbe311c31	-0.1729591
41	0x3df1ed1e	0.11812805
42	0xba8d8758	-0.0010797782
43	0x3cfc3b5c	0.030790024
44	0xbea51ed6	-0.32250088
45	0x3f0e89fd	0.55679303
46	0x3de26460	0.11054301
47	0xbe391ea2	-0.18078092
48	0x3e6e7e52	0.23290375
49	0x3b39c9aa	0.002834896
50	0x3d818f10	0.06326115
51	0x3eb5524b	0.35414347
52	0xbef8d3ff	-0.4859924
53	0x3db68a3b	0.08913084
54	0x3e79611d	0.24353452
55	0xbe9e07c4	-0.308653
56	0xbddd0903	-0.107927345
57	0x3a533386	0.0008056689
58	0xbd1c4759	-0.03815398
59	0x3e88d624	0.26725876
60	0x3de27d86	0.11059098
61	0xbe10c6c3	-0.14138322
62	0xbf0a704c	-0.540776
63	0xb9587d11	-0.00020645956
64	0xbacfc95c	-0.0015852856
65	0x3a670e93	0.00088141224
66	0xbb316f1e	-0.0027074288
67	0x3ec027e1	0.37530425
68	0x3aab767e	0.0013081578
69	0xbe703805	-0.2345887
70	0x3ea21755	0.31658426
71	0xbdaefd1b	-0.0854437
72	0x3e7328ae	0.23745987
73	0x3e87ae2b	0.26500067
74	0xbacfa029	-0.0015840578
75	0x3e98b451	0.2982507
76	0xbe5e55f6	-0.21712479
77	0xbb60db1d	-0.003431029
78	0x3e3b1e64	0.18273312
79	0x3f07732a	0.529101
80	0xbee7950c	-0.452309
81	0xbaf48d87	-0.0018657901
82	0x3eec25eb	0.4612268
83	0x3e579855	0.21054204
84	0x3ea619a3	0.32441434
85	0x3e84ce13	0.25938472
86	0x3e4f0600	0.20217133
87	0x3ef62877	0.48077747
88	0xbefa6993	-0.48908672
89	0xbb04c689	-0.0020259938
90	0x3dcf181f	0.101120226
91	0x3e338aeb	0.17533462
92	0xbcfe098c	-0.031010412
93	0xbc9a5ece	-0.018844035
94	0x3e81dbe2	0.2536307
95	0x3ad9e681	0.0016624482
96	0x3ac8e8d0	0.0015328173
97	0x3aa5fbc5	0.0012663534
98	0x3b198c18	0.002342945
99	0xbe0c7618	-0.13716924
100	0xba40c45b	-0.0007353478
101	0xbe4f362a	-0.20235506
102	0x3f27790d	0.65419084
103	0x3ed8b35d	0.42324343
104	0xbc533f01	-0.012893439
105	0xbdb6f6cf	-0.08933794
106	0x3ab0f3ed	0.001350043
107	0xbe80eb65	-0.25179592
108	0xbeb24068	-0.34814763
109	0xbe871b7c	-0.26388156
110	0xbdd7c996	-0.10536496
111	0xbe4b48b3	-0.19851951
112	0x3ea73b5b	0.32662472
113	0xb9b9524e	-0.00035347271
114	0x3d371dbb	0.044706088
115	0x3e8c804f	0.27441642
116	0x3e470f38	0.19439399
117	0x3ed1683b	0.40899834
118	0x3d2b91f1	0.041887227
119	0xbe65b8a6	-0.22433719
120	0x3f128de8	0.5724778
121	0x3a51889c	0.00079930737
122	0x3ec4e0b6	0.3845269
123	0xbedae008	-0.42749047
124	0x3c17154c	0.009221386
125	0x3ea05991	0.31318334
126	0xbea2cc59	-0.3179653
127	0x3a144663	0.00056562404
128	0x39016431	0.00012339723
129	0x3a34744f	0.00068837864
130	0xba877b3b	-0.0010336408
131	0xbc438a45	-0.0119348215
132	0xb95ea711	-0.00021233807
133	0x3f0bfea1	0.5468541
134	0x3dcae45c	0.09906837
135	0xbe3d9fb2	-0.1851795
136	0xbe9bc756	-0.3042552
137	0xbed4728c	-0.41493642
138	0x3ac1052a	0.001472627
139	0x3e3c49a5	0.18387468
140	0x3c8465b7	0.016161783
141	0x3eae157d	0.3400077
142	0xbeddfb62	-0.43355852
143	0x3efc3d38	0.49265456
144	0xbeb889f1	-0.3604274
145	0xbb37f0e2	-0.0028067161
146	0xbef8449d	-0.48489848
147	0xbeae5de0	-0.34055996
148	0x3dfb64fd	0.12275121
149	0xbe34fe38	-0.17675102
150	0xbf3a1f89	-0.7270437
151	0x3ea9c15f	0.33155343
152	0xbea83011	-0.32849172
153	0x3a310b05	0.0006753656
154	0xbef5690b	-0.47931704
155	0x3e810136	0.25196236
156	0xbf344184	-0.7041247
157	0xbeb853ad	-0.3600134
158	0x3bca2c7c	0.0061698537
159	0x3b0c8a0d	0.002144459

fc3.bias f4 [5]
0	0xbebde441	-0.37088206
1	0x3ef16147	0.4714453
2	0xbe0c681e	-0.13711593
3	0xbe813411	-0.25235036
4	0x3e943dcc	0.28953397
