Assignment_1/1/Max_Pooling_New/Models/without/model-8.pth (torch_old, 882591 bytes, 10 tensors)

conv1.weight f4 [64, 3, 5, 5]
000000 18 78 71 3c cd 12 0a 3d bc 8e 43 3c d7 27 0c 3c
       0.014738105 0.033709336 0.011935886 0.00855442
000010 27 cd 69 3d d5 67 58 ba 2f 92 e3 3a d7 60 a0 bc
       0.057080414 -0.0008255218 0.0017362292 -0.019577427
000020 13 b3 05 bd 67 99 06 3d 26 7d 3c bd c0 b5 15 bd
       -0.03264148 0.03286114 -0.04601779 -0.036550283
000030 99 9d 4e bd 6b f1 5c bd 60 8f ce 3c ec 6d ac bd
       -0.050443266 -0.05394117 0.02521485 -0.084194034
000040 1b a9 69 bd a1 cd 7a bd d0 5f 2b bd 58 e1 50 3d
       -0.057046037 -0.06123126 -0.04183942 0.050996155
000050 09 4e cf bd d4 12 96 bd b7 8f 3b bd a6 2f 08 bc
       -0.10122306 -0.0732781 -0.045791354 -0.0083121415
000060 0c d0 a5 3d b7 95 c2 bd 64 44 0e bc f8 06 36 3d
       0.080963224 -0.09501212 -0.008683298 0.04444024
000070 55 c8 b9 3d a6 fd 12 3e f3 dd 04 be bd 72 2a bd
       0.090714134 0.14354572 -0.12975292 -0.04161333
000080 a4 5e e4 3b 0a 5b 9a 3d fb c3 26 3e 42 6a 3c be
       0.00696929 0.075368956 0.16285698 -0.18399909
000090 ec 23 b3 bd 18 99 bd bb e9 c3 a2 3d bd 4c 3f 3e
       -0.08747086 -0.0057860725 0.07947523 0.18681617
0000a0 47 a7 65 be 17 8e 01 be b6 05 9e bc c7 0c bd 3d
       -0.22427092 -0.12651859 -0.019289833 0.09230953
0000b0 d1 bb 5d 3e 4f 76 69 be f1 14 0d be 1d e4 d0 bc
       0.21653678 -0.22799037 -0.1377752 -0.025499398
0000c0 1e 63 c8 3d ff ab 69 3e 27 e7 71 be 16 47 ad bd
       0.0978453 0.22819518 -0.23623334 -0.08460824
0000d0 b6 2c 63 3d 1b bf 28 3e e5 bb 8d 3e 7b be 6d be
       0.05546256 0.16479151 0.27682415 -0.23217194
0000e0 10 76 8a bd e8 07 99 3d 01 00 5f 3e 95 1e b1 3e
       -0.067608 0.07472211 0.21777345 0.34593645
0000f0 cd 48 6c be 25 b1 79 bd 99 69 d4 3d 9d 98 8b 3e
       -0.23074646 -0.060959954 0.10371704 0.27264872
000100 04 f0 d5 3e 7e e6 6f be d2 1c 79 bd 75 78 10 3e
       0.4178468 -0.2342777 -0.0608185 0.1410845
000110 93 d6 9e 3e d4 5c f1 3e 7a 76 62 be 4c 21 25 bd
       0.31023082 0.47141135 -0.22115508 -0.040314957
000120 3e fd 2e 3e 00 b7 b6 3e 7b a4 00 3f f0 bd 33 3c
       0.17088792 0.35686493 0.5025098 0.010970578
000130 a8 04 d5 3d 1f c8 38 3e c2 f3 47 3e bb 35 01 3e
       0.10401279 0.1804509 0.1952658 0.12618153
000140 db 9e 85 3e 31 ff a1 3e c9 a2 61 3e fd a4 80 3d
       0.2609776 0.31640008 0.22034754 0.06281469
000150 d5 69 ba bc 7f 10 9c 3e da 71 9b 3e b8 b8 06 3e
       -0.022755543 0.30481336 0.303603 0.13156402
000160 75 74 6d bd 85 2a d0 bd 39 76 eb 3d 77 09 8b 3d
       -0.05797239 -0.1016436 0.114971586 0.06788915
000170 e4 55 54 bc 99 c9 4c bd 80 3c 8c bc 47 d3 2e be
       -0.012959931 -0.049996946 -0.017118692 -0.17072783
000180 70 8b 5c be aa 89 ef bd fa e7 27 3d d6 87 08 3e
       -0.21537566 -0.11696179 0.040992714 0.13333067
000190 be 66 82 bd be 01 53 bd f8 6d a7 bc dc e1 3b bd
       -0.06367253 -0.051515333 -0.02043818 -0.045869693
0001a0 5d fb f9 bd 54 22 1a 3e f2 ea 07 3e 0c 39 13 bc
       -0.12206147 0.15052158 0.13273218 -0.008985769
0001b0 42 7a 52 be 8d e7 9f be 91 95 74 3e 2d e8 01 3e
       -0.2055445 -0.31231347 0.2388518 0.12686224
0001c0 92 b8 da bd 1f cd a2 be e0 f2 cc be ec 29 e9 3d
       -0.10679735 -0.3179712 -0.4002905 0.11384949
0001d0 d8 e0 07 bd 88 1c 3b be 38 6f 94 be 25 65 92 be
       -0.033173412 -0.18272603 -0.28991103 -0.28592792
0001e0 59 ce a9 bd 33 fd 56 be 65 4c 58 be 96 bb 00 be
       -0.08291311 -0.20995025 -0.21122892 -0.12571558
0001f0 9d a3 a5 bd 39 41 19 3e 4e f1 b1 3d 51 0f e2 3c
       -0.080878474 0.14966287 0.08688603 0.027595194
000200 ed 14 16 bd 75 78 e1 bd 4a fd a7 3e 11 22 77 3e
       -0.03664105 -0.110093035 0.32810432 0.24134089
000210 c2 08 23 3d c8 ca 2d be 5c 59 88 be db 9e cc 3e
       0.039803274 -0.16971886 -0.26630676 0.39964947
000220 e7 06 84 3e 1a 4f 1c bc 51 6a 79 be 66 39 9e be
       0.25786516 -0.009540344 -0.24356963 -0.30903167
000230 22 6e a1 3e 73 28 1b 3e 32 e3 0b bd 48 6c 22 be
       0.31529337 0.15152149 -0.034152217 -0.15861619
000240 19 2e 24 be 2b 93 2b 3e b9 94 07 3d e5 cc 1d 3c
       -0.1603321 0.16755359 0.033100817 0.00963137
000250 12 3a 58 3d 30 28 a6 3d d6 bf d1 3d 41 ef 15 3e
       0.052789755 0.08113134 0.10241668 0.1464205
000260 6f 23 04 3e 31 82 88 3d 95 12 d0 bc 61 2d 99 3d
       0.12904142 0.06665457 -0.025399486 0.074793585
000270 3b 43 e3 3d 89 8d e2 3d 65 77 72 3d 8c f8 48 bc
       0.110968076 0.11062152 0.059195895 -0.012266289
000280 a5 73 c9 bc 9b f2 d3 bc 54 66 11 bc fa be f0 ba
       -0.024591276 -0.02587252 -0.008874495 -0.0018367462
000290 3e e1 a5 bc 44 99 0d be 8b a5 3f be d1 08 1d be
       -0.020249005 -0.13827997 -0.18715493 -0.15335394
0002a0 8f 91 b7 bd 17 f3 03 bd 98 c2 55 be a8 3a 8c be
       -0.0896331 -0.03221425 -0.20875013 -0.273885
0002b0 33 36 7d be ff 3d 23 be c8 71 9e bd d2 f5 5f 3e
       -0.24727707 -0.15941618 -0.07736546 0.21871117
0002c0 21 5b 88 3e 7c 2a 75 3e 82 a8 27 3e 2e 02 6e 3d
       0.26632026 0.23941988 0.16372874 0.058107547
0002d0 70 a2 4d 3e d7 0f 7c 3e de fc 79 3e 41 b1 38 3e
       0.20081496 0.24615417 0.24412867 0.18036367
0002e0 40 c1 a9 3d 8a 99 ed 3d c8 39 de 3d ac f4 02 3e
       0.08288813 0.11601551 0.10850865 0.12788647
0002f0 f7 c1 11 3e c3 d9 e3 3d e4 15 95 3b 4b 7f 30 bd
       0.14234148 0.11125519 0.0045497287 -0.043090146
000300 16 29 32 bc 45 6a 84 3d a5 52 f0 3d 36 b7 82 bd
       -0.010874053 0.06465582 0.11734513 -0.06382601
000310 e8 48 15 be f5 16 df bd f5 0a a9 bc 7b 11 91 3d
       -0.14578593 -0.108930506 -0.020635108 0.07083412
000320 19 2a 4d bc 3f fd aa ba c3 5a f6 bb 1d 2f 49 bd
       -0.012522244 -0.0013045444 -0.007518144 -0.049117196
000330 76 b6 91 bd ee 34 97 bc 4c a4 87 bb 36 ca 38 bc
       -0.0711488 -0.018457856 -0.0041394588 -0.01127868
000340 ec 2b eb bc 37 5a 4d bd 9e f8 a4 bd db 6e ba bd
       -0.028707467 -0.050134864 -0.080552325 -0.09103175
000350 9e 9b 8d bd 16 83 2f bd a2 33 83 bc c7 70 06 be
       -0.06914447 -0.042849623 -0.016015831 -0.13128959
000360 94 ad 44 be 19 ae 23 be c4 12 87 bd e7 ed 05 3c
       -0.1920684 -0.15984382 -0.06595376 0.008174396
000370 ac 0c 15 be d3 43 6c be db 99 4d be b7 8b cd bd
       -0.14555615 -0.23072748 -0.20078222 -0.10036414
000380 56 ba 59 3c fa 78 b7 be 5d 02 b0 be fc fb b5 be
       0.013289055 -0.35834485 -0.34376803 -0.3554381
000390 25 67 ba be 24 5e bb be 1d c1 8e be 81 fd 69 be
       -0.36406818 -0.3659526 -0.2788171 -0.2285061
0003a0 73 61 60 be c3 0a 87 be d8 c7 97 be 80 a0 d7 bd
       -0.21912174 -0.26375398 -0.29644656 -0.1052866
0003b0 6e ab fa bc 40 53 4d 3c d9 63 1b bd 79 f4 e7 bd
       -0.030599322 0.012532055 -0.03793702 -0.11325926
0003c0 e8 c9 8b 3d 26 56 1d 3e 92 e2 65 3e 15 4a 40 3e
       0.0682562 0.15364894 0.22449711 0.1877826
0003d0 3c eb db 3d b2 a9 2e 3e 27 49 6e 3e 08 2b 96 3e
       0.10738227 0.17056921 0.23270093 0.29329705
0003e0 68 07 8e 3e 3f 74 6a 3e 0b 89 f6 3c 42 56 68 3d
       0.27740026 0.22895907 0.030094644 0.056722887
0003f0 e6 df 84 3d 1d 08 fb 3c f8 97 ef 3b 92 ae 7c 3a
       0.06488018 0.030643517 0.0073118173 0.000963905

conv1.bias f4 [64]
000000 98 af 0e bf e7 b1 0b be e2 3e d4 be ce 03 6c be
       -0.55736685 -0.13642083 -0.41454226 -0.23048326
000010 68 bc 13 3c 3d 84 69 be 43 6c f1 bd 0c b2 ef be
       0.0090170875 -0.22804351 -0.117882274 -0.46815526
000020 74 a9 d0 be 5b dc 71 be 53 3a 1b 3e a4 87 10 bb
       -0.40754282 -0.23619215 0.15158968 -0.0022053504
000030 e8 7a d8 3e 44 5c 89 be 49 48 a8 be 87 ed 8e bf
       0.4228127 -0.26828206 -0.3286765 -1.1166238
000040 e8 f0 a0 be 0f ab 65 bf e5 dd bf be 63 73 95 be
       -0.31433797 -0.8971414 -0.3747398 -0.29189596
000050 a3 55 c1 be 18 8b 7a be b9 f4 43 bd 26 96 a1 3d
       -0.37760648 -0.24467123 -0.047840808 0.07889967
000060 d7 4a ee be 38 89 1d bf 2a 77 23 be 1f 9f 47 be
       -0.46541473 -0.61537504 -0.15963426 -0.19494294
000070 08 a3 8f bf c0 42 21 be e0 2b 41 bc 02 fb 02 bf
       -1.1221628 -0.1574812 -0.011790246 -0.5116426
000080 86 7e 58 be 39 3e c4 be 41 01 07 be 69 c6 13 bf
       -0.21142015 -0.38328722 -0.13184072 -0.57724625
000090 09 98 87 3d a5 46 17 bf 63 fd d0 be b2 bd 43 3e
       0.06620795 -0.5909217 -0.4081832 0.19115332
0000a0 c3 92 a1 be 3b 7b a0 be 0b 41 8a be 9a 15 bc be
       -0.31557283 -0.31344017 -0.2700275 -0.3673523
0000b0 d8 b7 0e 3e d1 0d fd be d9 f3 90 bf 56 12 fc bd
       0.13937318 -0.49424604 -1.1324416 -0.12308185
0000c0 54 39 a5 bf 1b 4c c1 be 9c 5d 01 be 02 d9 57 3e
       -1.290812 -0.37753376 -0.12633365 0.21078876
0000d0 77 ae 67 bf 56 f4 49 3e b4 07 46 bd d6 9a 4c bf
       -0.9050059 0.19722113 -0.04834719 -0.7992376
0000e0 1e 08 f6 bd cb db 7c be ff 44 70 bd 20 f7 3d be
       -0.12013267 -0.2469322 -0.05865955 -0.18551302
0000f0 f8 2c ba bf 38 eb 45 bf dc 89 23 bf 4e 3e ef bd
       -1.4544973 -0.7731204 -0.6388223 -0.116818056

conv2.weight f4 [128, 64, 5, 5]
000000 f0 23 08 bd fe 5b af bc 6f 82 78 bc 8f 62 61 bc
       -0.033237398 -0.02140617 -0.015167817 -0.013756408
000010 03 51 ae bc 98 73 f8 bc ed 64 a1 bc 24 89 83 bc
       -0.021278864 -0.030328557 -0.019701445 -0.016056605
000020 19 7f 61 bc 3c 41 88 bc cd 6a fa bc 19 29 9f bc
       -0.013763213 -0.016632669 -0.030568505 -0.019428777
000030 1e bc 79 bc 76 15 4f bc af 84 84 bc 45 15 ef bc
       -0.015242605 -0.012639394 -0.01617655 -0.029184947
000040 30 f6 a4 bc d9 63 6d bc fb b2 41 bc dd d7 8c bc
       -0.020136923 -0.014489138 -0.011822457 -0.017192775
000050 0f fa 00 bd ed 1b a2 bc 1e dc 84 bc 11 68 87 bc
       -0.031488474 -0.019788707 -0.016218241 -0.016529115
000060 6b 6d ae bc d9 90 d8 3c f2 aa b9 3c 9f 6f 5d 3c
       -0.021292409 0.026436256 0.02266452 0.013515382
000070 55 44 07 3c 05 b5 74 3c 45 64 c6 3c e9 1e 7f 3c
       0.008256038 0.014935737 0.024217734 0.015571334
000080 52 95 d4 3b 06 fd 25 38 01 11 e5 3b 00 0f ae 3c
       0.006487527 3.9574712e-05 0.0069905524 0.021247387
000090 da cd 3c 3c b9 ea 03 3a d2 37 cf bb 57 cd 96 3b
       0.011523688 0.000503223 -0.006323793 0.004602115
0000a0 49 83 bb 3c 78 f0 60 3c 4c 96 f0 3a dc 8b 10 bb
       0.02288975 0.013729207 0.0018355339 -0.002205602
0000b0 dd e3 ac 3b 37 11 ed 3c 38 42 ca 3c 7d 50 7a 3c
       0.005276187 0.028938873 0.024689779 0.015277979
0000c0 b2 f6 12 3c 74 13 45 3c 3d 66 be bc b5 47 bd bc
       0.00896995 0.012028564 -0.02324211 -0.023105482
0000d0 a1 ee ba bc 0b bb b6 bc eb 00 ba bc 31 27 d6 bc
       -0.022818865 -0.022305986 -0.022705516 -0.026141735
0000e0 3b 57 cd bc 3e c6 b8 bc 4d bd 9f bc 29 29 97 bc
       -0.025066009 -0.022555467 -0.019499445 -0.018452244
0000f0 d8 bc ec bc 69 cd db bc f3 af b3 bc e9 f6 9a bc
       -0.028898641 -0.026831346 -0.021934485 -0.018916564
000100 0a f6 79 bc 6a af 07 bd 9f 30 e5 bc 04 20 c3 bc
       -0.015256414 -0.033126272 -0.027977286 -0.023818977
000110 35 e8 7f bc a2 7b 3b bc 7a 05 f2 bc 36 60 de bc
       -0.015619327 -0.011443051 -0.029543627 -0.027145486
000120 6a 4f b3 bc b6 56 5e bc 88 a5 b5 bb 6d ed e1 bc
       -0.021888454 -0.013570478 -0.0055434145 -0.027579034
000130 c8 df d1 bc 7d f2 9a bc cf 3d 73 bc c9 e3 e4 bb
       -0.025619403 -0.018914456 -0.014846279 -0.006985162
000140 73 37 0b bd 37 ae fb bc 69 5d cc bc 73 85 99 bc
       -0.033988427 -0.03072272 -0.024946885 -0.018740391
000150 2e 56 60 bc da 66 17 bd 04 3e 0f bd 4f d1 e3 bc
       -0.013692422 -0.03696332 -0.034971252 -0.027809767
000160 55 7a c4 bc ba 16 a8 bc 95 ba 0e bd b5 30 0c bd
       -0.023984114 -0.02051865 -0.034845907 -0.03422614
000170 08 53 fe bc b4 3d fc bc 57 70 e9 bc d0 74 04 bd
       -0.031045452 -0.030791141 -0.02849595 -0.032337964
000180 84 cb 12 bd eb 94 10 bd e2 cb 1d bd 4a 5a 1c bd
       -0.03583862 -0.03529827 -0.038524516 -0.038172044
000190 a1 f7 a1 bb 98 d4 55 bc a9 33 54 bc 56 e0 3a bc
       -0.0049428497 -0.013051175 -0.01295177 -0.011406025
0001a0 a3 8a e7 bb 4e bd 9f 3b 8e 6f 8d bb 91 a3 fe bb
       -0.0070660873 0.004874862 -0.004316277 -0.0077709635
0001b0 b9 be 8d bb 30 5c 20 3a 8d bd 17 3c a3 0e b3 3a
       -0.0043257144 0.00061172526 0.009261501 0.0013660978
0001c0 a7 e7 09 bb 95 46 5e b8 cd 28 ac 3b 31 bf 59 3c
       -0.0021042617 -5.299466e-05 0.0052538873 0.0132902125
0001d0 23 36 10 3c c8 e4 80 3b 17 cc cf 3b ff dd 44 3c
       0.00880197 0.003933523 0.006341468 0.012015819
0001e0 ec 24 a8 3c 32 d1 7c 3c e0 44 63 3c cd 0a 82 3c
       0.020525418 0.015430735 0.013871402 0.01587429
0001f0 e3 f4 a4 3c d6 d8 e0 36 47 07 1f 3c 4f e2 7c 3c
       0.020136302 6.7009632e-06 0.009706325 0.015434816
000200 45 4b b5 3c 78 35 1b 3d d1 4a 9b bb a3 f8 e9 3a
       0.022130618 0.03789279 -0.0047391434 0.0017850589
000210 73 3d 0e 3c 67 f5 96 3c c8 a3 10 3d 62 94 a2 bb
       0.008681643 0.018427564 0.035312444 -0.0049615363
000220 85 4b 99 39 c0 c3 da 3b 7e f2 9d 3c 9f c4 0c 3d
       0.000292387 0.0066761672 0.019280668 0.0343672
000230 0a b0 64 bb 57 da 17 3b 89 2e 32 3c ef 73 bc 3c
       -0.0034894967 0.0023170912 0.010875353 0.0230045
000240 f9 ab 2b 3d 6e 3b f1 3a 63 3a 32 3c e2 f0 ba 3c
       0.041912053 0.0018404552 0.010878178 0.02281994
000250 a4 40 12 3d d8 fe 54 3d fc f1 2c bc 0e a4 4a bc
       0.035706177 0.05200085 -0.01055574 -0.012368215
000260 ca 2d 48 bc 6c 50 02 bc be 17 91 bb dd 38 a4 bc
       -0.012217948 -0.007953744 -0.004427879 -0.020046646
000270 20 99 9e bc 9f a8 95 bc 0c 9c 66 bc 7f c7 1f bc
       -0.019360125 -0.018268881 -0.01407529 -0.009752153
000280 3d c6 ad bc b3 89 c2 bc 11 9e a7 bc 72 99 8d bc
       -0.021212691 -0.0237473 -0.020461114 -0.017285082
000290 ff 6f 7c bc 4a 9b a0 bc c4 a3 b0 bc 0b a1 9e bc
       -0.015407561 -0.019605298 -0.021562465 -0.0193639
0002a0 ff d6 99 bc a9 8c 9f bc 24 ec 6e bc 53 78 96 bc
       -0.018779276 -0.019476252 -0.0145826675 -0.018367922
0002b0 ab d1 a6 bc 0a 7d c7 bc 1d d8 d6 bc 5e 45 25 bc
       -0.02036365 -0.024351615 -0.026226098 -0.010087339
0002c0 f8 2c 64 bc 13 ab 74 bc 1e 89 5d bc 60 3a f2 bb
       -0.013926737 -0.014933365 -0.013521461 -0.0073922127
0002d0 d7 e1 07 bc c6 ed 39 bc a6 3a 61 bc 26 b2 1e bc
       -0.0082935905 -0.0113481935 -0.013746893 -0.009686029
0002e0 52 b9 e7 ba 7f d4 45 bc ac f0 50 bc e3 48 05 bc
       -0.0017679131 -0.012074589 -0.012752693 -0.008135053
0002f0 d3 8b 6f bb c7 b9 8f 3b 5f d1 01 bc d5 e4 d7 bb
       -0.0036551848 0.00438616 -0.007923453 -0.006588558
000300 39 a7 a1 ba 87 95 c6 3b f0 22 68 3c b0 f0 1a 38
       -0.0012333161 0.0060603055 0.014168486 3.694062e-05
000310 34 90 0e 3b 66 ec 09 3c 7c 52 90 3c d9 a4 a9 3c
       0.0021753432 0.008418178 0.017617457 0.020708488
000320 73 d2 96 bb 2c 3b 6b bc 01 3a 8a bc 21 58 70 bc
       -0.004602724 -0.014357369 -0.016873362 -0.014669449
000330 11 1d 2a bc 9d 7c 95 bb d7 70 7a bc 44 42 a6 bc
       -0.0103829065 -0.004561974 -0.015285692 -0.02029527
000340 97 9a 91 bc 2a 03 5f bc 37 ad d1 bb ba d9 9e bc
       -0.01777391 -0.013611594 -0.0063988226 -0.01939093
000350 fc e0 bc bc 76 78 a1 bc a4 ba 80 bc 46 1b cf bb
       -0.0230565 -0.01971076 -0.015713997 -0.00632039
000360 64 2f 97 bc 6a 10 d5 bc c2 8a be bc 36 66 a4 bc
       -0.018455215 -0.026008803 -0.023259524 -0.02006827
000370 ff 58 45 bb e1 da 88 bc 78 9d df bc d3 52 d9 bc
       -0.003011286 -0.016705932 -0.027296767 -0.026528751
000380 66 b4 c8 bc 83 f5 f6 bc 37 0e ec bc 01 9b ba bc
       -0.024500083 -0.030146366 -0.028815372 -0.02277899
000390 b7 28 82 bc fe ba 89 bb 13 98 1e bd e4 29 0c bd
       -0.015888555 -0.0042031994 -0.038719248 -0.034219638
0003a0 0e b9 ef bc 7a a8 ad bc 19 46 47 bc 20 2a 2e bd
       -0.029263046 -0.0211985 -0.012162709 -0.042520642
0003b0 78 81 25 bd af 6f 03 bd 2f dd d2 bc 28 9a a7 bc
       -0.040406674 -0.03208893 -0.025740234 -0.02045925
0003c0 8a 61 23 bd a9 83 14 bd 21 f1 0b bd 5b 34 ee bc
       -0.039887942 -0.036258373 -0.034165505 -0.0290777
0003d0 54 6c d6 bc 27 17 0b bd 1c fa 14 bd db 5b 12 bd
       -0.026174702 -0.033957627 -0.036371335 -0.03573213
0003e0 ce 21 1a bd 6d 51 15 bd 32 4d 53 bd 77 af 51 bd
       -0.037629895 -0.036454607 -0.05158729 -0.051192727
0003f0 cf ee 62 bd 7b 84 75 bd 7c 7e a6 bd 96 9c 44 bd
       -0.055403527 -0.059940796 -0.08129594 -0.048000894

conv2.bias f4 [128]
000000 3c b6 c6 bd 44 eb 6a 3e c5 51 23 3d 06 64 86 bd
       -0.09702727 0.22941309 0.039872903 -0.06562047
000010 59 2b 1c 3d 4a 4a 25 3d d7 17 bb 3d 4e 8b 9d be
       0.038127277 0.04035405 0.091354065 -0.30770344
000020 6c 24 24 bd 31 15 e3 3c 7d d3 f8 36 92 59 9a bd
       -0.040073797 0.027720066 7.4155964e-06 -0.075366154
000030 06 ca b1 3d c2 4e d4 3e 16 bf 62 3e a7 9d b4 3c
       0.08681111 0.41466337 0.22143206 0.02204783
000040 9e 02 c7 bd df 30 93 3e 6b c8 31 bd ad 34 95 3f
       -0.09717296 0.28748223 -0.043404024 1.16567
000050 ef 9c 82 bc 11 c9 bc be 71 73 ce 3c 42 19 e9 3c
       -0.015943972 -0.36872151 0.025201531 0.028454427
000060 7d cf 5c 3d f3 13 d0 3b 12 52 83 bd 59 08 1a 3b
       0.053908814 0.0063500344 -0.06412138 0.002350351
000070 13 72 98 3e 72 d0 98 bd 22 3a 75 be 13 31 45 bc
       0.29774532 -0.07461633 -0.23947957 -0.012035626
000080 63 dd fc 3c 3d f7 51 3d bf 2e 87 3c 80 28 ba 3c
       0.030867284 0.051261175 0.016501782 0.02272439
000090 db b1 83 3c 76 20 88 bc d8 d4 ca bd 40 28 83 be
       0.016076019 -0.016617041 -0.09903878 -0.25616646
0000a0 3c 52 ec bd 8e 72 66 3c 93 f3 3d bf 92 7f 0c 3d
       -0.115391225 0.014065398 -0.7419979 0.034301348
0000b0 f5 c4 8d bd 18 fc 5d 3d 3a 44 c5 bc a6 bb c9 3d
       -0.06922332 0.054195493 -0.024080385 0.09850244
0000c0 0c ad bf bc 42 c5 f4 bd c4 46 03 be 23 23 d2 bc
       -0.023397945 -0.119516864 -0.12819964 -0.02565152
0000d0 6e 4f 39 bc e3 9d 96 3c da 0a b8 bd 82 ad 80 bc
       -0.011310441 0.018385833 -0.08986445 -0.015707735
0000e0 80 43 31 3e 58 d5 61 bd fa 99 d3 3b c1 36 89 be
       0.17310905 -0.0551351 0.0064575644 -0.26799586
0000f0 21 3d 74 3c 94 7c a6 3b 7d 11 67 be f7 f0 6f 3d
       0.014907152 0.005080769 -0.22565265 0.05857941
000100 8e 5b a7 3e cf 6e 43 be b0 d5 62 bd ca 66 ab 3c
       0.32687038 -0.19085239 -0.05537957 0.020923037
000110 2d 93 77 bd 95 cd fb 3c b2 f6 5e bc a2 bf 67 bf
       -0.060443092 0.030737678 -0.013608621 -0.90526783
000120 54 1e 7f bd 42 e6 96 bc 7a 39 c2 3c 3c 42 da bd
       -0.062284783 -0.018420342 0.023709048 -0.106571645
000130 5b 35 50 3d 17 2b cb bb f5 7b 8b ba fd 6c be 3c
       0.050832134 -0.006200205 -0.00106418 0.023245329
000140 b4 be 47 bb e8 10 fe 3c 75 d5 0f 3d 38 a4 84 be
       -0.0030478658 0.03101392 0.035115678 -0.2590654
000150 a7 0b b7 bd 24 85 e5 bc 20 d9 9b 3e fd 8e 21 3e
       -0.089377694 -0.028017588 0.3043909 0.15777202
000160 56 d0 98 bb c8 b1 84 bb 38 0e a9 3d 6d 16 6a bb
       -0.0046635075 -0.0040495135 0.08254665 -0.0035718933
000170 40 b9 86 be ac 5e c9 3a 10 40 96 bd e5 83 ee bc
       -0.2631321 0.0015363297 -0.07336438 -0.029115627
000180 6b ca 5d 3d 0e e5 c3 bc cf aa 5a be 87 1f 8b bc
       0.05414812 -0.023912933 -0.21354221 -0.016982807
000190 7b 1c 79 3a 4e b3 45 3d 42 7f 66 3d 3b 53 18 3f
       0.000950284 0.0482667 0.056273706 0.59502
0001a0 cd b9 f8 3c 78 86 e3 bd c9 cb 43 3f a5 ef 0e 3d
       0.030362034 -0.11109632 0.76482826 0.03489651
0001b0 8f fc f9 bd 59 08 04 bd d2 6b b0 3d db d0 84 bd
       -0.12206375 -0.032234523 0.08614315 -0.064851485
0001c0 df 40 ce bd 87 3d da 39 aa d2 8b 3c ff fc a9 be
       -0.10070967 0.00041626042 0.017068226 -0.33200833
0001d0 8f a0 5c be 2e fa 51 bb 61 93 ab bb 95 dc 8d 3b
       -0.21545623 -0.0032039988 -0.005236075 0.004329274
0001e0 f8 d7 c5 ba 52 8e b1 3d dd 29 ef 3c c5 ad 0e 3b
       -0.0015094271 0.086697236 0.029194767 0.0021771055
0001f0 69 94 bf bd 40 3f 88 3e 84 81 5b bd df 26 44 3d
       -0.09354479 0.26610756 -0.053590313 0.047888633

fc1.weight f4 [64, 128]
000000 a5 c7 1a 3e 77 b6 27 bf 9b 70 93 be 74 1a 4b be
       0.15115221 -0.65512794 -0.2879685 -0.1983431
000010 42 eb 2f 3e d8 e5 1e bc 03 8e 74 bc e3 e5 00 3e
       0.17179587 -0.009698354 -0.014926436 0.12587695
000020 6a e1 84 be 4b 72 b1 3d 1e 8f 93 ba a2 d3 87 bd
       -0.25953227 0.08664378 -0.0011257862 -0.06632163
000030 d1 01 22 3e d3 d0 a8 bd cf ca bd bd 6c 69 ff ba
       0.15821005 -0.08242955 -0.09267198 -0.0019486374
000040 3a 26 41 3e e0 5e 8e 3e 16 de 8f 3c 19 d4 98 3e
       0.18862239 0.2780676 0.017561954 0.29849318
000050 0e 6e 19 3c 7f f9 10 bf b5 cc 01 3e 78 f9 9b be
       0.009364618 -0.566307 0.12675746 -0.30463767
000060 13 f5 03 3e f4 c7 ab bb b5 d5 e8 3c 87 d4 75 bb
       0.12886457 -0.005242342 0.028422216 -0.003751071
000070 29 5b ae bc ea 29 ae 3c 0e ac b7 3c c8 ea ac 3d
       -0.021283703 0.02126022 0.02242091 0.084432185
000080 35 90 7a 3d a7 27 fc 3b 0b f2 dd bd d4 b9 aa 3d
       0.061172683 0.0076951566 -0.10837182 0.08336225
000090 2f 34 29 bd 78 d7 49 3e 45 e6 4b 3c 3a 68 74 be
       -0.04130953 0.19711101 0.012445037 -0.23867884
0000a0 3f 2f 23 3e 42 51 bc 3d b0 97 8d 3d 1f 2e ae bd
       0.15935992 0.09195186 0.06913698 -0.08504891
0000b0 4e df ec bc a0 d4 fd 3d c7 2e b0 3c 12 c6 61 be
       -0.028915074 0.123940706 0.02150668 -0.22048214
0000c0 dc 06 1d bb 84 62 75 be 06 c1 50 3e 1a a0 68 bd
       -0.0023960387 -0.23963362 0.20386133 -0.05679331
0000d0 ff cf 43 bb 70 88 3c 3d 21 09 6e 3e 32 f8 0a 3c
       -0.0029878614 0.046028554 0.2324567 0.008482026
0000e0 c3 c8 da bd 70 d4 7b 3c 08 cf 8d 3c 2e 75 09 be
       -0.106828235 0.015370473 0.017310634 -0.13423607
0000f0 5c 9c e4 3d 7c 90 8a 3d 6a 21 ff 3d 59 81 13 3e
       0.11162636 0.067658395 0.12457545 0.14404811
000100 8a 9e 11 3d 68 72 3f bb 27 df 60 be df 9f d5 3a
       0.035551585 -0.0029212479 -0.21960126 0.0016298256
000110 02 bf 1d 3e 74 60 b5 3d ed a7 3c bd 91 53 14 3c
       0.15404895 0.088562876 -0.046058584 0.009053127
000120 14 24 15 3d 07 df 15 3c e3 cc 7c 3b 2c 2d 74 3c
       0.03641136 0.009147412 0.003857427 0.014903348
000130 44 f3 f6 bd 66 e6 4b 3d 17 06 28 3b b8 4c 62 3d
       -0.12058118 0.049780272 0.0025638395 0.055248946
000140 eb 04 3e 3d 0a f7 7d 3d 67 60 d5 3d 20 4b db bd
       0.04639141 0.062003173 0.10418778 -0.10707688
000150 83 fd 39 3d d3 99 24 3c 2d da 77 3d 9e 99 bd be
       0.045407783 0.01004644 0.060510803 -0.37031263
000160 30 30 5c bc c3 0e 00 3d 95 d2 c2 3d b7 54 e2 bc
       -0.013439223 0.031264078 0.095128216 -0.027628286
000170 4d 42 5d 3d 0c 9f 9b bb 58 a0 cd 3c 2e 0d 3f be
       0.054018307 -0.0047491845 0.025100872 -0.18657371
000180 25 3b 11 3e f6 04 85 bc 76 75 06 bc 7e ee 1a 3c
       0.14182718 -0.016237717 -0.008206716 0.009456275
000190 61 90 6e bc 7c ab a8 be 16 04 44 3e 48 de 09 bf
       -0.01456079 -0.32943332 0.19142184 -0.538548
0001a0 59 a1 22 be e8 6f ce bc 94 bb 49 3d 57 4a e8 3d
       -0.15881862 -0.025199845 0.049251154 0.11342304
0001b0 97 a4 6b 3d 1d b4 98 3d e1 62 07 3c 5b e3 79 be
       0.057530012 0.07456229 0.008263321 -0.24403135
0001c0 2d e4 4c 3e 30 70 d5 3a a9 7c 35 be a7 b1 11 3e
       0.20008917 0.0016284045 -0.17723335 0.14227925
0001d0 97 42 dd 3d ea 28 9d 37 fd ca b5 3a 3c 4e a6 bb
       0.10803717 1.873491e-05 0.0013869699 -0.0050752442
0001e0 e3 a6 3b bc 73 2d 88 bc 6b b5 63 3c 5d f7 a7 be
       -0.011453363 -0.016623234 0.013898234 -0.3280591
0001f0 55 15 45 3d f7 5f cc be 2c 4e 9d 3d 3f be 0c 3e
       0.048116047 -0.39916965 0.07680926 0.13744448
000200 8a f0 2e 3e 01 e5 6f 3d 4c 7a 63 3e 64 21 6a 3d
       0.17083946 0.058568005 0.22214621 0.05716075
000210 d8 f2 22 3e e2 79 f5 bc 2b 35 d9 bd 43 94 05 3e
       0.1591295 -0.029965345 -0.10605844 0.13044839
000220 6f fe cb 3d 85 51 8e 3d cc 8d 9a 3b 1b 82 97 bd
       0.09960639 0.06949142 0.0047166105 -0.073978625
000230 68 58 fd 3d 08 25 6d be 44 a0 3b 3d 4e 18 96 bc
       0.12370378 -0.23158658 0.045807138 -0.018322136
000240 d7 88 2c 3e f8 d0 1d 3e f0 d8 84 3d 9a e2 82 be
       0.16849075 0.15411747 0.0648669 -0.25563508
000250 50 59 35 bd f8 93 3e 3d f7 7b f7 3d 4d 84 3d 3e
       -0.04427463 0.046527833 0.12084191 0.185075
000260 ee d6 c3 3d a4 a4 64 bc 61 b3 22 3e cb 92 a7 3b
       0.09562479 -0.013955269 0.1588874 0.0051139346
000270 21 93 f9 be 0c d5 23 3d 3c e7 ba 3d 3f 56 9a 3d
       -0.48745063 0.0399981 0.09126136 0.075359814
000280 81 46 a0 3d 59 4e 9d bc 9e 1d 0f bd bb 03 80 3d
       0.078259476 -0.019202398 -0.034940355 0.062507115
000290 a8 98 6a 3d 6e a2 4a 3e 28 64 10 bb ba 6e 11 bc
       0.05727449 0.19788525 -0.0022032354 -0.008876497
0002a0 0d 68 f2 3b 65 63 a8 3d 9f e1 5f bd 0e 8f fb bd
       0.0073976577 0.08222083 -0.05465853 -0.12283145
0002b0 70 6f ea bc 50 b3 10 3e 93 cc 49 3c bb 72 a6 be
       -0.02861759 0.14130902 0.012316841 -0.32509407
0002c0 30 36 dd bb 3a 51 99 3c a9 8c 84 3e 3e 38 5f be
       -0.0067508444 0.01871549 0.25888565 -0.21798798
0002d0 a5 62 e2 bb 7a ae 34 3d 5a b0 44 3e d3 da 04 3e
       -0.006908732 0.044111706 0.19207898 0.129741
0002e0 3b ee fa bd 63 27 84 3e 85 fa a4 3c 4b d7 92 39
       -0.1225247 0.258113 0.020138988 0.00028007696
0002f0 37 d5 1a 3e 8e f0 ab 3d ac db f1 3d ab 18 1a 3e
       0.15120398 0.083954915 0.11809477 0.15048473
000300 49 b2 dd be 57 f2 a4 3d 57 2f c7 3d 5e ca 26 3b
       -0.43300083 0.08054035 0.09725826 0.002545021
000310 02 ee 07 3e 91 f4 75 3d d4 29 81 3c fd a9 36 be
       0.13274387 0.06004769 0.015767016 -0.17838283
000320 e8 37 54 3d 42 c8 3a 3a 16 ca 66 bc bf 9e d8 bc
       0.05181113 0.00071251777 -0.014086267 -0.026442884
000330 28 10 2f 3d 2c 01 89 3d 73 54 99 bb d2 64 11 3d
       0.042740017 0.06689677 -0.0046792566 0.03549654
000340 cc fb 22 3d 3a fd ad 3d 9d e8 9b 3d 4c 78 0d bc
       0.039790913 0.08495565 0.07612727 -0.008634638
000350 c1 17 8b 3d 30 6d 08 3e c1 a6 06 3e 8f 17 34 bd
       0.0679164 0.13322902 0.13149549 -0.04396778
000360 54 d0 46 3b 2d 3e 4a 39 e1 11 8f be 65 77 b7 3c
       0.0030336576 0.00019287383 -0.27943328 0.022395799
000370 55 69 bf 3e d9 d3 44 ba 85 b5 8a 3d e4 86 7b 3d
       0.3738505 -0.00075083744 0.06772903 0.06140794
000380 df 26 d0 3d f6 ec df 3b f0 be b1 bc d5 38 ae 3d
       0.10163664 0.006833668 -0.021697491 0.085069336
000390 56 f2 3e bc 8d d5 90 bd f3 0f 16 3e 46 64 fc be
       -0.011654457 -0.070719816 0.14654522 -0.49295253
0003a0 8d 15 1f be a1 18 7e bc 42 b1 45 be 3f 7b a4 3d
       -0.15535565 -0.015508802 -0.193059 0.0803132
0003b0 6a 09 19 3e 3d 37 ab 3d a7 49 44 be 40 c9 68 3e
       0.14944997 0.08360145 -0.19168721 0.22733021
0003c0 73 13 6a 3e 4a 35 1b 3b 99 ac 93 3c 69 13 aa bd
       0.22858982 0.0023682886 0.018026637 -0.083044834
0003d0 7b 20 a7 3d ba b5 b4 3b 57 54 a2 bb 0c cc f5 ba
       0.08160492 0.0055148276 -0.0049539017 -0.0018752827
0003e0 07 45 d8 3b 1d d1 2d be 1e 4f 35 be e4 42 93 3e
       0.0066000256 -0.16974302 -0.17705962 0.2876197
0003f0 c1 9a e1 3d 79 ab ef be 9f ca bc 3d ce 10 d9 3d
       0.11015845 -0.4681051 0.092183344 0.10598908

fc1.bias f4 [64]
000000 72 0d 57 3e 4b 40 ad be 68 20 7c bb 6c 07 99 be
       0.21001223 -0.33838114 -0.0038471464 -0.29888475
000010 69 8f fe 3c 3f 68 90 3e 07 5b 22 bd a5 d5 a1 3e
       0.031074243 0.28204533 -0.03963759 0.3160831
000020 b3 aa a3 bd 76 69 14 3d 78 bd 13 3f bd 9a c1 3e
       -0.07991543 0.036233388 0.5771098 0.37813368
000030 7e 8b a8 3e 3c 1f 4b bc bf 66 80 bb d3 a4 54 3e
       0.32918924 -0.012397584 -0.0039184983 0.20766
000040 c2 2a 07 3f 22 62 af bc 99 24 29 bd 76 7d cd bc
       0.5279962 -0.021409098 -0.041294668 -0.025084238
000050 f3 ba 38 bb fa 43 fe 3e 91 ef 49 3b 09 0a b1 bb
       -0.0028187602 0.49661237 0.0030812959 -0.0054028076
000060 1a 38 92 bb 99 db 57 bb b5 df 15 3e 90 f1 30 3f
       -0.0044622542 -0.0032937287 0.14636119 0.69118595
000070 d5 95 0b bc 65 6e b9 bb 23 25 59 ba f0 3d 06 bc
       -0.008519609 -0.005658912 -0.0008283427 -0.008193478
000080 12 dc d9 bb 8a 43 07 3f 41 87 8d bd 83 fc 1c bc
       -0.006648549 0.5283743 -0.06910563 -0.009581688
000090 e8 72 b6 bb ed 95 98 3d b6 46 f5 bb 70 f6 80 bc
       -0.005567897 0.07450471 -0.007485236 -0.01574251
0000a0 c5 ad 90 3e 79 bd 3e be 07 4c 69 3f c7 61 aa bd
       0.28257576 -0.18626966 0.91131634 -0.08319431
0000b0 7b aa 41 3e 78 1c d0 bb 3d 93 b6 3d ef c4 50 3c
       0.1891269 -0.00635105 0.08914802 0.012742265
0000c0 a8 0c 31 bb 57 52 91 be d9 64 c3 bd ec 00 9d bd
       -0.00270156 -0.28383133 -0.095407195 -0.076661915
0000d0 c2 3b 24 3d 17 b8 ca 3e a9 4c 1e 3f 56 ae d8 bc
       0.040096052 0.39593574 0.61835724 -0.026450317
0000e0 ba f0 90 3e c9 ce 64 3d 0e b2 bf ba 41 17 54 bd
       0.2830866 0.05586127 -0.0014625208 -0.05177999
0000f0 16 a0 3a 3f 38 de 50 3c 78 9a 05 3e c1 6c a3 3e
       0.7290052 0.012748294 0.13047206 0.3191891

fc2.weight f4 [32, 64]
000000 ff d4 bc 3b 71 af a3 bb ce 09 e1 3a b2 87 62 3a
       0.005762696 -0.0049952795 0.001716906 0.0008641436
000010 9c 09 6e bb 6d e1 cd bb 9a 9d 1f 3b df 66 d8 3a
       -0.0036321646 -0.0062829764 0.0024355412 0.001651015
000020 eb 6d b6 3a a2 a4 19 39 d1 60 54 bb 08 70 01 3b
       0.0013918256 0.00014652548 -0.003240634 0.0019750614
000030 5b bd ee bb 2f e6 ec 3a c9 46 91 3b 15 c7 70 ba
       -0.0072857565 0.0018073971 0.004433487 -0.0009184939
000040 11 9a c5 ba 4e c3 7b 3b 03 03 22 bb 0f a2 76 bb
       -0.0015075823 0.0038415971 -0.0024721033 -0.0037633216
000050 62 6e c3 3b 89 fb bd bb dc 54 44 3b f2 a5 aa bb
       0.0059640864 -0.0057978076 0.0029957807 -0.0052077705
000060 8b 1d a7 ba 1d aa f4 3b 20 e9 f7 39 50 55 f1 bb
       -0.0012749893 0.007466568 0.00047285203 -0.0073649064
000070 10 bf 5a 3b d9 12 6e 3b 7f 89 94 ba 6e 63 aa 3b
       0.0033378042 0.0036327152 -0.0011332481 0.005199841
000080 77 e1 30 b9 d4 df 2f 3a 5b 83 20 3b cb 01 b0 ba
       -0.0001686866 0.0006709073 0.0024492356 -0.0013428269
000090 fd 83 88 3b 78 5d 41 bb 67 53 de 3a 5e 1b 96 3b
       0.004166125 -0.0029505175 0.0016962112 0.004580899
0000a0 91 b6 9a 3b d8 06 da bb a5 a0 2a 38 62 7a ae 3b
       0.0047214706 -0.006653648 4.068077e-05 0.0053246478
0000b0 67 fd d9 bb 10 a7 90 b9 dc 90 70 bb f2 f4 fb bb
       -0.0066525224 -0.00027590292 -0.0036707437 -0.007689112
0000c0 4d 9c 30 3a 17 0b d1 bb c2 7c 75 3a 20 31 93 bb
       0.0006737158 -0.006379496 0.00093645987 -0.00449194
0000d0 ac 89 97 ba 69 56 69 ba 23 b3 a1 bb 1d 20 d4 bb
       -0.0011561415 -0.0008901121 -0.004934685 -0.0064735548
0000e0 7b 83 07 bc bf 7a 19 3b 50 8f e9 ba 4e 11 ca 3b
       -0.0082710935 0.002341911 -0.00178192 0.0061666137
0000f0 ab e6 db ba 37 a8 99 3b b6 c8 61 3b 6c ac a5 ba
       -0.0016777118 0.004689242 0.0034451908 -0.0012639887
000100 bc 42 96 bb 3c ab 28 ba cd 46 88 bb 85 7f 8f bb
       -0.004585592 -0.00064342073 -0.0041588307 -0.004379215
000110 4f 9b 67 ba 5b c2 1f ba ed 91 c8 3a d1 0e 25 bb
       -0.00088350935 -0.000609433 0.0015302278 -0.0025185833
000120 23 51 69 bb 90 85 00 3b 3d 2c 0c 3a 8d ca c6 bb
       -0.003560134 0.001961086 0.0005347168 -0.0060666264
000130 38 29 87 bb f5 aa ca bb 97 42 ee 3b d7 26 f1 b9
       -0.0041247867 -0.0061849304 0.0072711217 -0.0004599604
000140 40 fd fc bb 8c 91 91 bb 90 fe 77 ba 40 5a 6f 3a
       -0.0077206194 -0.0044423994 -0.0009460235 0.0009130575
000150 dc ff 8e bb 64 a5 26 b9 0c e5 d1 3b 97 80 9c bb
       -0.004363997 -0.00015892606 0.0064054783 -0.0047760713
000160 62 b4 1b 3b ce f6 57 3b e7 f3 a9 bb 45 ac ab b9
       0.002375864 0.0032953504 -0.005186546 -0.00032744012
000170 8f b5 d3 ba 80 9d d0 3b 12 37 e3 bb 8c 2a d8 bb
       -0.0016152131 0.0063664317 -0.006934055 -0.006596869
000180 aa 8c 34 bb ed 3e e8 bb 9b b1 bf bb e1 cc 9a bb
       -0.0027549663 -0.0070875795 -0.0058500296 -0.0047241305
000190 cd a0 38 bb 98 bd 66 3b c6 46 81 bb b1 d0 3f bb
       -0.0028172017 0.0035208222 -0.0039452044 -0.0029268677
0001a0 2b 42 cd 3b fb b3 b3 bb 6a 8a a4 b8 b3 64 af 3a
       0.0062639914 -0.005484102 -7.845911e-05 0.0013381451
0001b0 86 84 cc bb 90 d0 c4 3b 12 7f 4c ba 71 ff db ba
       -0.006241384 0.006006308 -0.00078009174 -0.0016784501
0001c0 6a b1 5f ba a8 19 eb 3b 5a 98 63 ba e2 a1 41 3b
       -0.00085332117 0.0071746893 -0.0008682065 0.0029545953
0001d0 60 2e 77 b9 13 0e ac bb 2a 05 cb 39 e4 bf 3d 3b
       -0.00023573032 -0.005250701 0.00038723025 0.0028953487
0001e0 4e ea 32 bb 9d ea 09 bb 0b 4d 4c ba 34 b0 4d bb
       -0.00273003 -0.0021044381 -0.0007793463 -0.0031385543
0001f0 99 58 7a 3a e4 d5 15 bb 79 31 ad ba b1 5f 25 b9
       0.0009549945 -0.0022863084 -0.0013213597 -0.00015771274
000200 39 b9 a7 3b ad eb 9b bb fa 0e 62 3a 95 9c da 3a
       0.005118516 -0.0047583194 0.00086234475 0.0016678745
000210 26 f9 03 b8 45 78 c6 bb bc a7 9c 3b 30 9a c8 3a
       -3.146487e-05 -0.0060568177 0.0047807377 0.001530474
000220 e8 32 61 3b c7 2b 0b bc 43 3a c3 3b e2 39 cf ba
       0.0034362618 -0.008494324 0.005957873 -0.0015810097
000230 7a 03 70 3b 45 86 cb 3b 7e db 25 39 66 6a 90 3a
       0.0036623166 0.0062110745 0.00015817393 0.0011018037
000240 00 16 99 3b fa 7a 36 bb 9e 58 b2 3a e8 6b 6c 3b
       0.004671812 -0.0027844296 0.0013606732 0.003607506
000250 ed 0e 77 b9 61 8e 07 bc 9d 4f d4 bb ef d9 b0 bb
       -0.00023561316 -0.008273692 -0.006479217 -0.0053970735
000260 c6 bd c0 bb 46 eb f3 ba 75 0a 7b 3b e4 37 38 ba
       -0.0058819978 -0.0018609546 0.0038305793 -0.00070273713
000270 92 40 20 3b b6 5b 07 3b 8a c6 f2 3a e3 26 9d ba
       0.002445255 0.002065403 0.0018522304 -0.0011989739
000280 97 96 6e bb 85 1b 2c bc c5 32 37 bb fb 12 39 3a
       -0.0036405677 -0.010504608 -0.0027953845 0.0007060018
000290 4b 6d 9f bb 0b 6f 03 bc 5d 08 a8 bb 87 57 bb bb
       -0.0048653237 -0.00802208 -0.00512795 -0.005717221
0002a0 8b 5b 27 3b 04 5c b3 3b 9d 06 98 bb e7 88 d4 3b
       0.0025536742 0.0054736156 -0.0046394602 0.0064860466
0002b0 92 47 9e ba 72 0c ab bb 4c 5f 33 bb 63 33 9d ba
       -0.0012075773 -0.0052199895 -0.0027370034 -0.0011993464
0002c0 9c 6b 4f bb 92 b5 b7 ba ac 7a 23 bb 60 ab a3 3b
       -0.0031649834 -0.0014015904 -0.0024944944 0.0049947947
0002d0 56 da 4e 3b 94 3b 3c 3a 76 ae 7f bb 7a 77 05 bb
       0.0031563244 0.00071805087 -0.00390139 -0.0020365403
0002e0 09 96 47 bb 4a 4a da 3b 25 ed 82 ba fe f0 96 3b
       -0.0030454418 0.006661688 -0.0009988887 0.004606365
0002f0 d7 99 89 3a 1a 0d b3 bb 2b a4 8e bb ce 74 cb bb
       0.0010498118 -0.0054642083 -0.0043530664 -0.0062089926
000300 b0 6b 2a be 40 e8 b9 bc 20 7f 2a bc b7 95 06 bd
       -0.16642642 -0.022693753 -0.0104062855 -0.032857623
000310 7f 62 4f bb ee a2 d3 bd 52 4c 12 bd da 53 7b bd
       -0.0031644402 -0.10333811 -0.035717316 -0.061359264
000320 4b 61 0f bd 48 51 e3 bd 7e c6 86 bd 8c b9 02 3e
       -0.035004895 -0.110994875 -0.06580828 0.12766093
000330 73 b0 39 be b7 cf 34 bd 9f 9e b2 3b 42 9d ba bd
       -0.18133716 -0.044143405 0.005451038 -0.09112026
000340 6a 3e 08 be c5 59 f7 bc fe 58 29 3d 9b 99 9d bc
       -0.13305059 -0.030194173 0.041344635 -0.019238284
000350 58 94 2d ba 4b c0 8a bd 9e 2a 08 bc 30 86 c6 39
       -0.0006621531 -0.06774958 -0.008310942 0.0003786548
000360 14 80 2c bc 33 ea 82 bb 9d 40 cc bd 1b 42 21 3e
       -0.010528583 -0.003995204 -0.099732615 0.15747873
000370 cd 18 7b 3b 64 82 18 bb 96 a0 83 ba 38 1e e9 bb
       0.0038314343 -0.0023271078 -0.0010042365 -0.007114198
000380 c7 a9 a8 bb db 70 c2 3a af 81 9f bc 98 34 1b bc
       -0.005147192 0.0014834659 -0.019471018 -0.009472989
000390 42 8b 99 bb be bc b9 bd 26 d7 f8 bb ff 02 ba bb
       -0.0046857903 -0.09069203 -0.007594007 -0.0056766267
0003a0 78 27 47 be d6 7a af bc 09 bd 24 3c 10 39 a1 bd
       -0.1944865 -0.021420877 0.010054835 -0.07872212
0003b0 3e 14 c1 bd 62 99 b5 3b 73 f2 10 bd 07 19 86 3b
       -0.09427689 0.0055419663 -0.035387468 0.004092339
0003c0 4b ca 24 ba 52 fe d7 3c e8 fb 81 3c 29 50 df bd
       -0.00062862475 0.026366387 0.015867189 -0.10903961
0003d0 f4 98 96 bc 88 37 14 3e 9c e7 ac 3e 7c 9c 60 bc
       -0.01838348 0.14474308 0.33770454 -0.013709184
0003e0 7f a3 7a be 1b 5e 02 be 87 b5 97 3b 0f 70 41 3b
       -0.24476431 -0.12731211 0.004629794 0.0029516255
0003f0 66 62 df bd ee ea 1a bc 3f 3a 6b 3d e4 39 79 3c
       -0.1090744 -0.009455426 0.057428595 0.015211556

fc2.bias f4 [32]
000000 42 b3 1d bc 73 8b 06 bc c6 e3 f1 bb 18 5d a3 3e
       -0.009625258 -0.008211958 -0.007381889 0.31906962
000010 4c f7 d6 bb ce 82 1d be 48 8d ea 3e a1 02 04 3f
       -0.006560242 -0.1538193 0.45810914 0.5156651
000020 2b 97 ca 3e 21 8b 7d 3e 74 58 01 bc 47 82 65 3d
       0.39568457 0.24760105 -0.007894624 0.056032445
000030 da bf bb be 30 dc ac 3e f8 d3 04 3e 90 5d 25 3e
       -0.3666981 0.3376174 0.12971485 0.16148973
000040 03 c6 40 bd ce 3f f9 bb d6 a2 fd 3e 03 f1 10 3f
       -0.04706384 -0.007606483 0.49538296 0.56617755
000050 ea c5 9d 3e 1e bf cc 3e f2 55 b2 3d e4 4d 9c 3e
       0.3081506 0.3998956 0.08707799 0.30528176
000060 15 68 37 3e e1 c1 76 bc 54 5b 1f 3e 04 95 d3 3d
       0.17910798 -0.015060873 0.15562183 0.10331157
000070 ec d0 35 3e a1 fd b8 3e 34 68 16 3e f8 b2 e8 bb
       0.17755479 0.36131003 0.14688188 -0.007101413

fc3.weight f4 [5, 32]
000000 85 db 42 bb 4d 83 49 3b 22 2d 73 3b d6 7d 81 be
       -0.0029732895 0.0030748427 0.0037105759 -0.25291318
000010 49 de e8 3a 3a 1a 16 bc 36 c6 96 bf 63 80 35 bf
       0.0017766441 -0.009161526 -1.1779239 -0.7089903
000020 b5 1e d0 3b 90 f7 16 3c f7 0b 03 bb a8 b9 4c be
       0.006351317 0.009214297 -0.0019996145 -0.19992697
000030 97 d4 33 3f 5b 3f da be bd 43 8f 3e a5 48 1a bf
       0.7024626 -0.4262646 0.27981368 -0.60267097
000040 af 67 e3 3e 7d d0 76 bc 71 dd 33 be 3b 4a 4a bf
       0.44415042 -0.015064356 -0.17564942 -0.79019517
000050 c0 d5 95 be 90 57 07 bf 72 ec 94 3e 1d b8 86 be
       -0.2926464 -0.52867985 0.29086643 -0.26312342
000060 b1 85 5e 3e f3 bb 2a bb e9 c1 89 3c d5 9b 76 be
       0.21730687 -0.0026051968 0.016816096 -0.24082883
000070 46 b2 f8 3e e6 2d 00 3e fc 4b 0f 3f 36 db 66 bb
       0.48573512 0.12517509 0.5597532 -0.0035225875
000080 06 59 7e ba 79 40 32 bb f8 49 03 3c a7 18 13 3d
       -0.00097025966 -0.0027199073 0.008013241 0.035912182
000090 23 84 11 ba 78 9a 34 be 93 25 77 3e 81 93 0e 3f
       -0.0005551001 -0.1763705 0.24135427 0.55693823
0000a0 39 5f 05 be c4 2c 83 3d eb 70 f4 bb fb 89 14 3d
       -0.13024606 0.06405023 -0.00745975 0.0362644
0000b0 23 e3 9b be 5c f6 ca 3e 2d 42 1a bd d8 d4 6a be
       -0.3044673 0.39641082 -0.037660766 -0.22932756
0000c0 3c 8c c7 3d e0 0a 7e 3b 5b 44 05 bd af bd c9 3e
       0.097435445 0.0038763806 -0.032535892 0.3940253
0000d0 9c 02 61 be 84 eb 41 3e aa ff 51 3e 0e 8b 96 be
       -0.21973652 0.18937498 0.20507684 -0.29402965
0000e0 64 10 71 3e 53 15 7c 3b 9a bd aa 3d 2c a5 51 3d
       0.23541409 0.0038464859 0.08336945 0.05118291
0000f0 4f 3a 62 3d 5c a8 6b be c9 cf 0d bf b0 92 7d ba
       0.05523139 -0.23013443 -0.5539518 -0.0009673042
000100 04 02 f8 bb 47 bf 84 3b d1 f7 b1 bb ae 22 b0 3e
       -0.0075685997 0.0040511223 -0.0054311533 0.34401459
000110 e8 bb cf 3b 17 c9 48 be b9 32 98 3e a2 4b a2 bc
       0.006339539 -0.1960796 0.29726198 -0.019811455
000120 2c 16 94 3e c9 09 8a 3e b1 89 86 bb a3 da fb 3d
       0.28923166 0.2696059 -0.0041057696 0.12297561
000130 95 02 96 be e0 ab b7 bd 56 95 ed 3d 83 72 00 3f
       -0.29298845 -0.089683294 0.11600749 0.5017473
000140 3e e4 62 be 13 09 50 bb c3 3e d8 3e cb 4d 02 3f
       -0.2215738 -0.003174369 0.42235383 0.5089995
000150 17 b1 5e 3e af 85 55 3e 0e 32 e1 3c 74 dc df 3e
       0.21747242 0.20851777 0.027489688 0.4372288
000160 da 75 0f bf 0c 7a 1e bc 15 ad bb bd 17 a1 b3 bb
       -0.560392 -0.009672653 -0.09163872 -0.00548185
000170 6c 03 53 3e d4 43 34 3e b1 1e dc 3e 8a 58 01 3c
       0.20606774 0.17604 0.42992166 0.0078946445
000180 b3 cc ef 3b 98 99 c6 3b 97 ea 0f 3c f9 ad ac bd
       0.007318103 0.0060607903 0.008783958 -0.0843162
000190 e2 01 6a bb 1b f6 7a be 9a 26 dc 3e 45 6a 02 3f
       -0.0035706689 -0.24507944 0.429982 0.50943404
0001a0 c6 b1 89 3d 26 25 77 bd 32 05 bc 3b 05 c2 9a bd
       0.06723361 -0.060338162 0.005737924 -0.075565375
0001b0 c1 48 b4 be 7b d4 a4 be 42 b4 bc bd 5b a7 71 be
       -0.35211757 -0.3219336 -0.09214069 -0.23598997
0001c0 e7 e4 20 3e fc ba bc bb de bf b6 3d 00 41 c2 3d
       0.1571232 -0.005759595 0.089233145 0.09485054
0001d0 bb d4 64 3e d6 5d ac 3e 89 37 b7 3d 2d 53 00 bd
       0.22346775 0.3366534 0.08946139 -0.031329323
0001e0 1a 28 f9 3e c2 17 7a 3b ce a2 01 3f b8 7a 85 be
       0.48663408 0.0038161133 0.50639045 -0.2607019
0001f0 97 80 d4 bd 26 a6 cb 3e 8f 76 00 bf d1 82 33 3b
       -0.10376089 0.397752 -0.50180906 0.0027391205
000200 fe 6f 1a 3a 7b 7b 58 3b 92 99 53 bb d3 e2 3a bd
       0.0005891322 0.0033032584 -0.003228758 -0.045626473
000210 b5 81 8d ba 8b 66 21 3f cb 5a 5c 3e 19 ab b2 be
       -0.0010796102 0.63047093 0.2151901 -0.34896162
000220 6c fc 69 be 15 9e 97 be 2a 94 14 3c 8a bd d2 3d
       -0.22850198 -0.29612795 0.009068528 0.10290058
000230 5c c5 83 3e fc 77 dc 3e 2e a1 90 be 1a cc 0e 3f
       0.2573651 0.4306029 -0.2824797 0.55780184
000240 4f 4c f1 be f3 6b 2c bc 56 e9 9f be 1d ad 54 be
       -0.4712853 -0.010523784 -0.3123271 -0.20769162
000250 c7 f0 8f 3d 55 f0 5c be 3e 42 1f bf 56 f6 20 3e
       0.070283465 -0.21576054 -0.6221045 0.1571897
000260 d9 ae bf be 3e 50 53 3b 5c 79 05 bf ff f3 e2 3e
       -0.37438086 0.0032243873 -0.52138305 0.4432678
000270 b3 09 25 bf f2 8a ed be e6 0f 52 3d e6 6c 27 3c
       -0.64467925 -0.4639507 0.051284693 0.0102188345

fc3.bias f4 [5]
000000 c8 3c d5 be 26 b7 8e 3e 1a 45 1e be 54 83 6c 3e
       -0.41647935 0.27874106 -0.15456048 0.23096973
000010 c4 c4 83 3d
       0.064340144
