Assignment_1/1/Max_Pooling_New/Models/without/model-5.pth (torch_old, 882591 bytes, 10 tensors)

conv1.weight f4 [64, 3, 5, 5]
000000 24 15 4a 3c ff 8a 76 3d 6f 13 f4 3c 03 65 b0 3c
       0.012334142 0.06019115 0.029794423 0.021532541
000010 e0 70 a8 3d e5 a8 84 3c 1b 2e 07 3d 23 14 6e 3c
       0.08224654 0.016193816 0.033002954 0.014531168
000020 f2 b5 c0 bc 0f 8f 3e 3d 7d f2 11 bd 03 66 0a bb
       -0.023524258 0.04652315 -0.035631645 -0.0021117933
000030 aa ba 9b bc 06 bc 60 bd c0 2c e4 3c d5 1b a1 bd
       -0.019009907 -0.054866813 0.02785337 -0.07866637
000040 04 cb 07 bc 00 56 1c bd 6d f9 49 bd e6 13 7b 3d
       -0.008288149 -0.038167953 -0.049310137 0.061298274
000050 e3 d0 ef bd f3 c3 54 bd a8 86 0c bd 9f 88 c8 bc
       -0.11709764 -0.051944684 -0.034308106 -0.024479209
000060 fa 8a b1 3d e0 ee 12 be 4a 55 b0 bb 10 40 54 3d
       0.08669086 -0.14348936 -0.005381261 0.051818907
000070 44 7e bb 3d 19 cf 18 3e 9f 77 1b be 4e 66 6d bc
       0.09154943 0.14922751 -0.1518235 -0.014489723
000080 ca 35 51 3c 8b 3b 97 3d a6 f0 2b 3e 1b e8 47 be
       0.012769172 0.07384404 0.16791019 -0.19522135
000090 59 dc 46 bd 4f b1 ce 3c 29 06 ad 3d 6e 7a 42 3e
       -0.048549984 0.025231032 0.084484406 0.18992016
0000a0 e0 48 6b be 93 f7 b6 bd 37 01 0f 3c 01 52 c1 3d
       -0.22977018 -0.0893394 0.008728317 0.09439469
0000b0 8b 89 65 3e b5 77 77 be 8e ea ef bd 56 6a bf bc
       0.2241575 -0.24166758 -0.1171466 -0.023366135
0000c0 2e e7 9e 3d 01 be 69 3e c7 32 7f be ab 9d 92 bd
       0.07758938 0.22826387 -0.24921714 -0.07158979
0000d0 61 28 7f 3d 44 1d 06 3e a0 f4 84 3e e2 a5 7a be
       0.062294368 0.13097101 0.25967884 -0.24477342
0000e0 d8 57 4a bd a2 31 86 3d 56 1c 3b 3e 1d 7c 9a 3e
       -0.04940018 0.065524355 0.18272528 0.30172816
0000f0 c7 76 6e be f9 f4 36 bd e8 03 b5 3d f2 d5 6d 3e
       -0.23287497 -0.044667218 0.08838636 0.23226145
000100 57 e9 ba 3e 05 cf 80 be be ad 8d bd 61 4b fb 3d
       0.3650615 -0.25157943 -0.06917904 0.12270237
000110 be 8e 75 3e 24 53 d2 3e f7 76 90 be c5 53 a0 bd
       0.23980233 0.41079056 -0.28215763 -0.07828478
000120 31 7e 03 3e 52 45 95 3e 12 5a e4 3e 42 9b 0d 3d
       0.12841107 0.2915445 0.44599968 0.034571894
000130 40 1e c5 3d a3 a2 19 3e 22 f5 37 3e 0d d5 02 3e
       0.0962491 0.15003447 0.17964604 0.12776585
000140 b5 39 99 3e 04 19 a3 3e ad 46 45 3e 59 cb 32 3d
       0.2992684 0.31855023 0.19265242 0.04365096
000150 70 b0 bc 3b fe 28 ad 3e 9b d0 a3 3e 7b fd ee 3d
       0.0057583377 0.33820337 0.3199509 0.11669441
000160 98 0a 9d bd bc 96 a7 bd c7 5b 21 3e 95 a9 ba 3d
       -0.07668036 -0.08183047 0.15757667 0.091143765
000170 4b 72 f9 bc 79 5d 94 bd b5 d8 c5 bc 94 7e 05 be
       -0.030450007 -0.07244391 -0.024151186 -0.13036567
000180 7d da 4d be 05 ab 16 be e1 2c 1c 3a 38 72 ee 3d
       -0.20102878 -0.14713676 0.0005957615 0.11642879
000190 f9 ea 27 bd d8 20 82 bd c7 0e 32 bd 7a 3d 95 bd
       -0.04099557 -0.06353921 -0.043471124 -0.07287116
0001a0 5b 4b 06 be 2b 54 32 3e 7f 41 1d 3e 5d 3e 39 3b
       -0.13114683 0.1741492 0.15357016 0.0028265931
0001b0 70 cc 4f be 1c 1a 93 be 1f 9c 92 3e 64 78 1d 3e
       -0.2029283 -0.28730857 0.28634736 0.15377957
0001c0 7a 69 c1 bd 67 79 91 be 70 a0 be be ff 0c 1e 3e
       -0.09443946 -0.28412935 -0.3723178 0.15434645
0001d0 01 c9 14 3c d4 3b 1a be c3 e6 91 be e9 86 8c be
       0.009081126 -0.15061885 -0.2849637 -0.27446678
0001e0 0f 5c 80 bd 79 57 32 be 29 01 62 be bd 0a 13 be
       -0.06267559 -0.1741618 -0.22070755 -0.14359565
0001f0 e7 7d b4 bd f8 b4 dd 3d a3 b8 00 3d 7b ad 43 bd
       -0.088130765 0.10825533 0.031426083 -0.047772866
000200 93 21 cc bd 3a 89 19 be 03 bf 99 3e 47 61 4f 3e
       -0.09967341 -0.14993754 0.30028543 0.20251952
000210 0a ae 49 bc 94 4c 54 be 46 ff 8e be a0 d2 c9 3e
       -0.012309561 -0.20732337 -0.27929133 0.39418507
000220 8d 82 6e 3e 42 67 60 bd b7 47 8e be a0 29 aa be
       0.23291989 -0.054785974 -0.2778909 -0.33234882
000230 3e 24 a9 3e 9d ed 19 3e 91 ec 98 bd c1 fa 67 be
       0.33035463 0.15032049 -0.074669965 -0.22654249
000240 90 75 63 be a9 d5 25 3e 3a cb df 3c f0 84 32 bd
       -0.22212815 0.16194786 0.027318586 -0.04358381
000250 84 3c f9 bc 8a 4a 3e 3c 38 ca 00 3d e5 48 ea 3d
       -0.030424364 0.011614451 0.03144285 0.11439685
000260 fd 70 dd 3d c7 6c 36 3d dd e1 c5 bd ef 81 5e 3d
       0.108125664 0.044537332 -0.096622206 0.054323133
000270 17 eb ec 3d a8 e7 02 3e f2 5a 80 3d 6e 71 17 bd
       0.11568277 0.12783682 0.062673464 -0.03697341
000280 2e 73 67 bc d5 da 40 bc 6e d1 c6 3b b2 75 94 3b
       -0.014126582 -0.011770924 0.0060674464 0.004530632
000290 41 92 e4 bc 30 f8 c9 bd 3b a3 2c be 54 2b 0e be
       -0.02790177 -0.09861791 -0.16859142 -0.13883716
0002a0 48 80 a7 bd bd 75 1c 3b 92 fb 0f be 11 f9 61 be
       -0.081787646 0.0023873888 -0.1406081 -0.22067668
0002b0 eb ef 59 be 7f e4 ff bd 42 64 68 bc 61 67 1c 3e
       -0.21282928 -0.12494754 -0.01418406 0.15273811
0002c0 b8 5e 74 3e 39 06 59 3e db 08 0b 3e df ad 51 3b
       0.23864257 0.2119378 0.13577597 0.0031994504
0002d0 ef ce 22 3e c0 77 78 3e 33 67 81 3e c7 90 2c 3e
       0.15899251 0.24264431 0.25274047 0.16852103
0002e0 33 a9 0e 3d 1c 9e bb 3d 05 cd ac 3d 27 36 e1 3d
       0.03482933 0.09161016 0.08437542 0.10996657
0002f0 a4 09 04 3e 27 c8 a5 3d 93 5a 46 bc 8b e4 83 bd
       0.12894303 0.08094817 -0.0121065555 -0.064400755
000300 fc dc 13 bd 2b 06 2f 3d 16 fa e9 3d 44 1e 69 bd
       -0.03609942 0.04273049 0.11424653 -0.05691363
000310 14 12 23 be b6 01 f8 bd 24 90 40 bd 55 88 94 3d
       -0.15924865 -0.12109701 -0.047012463 0.07252566
000320 5f c0 08 bc f3 47 54 3d bc cc 94 3d 9b 77 a4 ba
       -0.008346646 0.05182643 0.072656125 -0.0012547852
000330 fb 87 7e bd 41 e7 9a 3c 97 84 ac 3d 9e dc 9f 3d
       -0.0621414 0.018909099 0.08423727 0.07805751
000340 af bc 19 3d 10 dd 03 bd 92 5a 63 bd ac a3 e5 bc
       0.03753346 -0.032193244 -0.055506296 -0.028032146
000350 f0 fa 2c 3b ef f2 07 39 36 d4 02 3b 84 21 d2 bd
       0.0026394688 0.00012965103 0.0019962913 -0.10260299
000360 ec 42 2e be b2 11 13 be 48 aa 36 bd d0 03 b5 3c
       -0.17017716 -0.14362219 -0.044595987 0.022096545
000370 07 f5 de bd 5f 4f 65 be 90 5b 56 be 74 0e eb bd
       -0.10886579 -0.22393559 -0.20933366 -0.11477366
000380 95 8b 04 3d f5 2c af be e3 c3 93 be 2f c3 9e be
       0.03235968 -0.34213987 -0.28860387 -0.31008288
000390 ae 25 a2 be 06 45 b7 be ff f9 89 be af b8 3d be
       -0.31669372 -0.35794848 -0.26948544 -0.18527482
0003a0 fd e9 3b be e3 ac 72 be cf a4 8e be 35 f1 c1 bd
       -0.18350978 -0.23698764 -0.27860114 -0.09469835
0003b0 67 dc 40 bc 45 39 b5 3c 1d 53 fc bc f2 e1 f0 bd
       -0.011771298 0.022122035 -0.03080135 -0.11761846
0003c0 f1 74 98 3d b0 b7 2c 3e b4 60 71 3e 2f 07 49 3e
       0.0744418 0.16866946 0.23572046 0.19631647
0003d0 9f ba d2 3d 9c 8f 37 3e 28 46 85 3e 47 f2 9f 3e
       0.102895014 0.17925876 0.26030087 0.3123953
0003e0 f2 f1 92 3e 2d ed 60 3e 65 c0 b2 3b 59 c0 25 3d
       0.28700215 0.21965475 0.005455064 0.04046664
0003f0 0d 4c 53 3d 6c f6 8f 3a 3e e3 09 bd 1c 15 f2 bc
       0.0515862 0.0010983474 -0.03366398 -0.029551081

conv1.bias f4 [64]
000000 66 fb c7 be 6f b1 ab be 8d 50 f7 be 93 73 14 be
       -0.3905899 -0.3353381 -0.48303643 -0.14497213
000010 fd 30 87 3d c9 24 32 be 53 9a a0 bd af ec e5 be
       0.06601141 -0.17396845 -0.07841935 -0.44907138
000020 b5 e1 a4 be 31 c7 10 be 24 80 0c 3e 35 fe 48 3b
       -0.3220345 -0.14138485 0.13720757 0.0030669097
000030 56 bc 82 3e 2b 81 85 be eb 02 76 bd fb b0 7f bf
       0.25534314 -0.2607511 -0.060061377 -0.99879426
000040 41 c2 ba be 45 95 5f bf 99 69 9e be c4 1e 7b be
       -0.3647633 -0.8733714 -0.3093994 -0.24523455
000050 e4 2b 57 be 1b 8a 5a be e7 a6 7d bd 81 58 e2 bd
       -0.21012837 -0.21341746 -0.06192675 -0.11052037
000060 65 e6 fa be 75 ab 02 bf 77 4a e4 bd 37 87 00 be
       -0.49003902 -0.5104287 -0.111470155 -0.1255158
000070 b3 42 8a bf cb 6c 8f 3d be ab 63 3c 2f c0 ec be
       -1.0801605 0.070031725 0.013895927 -0.46240374
000080 c9 60 68 be 67 48 b9 be e4 90 2a be 60 fa 0d bf
       -0.2269317 -0.3618805 -0.16656834 -0.55460167
000090 2b c1 30 3e 93 3d 11 bf be d4 bd be c2 79 56 3e
       0.17261188 -0.5673458 -0.37076372 0.20944884
0000a0 23 4d 8c be bf fe a3 be d0 94 84 be 44 5d 8c be
       -0.274026 -0.32030293 -0.25894785 -0.27414906
0000b0 d3 7e 0d 3e a2 e7 07 bf 9d d7 8d bf 45 2c 01 be
       0.13817911 -0.5308782 -1.1081425 -0.12614544
0000c0 48 d5 95 bf cb 38 58 be 30 ac ed bd 0f dc 3c 3e
       -1.1705713 -0.21115415 -0.11605108 0.1844332
0000d0 39 10 65 bf 91 97 1b 3e 7e d4 52 bc f9 eb 4f bf
       -0.8947788 0.15194537 -0.012868045 -0.8121944
0000e0 97 12 58 be 86 98 a7 be d7 c8 ad bd 4a 41 2c be
       -0.21100841 -0.32733554 -0.08485573 -0.16821781
0000f0 86 c6 a7 bf 37 9e 38 bf ea 28 1f bf 18 47 1d be
       -1.310746 -0.72116417 -0.62171805 -0.15359151

conv2.weight f4 [128, 64, 5, 5]
000000 32 4e dc bc 36 ab a2 bc b3 e3 74 bc 0c ec 87 bc
       -0.026892755 -0.01985703 -0.014946866 -0.016592048
000010 b7 e9 00 bd 3f da d5 bc 8c 7d a6 bc a0 60 a4 bc
       -0.031472888 -0.026105044 -0.020323537 -0.020065606
000020 70 b2 98 bc 3b 01 ce bc 10 16 fa bc a9 aa bc bc
       -0.018639773 -0.025147071 -0.030528098 -0.023030596
000030 53 34 a5 bc fe d0 8c bc 82 aa d1 bc 09 0b e3 bc
       -0.020166552 -0.017189499 -0.025594 -0.027715223
000040 88 cc d6 bc 2a 54 9d bc 89 ad 78 bc 1c bf d2 bc
       -0.026220575 -0.019205172 -0.015178093 -0.025725894
000050 e7 34 ff bc d4 f4 bd bc c5 b1 b1 bc a4 52 c5 bc
       -0.031153155 -0.023188032 -0.021691212 -0.024087258
000060 2a dd f3 bc 78 37 04 3d 73 65 8c 3c 07 a0 25 3c
       -0.029768545 0.03227946 0.017138219 0.010108954
000070 e6 45 61 3c 54 29 c0 3c bd bf f0 3c c7 e6 1b 3c
       0.013749575 0.023457207 0.029388303 0.009515471
000080 02 7b b5 3b 6a 03 17 3c f5 9a 8d 3c 81 d3 d0 3c
       0.0055383453 0.009217123 0.017285803 0.025491478
000090 79 7c 10 3c 68 6d c0 b9 00 e4 83 39 15 67 88 3c
       0.008818739 -0.00036702608 0.0002515614 0.016650716
0000a0 e4 66 ec 3c 38 13 7b 3c a0 2c dd 3a db 04 a0 3b
       0.028857656 0.015324406 0.0016874261 0.0048833913
0000b0 5f 6d 4a 3c 37 a8 11 3d 5a 5f f4 3c c6 ec a8 3c
       0.012355178 0.035560813 0.029830623 0.020620715
0000c0 58 bb 8d 3c 4e 78 97 3c 71 bb be bc c8 53 b5 bc
       0.017301247 0.018489983 -0.023282738 -0.022134677
0000d0 d4 bb ae bc 3d c7 9b bc 3c 04 87 bc c2 00 e3 bc
       -0.021329798 -0.019015903 -0.016481511 -0.027710322
0000e0 47 9e ce bc 6b c9 ac bc c2 07 7d bc b7 b8 56 bc
       -0.025221957 -0.021092137 -0.015443744 -0.013105563
0000f0 2a b1 d0 bc 6d eb b4 bc 4e 5a 81 bc b3 78 81 bc
       -0.025475103 -0.022084916 -0.015790131 -0.015804624
000100 5c 99 41 bc ee e3 f4 bc b8 4f a5 bc 82 bb 9c bc
       -0.011816349 -0.029893842 -0.020179614 -0.01913238
000110 85 2c 24 bc 3d a8 0c bc a1 d0 ac bc f6 9c 99 bc
       -0.01002038 -0.008585033 -0.021095576 -0.018751603
000120 08 07 87 bc 35 33 0d bc b7 31 86 39 c3 f3 9a bc
       -0.016482845 -0.008618166 0.00025595512 -0.018915063
000130 59 37 83 bc c5 51 ba bb ad ee cf bb f8 47 22 3a
       -0.016017603 -0.005686017 -0.006345591 0.0006190534
000140 ed a5 ca bc 4c 94 b6 bc 3c 0b 81 bc 5b a5 15 bc
       -0.024737323 -0.02228751 -0.015752427 -0.009133662
000150 6a 8f f0 bb 4f 75 f2 bc c8 2d 00 bd 07 af a9 bc
       -0.007341315 -0.029596953 -0.03129366 -0.020713342
000160 0a 23 8a bc e1 fc 6e bc b1 49 fc bc bf 2b 03 bd
       -0.016862411 -0.014586658 -0.030796858 -0.03202414
000170 07 48 e0 bc a9 55 ea bc e5 56 c7 bc c3 41 f7 bc
       -0.027378095 -0.0286053 -0.024333427 -0.030182725
000180 47 61 13 bd 14 48 04 bd 7e 64 1c bd 43 07 12 bd
       -0.035981443 -0.0322953 -0.038181774 -0.035651457
000190 3e c2 87 bb 62 58 91 bc 9e 57 96 bc 60 91 a0 bc
       -0.0041430285 -0.01774234 -0.018352326 -0.01960057
0001a0 bd 12 8d bc 67 59 11 3c 99 51 e3 bb dd b1 80 bc
       -0.01722085 0.008871413 -0.0069372174 -0.015709812
0001b0 3f 55 3b bc ad e4 c8 bb 4c 98 3e 3c 14 c6 a6 ba
       -0.0114338985 -0.006130776 0.01163299 -0.0012723827
0001c0 5c fa 2a bc ba 93 24 bc ff ca 6f bb 34 92 54 3c
       -0.010435667 -0.010044986 -0.00365895 0.012974311
0001d0 9a 1f f9 3b d4 7d cb bb 7b 8f b0 bb 8d 6b 11 3b
       0.007602644 -0.0062100682 -0.005388198 0.002218935
0001e0 29 78 a0 3c 8a c5 36 3c 7d cb a3 3b cb db ac 3b
       0.019588547 0.011155495 0.004998623 0.005275225
0001f0 d0 c0 2b 3c 8f 6d 06 3c 02 f2 1b 3c 36 b9 d7 3b
       0.010482982 0.008204832 0.009518148 0.006583358
000200 37 66 de 3b 50 1d a1 3c 9a 95 19 b8 db ef 1b bb
       0.0067870873 0.019667298 -3.661737e-05 -0.0023794088
000210 6e 3f 13 bb a2 59 d5 3b 1e d1 a2 3c 9b c9 7a 3b
       -0.0022468227 0.006510929 0.019875105 0.003826714
000220 9f 18 73 3a 1f 00 32 bb a3 23 27 3c de c8 7c 3c
       0.0009273383 -0.0027160717 0.010201368 0.01542875
000230 e8 57 a1 3b 8d 82 37 3b f2 b0 fd 3a 3d ff 07 3c
       0.0049238093 0.0028001398 0.0019355102 0.0083006
000240 3a ba b0 3c 05 b6 9b 3b f2 b3 f6 3b 8a 48 56 3c
       0.021573175 0.004751923 0.0075287754 0.013078818
000250 96 ba 9f 3c 6b d1 f5 3c 23 dd ef 39 70 98 58 b9
       0.01949815 0.030007085 0.00045750392 -0.00020656153
000260 e3 56 06 bb 58 e2 2e 3b 7b 4b 8e 3b 4d 93 48 bc
       -0.0020498566 0.0026685204 0.004342494 -0.0122421505
000270 88 b6 00 bc be 2c 1a bc e3 ff cd bb 2c 0c 27 bb
       -0.007856019 -0.009410081 -0.0062866076 -0.0025489433
000280 ce 73 3f bc ce b1 84 bc c4 12 45 bc 5f 81 32 bc
       -0.011685325 -0.016198065 -0.0120284 -0.010895102
000290 69 c5 3e bc 4c 99 60 bc 7d c5 82 bc 49 c0 3a bc
       -0.011643746 -0.013708424 -0.01596331 -0.011398383
0002a0 71 12 4e bc 8c 2a 81 bc 94 d3 04 bc 74 2b 5d bc
       -0.012577639 -0.015767358 -0.008107085 -0.01349913
0002b0 ee 14 7c bc 8a f6 ba bc ee ac c5 bc 1b 4a ae bc
       -0.015385849 -0.022822637 -0.02413031 -0.02127557
0002c0 75 ba cb bc 22 22 c2 bc 95 77 bc bc e9 40 aa bc
       -0.024869183 -0.023697916 -0.02300624 -0.020782905
0002d0 d4 86 9f bc 54 07 b4 bc d8 fc d7 bc ce d0 a6 bc
       -0.01947347 -0.02197615 -0.026365682 -0.020363238
0002e0 31 e9 60 bc 5a 7e d3 bc ba 7e da bc a5 25 9f bc
       -0.013727472 -0.025817085 -0.026671756 -0.01942713
0002f0 36 36 8a bc 81 4e 26 bc 3a 63 94 bc c4 ef 9c bc
       -0.016871553 -0.010150553 -0.018113721 -0.019157298
000300 78 9e 85 bc 03 f9 20 bc a6 d4 95 ba af 41 4b bc
       -0.016310915 -0.009824994 -0.0011431172 -0.012405797
000310 7e 18 7d bc 8d 16 49 bc bf c7 b8 b9 13 e7 83 ba
       -0.015447734 -0.012273443 -0.00035244037 -0.0010063372
000320 05 f6 b1 3a a1 b9 13 bc bc a4 4f bc 6c e5 64 bc
       0.0013577348 -0.009016425 -0.012673553 -0.013970714
000330 c8 f7 3b bc 4e dc ca 3b 93 fa d9 bb 79 90 86 bc
       -0.01147265 0.006190813 -0.006652185 -0.016426312
000340 85 28 8b bc 2a 92 7f bc 8f c5 74 3b 6d ca 6a bc
       -0.016987095 -0.015598813 0.00373492 -0.014330489
000350 77 96 9e bc f3 d6 89 bc 41 91 80 bc 37 ab 8b 3a
       -0.019358857 -0.016826129 -0.015694262 0.0010655884
000360 b1 08 4f bc 41 6d c6 bc 4c 62 ab bc 88 25 b2 bc
       -0.01263635 -0.024222018 -0.020920895 -0.021746412
000370 21 79 68 3b 06 75 4b bc 54 3d e4 bc 90 d9 d3 bc
       0.003547259 -0.012418037 -0.027861275 -0.025860578
000380 fa de eb bc 40 53 b1 bc 5a 36 9d bc 2a ba 3a bc
       -0.028792847 -0.021646142 -0.019190956 -0.011396924
000390 61 37 f7 bb e8 9f cd 3b 9c 1a ea bc b7 85 bb bc
       -0.0075444435 0.006275166 -0.028577141 -0.022890909
0003a0 2e f8 a5 bc bd 8f 56 bc 2d 1b 99 bb 17 13 08 bd
       -0.020259943 -0.013095793 -0.004672429 -0.03322133
0003b0 2d 69 11 bd f6 c5 cc bc d2 76 a3 bc 5e 3a 89 bc
       -0.035500694 -0.024996739 -0.019954119 -0.016751464
0003c0 b1 f4 09 bd f6 0f eb bc 6d 2f f9 bc 86 ef c8 bc
       -0.03368062 -0.028694134 -0.030418122 -0.024528276
0003d0 ac 5f b6 bc 05 71 e2 bc 69 4e 03 bd 93 4c fe bc
       -0.022262417 -0.027641783 -0.0320572 -0.031042373
0003e0 bc 43 1b bd cc d2 14 bd b9 b1 2a bd 07 7a 29 bd
       -0.037906393 -0.036333844 -0.041673396 -0.04137614
0003f0 c7 ce 42 bd 12 fd 5c bd 08 7e a2 bd 4a 0d 11 bd
       -0.04756048 -0.053952284 -0.07934195 -0.035413064

conv2.bias f4 [128]
000000 78 92 cd bd d0 7b 59 3e d7 31 b4 bc fd fc fc bc
       -0.10037702 0.21238637 -0.021996422 -0.030882353
000010 f2 1a e5 bc 66 3a d2 3d 9e 73 9d 3d 3f 91 c1 be
       -0.02796695 0.10265045 0.07688068 -0.37806126
000020 fb 17 47 3d 35 55 c3 bb fd 21 5f b8 76 e6 f3 3b
       0.048606854 -0.005961085 -5.3198997e-05 0.0074432446
000030 51 96 96 3d ee 44 b8 3e 8f 15 e5 3e 04 3b ad 3c
       0.07352889 0.3599009 0.4474301 0.021146305
000040 e5 1a e0 bd 66 9e 47 3e b9 aa 82 bd ce 34 5c 3f
       -0.1094263 0.19494018 -0.06380219 0.86018074
000050 b4 32 f4 bb a2 c4 2b be ca 4a b3 bc f7 62 4f 3d
       -0.0074523333 -0.16774228 -0.021886248 0.05063149
000060 0d 5a 71 3c 3b bc 86 3c 8b 72 c5 bd 63 ed bc 3b
       0.014730942 0.016447177 -0.09640988 0.0057656034
000070 8c 1c 9e 3e 05 8b 74 bd 6b 65 84 be 13 5d 3f bc
       0.30881155 -0.05970289 -0.25858626 -0.0116799055
000080 02 bc ae 3b d5 1d f2 3d 06 fe e7 3d bd 28 87 bc
       0.005332471 0.11822096 0.11327748 -0.016498918
000090 c8 5d 13 3a b8 e1 2d bc a5 61 ee bd 6f eb 5e be
       0.00056215795 -0.010612898 -0.11639718 -0.21769498
0000a0 da 4e 78 bd e2 28 c5 bc fc 6e 09 bf f3 f5 9c 3d
       -0.060622074 -0.024067346 -0.53684974 0.076640986
0000b0 3d 86 b8 bd 75 4e 38 3c 88 64 e7 bc 3b 78 0b 3d
       -0.09009979 0.011249174 -0.02824618 0.034050208
0000c0 16 c4 0d bd a7 b3 3f bd 09 c1 01 be e7 f5 92 3d
       -0.03461083 -0.04680219 -0.12671293 0.071758084
0000d0 93 80 ec bc 44 ea 6c 3b 84 63 bb bd 29 35 ad bc
       -0.028869903 0.0036150375 -0.091498405 -0.021143513
0000e0 5b dc fb 3d 75 4c a9 bd a2 15 92 3b d3 ce 86 be
       0.12297889 -0.08266536 0.0044581452 -0.2632967
0000f0 ef 1e a8 3b a4 98 e2 3c d2 e0 94 be 98 2a 01 3d
       0.0051306407 0.027660675 -0.29077774 0.03153476
000100 f6 1d 83 3e 71 f5 8e be f1 5e 16 bc 25 c0 17 3d
       0.25608796 -0.27921632 -0.009177909 0.037048478
000110 49 b0 84 bd 4b 19 3d 3b d9 40 cf bb 4a ab 30 bf
       -0.06478936 0.0028854187 -0.006324869 -0.69011366
000120 31 06 aa bd 9a cb 67 bc 8f fa 7a 3d c4 6b 7b bd
       -0.08301962 -0.0141476635 0.061274108 -0.06138207
000130 29 5d 9a 3d 3b 30 42 3b ec 02 34 bb c6 72 30 3c
       0.075373 0.0029630798 -0.0027467562 0.010769552
000140 23 9d 7d ba 3e 2e c9 3c fb c2 d3 bb 87 c0 6c be
       -0.0009674599 0.024558183 -0.0064624525 -0.23120318
000150 8b cc df bd c1 05 2d bd a2 2d 75 3e aa 1a de 3d
       -0.10927685 -0.042241815 0.23943189 0.108449295
000160 f5 ca 60 bb e0 ae c2 3b a0 52 ea 3d 9b d9 0c 3c
       -0.003430066 0.005941257 0.11441541 0.008596803
000170 4d c5 b7 be 92 ab 89 3b 5d 2f d6 bd b7 ce 84 3c
       -0.35892716 0.004201361 -0.104582526 0.01621185
000180 c6 7c 4f 3c 4b 5e 20 bc 9b d3 5c be 6c a6 cf bc
       0.012664026 -0.009788106 -0.21565096 -0.02534791
000190 41 4f de 3a c0 67 c6 3d 64 10 e8 bc 48 9f cb 3e
       0.0016960875 0.096877575 -0.028328128 0.3976996
0001a0 8d da 45 3d 30 a2 16 be 91 27 35 3f 63 b6 4b 3c
       0.04830413 -0.14710307 0.707635 0.012433621
0001b0 17 e9 4e be 9a ce c8 3c 1f de 8a 3d 4e 6e 19 3c
       -0.20206104 0.024512578 0.067806475 0.009364678
0001c0 e4 cf 1f be c0 88 65 3a 43 83 c6 3c 01 49 5e be
       -0.15606648 0.0008756034 0.024232512 -0.21707536
0001d0 17 c0 83 be 28 cb 7d 37 40 9c 72 bc 93 08 63 3c
       -0.2573249 1.5127276e-05 -0.014807761 0.013857025
0001e0 c5 20 16 3b 5c 43 62 3d 10 a2 5e 3d df 6e 1a 3d
       0.0022907716 0.05524002 0.054353774 0.03770339
0001f0 d6 8f 07 be 36 e5 f7 3d 73 14 83 bd c8 3a 0d 3c
       -0.13238463 0.121042654 -0.06400385 0.008619972

fc1.weight f4 [64, 128]
000000 98 82 74 3d 6b 9f b2 be 8c ff b1 be 33 2d 30 be
       0.059694856 -0.3488725 -0.3476528 -0.17204742
000010 f2 60 64 3d 04 85 cf bc 9b 37 8c bc dc c8 76 3d
       0.055756517 -0.025331981 -0.017116359 0.06025015
000020 bc 37 47 be 47 70 0b 3d f8 de 39 bb 5e 47 4d 3b
       -0.19454855 0.034042623 -0.002836166 0.0031323056
000030 ee 84 05 3e 47 c2 9c bc 9c 81 79 bd 93 98 65 bc
       0.1303899 -0.019135607 -0.06091462 -0.014013427
000040 f4 ac bc 3d a2 dd 8f bd 24 9a 57 bc b6 22 15 3e
       0.09212676 -0.07024695 -0.013159309 0.14564022
000050 fc b1 20 3c 36 d9 87 be 26 f5 18 3d 28 a4 6a be
       0.00980806 -0.26532906 0.037343167 -0.22914183
000060 53 4c 22 3d cd a8 5b bc 01 a7 eb bc d4 c4 1f bc
       0.03962357 -0.013406944 -0.028766157 -0.009751517
000070 ac 00 34 be ca b7 89 3c b1 0a fe 3d 96 cd bb 3c
       -0.17578381 0.01681127 0.12404383 0.02292518
000080 a3 9e 64 3c 18 16 54 3c f8 5f 86 bd 61 1d c5 3c
       0.013953838 0.012944721 -0.06561273 0.02406186
000090 46 8c 34 bd 5c ce 72 3d eb 37 80 3c 2c a2 47 3c
       -0.044079088 0.05927883 0.015651664 0.012184661
0000a0 de 3f a2 3c 02 9d c8 3c aa 33 21 3e 75 ee 74 3c
       0.019805845 0.02448893 0.15742365 0.014949431
0000b0 15 74 00 3d 43 90 f7 3c 4e 56 56 3d b1 38 bc 3b
       0.031360704 0.030220157 0.0523284 0.005744063
0000c0 bd 91 1d 3c 63 e1 ab bd 8e d3 2b 3e 8b 84 ff bd
       0.009617266 -0.083925985 0.1677992 -0.124764524
0000d0 fa fe fa bb f5 bd 6c 3b 7c f1 e5 3d 7f f0 4a bd
       -0.00765979 0.0036123965 0.112277 -0.04954576
0000e0 c7 18 c7 bd 7f 7a ba bd c4 bb 79 3b 36 ff 0e bd
       -0.09721523 -0.091053955 0.0038106302 -0.034911357
0000f0 97 88 01 3c 7f 7a c8 3b 8b 3d 9d 3d 8b 89 02 3d
       0.007906101 0.0061181183 0.07677754 0.031869452
000100 99 09 d8 bc 4c 87 16 3d 4f 4c 14 be 08 39 c7 3c
       -0.026371764 0.036750123 -0.14482234 0.024319187
000110 f8 28 7b 3d 2d 1a d6 3c 9a 79 fc bc 2a 31 10 3e
       0.061318368 0.026135528 -0.030819703 0.14081255
000120 dd 81 87 3b 29 41 c2 b9 fc cb 1a 3c 65 fa 43 3c
       0.004135354 -0.00037051112 0.009448048 0.011961554
000130 b3 57 b9 bd 11 7b 06 bb 4b 76 d6 3b 0c 1c 72 3c
       -0.090499304 -0.002052013 0.0065448633 0.014777195
000140 90 98 d9 3c ba a6 8b 3c 41 9d 14 3d fb 47 5c bd
       0.026562005 0.017047275 0.03628278 -0.053779583
000150 94 7a 80 3c dc 4d 20 bd e8 e4 89 bd d3 8c 4a be
       0.01568345 -0.039136752 -0.067331135 -0.19780283
000160 7d c1 ce bb 66 7c f7 bb 78 7a 0e 3d fb f8 c9 bc
       -0.0063096867 -0.0075526712 0.034784764 -0.024654856
000170 92 17 ca 3d cf 37 45 bc 5a b5 2d 3c 8b 68 14 be
       0.09867777 -0.012037232 0.01060232 -0.14493005
000180 b5 32 2a 3d e1 7b 2b bb d7 b9 f0 3c 8e 63 0b bd
       0.041552264 -0.0026166367 0.02938549 -0.03403049
000190 74 49 43 bc 99 70 88 be 9f 61 83 3d db e2 aa be
       -0.011919368 -0.26648405 0.06415104 -0.33376202
0001a0 83 79 68 bc dd 9e 84 3d e7 b1 11 3d d8 3d 0e 3d
       -0.014189127 0.06475613 0.03557005 0.034726948
0001b0 21 1c 04 3d 8a 1a fe bb c5 44 2d 3d ca da 2a be
       0.03225339 -0.0077546285 0.04230191 -0.16685024
0001c0 78 3c a6 3d d8 9c 39 3b 15 5d 4b bd 7f 3d 0c 3e
       0.08117002 0.0028322246 -0.049649317 0.13695334
0001d0 90 ce 6c 3d 03 0b 7b 39 32 cd fd 3a c1 a7 5b bb
       0.05781418 0.00023941328 0.0019363521 -0.0033516737
0001e0 4b 12 df bb 12 f9 0b bd 68 0c 12 bb d4 21 85 be
       -0.0068076006 -0.03417308 -0.0022285227 -0.2600237
0001f0 90 5f 8a 3c 1a b0 1e be f9 07 c5 3c 74 e7 0c 3d
       0.01689127 -0.15496865 0.024051653 0.03440042
000200 59 b6 b1 3d a9 54 90 bd cc ea c4 3d cc f1 9a 3d
       0.08677358 -0.07047398 0.096150964 0.0756565
000210 83 f7 00 3e e7 09 9d bd a2 8e 6d bd ea 1c f6 3d
       0.12594418 -0.07667904 -0.057997353 0.12017234
000220 86 61 1a 3e 29 59 a1 3d db 2b 45 3c 90 94 bf 3c
       0.15076265 0.07878334 0.012034382 0.02338627
000230 67 8d 92 3e d1 50 55 be 0f 67 de bd 13 50 8f 3b
       0.28623506 -0.2083161 -0.108595006 0.0043735593
000240 3b 5a eb 3d 36 34 2c 3e c8 09 65 3d b6 4c 12 be
       0.114918195 0.16816792 0.05591753 -0.14287075
000250 2e 69 80 bc 31 83 a5 bd 16 de a8 3d 09 c3 4a 3e
       -0.015675154 -0.080816634 0.082454845 0.19800963
000260 3a ca 04 3e 1a 14 12 bd 77 bf 0f 3e 9a 82 56 3c
       0.12967768 -0.0356637 0.14037882 0.013092661
000270 e9 dc 85 be d4 e0 d4 3c 7f b8 55 3d 16 45 8a 3d
       -0.26145104 0.025986113 0.052177902 0.06751458
000280 2a 0e 49 3d c0 f2 2a bd 36 5c b4 3d ad 92 91 3d
       0.049085774 -0.04173541 0.0880665 0.07108054
000290 11 aa 8e 3d 91 f2 26 3e c2 f7 f4 3b 84 c6 dd 3d
       0.06966031 0.16303469 0.007475824 0.108288795
0002a0 36 37 5d ba c4 2a 82 3d e6 f6 b1 3c 15 98 31 bd
       -0.0008438708 0.06355813 0.021724176 -0.043357927
0002b0 cd c4 b5 bd 78 3a d3 3d 08 d6 0d 3d 19 61 a4 3c
       -0.088754274 0.103138864 0.034627944 0.020065831
0002c0 85 3c f0 bc be 5b b6 3b 16 30 3e 3e 62 a7 ba bb
       -0.029325733 0.0055651357 0.18573031 -0.005696223
0002d0 76 5f 90 bc ed 3b 0c 3d 92 5e 0a 3e 4b 91 06 3e
       -0.017623644 0.034236837 0.13512638 0.13141362
0002e0 bf 79 c5 bd 06 d2 7e 3e c3 57 42 3c fa e8 14 3d
       -0.09642362 0.24884805 0.011861744 0.036354996
0002f0 01 71 d2 3d 26 54 91 3d 6a c3 c8 3d e1 86 0e 3e
       0.1027546 0.07096128 0.09802897 0.1391864
000300 57 e9 61 be 81 5b 87 be 9d 42 1d 3e 46 cd ab 3d
       -0.22061668 -0.26437 0.15357442 0.08388762
000310 50 16 8b 3d c0 ee 94 3d 6e 0a 4d 3c 7e 34 7f bd
       0.06791365 0.072721004 0.012514694 -0.06230592
000320 35 79 8c bd 8c 97 d3 3a 11 85 13 bd 4d b5 b7 3c
       -0.06859056 0.0016143187 -0.036015574 0.022425318
000330 87 ab fd bb e8 83 52 3d df db 43 bc 9a 00 1c 3d
       -0.007741395 0.051395327 -0.011954277 0.03808651
000340 4f f1 04 3d 5d e3 2c 3d a3 4d ab 3d 8b 0f 1a 3d
       0.032456692 0.042209018 0.083644174 0.03761248
000350 77 a2 3b 3d 53 df f7 3d 12 68 a4 3d 56 ea 48 bd
       0.045809235 0.121031426 0.08027662 -0.049051605
000360 8b af 77 3a fd 30 ef 3c 16 b1 0d be 81 e0 bd 3c
       0.000944846 0.029198164 -0.13837084 0.02317834
000370 0d c2 82 3e a8 eb ec ba 76 14 89 3d 66 f7 d4 3d
       0.25538674 -0.0018075602 0.06693356 0.1039875
000380 20 a5 df 3d 2d f7 05 3c ac c0 2e 3d d8 0e 97 3d
       0.10920167 0.008176607 0.042664215 0.07375878
000390 f9 d4 39 bc 72 c0 3c bc 1f 9b 29 3e 00 4e 93 be
       -0.011342281 -0.011520492 0.1656308 -0.28770447
0003a0 9d 62 28 bc b4 27 37 be 1d d7 da bd e1 eb f9 3d
       -0.0102774175 -0.1788624 -0.10685561 0.122031935
0003b0 b7 42 35 be 3c 76 b6 3d 09 fe 9f bd 6a d1 6f 3e
       -0.17701231 0.0890927 -0.07812125 0.23419729
0003c0 e5 9d e0 3d 46 d5 d1 3b c0 c0 70 3d 30 a5 02 3e
       0.10967616 0.006403598 0.05877757 0.12758327
0003d0 ef cb ab 3d c8 bb ab 3b ba b4 52 bc 2a c4 05 bc
       0.083885066 0.005240891 -0.012860471 -0.008164445
0003e0 21 82 64 3b 69 9a f0 bd be 9c b3 bd d8 6a 84 3e
       0.0034867602 -0.117482014 -0.087701306 0.25862765
0003f0 66 61 d4 3d 8e be 77 be b0 8f 5e 3d 8c 8c fb 3d
       0.1037014 -0.24193785 0.05433625 0.122826666

fc1.bias f4 [64]
000000 f2 ba 1b 3e 23 72 e9 be e3 7f 2b 3c 33 1e 99 be
       0.15208033 -0.45594892 0.010467502 -0.29905853
000010 da f0 e3 3c 0a 78 60 3d 8f 09 20 bd 28 23 b8 3e
       0.027824808 0.05480198 -0.039071616 0.35964322
000020 2f c0 b4 bd d1 3d 59 3e b2 88 fb 3e 8c 4e a8 3e
       -0.088257186 0.21214987 0.49127728 0.32872427
000030 14 94 09 3e 7a 68 52 3c 55 26 3d bc 0e 11 09 3f
       0.13435394 0.012842292 -0.011544784 0.5354165
000040 21 d2 25 3f 38 85 af 3c c4 74 ed 3d 75 b6 1e bd
       0.64773756 0.021425828 0.11594537 -0.038748223
000050 d8 1b ef bb 9c 21 d0 3e c2 36 75 3c f8 a5 52 bc
       -0.0072970204 0.40650642 0.014966669 -0.012856953
000060 29 24 dc 3c 07 d6 2f bc 86 29 86 3d f9 b8 38 3f
       0.026872711 -0.01073218 0.06550889 0.72157246
000070 bc 42 ae bc 1c ef 09 bc d9 8a 30 3a 81 ba 3f bc
       -0.021272056 -0.0084188245 0.0006734557 -0.011702181
000080 de 96 9a bc b9 53 f0 3e 74 5e d8 bd 66 e3 bc bc
       -0.018870767 0.46938875 -0.105648905 -0.02305765
000090 12 3b 6a bc b3 60 8c 3d 84 12 b2 bc 4e 8f 24 bd
       -0.01429631 0.068543814 -0.021737345 -0.04017573
0000a0 0b 50 5e 3e f7 67 a7 be 6f 87 86 3f 89 13 8a bd
       0.21710221 -0.32696506 1.0510081 -0.06742007
0000b0 50 58 21 3b 2a 49 92 bc fc 77 01 3c cc de b9 3c
       0.0024619289 -0.017857153 0.007902142 0.022689246
0000c0 61 27 fd bb f3 2b 53 be 58 87 cb bd 1b 30 80 3c
       -0.0077256416 -0.20622234 -0.09937924 0.015647938
0000d0 76 d4 aa 3c 54 a0 19 3f ae 93 17 3f bc 18 b0 bc
       0.020853262 0.60010266 0.59209716 -0.02149617
0000e0 a0 de 63 3e 31 61 63 3e 0f 36 4a bb 8f fa cf bd
       0.22252893 0.22205044 -0.0030854975 -0.10155212
0000f0 08 b9 3d 3f 1d de a2 3c 70 04 c4 3e 35 a8 0a 3f
       0.7411046 0.019881302 0.38284636 0.54162914

fc2.weight f4 [32, 64]
000000 10 35 71 3c f3 15 51 bc 50 ba 8f 3b 35 ae 10 3b
       0.014722124 -0.012761581 0.004386224 0.0022076492
000010 c6 07 18 bc 0b 7e 83 bc 2b e3 cb 3b 4b 36 8a 3b
       -0.009279197 -0.016051313 0.006222149 0.004217898
000020 51 07 69 3b 10 42 c4 39 6c a4 07 bc c5 56 a5 3b
       0.003555734 0.00037433254 -0.008278947 0.005045744
000030 9c 7a 98 bc a5 4d 97 3b 28 92 39 3c ca c7 19 bb
       -0.018613152 0.0046174102 0.01132635 -0.002346503
000040 bb 68 7c bb e6 cb 20 3c a8 f2 ce bb 2a 85 1d bc
       -0.0038514573 0.009814238 -0.006315548 -0.009614268
000050 fa a2 79 3c 3d ad 72 bc 55 c9 fa 3b e2 fa 59 bc
       0.015236611 -0.014811811 0.007653395 -0.013304444
000060 90 77 55 bb 51 43 9c 3c 01 56 9e 3a a6 22 9a bc
       -0.0032572486 0.019075068 0.0012080075 -0.01881535
000070 95 b5 0b 3c aa 0d 18 3c 6f bc 3d bb dc a5 59 3c
       0.008527179 0.0092806015 -0.0028951427 0.013284173
000080 ee f0 e1 b9 e3 a7 e0 3a b1 08 cd 3b 3d d3 60 bb
       -0.0004309485 0.0017139878 0.0062571396 -0.0034305595
000090 53 61 2e 3c 68 ff f6 bb dc fe 8d 3b bf bd 3f 3c
       0.010643321 -0.007537771 0.00433336 0.011702954
0000a0 fa 9f 45 3c ed 3f 8b bc 0e f4 d9 38 27 df 5e 3c
       0.012062067 -0.016998256 0.00010392825 0.013603008
0000b0 e3 39 8b bc 26 c6 38 ba 23 a5 19 bc 99 eb a0 bc
       -0.016995376 -0.00070485694 -0.009377751 -0.019643592
0000c0 83 98 e1 3a 1f 83 85 bc d9 c9 1c 3b 8e 04 3c bc
       0.001721159 -0.016297875 0.0023924022 -0.011475695
0000d0 98 91 41 bb 3f 07 15 bb a2 8c 4e bc 16 7b 87 bc
       -0.0029536244 -0.0022739915 -0.012606772 -0.016538184
0000e0 a3 19 ad bc 8c 0c c4 3b 9b 2b 95 bb 97 0e 81 3c
       -0.021130389 0.005982941 -0.0045523173 0.015754027
0000f0 66 72 8c bb 9e 46 44 3c 44 34 10 3c 12 a0 53 bb
       -0.0042860983 0.011979727 0.008801524 -0.0032291454
000100 18 ef 3f bc 87 73 d7 ba be 14 2e bc bf 96 36 bc
       -0.011714719 -0.0016437628 -0.0106250625 -0.011144339
000110 4c cc 13 bb 4a e9 cc ba f1 86 82 3b 1f 5b cf bb
       -0.002255219 -0.001563349 0.0039833714 -0.006328001
000120 3f cf 13 bc 46 2b a4 3b 3e cb d6 3a b4 ed 7d bc
       -0.009021579 0.0050100414 0.0016387475 -0.015498567
000130 9c af 2c bc ab 70 81 bc 26 2c 98 3c 25 44 0f ba
       -0.010539915 -0.015800795 0.01857574 -0.00054651714
000140 69 99 a1 bc 9c f1 39 bc bb 63 1e bb d8 0c 19 3b
       -0.019726472 -0.011349108 -0.002416833 0.0023353603
000150 84 a9 36 bc 47 36 d6 b8 8d 0c 86 3c 17 e9 47 bc
       -0.011148814 -0.00010214425 0.016363407 -0.012201569
000160 0c d4 c6 3b b6 ee 09 3c 72 78 59 bc 20 a5 36 ba
       0.0060677584 0.0084187295 -0.013273345 -0.00069673546
000170 08 37 87 bb de 3c 85 3c 49 1e 91 bc c2 0f 8a bc
       -0.0041264333 0.016264375 -0.017714636 -0.016853217
000180 99 a0 e6 bb 9a 79 94 bc d8 dc 74 bc 7f bc 45 bc
       -0.0070381877 -0.01812439 -0.014945231 -0.012068867
000190 e4 ac eb bb 3e 33 16 3c 10 22 25 bc 8f 04 f5 bb
       -0.007192241 0.0091674905 -0.010078922 -0.00747735
0001a0 07 18 85 3c c1 40 60 bc 67 10 f0 38 a8 26 65 3b
       0.016246809 -0.0136873135 0.00011447147 0.0034965668
0001b0 33 9f 82 bc 60 67 7b 3c 78 a5 02 bb 32 82 8c bb
       -0.015945053 0.015344471 -0.0019935053 -0.0042879814
0001c0 60 de 0e bb f9 70 97 3c 10 fa 0a bb d2 56 f7 3b
       -0.0021800026 0.018486487 -0.0021206178 0.0075481916
0001d0 1a 53 23 ba ab cc 5b bc 99 1a 81 3a 1f 61 f2 3b
       -0.00062303396 -0.013415496 0.0009849846 0.0073968316
0001e0 2a 8a e4 bb 6a 2b b0 bb be 7b 02 bb 96 5e 03 bc
       -0.0069744783 -0.005376269 -0.0019910182 -0.0080181565
0001f0 82 a2 28 3b 07 65 bf bb df 6c 58 bb 0e 3e d3 b9
       0.0025731628 -0.005840901 -0.0033023877 -0.0004029129
000200 ac 76 f3 3b 17 50 21 bc e1 14 04 3b a2 23 81 3b
       0.0074299183 -0.009845755 0.0020154046 0.0039410153
000210 1e a9 91 38 76 b3 8c bc fd da 40 3c d4 ac 83 3b
       6.945639e-05 -0.017175417 0.011770961 0.0040184055
000220 0c 0f 0a 3c 72 b2 bd bc 73 37 66 3c f2 a4 5f bb
       0.008426439 -0.023156378 0.014051306 -0.0034125415
000230 de 1b 06 3c 62 4f 75 3c 3e 16 b7 39 ee 10 a0 b8
       0.008185355 0.01497254 0.00034921052 -7.632548e-05
000240 40 49 e0 3b 15 aa f4 bb be 2e 43 3b 90 2d 16 3c
       0.0068446696 -0.0074665644 0.00297825 0.009166136
000250 a8 ca 1d ba 06 04 af bc 17 f0 87 bc ef b3 61 bc
       -0.0006019273 -0.021364223 -0.016593976 -0.01377581
000260 76 f8 75 bc ac 42 9b bb 5b b8 c9 3b 5e 92 e2 39
       -0.015012851 -0.0047381725 0.00615601 0.0004321513
000270 f0 9a cc 3b cb 59 ac 3b 97 0e 9b 3b f4 e2 4b bb
       0.006244056 0.0052597276 0.004731964 -0.0031110616
000280 3e 1b 18 bc d2 36 d7 bc 49 1c f4 bb c8 b6 ec 3a
       -0.009283839 -0.026271258 -0.007449661 0.0018059844
000290 fd 34 4b bc c1 00 87 bc 8f a3 56 bc e4 8f 6f bc
       -0.01240277 -0.016479852 -0.013100519 -0.014621709
0002a0 c7 7b 2a 3c 68 cf 32 3c 42 21 f9 bb e9 6b 81 3c
       0.010405487 0.010913707 -0.0076028416 0.015798526
0002b0 13 16 83 ba bd 7a 5a bc 01 1d e5 bb 71 55 4f bb
       -0.0010001085 -0.013334927 -0.006991983 -0.003163662
0002c0 8a 3a 04 bc bc 8e 34 bb 29 a3 bc bb 7a 74 3c 3c
       -0.008070597 -0.0027550897 -0.005756755 0.01150238
0002d0 f2 ca f0 3b d9 61 f6 3a 48 d8 21 bc 65 c7 b8 bb
       0.0073484117 0.0018797471 -0.009878226 -0.005639004
0002e0 16 c8 a3 bc 9f d3 61 3c 50 59 27 bb c2 15 48 3c
       -0.01999287 0.013783365 -0.0025535412 0.012212219
0002f0 97 10 72 3b be 89 65 bc 34 0b ed bb ff 29 85 bc
       0.0036936158 -0.014009891 -0.0072340015 -0.016255377
000300 b5 79 57 be fc 1e 87 bc af 69 88 bc ae 71 bb bc
       -0.21042521 -0.016494267 -0.016651956 -0.022881355
000310 11 6b 46 bc 4b 79 c4 bd 83 91 16 bd f7 0a 33 bd
       -0.012110488 -0.09593447 -0.036759865 -0.04371163
000320 c5 0f 0e bd 28 f0 07 be 7d 44 05 be c4 18 83 3d
       -0.034683008 -0.13275206 -0.13014407 0.06401208
000330 3d 2d d1 bd 74 e0 82 bd 09 7d 5a 3c 46 34 6f bd
       -0.10213707 -0.06390467 0.013335475 -0.05839946
000340 3b 8a 52 be dd 52 1d 3c a8 fd 5a 3d 12 2f da bc
       -0.20560543 0.009602276 0.05346456 -0.026633773
000350 8f cb a3 ba b4 9b f8 bd 4d da a7 bc 2a e2 6d 3b
       -0.0012496578 -0.12139073 -0.020489836 0.0036298134
000360 6d 4c ea bc 15 6c 22 bc 19 c2 fe bd ce 29 36 3d
       -0.028600896 -0.009913464 -0.12439365 0.04447346
000370 db 59 11 3c 98 21 9f bb 3d 2f 83 ba a7 f1 7f bc
       0.008871521 -0.0048562996 -0.0010008585 -0.015621579
000380 76 58 45 bc 61 f8 33 bd f4 fa 95 bc 3b 11 c7 bc
       -0.0120450165 -0.043938044 -0.01830814 -0.024300208
000390 a2 95 51 bc 29 09 d7 bd 7d 9b 9f bc 3d 58 60 bc
       -0.012792023 -0.10499794 -0.019483322 -0.013692913
0003a0 ec 56 4f be 8d 75 be bd 73 82 d7 bd be 6e 83 bd
       -0.20248002 -0.09299765 -0.10522928 -0.06417607
0003b0 cc 12 8e bc 44 c2 6e 3c 29 18 14 bd fc 81 35 3c
       -0.017342947 0.014572684 -0.036155853 0.011078354
0003c0 d7 b3 4a ba 9a e9 9c bc 60 34 f2 bc 0b 7e 05 bd
       -0.00077324867 -0.019154359 -0.02956599 -0.032590907
0003d0 c7 4b f9 bc 76 27 81 3d ad 87 9c 3e 0c fb 1e bd
       -0.030431641 0.06306355 0.30572262 -0.038813636
0003e0 0c 68 83 be c2 ce 03 be f5 a3 6c 3c ad 54 00 bc
       -0.2566532 -0.1287184 0.014443387 -0.007832688
0003f0 a1 74 06 be 46 b3 a5 bc 47 84 c9 3d 0a d5 7a 3c
       -0.13130428 -0.020227086 0.09839683 0.0153095815

fc2.bias f4 [32]
000000 bf 70 c9 bc d0 9e aa bc 28 69 97 bc 18 3b 85 3e
       -0.024589894 -0.02082768 -0.01848276 0.26021647
000010 70 c0 89 bc 7c a6 25 3d 11 a7 b8 3e 3b 97 1e 3f
       -0.016815394 0.040441975 0.36064962 0.6194951
000020 06 a2 cc 3e 56 2d 15 3e 9e 76 8e bc 76 fc 3f 3d
       0.39967364 0.14568076 -0.017390545 0.046871625
000030 5e 67 d2 be 52 7e 5d 3e 47 c9 9d 3d 3c ba 04 3f
       -0.41094488 0.21630219 0.07704406 0.5184667
000040 95 d3 5a bd 6b 46 d3 ba ae 66 06 3f d1 8b 0c 3f
       -0.053424437 -0.0016119009 0.52500427 0.5490084
000050 17 32 b0 3d 56 65 9a 3e 56 cd 86 3e 9c 91 aa 3e
       0.08603304 0.30155438 0.26328534 0.33314216
000060 3c 4e 8b bd 75 99 1d bd 7b c3 02 bd 5d 8a 03 3e
       -0.068020314 -0.038476426 -0.031924706 0.1284575
000070 2d 2d b4 3e 0f 5e 93 3e 09 4b 5e 3e 0e e8 8d bc
       0.35190716 0.287827 0.21708311 -0.017322566

fc3.weight f4 [5, 32]
000000 7c e7 f8 bb 97 96 03 3c c0 43 24 3c 47 77 64 be
       -0.0075959545 0.008031509 0.0100259185 -0.22311126
000010 f6 ba 94 3b ef 36 22 3c 73 59 8d bf db 63 eb be
       0.004538889 0.0099007925 -1.1042923 -0.4597462
000020 c8 af a9 bd af ff 8a bb 2b f8 e9 ba d5 87 03 be
       -0.08285481 -0.0042419056 -0.0017850449 -0.12844785
000030 eb 92 1d 3f 0c 41 bd be 43 d9 45 3e 35 99 f9 be
       0.61552304 -0.3696369 0.1932116 -0.487497
000040 9c 2d 94 3e fb b9 1c bd 82 0d a2 be 33 df 2d bf
       0.28941047 -0.038263302 -0.3165093 -0.679187
000050 ac 8a 22 be bf 20 ef be 07 c4 a2 3e 1f 2d 24 bd
       -0.15873212 -0.4670467 0.31790182 -0.040082093
000060 d3 a3 ea 3e 03 17 da bb 9d bd d1 3c e3 9d 2d be
       0.45828113 -0.0066555752 0.02560311 -0.1695476
000070 59 80 fc 3e 9d 45 94 3e 11 c5 fb 3e 4a 68 13 bc
       0.49316671 0.2895936 0.49173787 -0.008997032
000080 87 72 22 bb a1 bb e5 bb b0 0e af 3c fa 02 14 bd
       -0.0024787502 -0.0070108925 0.021369308 -0.03613565
000090 43 80 b9 ba a1 12 3c bd 95 79 b1 3e 94 73 da 3e
       -0.0014152605 -0.045916203 0.34663072 0.42666304
0000a0 e4 1f 14 bc 2e 10 4f 3d 9f db 9f bc c7 79 90 3b
       -0.009040806 0.05055254 -0.019513903 0.0044090482
0000b0 7b 42 07 be 6c 09 b6 3e 37 6b e2 b8 99 c7 9f be
       -0.13208954 0.35554063 -0.0001079649 -0.31206968
0000c0 2d d5 85 3d 8a 4e 0e 3b 44 60 98 3d cc 49 47 3e
       0.06534801 0.0021714293 0.07440236 0.19461745
0000d0 e9 4d e8 bd 33 b5 71 3e 99 10 86 3d 21 53 f1 be
       -0.11342985 0.23604278 0.065461345 -0.47133735
0000e0 1d af 4f 3e 53 00 21 3c 1d 9a 62 3e 0e b5 8c 3d
       0.20281644 0.009826737 0.22129102 0.06870471
0000f0 81 ba 1f 3e 0a a2 90 bd f8 09 df be 55 c8 30 bb
       0.1559849 -0.070621565 -0.43562293 -0.0026974876
000100 ec 65 9e bc 79 f2 24 3c 84 f2 40 bc 43 c6 bd 3e
       -0.01933571 0.010067576 -0.01177657 0.37065324
000110 e7 9e 84 3c cd 5e bb bd dd dd 25 3e 0a 13 0d be
       0.016189052 -0.09148941 0.16197915 -0.13776794
000120 f2 56 8e 3e ce ae 2e 3e 8b 2b 5e bc 70 e5 b2 3d
       0.2780071 0.1705887 -0.013560186 0.08735168
000130 17 8d de bd d5 d5 7b bd be 7b 32 3d 96 cd bc 3e
       -0.108667545 -0.061483223 0.04357504 0.368756
000140 4b 68 8a bd 61 58 18 bc aa ea 01 3f 08 0a 14 3f
       -0.067581736 -0.009298415 0.50748694 0.57827806
000150 83 33 46 3e 58 56 14 3e 2b 8e 2e 3d c1 a0 0a 3f
       0.19355588 0.14486063 0.04261605 0.5415154
000160 db c6 f5 be ae 6e ca bc 7a 52 72 be c5 b8 a3 bc
       -0.48003277 -0.02471098 -0.23664275 -0.019985566
000170 65 e6 82 3e b3 bf 95 3d 93 3c 8e 3e 9d c9 a6 3c
       0.25566402 0.07311954 0.2778059 0.020359809
000180 d4 27 99 3c 48 68 7e 3c bf 52 bb 3c 3a 41 e9 bd
       0.01869575 0.015527792 0.022866605 -0.11389394
000190 fa 65 15 bc 98 c6 78 be 06 e9 38 3e 38 23 33 3f
       -0.009118551 -0.24294508 0.18057641 0.69975615
0001a0 94 bf f4 3d 6f a8 85 3d f4 d1 66 3c 79 85 18 bd
       0.11950603 0.06526267 0.014088143 -0.037236664
0001b0 1b f8 11 bf 9b b5 64 be e0 a3 59 bd 1d 95 ab be
       -0.57019204 -0.22334902 -0.0531348 -0.33512202
0001c0 04 47 f8 3d ff 10 14 bc 07 ee ee 3d d4 93 37 3e
       0.1212292 -0.009037255 0.11666494 0.17927486
0001d0 07 25 17 3d 06 49 9d 3e 75 d4 b2 3d 5d 6a 16 be
       0.036900546 0.30719775 0.08731929 -0.14689012
0001e0 a5 88 4c 3e ce ba 1f 3c 42 ad ef 3e 67 0b 4a be
       0.19974001 0.009749128 0.46811873 -0.19730912
0001f0 ce 85 57 be 16 d7 2f 3e d9 f5 b8 be 26 15 e6 3b
       -0.21047136 0.17171893 -0.36125067 0.007021564
000200 cf 45 c5 3a 75 4b 0c 3c d2 2a 48 bc 2f aa a3 bb
       0.0015050712 0.008562912 -0.01221724 -0.0049946527
000210 86 bc 34 bb 5c 9d c2 3e ae 34 dc 3e cd d9 0e bf
       -0.002757819 0.3801068 0.4300894 -0.5580109
000220 b6 27 97 be 78 3f a2 be d2 22 c4 3c 0a 15 23 3d
       -0.29522485 -0.31689048 0.023942385 0.039814986
000230 38 ef 62 3e e8 d6 8a 3e 28 01 67 be 4c 8f 3e 3f
       0.22161567 0.27117085 -0.22559035 0.74437404
000240 96 73 c9 be f5 7d c3 bc 70 47 cf be 2c c9 8b be
       -0.39345998 -0.023863772 -0.4048419 -0.2730192
000250 87 b4 1e 3d 5f 3e 7c be bb 6d 09 bf c0 20 07 3e
       0.038746383 -0.24633168 -0.5368306 0.13196087
000260 85 fa bc be 3b f6 06 3c 4f 5b fd be 65 74 92 3e
       -0.3690988 0.008237417 -0.49483725 0.28604427
000270 aa ab 32 bf 3c 16 e7 be f7 9a 2b bc e7 ef d5 3c
       -0.6979319 -0.4513415 -0.010473958 0.02611537

fc3.bias f4 [5]
000000 b8 08 c7 be 42 79 2a 3e 2c cc da bd 12 7e aa 3e
       -0.3887384 0.16647819 -0.10683474 0.3329931
000010 3b a6 78 3b
       0.0037940878
