Assignment_1/1/Max_Pooling_New/Models/without/model-9.pth (torch_old, 882591 bytes, 10 tensors)

conv1.weight f4 [64, 3, 5, 5]
0	0x3c36973b	0.011144455
1	0x3cd0c997	0.02548675
2	0x3b26e807	0.002546789
3	0xbb8b22b5	-0.0042460808
4	0x3d10c9d8	0.035348743
5	0xbbe1102e	-0.006868384
6	0xbbe2d97d	-0.0069228993
7	0xbcf004e3	-0.029299205
8	0xbd25cc1f	-0.04047787
9	0x3c860fe2	0.016364995
10	0xbd3c5c94	-0.045986727
11	0xbd264f3b	-0.040602904
12	0xbd5ad7ed	-0.05342858
13	0xbd5ce8cb	-0.053932946
14	0x3c6b48e7	0.014360643
15	0xbd9b18ef	-0.07573115
16	0xbd6456bb	-0.055746775
17	0xbd6692aa	-0.056292213
18	0xbd18da3b	-0.037317496
19	0x3d1ff659	0.039053295
20	0xbda68685	-0.08131126
21	0xbd7379b2	-0.05944223
22	0xbd0d29ad	-0.034463573
23	0xbb3b8959	-0.00286158
24	0x3d87eded	0.066371776
25	0xbdd3cdfe	-0.10342024
26	0xbcf85c02	-0.03031731
27	0x3c9c305e	0.019066032
28	0x3d85f424	0.06540707
29	0x3dec24dd	0.115304686
30	0xbe128122	-0.14307073
31	0xbd8b929f	-0.06815075
32	0xbc8b844d	-0.01703086
33	0x3d57d684	0.052694812
34	0x3e0a7d1f	0.13524292
35	0xbe48a78a	-0.19595161
36	0xbde5d7fc	-0.112228364
37	0xbcf1b0e9	-0.029503303
38	0x3d729fe0	0.0592345
39	0x3e237370	0.15962005
40	0xbe6dbec2	-0.232173
41	0xbe14bb5b	-0.14524595
42	0xbd1c953c	-0.03822826
43	0x3d954d48	0.07290131
44	0x3e3cfe81	0.1845646
45	0xbe6bb723	-0.2301908
46	0xbe184131	-0.14868619
47	0xbd1c4dee	-0.038160257
48	0x3da143df	0.078742735
49	0x3e42f1e8	0.19037592
50	0xbe5a7562	-0.2133384
51	0xbda947ff	-0.08265685
52	0x3d2fe4c5	0.04294278
53	0x3e16eedc	0.14739555
54	0x3e7c8799	0.24661101
55	0xbe5ab5e1	-0.21358444
56	0xbd927d9e	-0.07152866
57	0x3d7c07e6	0.06153097
58	0x3e4aeb8f	0.19816421
59	0x3ea1bde5	0.3159019
60	0xbe5d8c1f	-0.21635483
61	0xbd87bc01	-0.06627656
62	0x3dbacc80	0.091210365
63	0x3e81aa45	0.25325218
64	0x3ec570e6	0.38562697
65	0xbe60df67	-0.21960221
66	0xbd811ba1	-0.06304098
67	0x3e02ff3d	0.12792678
68	0x3e95dfcf	0.29272315
69	0x3ede795d	0.43451968
70	0xbe4ffeac	-0.20311993
71	0xbd23b953	-0.03997166
72	0x3e21f183	0.15814786
73	0x3ea9f239	0.33192614
74	0x3ee9e816	0.4568488
75	0x3c9dbf9a	0.019256402
76	0x3df03149	0.117281504
77	0x3e4fbe76	0.20287499
78	0x3e6180f7	0.22021852
79	0x3e18a9be	0.14908502
80	0x3e80fbad	0.25192013
81	0x3ea2ccf9	0.31797007
82	0x3e746922	0.2386823
83	0x3db3ca76	0.08778851
84	0xbbf5951a	-0.007494581
85	0x3e95e047	0.29272673
86	0x3e9a12e8	0.3009255
87	0x3e1797b9	0.14803971
88	0xbd06223c	-0.032747492
89	0xbdb1a2b5	-0.08673612
90	0x3de2baaa	0.110707596
91	0x3d92ec7b	0.07174011
92	0x3c0c0ec7	0.008548445
93	0xbcba548d	-0.022745395
94	0x3b1d4455	0.0023997028
95	0xbe1f8fa9	-0.15582146
96	0xbe45c713	-0.19314222
97	0xbdaad32b	-0.08341058
98	0x3d99115e	0.07474016
99	0x3e2017b3	0.1563404
100	0xbd8eef06	-0.06979184
101	0xbd514084	-0.051086918
102	0xbc4e345f	-0.012585728
103	0xbd084a70	-0.033274114
104	0xbdea0bfb	-0.11428066
105	0x3dfdc9f6	0.123920366
106	0x3de44b38	0.11147159
107	0xbc8701f9	-0.016480433
108	0xbe50f90d	-0.20407505
109	0xbea2fd7b	-0.31834015
110	0x3e4be17d	0.19910236
111	0x3dc56e3c	0.09640166
112	0xbdf71938	-0.12065357
113	0xbea80670	-0.3281741
114	0xbed4b4b5	-0.4154412
115	0x3da4626e	0.080265865
116	0xbd83d625	-0.06437329
117	0xbe4ef11c	-0.20209163
118	0xbe9a0e46	-0.30089015
119	0xbe9c82f6	-0.30568665
120	0xbdc73339	-0.09726567
121	0xbe6946a7	-0.22780858
122	0xbe60d157	-0.21954857
123	0xbe0b7446	-0.13618574
124	0xbdd28788	-0.10279757
125	0x3e0e9a98	0.1392616
126	0x3da11ab6	0.07866423
127	0x3ccbb380	0.024865866
128	0xbd2820cc	-0.041046903
129	0xbdfa1193	-0.12210383
130	0x3e96a1cc	0.29420316
131	0x3e5aa4df	0.21351956
132	0x3cc72094	0.024307527
133	0xbe3a447f	-0.18190192
134	0xbe92f05c	-0.28699005
135	0x3eb380d9	0.3505924
136	0x3e5f3f5b	0.21801512
137	0xbd042868	-0.032265097
138	0xbe855eb8	-0.26048827
139	0xbeaa8355	-0.33303323
140	0x3e8784d9	0.26468542
141	0x3ddc3983	0.10753157
142	0xbd77d4b3	-0.06050558
143	0xbe33a519	-0.17543449
144	0xbe3cbc40	-0.18431187
145	0x3e0746d7	0.13210617
146	0xba48cab4	-0.00076595997
147	0xbc510161	-0.012756676
148	0x3d088975	0.033334214
149	0x3d52c0ea	0.05145351
150	0x3df0daf6	0.117605135
151	0x3e1b1fac	0.151488
152	0x3e049c86	0.12950334
153	0x3d8f53a3	0.06998374
154	0xbb616247	-0.0034390853
155	0x3da72fc3	0.08163407
156	0x3de11882	0.109910026
157	0x3dd0ab29	0.10188896
158	0x3d50825b	0.050905567
159	0xbc20e5f2	-0.009820448
160	0xbcdc3c43	-0.026884204
161	0xbd03bf10	-0.032164633
162	0xbcaa9664	-0.020823665
163	0xbc817e1b	-0.015807202
164	0xbcf15d01	-0.029463293
165	0xbe1a26f5	-0.15053923
166	0xbe4a3a12	-0.19748715
167	0xbe29920b	-0.16559617
168	0xbdd29107	-0.10281568
169	0xbd4c3e3c	-0.04986404
170	0xbe67e9eb	-0.22647826
171	0xbe939d62	-0.2883101
172	0xbe842b96	-0.25814503
173	0xbe2ef07f	-0.1708393
174	0xbdc26b44	-0.094931155
175	0x3e7dffc0	0.24804592
176	0x3e942048	0.2893088
177	0x3e85afd1	0.261107
178	0x3e3f0809	0.18655409
179	0x3dbc94de	0.09208082
180	0x3e673a3d	0.2258081
181	0x3e87c18a	0.26514846
182	0x3e840b0c	0.25789678
183	0x3e485d66	0.19566879
184	0x3dddce19	0.10830326
185	0x3e08d7d7	0.13363586
186	0x3e021a91	0.12705447
187	0x3e124c93	0.14287023
188	0x3e1e1394	0.15437156
189	0x3e033cdd	0.12816186
190	0x3c71e92c	0.014765065
191	0xbcf16a96	-0.02946977
192	0x3b861866	0.004092264
193	0x3da19a90	0.078908086
194	0x3e047fdd	0.12939401
195	0xbd765fef	-0.060150083
196	0xbe0934c6	-0.13399038
197	0xbdc07d38	-0.093988836
198	0xbad70395	-0.0016404266
199	0x3daf31b8	0.08554405
200	0xbb8a8450	-0.0042271987
201	0xbb66986a	-0.003518606
202	0xbc8311bd	-0.01599967
203	0xbd4bd955	-0.04976781
204	0xbd698d08	-0.057019264
205	0xbc7d337c	-0.015454169
206	0xbc39880f	-0.011323943
207	0xbcb76620	-0.022387564
208	0xbd1a1066	-0.037613295
209	0xbd3e6b38	-0.04648897
210	0xbda00b00	-0.07814598
211	0xbdc42bf6	-0.095786974
212	0xbda1b6e7	-0.07896214
213	0xbd503d5b	-0.050839763
214	0xbc985d3d	-0.018599147
215	0xbe088708	-0.1333276
216	0xbe44641d	-0.19178815
217	0xbe238164	-0.15967327
218	0xbd8d4920	-0.06898713
219	0x3baf3480	0.0053468347
220	0xbe18f248	-0.14936173
221	0xbe67913d	-0.22613998
222	0xbe4514c9	-0.1924621
223	0xbdbdac69	-0.092614
224	0x3c4c7336	0.01247864
225	0xbeb2a7c5	-0.34893623
226	0xbeac29fe	-0.33625787
227	0xbeb14d67	-0.34629366
228	0xbeb856ff	-0.36003873
229	0xbeb7d699	-0.35905913
230	0xbe8b9501	-0.27262118
231	0xbe64a294	-0.22327644
232	0xbe5b0bfe	-0.21391293
233	0xbe8736af	-0.26408908
234	0xbe99e0c9	-0.3005431
235	0xbde2ab60	-0.110678434
236	0xbd005d44	-0.031338945
237	0x3c567819	0.013090157
238	0xbd35d03b	-0.044388037
239	0xbdfe1b1c	-0.124075145
240	0x3d4fe632	0.05075664
241	0x3e129917	0.14316212
242	0x3e5ef5ba	0.21773425
243	0x3e34e2b4	0.17664605
244	0x3dbe1bdf	0.0928266
245	0x3e142ca6	0.14470157
246	0x3e5ba73b	0.21450512
247	0x3e912698	0.28349757
248	0x3e898b33	0.26864013
249	0x3e61c192	0.22046497
250	0x3d46b3f8	0.048511475
251	0x3d9afadb	0.07567378
252	0x3da899e9	0.08232481
253	0x3d427b57	0.047480907
254	0x3cd66ffe	0.026176449
255	0x3cb32332	0.021867368

conv1.bias f4 [64]
0	0xbf0fe56b	-0.5620944
1	0xbe4e3b66	-0.20139846
2	0xbea9f57c	-0.33195102
3	0xbe3a8aaa	-0.18216959
4	0xbd881b97	-0.06645887
5	0xbebb3423	-0.36563215
6	0xbdbbb2aa	-0.09164937
7	0xbeeccc65	-0.4624969
8	0xbec25264	-0.37953484
9	0xbe54e079	-0.20788755
10	0x3de13827	0.10997038
11	0xbd24eac2	-0.040262945
12	0x3ed81a63	0.4220763
13	0xbe8fa9f5	-0.28059354
14	0xbecdadc6	-0.4017164
15	0xbf89c976	-1.0764606
16	0xbea8abd0	-0.32943583
17	0xbf765453	-0.9622242
18	0xbebc37a9	-0.36761215
19	0xbe90cfe4	-0.28283608
20	0xbeca9744	-0.39568532
21	0xbe79a725	-0.24380167
22	0xbdefca19	-0.11708469
23	0x3d3892e4	0.04506196
24	0xbf0fda76	-0.5619272
25	0xbf1d0e02	-0.613495
26	0xbe1390dc	-0.14410728
27	0xbe8fe866	-0.28106993
28	0xbf9952f0	-1.1978436
29	0xbe47b96b	-0.19504325
30	0xbd94658b	-0.0724593
31	0xbf0f9b98	-0.5609679
32	0xbe7b751b	-0.24556391
33	0xbec89527	-0.39176294
34	0xbe02f7b9	-0.12789811
35	0xbf0bbfe3	-0.5458967
36	0x3df4a219	0.1194498
37	0xbf10b004	-0.5651858
38	0xbed485e2	-0.41508394
39	0x3ce048d5	0.027378479
40	0xbe9bdd4e	-0.3044228
41	0xbea6c043	-0.3256856
42	0xbe875548	-0.26432252
43	0xbec24279	-0.3794134
44	0x3e020cd8	0.12700212
45	0xbeffbe52	-0.4994989
46	0xbf8d1a7f	-1.1023711
47	0xbe15d053	-0.1463025
48	0xbfab679d	-1.3390995
49	0xbe9aa6db	-0.30205426
50	0xbdfa10c8	-0.12210232
51	0x3e5b6960	0.21426916
52	0xbf607e80	-0.87693024
53	0x3e56cc28	0.20976317
54	0xbd370a1c	-0.044687375
55	0xbf4e41bb	-0.80569047
56	0xbe39d421	-0.18147327
57	0xbedc280a	-0.42999297
58	0xbe09f95a	-0.13474026
59	0xbe4e4d10	-0.20146585
60	0xbfadf380	-1.3589935
61	0xbf3d0ad6	-0.7384466
62	0xbf1fb672	-0.62387764
63	0xbe2c9397	-0.16853176

conv2.weight f4 [128, 64, 5, 5]
0	0xbd07cb3d	-0.033152808
1	0xbcac3ae3	-0.021024173
2	0xbc7d0fb0	-0.015445635
3	0xbc6abcde	-0.014327256
4	0xbcab80b6	-0.020935398
5	0xbcf7edae	-0.030264702
6	0xbc9f64c4	-0.019457228
7	0xbc831ced	-0.016005004
8	0xbc6b73c7	-0.014370865
9	0xbc8c3aee	-0.017117944
10	0xbcf6b4dd	-0.03011554
11	0xbc9cb5ce	-0.01912966
12	0xbc7cadcd	-0.015422297
13	0xbc5f960b	-0.013646613
14	0xbc898482	-0.016786817
15	0xbcef31f6	-0.029198628
16	0xbca0c3f3	-0.019624686
17	0xbc74627c	-0.014916059
18	0xbc580a99	-0.01318612
19	0xbc92f98a	-0.017941255
20	0xbd000ae4	-0.031260386
21	0xbca0cb2b	-0.019628128
22	0xbc8663c1	-0.016404988
23	0xbc89fa8d	-0.016843105
24	0xbcb3a468	-0.021928981
25	0x3c81639a	0.015794564
26	0x3c45675f	0.012048571
27	0x3b0688c0	0.0020528287
28	0xbb85e532	-0.00408616
29	0x3ae2f4b9	0.0017315365
30	0x3c91b765	0.017787645
31	0x3c18f545	0.009335821
32	0xb9ffac35	-0.00048765694
33	0xbbe9bcaa	-0.007133086
34	0xba9db2c1	-0.0012031422
35	0x3c94f387	0.01818253
36	0x3c07ed50	0.008296326
37	0xbb1ba68c	-0.0023750393
38	0xbc06464b	-0.00819547
39	0x3a8181cb	0.00098806
40	0x3cb9be55	0.022673765
41	0x3c4ec334	0.012619782
42	0x3af49f3c	0.0018663178
43	0xba75da97	-0.0009378581
44	0x3bb90bb8	0.005647149
45	0x3d0423d7	0.032260742
46	0x3cd158c8	0.02555503
47	0x3c8493b0	0.016183704
48	0x3c34c977	0.011034361
49	0x3c5d7489	0.013516554
50	0xbcfa825c	-0.030579738
51	0xbcf1df13	-0.029525315
52	0xbce9d104	-0.02854205
53	0xbce0877c	-0.027408354
54	0xbcde78a1	-0.02715713
55	0xbd065417	-0.032795038
56	0xbcfaace2	-0.030600015
57	0xbcdff144	-0.027336724
58	0xbcc25edf	-0.023726879
59	0xbcb34369	-0.02188273
60	0xbd13f13e	-0.03611874
61	0xbd059d24	-0.032620564
62	0xbcdabbbc	-0.026700847
63	0xbcb7b42a	-0.022424776
64	0xbc94cad0	-0.018163115
65	0xbd232ee5	-0.039839644
66	0xbd0989e5	-0.033578772
67	0xbce059ac	-0.027386509
68	0xbc98dd78	-0.018660292
69	0xbc625663	-0.0138145415
70	0xbd14a027	-0.036285546
71	0xbd010591	-0.03149945
72	0xbcc56928	-0.024097994
73	0xbc7756a9	-0.015096345
74	0xbbf9c91a	-0.00762285
75	0xbcdd45ba	-0.027010787
76	0xbcc7d6d0	-0.024394423
77	0xbc96b4dd	-0.01839679
78	0xbc670656	-0.014100632
79	0xbbd95a5b	-0.0066330857
80	0xbd058df0	-0.032606065
81	0xbce92cfb	-0.028463831
82	0xbcbbf09c	-0.02294188
83	0xbc8e90ae	-0.017402973
84	0xbc4ec5e4	-0.012620423
85	0xbd0feb01	-0.035136227
86	0xbd01a15f	-0.031648036
87	0xbccfa366	-0.02534647
88	0xbcb5c58f	-0.02218893
89	0xbc9ea28d	-0.01936462
90	0xbd093c0f	-0.033504542
91	0xbd005e44	-0.0313399
92	0xbce66177	-0.028122647
93	0xbce486e7	-0.027896358
94	0xbcd91180	-0.026497602
95	0xbd024b4c	-0.03181009
96	0xbd0817df	-0.03322589
97	0xbd03016d	-0.03198378
98	0xbd0c6a36	-0.03428098
99	0xbd0d3459	-0.03447375
100	0xbc3d7fbb	-0.011566098
101	0xbc96fc97	-0.018430991
102	0xbc8af28b	-0.016961357
103	0xbc4d1275	-0.0125166075
104	0xbbadae87	-0.0053003463
105	0xbac59340	-0.0015073791
106	0xbc19798a	-0.009367356
107	0xbc2ce82e	-0.010553403
108	0xbb98d463	-0.0046639903
109	0x3b437423	0.0029823862
110	0x3b882382	0.0041546235
111	0xbb3577e7	-0.0027689876
112	0xbb890abb	-0.0041821874
113	0x3a1cdde3	0.00059839914
114	0x3c0994ca	0.0083972905
115	0x3c1f4056	0.009719929
116	0x3bae8225	0.005325573
117	0x3b27b4d5	0.0025589962
118	0x3beb9f4d	0.007190621
119	0x3c7327be	0.014841018
120	0x3c91f056	0.017814796
121	0x3c55a19d	0.01303902
122	0x3c4b41ce	0.012405826
123	0x3c833cd1	0.01602021
124	0x3cb3b4dc	0.021936826
125	0xbca8ff45	-0.020629534
126	0xbbc1ef8b	-0.0059184483
127	0x3bc0f260	0.0058882684
128	0x3c986c99	0.01860647
129	0x3d1d9704	0.038474098
130	0xbcc53cfe	-0.024076935
131	0xbc515f9c	-0.012779143
132	0x39c45afa	0.00037451816
133	0x3c853263	0.016259378
134	0x3d1ab92a	0.037774242
135	0xbcc563f3	-0.024095511
136	0xbc6966fa	-0.014245743
137	0xba457ccd	-0.00075335504
138	0x3c9775d2	0.018488798
139	0x3d216416	0.03940209
140	0xbcacd310	-0.021096736
141	0xbc329c85	-0.010901575
142	0x3b95321b	0.004553092
143	0x3cc5c866	0.024143409
144	0x3d4327f8	0.04764554
145	0xbc509a51	-0.012732104
146	0xb864c998	-5.4547185e-05
147	0x3c8f0359	0.017457651
148	0x3d16e94b	0.03684358
149	0x3d687738	0.05675432
150	0xbc382af8	-0.011240713
151	0xbc472876	-0.012155643
152	0xbc29074f	-0.010316684
153	0xbbb8452b	-0.00562348
154	0xbb0c755b	-0.0021432254
155	0xbc9f33a0	-0.019433796
156	0xbc967b0f	-0.018369226
157	0xbc7a9929	-0.015295305
158	0xbc243aca	-0.010023782
159	0xbbb9f01a	-0.0056743743
160	0xbca9a9af	-0.020710794
161	0xbcb40f23	-0.021979874
162	0xbc8c5e70	-0.017134875
163	0xbc4b8f1c	-0.012424257
164	0xbc229910	-0.009924188
165	0xbc98fadb	-0.018674305
166	0xbca2a305	-0.019853124
167	0xbc860f5e	-0.01636475
168	0xbc63d539	-0.013905817
169	0xbc5d16ee	-0.013494236
170	0xbc634ef7	-0.013873807
171	0xbc8a0ccf	-0.01685181
172	0xbc8cc6fe	-0.01718473
173	0xbc981653	-0.018565333
174	0xbc9dd0f4	-0.019264676
175	0xbc4b88a6	-0.012422716
176	0xbc935ce9	-0.017988639
177	0xbca7d0fe	-0.020485397
178	0xbc9d0e91	-0.019171985
179	0xbc4931f7	-0.012279979
180	0xbc18bd38	-0.009322457
181	0xbc63cff3	-0.013904559
182	0xbc8a3de1	-0.01687521
183	0xbc5907b0	-0.013246462
184	0xbbaaf933	-0.005217695
185	0xbc380d1a	-0.011233592
186	0xbc55a4eb	-0.013039808
187	0xbc22c2f3	-0.009934175
188	0xbbb18e2c	-0.0054185595
189	0x3b1de631	0.0024093504
190	0xbbc80ff5	-0.006105418
191	0xbbb29e68	-0.0054510124
192	0xba6e5d37	-0.00090928696
193	0x3bbc8422	0.005753056
194	0x3c5452d2	0.012959199
195	0x3b792a80	0.0038019717
196	0x3bc0e6af	0.0058868746
197	0x3c3446f6	0.0110032465
198	0x3c95c6ae	0.018283214
199	0x3ca9eb5a	0.020742107
200	0xbc39dd9a	-0.011344338
201	0xbc998e7e	-0.018744703
202	0xbc9ad297	-0.018899245
203	0xbc76c091	-0.01506056
204	0xbc20d700	-0.009816885
205	0xbc3f99eb	-0.011694412
206	0xbca3dc9a	-0.020002652
207	0xbcb3fbef	-0.021970717
208	0xbc9244ce	-0.017855074
209	0xbc539aca	-0.012915323
210	0xbc4f79e4	-0.012663338
211	0xbcbe782d	-0.023250664
212	0xbcc7cf24	-0.024390765
213	0xbca0999f	-0.019604502
214	0xbc769bcf	-0.015051796
215	0xbc3ac4f2	-0.0113994945
216	0xbcb610d3	-0.02222482
217	0xbcda554c	-0.026652
218	0xbcb6596c	-0.022259437
219	0xbc967a56	-0.018368881
220	0xbbe877da	-0.0070943655
221	0xbca442ee	-0.020051446
222	0xbce051e9	-0.027382808
223	0xbcca061a	-0.024661113
224	0xbcafb27f	-0.021447418
225	0xbcfa0b9e	-0.030523118
226	0xbce2e4c2	-0.02769697
227	0xbcaf6871	-0.021412106
228	0xbc6fe458	-0.014641844
229	0xbb7d0c9f	-0.003861226
230	0xbd1e9c55	-0.03872331
231	0xbd069160	-0.032853484
232	0xbcdc93b3	-0.026925897
233	0xbc9c71eb	-0.01909729
234	0xbc2ac03f	-0.010421812
235	0xbd2dd8a1	-0.04244292
236	0xbd1b88b4	-0.037972167
237	0xbcf0b2e6	-0.02938218
238	0xbcbe1d68	-0.023207381
239	0xbc9286a0	-0.01788646
240	0xbd24a7e9	-0.040199194
241	0xbd0eee1c	-0.034895048
242	0xbcff11d6	-0.031136435
243	0xbcd7241d	-0.026262337
244	0xbcbdcddb	-0.023169449
245	0xbd101679	-0.03517768
246	0xbd10974f	-0.03530055
247	0xbd05d820	-0.032676816
248	0xbd0697e2	-0.03285969
249	0xbd004a3d	-0.0313208
250	0xbd6af877	-0.05736586
251	0xbd695f5d	-0.05697571
252	0xbd7e6dbb	-0.062116366
253	0xbd892101	-0.06695748
254	0xbdb2858e	-0.0871688
255	0xbd5764d1	-0.05258638

conv2.bias f4 [128]
0	0xbddf10b8	-0.10891861
1	0x3e6d6ba5	0.23185594
2	0x3d46e055	0.048553783
3	0xbd53a9c1	-0.05167556
4	0x3cf2b6b0	0.029628128
5	0x3cf1222c	0.02943524
6	0x3dc9bc8a	0.09850414
7	0xbe9d31ca	-0.3070205
8	0xbd0a37d5	-0.03374465
9	0x3cc5950c	0.024118923
10	0x37ab0540	2.0387233e-05
11	0xbd64d4ff	-0.05586719
12	0x3dbd1dc0	0.0923419
13	0x3ea63733	0.3246399
14	0x3e452980	0.19254112
15	0x3d0588fc	0.03260134
16	0xbda80ed3	-0.082059525
17	0x3e9680f6	0.29395264
18	0xbd2feb39	-0.042948935
19	0x3fb12f3d	1.3842541
20	0xbd210982	-0.039315708
21	0xbece66fb	-0.40312943
22	0x3caddfbf	0.021224855
23	0x3d2c6911	0.042092387
24	0x3d6d0c18	0.05787286
25	0x3b97ec89	0.0046363515
26	0xbd85502e	-0.06509434
27	0x3ae26def	0.0017275194
28	0x3e9894c1	0.2980099
29	0xbd9f88d1	-0.077897675
30	0xbe423afd	-0.18967815
31	0xbc3c827e	-0.011505721
32	0x3d0b27ca	0.033973493
33	0x3d2d3bde	0.042293422
34	0x3c62b661	0.013837428
35	0x3cb2ad67	0.0218112
36	0x3cc1303f	0.023582576
37	0xbc57e957	-0.013178191
38	0xbe3464fe	-0.1761665
39	0xbe67d455	-0.22639592
40	0xbdad14fd	-0.08451269
41	0x3c1a3e0f	0.00941421
42	0xbf3e55f5	-0.7434991
43	0x3d19c799	0.037543867
44	0xbd57e03f	-0.052704092
45	0x3d806dcd	0.06270943
46	0xbc951f11	-0.01820329
47	0x3db6357e	0.088969216
48	0xbc8ebf83	-0.017425304
49	0xbe0ccf85	-0.13751037
50	0xbe220653	-0.15822725
51	0x3ad92161	0.0016565734
52	0xbc086465	-0.008324717
53	0x3c9cd31c	0.019143634
54	0xbd6f26d6	-0.058386646
55	0xbcdd1b62	-0.026990596
56	0x3e232da6	0.15935382
57	0xbd856aef	-0.065145366
58	0x3bfea50e	0.007771141
59	0xbe85a888	-0.26105142
60	0x3d298f9f	0.041396733
61	0x3b98331b	0.004644764
62	0xbe60904d	-0.21930046
63	0x3d817d4d	0.06322727
64	0x3ea494e0	0.32144833
65	0xbe2f99dc	-0.17148536
66	0xbd371746	-0.04469993
67	0x3ced87c0	0.028995395
68	0xbd81db61	-0.06340671
69	0x3d00a4e4	0.031407252
70	0xbc3e8768	-0.011628963
71	0xbf65a098	-0.8969817
72	0xbd6ac9fa	-0.057321526
73	0xbc9f878b	-0.019473812
74	0x3c9126d0	0.017718703
75	0xbe0a57f9	-0.13510121
76	0x3d476e9a	0.048689462
77	0x38010073	3.0756415e-05
78	0xba53363c	-0.0008057093
79	0x3cb29e08	0.02180387
80	0xbb238d1b	-0.0024955932
81	0x3d1f58a1	0.038902882
82	0x3d06a8ea	0.032875933
83	0xbe8be66c	-0.27324235
84	0xbdc3ff72	-0.09570207
85	0xbd09c889	-0.03363851
86	0x3e9ac362	0.3022719
87	0x3e22d640	0.15902042
88	0xbb76087e	-0.0037541683
89	0xbc83b5a7	-0.01607783
90	0x3d9bee6f	0.07613837
91	0xbbceb11b	-0.0063077337
92	0xbe4e7d22	-0.20164922
93	0x3a8475e5	0.0010105936
94	0xbd8f3de1	-0.06994224
95	0xbcb23035	-0.021751503
96	0x3d58a738	0.052893847
97	0xbcced8f7	-0.025249941
98	0xbe35d7fc	-0.17758173
99	0xbcb646b4	-0.02225051
100	0x3a18c5c4	0.0005827809
101	0x3d6e2b1f	0.058146592
102	0x3d57c949	0.052682195
103	0x3f217623	0.6307089
104	0x3cfba149	0.030716555
105	0xbda62551	-0.08112586
106	0x3f4a4266	0.79007566
107	0x3d35c18e	0.04437404
108	0xbde1b7fd	-0.11021421
109	0xbca29dec	-0.019850694
110	0x3d61bd0a	0.055111922
111	0xbdb5e31f	-0.088812105
112	0xbdcdcb64	-0.10048559
113	0x399f7a0a	0.0003041777
114	0x3cb410cc	0.021980666
115	0xbecfe4cb	-0.40604243
116	0xbe601761	-0.21883918
117	0xbb19998b	-0.0023437466
118	0xbb728b17	-0.0037009174
119	0x3b4a444d	0.0030863464
120	0xbb075014	-0.0020647096
121	0x3dba3aa2	0.090932146
122	0x3d3fefba	0.04685948
123	0xba87db5a	-0.0010365054
124	0xbdb9e3e0	-0.09076667
125	0x3e9b5c23	0.30343732
126	0xbd7294f3	-0.05922408
127	0x3d55db0b	0.05221085

fc1.weight f4 [64, 128]
0	0x3de92fb1	0.113860495
1	0xbf1789ae	-0.5919446
2	0xbea1dbb8	-0.31612945
3	0xbe4b4e62	-0.1985412
4	0x3e192da3	0.14958815
5	0xbbe83786	-0.007086697
6	0xbce55640	-0.027995229
7	0x3de90359	0.11377592
8	0xbe8e5675	-0.27800336
9	0x3d9200cb	0.071290575
10	0xba5765c7	-0.0008216765
11	0xbd468b37	-0.04847261
12	0x3e47cc97	0.19511639
13	0xbd1ea611	-0.038732592
14	0xbd8c5772	-0.06852616
15	0x3b6cfb95	0.0036160697
16	0x3e58aeb8	0.211604
17	0x3e2c4374	0.16822606
18	0x3d2ee21d	0.042696107
19	0x3e4a2226	0.19739589
20	0xbb825ba6	-0.0039782105
21	0xbeca0b20	-0.39461613
22	0x3de43d24	0.11144474
23	0xbeb99516	-0.36246556
24	0x3de85c0c	0.113456815
25	0xbb7b4e2b	-0.0038346152
26	0x3dc17715	0.09446541
27	0xbb33cee6	-0.0027436554
28	0xbb335220	-0.0027362183
29	0x3c88aaac	0.016682945
30	0xbabecc52	-0.0014556742
31	0x3db32417	0.08747118
32	0x3d4e428d	0.050356437
33	0x3c20dea3	0.009818706
34	0xbda254d3	-0.07926335
35	0x3d8ae4f0	0.067819476
36	0x3c1cf605	0.00958014
37	0x3e5555bf	0.20833491
38	0x3df42c99	0.11922569
39	0x3c814639	0.015780555
40	0x3deea336	0.11652224
41	0x3da4c261	0.08044887
42	0x3d2a7ac2	0.041620977
43	0xbd41d353	-0.047320675
44	0xbcf89bb1	-0.030347677
45	0x3dd88e6f	0.10574042
46	0x3c7f3190	0.015575781
47	0xbdc71412	-0.09720625
48	0x3a14529b	0.0005658061
49	0xbe32a461	-0.17445518
50	0x3e24aa2c	0.1608054
51	0xbc8b8208	-0.017029777
52	0xbb0efe07	-0.0021818893
53	0x3d24c289	0.040224586
54	0x3e86d470	0.26333952
55	0x3d9a0569	0.07520563
56	0xbd9bfb68	-0.07616311
57	0x3e0f7004	0.14007574
58	0x3c856d1f	0.016287385
59	0xbdfcaf1d	-0.12338088
60	0x3db380b6	0.08764784
61	0x3d9b9d12	0.07598318
62	0x3e0b09ff	0.13578032
63	0x3de9032d	0.11377559
64	0x3d59b81a	0.05315409
65	0xbd319df3	-0.043363523
66	0xbe763c43	-0.24046426
67	0x3da3774b	0.07981738
68	0x3ddd5f6e	0.108092174
69	0x3d9bb67d	0.07603166
70	0xbd4afdbf	-0.049558397
71	0xbc8c5a98	-0.017133042
72	0x3c3be3da	0.011467898
73	0x3c427978	0.011869781
74	0x3b3a4bcb	0.0028426524
75	0x3c4b3f30	0.012405202
76	0xbde86ab0	-0.11348474
77	0x3cf63e14	0.030058898
78	0x3af5b7ca	0.001874679
79	0x3d43f742	0.047843225
80	0x3d41ca7c	0.047312245
81	0x3d610bd4	0.05494292
82	0x3db4cd40	0.08828211
83	0xbe0b3dfe	-0.13597867
84	0x3d805047	0.06265312
85	0x3d9c171b	0.076215945
86	0xbd0d6761	-0.034522418
87	0xbeb72057	-0.3576686
88	0xbc6ccf25	-0.014453684
89	0x3d7da0be	0.061920874
90	0x3d985eb6	0.0743994
91	0xbcdc8c33	-0.026922321
92	0x3e746f80	0.23870659
93	0xbb650e96	-0.003495132
94	0x3d493d3f	0.049130674
95	0xbe501eef	-0.203243
96	0x3df8a64b	0.12141093
97	0xbc5479e3	-0.012968513
98	0xbde9e464	-0.11420515
99	0x3d5a2181	0.053254608
100	0xbc2f22cc	-0.010689449
101	0xbebc577d	-0.36785498
102	0x3e1ec235	0.15503772
103	0xbf3422dc	-0.7036569
104	0xbe17a658	-0.14809549
105	0xbd382ab2	-0.044962592
106	0x3d2bdbb9	0.04195759
107	0x3de62513	0.1123754
108	0x3d3b9021	0.04579175
109	0x3da89997	0.0823242
110	0xbc167f5f	-0.009185641
111	0xbe7bd3d7	-0.24592529
112	0x3e305cff	0.17222975
113	0x3a9c20c9	0.0011911626
114	0xbe0a573d	-0.13509841
115	0x3e0edd50	0.13951612
116	0x3de2074b	0.11036547
117	0x3765ed51	1.3704718e-05
118	0x3a5ea786	0.0008493591
119	0xbb732e76	-0.003710655
120	0xbc6485ad	-0.013947886
121	0x3c1420cf	0.009041025
122	0x3c5d1f65	0.013496255
123	0xbea30b8c	-0.31844747
124	0x3da235c3	0.079204105
125	0xbf184667	-0.59482425
126	0x3d7069a8	0.05869451
127	0x3dfd8714	0.1237928
128	0x3dfaeedf	0.12252592
129	0x3d22c3d1	0.039737526
130	0x3e6e6a50	0.23282743
131	0x3d9f440e	0.07776652
132	0x3ddc6f9d	0.10763476
133	0xbcb39817	-0.021923108
134	0xbdfdc002	-0.12390138
135	0x3e06dd14	0.13170272
136	0x3dce1165	0.100619115
137	0x3d284002	0.041076668
138	0x3b62565a	0.0034536333
139	0xbd5cfadd	-0.05395018
140	0x3d9bfcb3	0.07616558
141	0xbe436668	-0.19082034
142	0x3cb1f31d	0.02172237
143	0xbcd91dc0	-0.026503444
144	0x3e2c6b63	0.1683784
145	0x3d89b277	0.067234926
146	0x3db8f17e	0.09030436
147	0xbe7e6c38	-0.2484597
148	0xbd550d33	-0.05201454
149	0x3d7a4591	0.0611015
150	0x3da58236	0.080814764
151	0x3e3ba0ae	0.18323013
152	0x3da98057	0.08276432
153	0xbc274111	-0.010208384
154	0x3e60ac2f	0.21940683
155	0x3b752c8d	0.0037410588
156	0xbf04d4e3	-0.5188734
157	0x3d91bc46	0.071159884
158	0x3d4a6dc8	0.0494211
159	0x3d87c276	0.06628887
160	0x3d5f9fae	0.05459564
161	0xbc8436bd	-0.016139382
162	0xbcd5d514	-0.02610258
163	0x3d19454b	0.0374196
164	0x3db8fe08	0.090328276
165	0x3e3fc999	0.18729247
166	0x3dd49d68	0.10381585
167	0x3dfc6391	0.12323678
168	0x3bb211b5	0.0054342397
169	0x3d651bef	0.055934843
170	0xbdaa33d1	-0.083106644
171	0xbdd3919e	-0.10330509
172	0xbd743fed	-0.059631277
173	0x3dd83e5e	0.105587706
174	0x3c079384	0.008274917
175	0xbe850921	-0.25983527
176	0xbcaa8165	-0.020813653
177	0x3cfcf9e0	0.030880868
178	0x3e145de0	0.14488935
179	0xbe01e797	-0.12686001
180	0xbba5943d	-0.005053072
181	0x3d02cf8a	0.031936206
182	0x3e32dd30	0.17467189
183	0x3e3b2cfe	0.18278882
184	0xbdf701a4	-0.1206086
185	0x3eb75c73	0.3581272
186	0x3c918070	0.01776144
187	0x3d57f38f	0.05272251
188	0x3de511b8	0.1118502
189	0x3db2aeec	0.0872477
190	0x3e07e367	0.13270341
191	0x3df617f8	0.120162904
192	0xbef70987	-0.48249456
193	0x3d5214aa	0.051289238
194	0x3dc4c7e3	0.09608438
195	0x3b19f27c	0.002349048
196	0x3dbc8bb9	0.092063375
197	0x3d3bdc63	0.045864474
198	0x3c8049bd	0.015660161
199	0xbeb22302	-0.34792334
200	0x3d2159c4	0.039392248
201	0x3bf10eaa	0.0073564844
202	0xbc28f049	-0.010311195
203	0xbd8c4728	-0.068495095
204	0xb9e8c07b	-0.00044393897
205	0x3d61ac25	0.05509581
206	0xbb6057f7	-0.0034232119
207	0x3cf301d4	0.029663958
208	0x3d25f50d	0.0405169
209	0x3d918e0a	0.0710717
210	0x3d5373a6	0.051623963
211	0x3d20b4e0	0.039234996
212	0x3db9e491	0.09076799
213	0x3e3fe334	0.18739015
214	0x3dae6d0d	0.085168935
215	0xbd67f347	-0.05662849
216	0x3b7b9e7c	0.0038394025
217	0x3b8213b1	0.0039696326
218	0xbe9809a9	-0.2969487
219	0x3ccbaee7	0.024863673
220	0x3edfa2e9	0.43678978
221	0xba108d57	-0.00055142253
222	0x3dc97d82	0.09838392
223	0x3d825a26	0.06364851
224	0x3daa2d91	0.08309472
225	0x3ca061d3	0.019577896
226	0xbdbee186	-0.09320359
227	0x3df45d5f	0.119318716
228	0xbc0e9984	-0.008703593
229	0xbd8957c8	-0.06706196
230	0x3db860e3	0.09002855
231	0xbf18158f	-0.59407896
232	0xbe0a5926	-0.1351057
233	0xbd4ac4a1	-0.049503926
234	0xbe703b35	-0.23460086
235	0x3d280111	0.041016642
236	0x3e164d12	0.14677837
237	0x3d8b6bef	0.06807696
238	0xbe781e31	-0.24230267
239	0x3e762d10	0.24040627
240	0x3e56c139	0.20972146
241	0x3ae31259	0.0017324194
242	0xba85cd14	-0.0010208213
243	0xbe8e907a	-0.27844602
244	0x3d9a1f45	0.075254954
245	0x3b8430cc	0.0040341374
246	0xbb65950a	-0.003503146
247	0xbab3bbf6	-0.0013712633
248	0x3bd0edab	0.0063759885
249	0xbe24c4a5	-0.16090639
250	0xbe49ed96	-0.19719538
251	0x3e9c3b96	0.3051421
252	0x3e186038	0.14880455
253	0xbf13abdc	-0.5768411
254	0x3d9962d5	0.07489554
255	0x3d887344	0.0666261

fc1.bias f4 [64]
0	0x3ea49b35	0.32149664
1	0xbed2c19f	-0.41163346
2	0xbbb5f08a	-0.005552356
3	0xbe82bf98	-0.255368
4	0x3d1e1a20	0.038599133
5	0x3e944af4	0.28963435
6	0xbbf4ef47	-0.007474813
7	0x3eae6cf8	0.34067512
8	0xbca191b5	-0.019722799
9	0x3e1a634f	0.15076946
10	0x3eb6783f	0.35638615
11	0x3ec0bd06	0.37644213
12	0x3eaa2926	0.3323452
13	0x3d9da509	0.076974936
14	0xbb580896	-0.0032964102
15	0x3ea003e4	0.31252968
16	0x3f20c33f	0.6279792
17	0xbbcbd13a	-0.00622001
18	0x3d8c5c88	0.068535864
19	0xbcd6c631	-0.026217552
20	0xbae6f263	-0.0017619844
21	0x3f1089fd	0.56460553
22	0x3c5dc463	0.013535592
23	0xbb9599da	-0.0045654597
24	0x3c879c06	0.01655389
25	0xbb213679	-0.0024599119
26	0x3e46dfa0	0.19421244
27	0x3f5d0c5f	0.86347
28	0xbbb8a749	-0.0056351763
29	0xbb9a9d72	-0.004718476
30	0xba36111e	-0.00069452997
31	0xbc188e74	-0.009311307
32	0xbbb8feb8	-0.005645599
33	0x3f14b6ab	0.5809123
34	0xbdad4b3f	-0.08461618
35	0xbbe17ea4	-0.006881552
36	0xbb8a2b91	-0.0042166193
37	0x3e408817	0.18801914
38	0xbbba350b	-0.0056825927
39	0xbc3c427c	-0.0114904605
40	0x3e4d89c6	0.20072088
41	0xbddb59c0	-0.10710478
42	0x3f4ebc3e	0.80755985
43	0x3c94d2bf	0.018166898
44	0x3e411265	0.18854673
45	0xbb888f56	-0.0041674776
46	0x3dde8254	0.10864702
47	0x3c33a21c	0.010963943
48	0xbaf58642	-0.0018732029
49	0xbe557d3b	-0.20848553
50	0xbba12d55	-0.004918734
51	0x3b6c10cf	0.003602076
52	0x3c9d8867	0.01923008
53	0x3eea210e	0.45728344
54	0x3ee9bef0	0.45653486
55	0xbcb79c60	-0.022413433
56	0x3f0058e4	0.50135636
57	0x3e34cbce	0.1765587
58	0xbaf72c35	-0.0018857779
59	0xbd85129b	-0.06497689
60	0x3f4f6912	0.810197
61	0x3c484aea	0.012224892
62	0x3e6fac92	0.23405674
63	0x3e7a974e	0.2447178

fc2.weight f4 [32, 64]
0	0x3b8a21c7	0.0042154524
1	0xbb6f7956	-0.0036540828
2	0x3aa49df7	0.0012559284
3	0x3a25b552	0.00063212693
4	0xbb2e2051	-0.0026569555
5	0xbb969a60	-0.0045960397
6	0x3ae98515	0.0017816151
7	0x3a9e4cb5	0.0012077304
8	0x3a8572c3	0.0010181296
9	0x38e0c82d	0.00010718438
10	0xbb1b5b2c	-0.0023705466
11	0x3abd5e74	0.0014447705
12	0xbbaea3c9	-0.0053295833
13	0x3aad4b21	0.0013221243
14	0x3b548aa2	0.0032431264
15	0xba30216d	-0.0006718848
16	0xba908c0f	-0.0011028069
17	0x3b382a8c	0.0028101532
18	0xbaed067b	-0.0018083596
19	0xbb3469ee	-0.002752896
20	0x3b8ef58c	0.0043627676
21	0xbb8af93b	-0.0042411364
22	0x3b0f9e2a	0.0021914341
23	0xbb79a929	-0.0038095212
24	0xba747df0	-0.00093266275
25	0x3bb2f952	0.00546185
26	0x39b5592f	0.00034589457
27	0xbbb0897c	-0.005387483
28	0x3b2003af	0.0024416258
29	0x3b2e2713	0.0026573583
30	0xba594fd2	-0.0008289787
31	0x3b7947d3	0.0038037195
32	0xb90163b7	-0.00012339545
33	0x3a00a741	0.0004907735
34	0x3aead53d	0.0017916333
35	0xba80c018	-0.0009822873
36	0x3b47b96a	0.0030475506
37	0xbb0d72b0	-0.0021583252
38	0x3aa2a20c	0.0012407913
39	0x3b5b9bc1	0.0033509585
40	0x3b6258fc	0.0034537902
41	0xbb9f7ced	-0.0048671872
42	0x37f9a162	2.9758263e-05
43	0x3b7f437b	0.0038950134
44	0xbb9f760e	-0.004866368
45	0xb953a0f3	-0.00020182486
46	0xbb2ff9c4	-0.0026851753
47	0xbbb84ee3	-0.0056246384
48	0x3a013116	0.0004928274
49	0xbb98eaa6	-0.004666644
50	0x3a339361	0.0006850269
51	0xbb575803	-0.0032858856
52	0xba5db3a7	-0.0008457251
53	0xba2ab020	-0.000651123
54	0xbb6c91aa	-0.0036097565
55	0xbb9b2bde	-0.004735454
56	0xbbc64219	-0.00605036
57	0x3ae08aeb	0.0017131245
58	0xbaaad9c2	-0.0013034868
59	0x3b93d060	0.004510924
60	0xbaa0dbe9	-0.001227257
61	0x3b60cd73	0.0034302145
62	0x3b25299a	0.0025201798
63	0xba7261ef	-0.00092461606
64	0xbb5bd559	-0.0033543913
65	0xb9f6c3c6	-0.0004706664
66	0xbb475fde	-0.0030422132
67	0xbb51f094	-0.0032034265
68	0xba296bfd	-0.000646293
69	0xb9e9bade	-0.0004458045
70	0x3a92b7e9	0.0011193726
71	0xbaf17b62	-0.0018423612
72	0xbb2aac3e	-0.0026042606
73	0x3abc076a	0.0014345471
74	0x39cd132d	0.00039114934
75	0xbb916acc	-0.00443778
76	0xbb45be0e	-0.0030173096
77	0xbb9440c0	-0.0045243204
78	0x3bae49f4	0.0053188745
79	0xb9b0677b	-0.00033646435
80	0xbbb9103e	-0.005647688
81	0xbb54f80c	-0.003249648
82	0xba3568e2	-0.0006920231
83	0x3a2f168b	0.00066790794
84	0xbb5135d5	-0.0031922956
85	0xb8f3ce33	-0.000116255505
86	0x3b998a14	0.0046856496
87	0xbb64f70d	-0.0034937293
88	0x3ae3cc4e	0.0017379613
89	0x3b1dfaac	0.002410571
90	0xbb78a4b1	-0.003793996
91	0xb97b28e2	-0.00023952455
92	0xba9adde2	-0.0011815394
93	0x3b989a7c	0.004657088
94	0xbba6359e	-0.0050723096
95	0xbb9e2088	-0.0048256554
96	0xbb0412c0	-0.0020152777
97	0xbba9e3ab	-0.005184611
98	0xbb8c39a9	-0.0042793346
99	0xbb627997	-0.0034557336
100	0xbb070e88	-0.0020608027
101	0x3b28c9cc	0.0025755046
102	0xbb3d2216	-0.0028859428
103	0xbb0c5070	-0.002141025
104	0x3b9625e4	0.0045821536
105	0xbb83743d	-0.0040116594
106	0xb870b9b6	-5.7393416e-05
107	0x3a804d2e	0.0009788626
108	0xbb959b2d	-0.0045656175
109	0x3b8ff8a4	0.004393654
110	0xba15972f	-0.0005706427
111	0xbaa0ee0a	-0.0012277972
112	0xba23a207	-0.00062421005
113	0x3babfa3d	0.0052483366
114	0xba267cc9	-0.0006350992
115	0x3b0da4b5	0.0021613066
116	0xb934d094	-0.00017243839
117	0xbb7bb800	-0.0038409233
118	0x399482c4	0.00028326188
119	0x3b0acd9c	0.0021179682
120	0xbb02e0b2	-0.0019970355
121	0xbac9c60e	-0.0015394108
122	0xba157294	-0.00057009724
123	0xbb167669	-0.0022958762
124	0x3a372143	0.00069858524
125	0xbadb3620	-0.0016724505
126	0xba7d6255	-0.00096658367
127	0xb8f1f1b8	-0.00011536799
128	0x3b4ec146	0.0031548305
129	0xbb7d0fe1	-0.00386142
130	0x3a2555d5	0.00063070405
131	0x3a53a81d	0.0008074062
132	0xb839156d	-4.412739e-05
133	0xbb8e7868	-0.0043478496
134	0x3b50519c	0.0031786924
135	0x3a8e0159	0.0010834142
136	0x3b0d9386	0.0021602823
137	0xbbc2991f	-0.0059386636
138	0x3b8c76d6	0.0042866273
139	0xba901906	-0.0010993786
140	0x3b2f2213	0.002672319
141	0x3b976fd9	0.0046214876
142	0x38e8ad31	0.000110948815
143	0x39959b09	0.00028535005
144	0x3b4e2bfd	0.0031459325
145	0xbb0424e9	-0.0020163602
146	0x3a9fc642	0.0012189823
147	0x3b283d7e	0.0025671418
148	0xb934b986	-0.0001723525
149	0xbbc50880	-0.006012976
150	0xbb9cc581	-0.0047842865
151	0xbb815e18	-0.0039479844
152	0xbb8dc928	-0.004326958
153	0xbab26dbb	-0.0013613024
154	0x3b0a0981	0.0021062794
155	0xba04fe50	-0.0005073296
156	0x3aea724a	0.0017886844
157	0x3ac46aa2	0.0014985392
158	0x3ab1c22a	0.0013561894
159	0xba6567b0	-0.00087511074
160	0xbb2e8bf0	-0.0026633702
161	0xbc0018c6	-0.007818406
162	0xbb040c83	-0.002014906
163	0x3a07d501	0.00051815814
164	0xbb6a54a3	-0.0035756014
165	0xbbc67937	-0.0060569304
166	0xbb75d5c0	-0.0037511438
167	0xbb890ab6	-0.004182185
168	0x3a95da84	0.0011432921
169	0x3b6004d1	0.0034182558
170	0xbb8b8dc5	-0.0042588436
171	0x3b8c9252	0.0042899037
172	0xba66a323	-0.0008798113
173	0xbb7a409b	-0.003818548
174	0xbb037d2c	-0.0020063622
175	0xba644665	-0.00087079994
176	0xbb17bab7	-0.0023152062
177	0xba783d3e	-0.0009469575
178	0xbaf1f9c6	-0.0018461279
179	0x3b6fc9fa	0.0036588893
180	0x3af9899c	0.0019038203
181	0x3a3ad1d5	0.00071266043
182	0xbb2e0de3	-0.002655857
183	0xbac1d1d4	-0.0014787265
184	0xbb0c8985	-0.0021444273
185	0x3b966fe5	0.0045909756
186	0xba3f8c8e	-0.0007307016
187	0x3b5e3365	0.0033905145
188	0x3a4a437e	0.00077157456
189	0xbb82f943	-0.0039969995
190	0xbb5830d1	-0.0032988081
191	0xbb9a65e2	-0.0047118524
192	0xbe4c5197	-0.19952999
193	0xbc00d836	-0.007864049
194	0xbc096009	-0.008384713
195	0xbcf8dcfa	-0.030378807
196	0xbb5b59e1	-0.003347032
197	0xbd847cef	-0.06469142
198	0xbd63771c	-0.055533513
199	0xbd9cb93a	-0.07652517
200	0xbd4e076c	-0.050300047
201	0xbdb77cad	-0.08959327
202	0xbd7e80ef	-0.06213468
203	0x3e13db8f	0.14439224
204	0xbe277cf2	-0.16356257
205	0xbd1798bb	-0.03701089
206	0x3b74f437	0.0037377009
207	0xbd900e1e	-0.07033943
208	0xbe1617cc	-0.14657515
209	0xbccef59f	-0.025263606
210	0x3d048ae2	0.03235901
211	0xbc80574b	-0.015666625
212	0xba343772	-0.0006874717
213	0xbd6a8554	-0.057256058
214	0xbc03975b	-0.008031691
215	0x3905e61d	0.00012769592
216	0xbbfe7f45	-0.0077666366
217	0xbb3fd10f	-0.0029268896
218	0xbdae929b	-0.085240565
219	0x3e273f84	0.16332823
220	0x3b3b98d7	0.0028625035
221	0xbb4718e8	-0.0030379836
222	0xba6208c9	-0.0008622525
223	0xbbc3e583	-0.0059782877
224	0xbb75f417	-0.0037529522
225	0xba8dbe7c	-0.0010814215
226	0xbc9f2715	-0.019427815
227	0xbbe4c6bc	-0.006981699
228	0xbb837b07	-0.0040124687
229	0xbd777845	-0.060417432
230	0xbbb65816	-0.0055647
231	0xbb8d9706	-0.004320982
232	0xbe4d4885	-0.20047195
233	0xbd389914	-0.04506786
234	0xbd0e9512	-0.034810133
235	0xbded059b	-0.11573335
236	0xbd8082bf	-0.06274938
237	0x3b872504	0.0041242857
238	0xbd33895c	-0.043832168
239	0x3afeb619	0.0019432931
240	0xba192628	-0.00058421725
241	0x3c176907	0.009241349
242	0x3d19f0d4	0.037583187
243	0xbdd73d8f	-0.10509788
244	0xbb1b5a6a	-0.0023705014
245	0x3de8deaf	0.113705985
246	0x3ebd5010	0.36975145
247	0xbc3ac405	-0.011399274
248	0xbe824d16	-0.25449437
249	0xbdd18a13	-0.10231414
250	0x3b851a56	0.0040619774
251	0xbb82a86a	-0.0039873617
252	0xbe480e9a	-0.1953682
253	0xbc038656	-0.008027634
254	0x3d438d38	0.0477421
255	0x3d00cfd4	0.0314482

fc2.bias f4 [32]
0	0xbbe6b7ac	-0.0070409384
1	0xbbc4d738	-0.0060071014
2	0xbbd015c4	-0.006350251
3	0x3e7f2e68	0.24920046
4	0xbb9d3fca	-0.004798864
5	0xbe0466b1	-0.12929799
6	0x3ee27d96	0.4423644
7	0x3e9aec1e	0.30258268
8	0x3e8e654c	0.27811658
9	0x3e761d23	0.24034552
10	0xbbba8ddb	-0.00569318
11	0x3e1198ad	0.14218397
12	0xbeab8fab	-0.33508047
13	0x3e3b650e	0.18300268
14	0x3e0f301d	0.13983198
15	0xbc1d3e30	-0.009597346
16	0xbcf44a05	-0.029820452
17	0xbbb2ac56	-0.005452673
18	0x3f299486	0.66242254
19	0x3ea9677d	0.33086768
20	0x3e55c406	0.20875558
21	0x3e9a3b13	0.30123195
22	0x3e1bf923	0.15231757
23	0x3eca2532	0.39481503
24	0x3d3d0dd8	0.04615578
25	0xbc348138	-0.011017136
26	0x3e80f83c	0.25189388
27	0x3c720f16	0.014774105
28	0x3e965ef9	0.29369333
29	0x3ece8022	0.40332133
30	0x3e63614b	0.22205083
31	0xbbaa26e5	-0.005192625

fc3.weight f4 [5, 32]
0	0xbb0e8a23	-0.0021749816
1	0x3b136881	0.002249271
2	0x3b3dd9f9	0.0028969033
3	0xbe821333	-0.25405273
4	0x3aaa5847	0.0012996279
5	0x3da2a64c	0.07941875
6	0xbf98aef9	-1.1928397
7	0xbf19ef2b	-0.60130566
8	0x3d08f0c6	0.033432744
9	0x3c96a6e1	0.018390121
10	0xbacb96f6	-0.0015532661
11	0xbe9988fc	-0.29987323
12	0x3f565b29	0.8373285
13	0xbf0629fc	-0.52407813
14	0x3e5d876f	0.21633695
15	0xbf1979d5	-0.59951526
16	0x3ec5b35b	0.386134
17	0xbc2ebed1	-0.010665611
18	0xbe5c3b73	-0.21507053
19	0xbf2eb08b	-0.68238133
20	0xbe90137f	-0.28139874
21	0xbf02aea1	-0.5104771
22	0x3eb8c070	0.36084318
23	0xbea3539c	-0.31899726
24	0x3e6a1500	0.22859573
25	0xbaf9c956	-0.0019057195
26	0xbc3bf60a	-0.0114722345
27	0xbe5ba163	-0.21448283
28	0x3ef997ef	0.4874873
29	0x3db4d47a	0.08829589
30	0x3f1b2757	0.606069
31	0xbb28df88	-0.0025768
32	0xba3a0ea8	-0.0007097521
33	0xbb026479	-0.0019896312
34	0x3ba88856	0.0051432056
35	0x3cac3993	0.021023547
36	0xb9d4e463	-0.00040605952
37	0xbe848046	-0.25879115
38	0x3e98514c	0.29749525
39	0x3eaf0e2b	0.34190497
40	0xbe07370d	-0.13204594
41	0x3da26d68	0.07931024
42	0xbbb364ed	-0.005474678
43	0x3d842594	0.0645248
44	0xbe1f8255	-0.15577061
45	0x3f000763	0.5001127
46	0x3d3189d0	0.04334432
47	0xbe46841c	-0.19386333
48	0x3d7514cd	0.05983429
49	0x3b62c200	0.0034600496
50	0xbc65f32b	-0.014035027
51	0x3eab78f2	0.3349071
52	0xbea6c1fd	-0.32569876
53	0x3de153ce	0.110023126
54	0x3e026a0c	0.12735766
55	0xbebc9346	-0.3683111
56	0x3dfe08a3	0.12403991
57	0x3b386694	0.0028137313
58	0x3c93099a	0.017948914
59	0x3ddd07d9	0.107925124
60	0x3d75a576	0.05997225
61	0xbe5dc4d2	-0.21657112
62	0xbed38458	-0.41311908
63	0xba398277	-0.0007076631
64	0xbbb56b64	-0.0055364836
65	0x3b423600	0.0029634237
66	0xbb94579d	-0.004527046
67	0x3eb72119	0.3576744
68	0x3b97f57d	0.004637419
69	0xbdd87188	-0.10568529
70	0x3e12899b	0.14310305
71	0xbd98f83a	-0.074692205
72	0x3e801d64	0.25022423
73	0x3e894cf1	0.26816514
74	0xbb3e1823	-0.0029006086
75	0x3e2986c9	0.16555323
76	0xbe7ad2cc	-0.24494475
77	0xbd9fac1b	-0.077964984
78	0x3df67190	0.12033379
79	0x3ef2301d	0.47302333
80	0xbebc4a2c	-0.3677534
81	0xbb45e77a	-0.0030197785
82	0x3f02dbe4	0.51116776
83	0x3e8b1cc2	0.27170378
84	0x3e96c0d3	0.29443988
85	0x3e425a2e	0.18979713
86	0x3d67bf51	0.056578938
87	0x3eed9610	0.4640355
88	0xbf226fa9	-0.6345163
89	0xbbe7da89	-0.007075612
90	0xbc8200eb	-0.015869578
91	0x3cde8503	0.027163034
92	0x3df5ca6c	0.120014995
93	0x3e73d76c	0.23812646
94	0x3eac4ead	0.33653775
95	0x3bbd3d36	0.005775119
96	0x3baf6a41	0.0053532426
97	0x3b914700	0.0044335127
98	0x3bbb698c	0.0057193693
99	0xbe2453ed	-0.1604764
100	0xbb2b2d8c	-0.0026119677
101	0xbead0c39	-0.33798388
102	0x3f043f76	0.51659334
103	0x3f0f33ba	0.55938303
104	0xbc983a57	-0.018582506
105	0xbe16382f	-0.1466987
106	0x3b89ec6c	0.004209092
107	0xbdbabd9b	-0.091181956
108	0xbf074921	-0.5284596
109	0xbe57858f	-0.21047042
110	0xbdf81756	-0.12113826
111	0xbe853997	-0.260205
112	0x3ed67bd7	0.41891357
113	0xbb821a29	-0.0039704037
114	0xbdc1f970	-0.094714046
115	0x3e80886a	0.25104076
116	0x3df2f12e	0.118624076
117	0x3ea7e7a3	0.32793912
118	0x3e1282ce	0.1430771
119	0xbdf75958	-0.12077588
120	0x3ef67d9c	0.48142707
121	0x3b36f1cb	0.0027915116
122	0x3edfa7bd	0.43682662
123	0xbea564ca	-0.32303458
124	0x3e0c9704	0.13729483
125	0x3e8d10c5	0.27551857
126	0xbf003c59	-0.50092083
127	0x3b034f8c	0.0020036427
128	0x39e1f1af	0.00043095413
129	0x3b1e5bbb	0.0024163562
130	0xba14469c	-0.00056562736
131	0x3d09fdf1	0.033689443
132	0xba4f06ad	-0.0007897418
133	0x3f2034d2	0.625806
134	0x3e75b29b	0.23993914
135	0xbe6f3b25	-0.23362406
136	0xbe052cbd	-0.13005348
137	0xbe6a9bd6	-0.22911009
138	0x3bd92b63	0.0066274866
139	0x3e1ad6e4	0.15121037
140	0x3dcb77e7	0.09934979
141	0x3e9be0e8	0.30445027
142	0xbe8ab5c2	-0.27091795
143	0x3f130b19	0.5743881
144	0xbefc56a8	-0.49284863
145	0xbc06b4a4	-0.008221779
146	0xbe468714	-0.19387466
147	0xbe337b85	-0.17527588
148	0x3e45d265	0.1931854
149	0xbdff0469	-0.12452013
150	0xbf31d0e0	-0.6945934
151	0x3eb2603f	0.34839055
152	0xbe48e6e9	-0.19619335
153	0x3b1a93c4	0.002358661
154	0xbedd42ba	-0.4321497
155	0x3ec956f6	0.39324158
156	0xbf4e48c8	-0.80579805
157	0xbec37b29	-0.381799
158	0xbd215b94	-0.039393976
159	0x3bf4f1eb	0.007475128

fc3.bias f4 [5]
0	0xbf1a312b	-0.60231274
1	0x3f266880	0.65003204
2	0xbe190945	-0.14944942
3	0x3d9cc241	0.076542385
4	0x3ce06718	0.027392909
