Assignment_1/1/Max_Pooling_New/Models/without/model-7.pth (torch_old, 882591 bytes, 10 tensors)

conv1.weight f4 [64, 3, 5, 5]
00000000: 6a20 263d 4a54 9b3d 13a1 4d3d 1bb2 213d
00000010: 53f8 b63d 35bc a93c 72f4 1b3d f8c2 843c
00000020: ecc3 13bc 093f 693d 137d 07bd 7881 c7bb
00000030: 8b0a adbc 4cec 19bd a440 2f3d 7606 9dbd
00000040: b1be ebbc 559e 1ebd b190 f2bc d4e4 8d3d
00000050: 46a8 cfbd a555 67bd 5610 f6bc 9d1c 6d3a
00000060: 2f95 ca3d 224a d3bd d0d4 0e3c 37f0 813d
00000070: 7fff d03d 7e59 1c3e 0ddc 10be 6366 cfbc
00000080: 74e0 a73c 5253 a73d f3ad 2c3e 2e1a 4ebe
00000090: efe2 9abd 86a7 003c cc41 aa3d 1905 423e
000000a0: 8a5e 7bbe ecac f9bd cdb6 49bc 0374 bc3d
000000b0: b47f 603e 793a 82be d7c9 12be e3e8 f8bc
000000c0: 35c5 b73d d465 6a3e fdd1 6dbe f451 84bd
000000d0: d89e 923d e002 273e 01fc 8c3e cebf 72be
000000e0: 158b 56bd a50d a83d 5169 573e 956a aa3e
000000f0: 0e9c 76be 9b95 59bd a330 d43d c487 843e
00000100: 70f2 cb3e cb61 81be 1fb8 85bd 2aae 093e
00000110: 6d62 923e 2d7f e53e 852a 81be 7073 6abd
00000120: 5d42 1d3e 20fa a93e 730d f63e ea41 d53c
00000130: 2f3b e43d 1ee1 363e 4bb5 453e 24da 043e
00000140: 21a1 923e a29b ab3e 2fc1 663e 96ba 7d3d
00000150: 2786 31bc e4bc aa3e 10c9 a93e a1ef 133e
00000160: c061 61bd 7dfd b2bd 1df1 153e ec71 c83d
00000170: 25e9 1f3a 6fed 38bd 6932 b3bb 23f8 0fbe
00000180: daed 43be 2736 dfbd 0923 2b3d 2b50 133e
00000190: 0eb0 68bd d908 63bd 9ff0 fcbc 3184 71bd
000001a0: fc12 02be 41df 273e 0e05 153e 525d a5bb
000001b0: fec6 57be 16e8 9ebe 1126 883e a846 1b3e
000001c0: 702f bfbd d97d 9ebe ef84 c9be 541e 153e
000001d0: 3b42 003b ef6a 21be 385f 90be 688d 8ebe
000001e0: 68de 53bd 7876 33be 9671 47be ff15 f7bd
000001f0: 9430 9abd 32ab 143e cf1f 9c3d 6c88 523c
00000200: c61f 30bd aae2 cebd 4dfa a73e 1ebd 733e
00000210: e398 013d aca2 31be 5b07 83be 935f d13e
00000220: 2a00 873e 34f5 46bc 221e 7cbe d3fc 9abe
00000230: 0fed aa3e 4ff8 2a3e 1e80 07bd 361a 2dbe
00000240: 7d1a 29be 7e6d 3e3e a94e 483d 1a9d ea3b
00000250: 9db1 163d ad48 913d 26d5 b93d ff91 153e
00000260: 0d87 033e 71de 793d 0e97 3ebd 9b97 a43d
00000270: 721f fe3d ea9a f93d 1bf3 763d 1652 b8bc
00000280: ad7b fcbb aecc e3bb 90fe a43b 6a74 4d3b
00000290: 39eb babc 6676 e6bd 4161 29be e667 0cbe
000002a0: ea2c a5bd 0c89 a3bc b694 34be c6c9 79be
000002b0: d0c7 66be c988 11be f6c8 63bd 63e2 523e
000002c0: a4e1 873e 1027 733e a473 233e 4076 403d
000002d0: 5d30 473e d8c3 803e b5f0 7f3e 6814 363e
000002e0: 7740 913d 6afe e73d 5446 dd3d 6969 013e
000002f0: c829 0e3e 3610 d53d e543 dd3a 7a0f 3abd
00000300: a68e 83bc f49d 703d c7ac f13d 183e 82bd
00000310: e9c9 18be 3b2a e8bd 4c0a ecbc 1883 943d
00000320: a1f6 b83b c91b 063d 217d 0b3d b48b 7dbc
00000330: c0be 42bd 315e 0e3c e4e0 1e3d 30cf 003d
00000340: 6aaa d83b 37e7 e1bc 3cb2 69bd c880 64bd
00000350: 84c2 06bd 4089 79bc 5853 ae3b 037a dfbd
00000360: d1fb 2dbe 67aa 0fbe 8b6c 3cbd 4a65 e33c
00000370: 98b7 fcbd 7879 5cbe bd29 43be c454 bcbd
00000380: 21d6 033d 0b46 bcbe 6977 b0be 11f3 b5be
00000390: 18b7 b8be e229 bfbe b690 93be d6ca 6cbe
000003a0: 7cd6 62be 2e7d 88be ac3f 9bbe 2799 e2bd
000003b0: 2a19 0ebd d3df 033c ada0 2cbd 4180 fabd
000003c0: 25df 853d a86b 1d3e 9659 673e 609c 413e
000003d0: 53e0 d33d d3e7 2c3e 369b 733e ae3f 993e
000003e0: 8414 903e 6297 673e 929f 1e3d 751b 8a3d
000003f0: 398b a53d f26e 403d 616c a93c 736b 9c3b
0.040558256 0.07584436 0.05020244 0.039476495 0.08934083 0.020719627 0.038074918 0.01620625
-0.009018879 0.05694488 -0.033078264 -0.006088432 -0.021123191 -0.037578866 0.042786255 -0.07667248
-0.028777452 -0.038725216 -0.02961001 0.06928411 -0.101395175 -0.05647816 -0.030037086 0.0009045096
0.09891736 -0.10316874 0.008717731 0.063446455 0.10204982 0.15268514 -0.14146443 -0.025317376
0.02049277 0.08170189 0.16863231 -0.20127174 -0.075628154 0.007852441 0.08313331 0.18947257
-0.24547783 -0.12191185 -0.0123116495 0.09201815 0.21923715 -0.25435236 -0.14334808 -0.030384487
0.08973161 0.22890407 -0.23224635 -0.06460944 0.07159203 0.1630969 0.27536014 -0.2370598
-0.052378733 0.082057275 0.21036269 0.3328444 -0.24082968 -0.05312119 0.10360839 0.2588483
0.39833403 -0.25269923 -0.06529259 0.13445345 0.28590718 0.4482359 -0.25227752 -0.057238996
0.15357347 0.33198643 0.48057136 0.026032407 0.11144101 0.17859313 0.19307439 0.12973839
0.28638557 0.33517176 0.22534631 0.06194552 -0.010835207 0.33347237 0.3316121 0.1444688
-0.055024862 -0.08739755 0.14642759 0.09787354 0.000610011 -0.04514831 -0.005468656 -0.140595
-0.19133702 -0.108990006 0.04178146 0.1438605 -0.056808524 -0.05542836 -0.030876456 -0.05896396
-0.12702554 0.16393758 0.1455271 -0.005046525 -0.21072003 -0.31036443 0.26591542 0.15163672
-0.0933522 -0.3095539 -0.39359233 0.1456235 0.0019570726 -0.15763448 -0.28197646 -0.2784226
-0.051725775 -0.17525661 -0.19476923 -0.12064742 -0.07528797 0.14518431 0.076232545 0.012849908
-0.04299905 -0.101018265 0.32808152 0.23802611 0.031639945 -0.1734721 -0.2559155 0.4089323
0.26367313 -0.012143422 -0.2462087 -0.30271015 0.33383986 0.16696285 -0.033081166 -0.1690453
-0.1651401 0.18596455 0.04890314 0.0071598412 0.03679048 0.0709394 0.09073858 0.14606474
0.12844487 0.061003152 -0.046530776 0.08036729 0.124083415 0.12187751 0.060290437 -0.02250008
-0.007705173 -0.00695189 0.005035229 0.0031349906 -0.022817241 -0.112530515 -0.16541006 -0.13711509
-0.08065207 -0.01996281 -0.17634854 -0.24393377 -0.2253716 -0.14212336 -0.055611573 0.20594172
0.26539338 0.2374537 0.15962082 0.046987772 0.19452043 0.25149417 0.24994166 0.17781222
0.07092374 0.113278225 0.1080443 0.12637867 0.13883126 0.104034826 0.0016881196 -0.045424916
-0.016059231 0.058744386 0.11800533 -0.063595 -0.14920773 -0.1133618 -0.028813504 0.07251567
0.005644635 0.03274134 0.03405488 -0.015475202 -0.047545195 0.008689449 0.03878869 0.03144759
0.006612112 -0.027576072 -0.057054743 -0.055786878 -0.03290035 -0.015230477 0.005319994 -0.10911944
-0.16990592 -0.14029847 -0.046001952 0.02775826 -0.12339705 -0.21530712 -0.1905889 -0.09195855
0.03218663 -0.3677219 -0.34466103 -0.35537007 -0.3607719 -0.37336642 -0.28821343 -0.23124251
-0.22152132 -0.26658005 -0.30322015 -0.11064368 -0.034691967 0.008048969 -0.04214542 -0.12231494
0.06536702 0.15373099 0.22592768 0.18907309 0.10345521 0.16885309 0.23789677 0.29931396
0.28140652 0.22616342 0.038726397 0.06743518 0.08083195 0.046980806 0.020681562 0.004773551

conv1.bias f4 [64]
00000000: 3f30 fcbe 4dc5 51be 3e6f e5be d922 2fbe
00000010: 528e 4fbc 43ca 11be a56a f1bd d03a e2be
00000020: 6867 b8be d9c5 4fbe b92e e83d e22c 1cbb
00000030: 3914 b03e ab6a 6dbe d11a 6cbe 0737 84bf
00000040: 5097 c8be aac7 71bf d220 b8be ad42 8dbe
00000050: da23 a2be f8c6 70be 52d6 29bd b04a 18be
00000060: 4278 eabe b1fa 0cbf e710 18be 6461 6cbe
00000070: 853a 82bf 1170 9cbd db09 8ebc 412c 01bf
00000080: bef4 2bbe 9b59 c4be e075 13be 685b 1dbf
00000090: 35ce 013e 42cb 0ebf 9757 c5be 65a7 7e3e
000000a0: 7319 aabe 7620 a5be 69dc 82be 42fd a5be
000000b0: f757 2f3e 2c68 01bf fed9 8dbf ae84 c9bd
000000c0: 81d6 a4bf 4343 9cbe cee8 debd 52b7 673e
000000d0: 04c5 5fbf f4d1 883e 005e c2bc c704 5dbf
000000e0: c737 34be ad9d 6dbe 4f6f 40bd 247c 4bbe
000000f0: 45a8 bbbf c687 3abf 1734 29bf cb84 09be
-0.4925556 -0.2048542 -0.44811434 -0.17103137 -0.012668209 -0.14237313 -0.11787919 -0.44185495
-0.36016393 -0.20290317 0.11337037 -0.0023830463 0.3439043 -0.23185222 -0.23057105 -1.0329293
-0.39177942 -0.9444529 -0.3596254 -0.27589932 -0.31667978 -0.235134 -0.041464157 -0.14872241
-0.45794874 -0.55070025 -0.14850198 -0.23084027 -1.0174109 -0.076385625 -0.017338684 -0.5045815
-0.1679258 -0.38349614 -0.14400434 -0.614676 0.12676318 -0.55778897 -0.38543388 0.24868543
-0.3322254 -0.32251328 -0.25558785 -0.32419783 0.171234 -0.5054958 -1.1082151 -0.0983976
-1.2877961 -0.30520067 -0.10884248 0.22628525 -0.87409997 0.26722682 -0.023726463 -0.86335415
-0.17599402 -0.2320468 -0.046981152 -0.19871575 -1.4660727 -0.72863424 -0.6609511 -0.13429563

conv2.weight f4 [128, 64, 5, 5]
00000000: ff21 e6bc 2df2 9bbc 51d9 5fbc aade 4fbc
00000010: 858b b0bc 8d42 d6bc d703 95bc dcc7 82bc
00000020: 1508 5ebc b40a 89bc 4f18 e3bc 63e5 9abc
00000030: 3bf8 80bc 525a 50bc f463 89bc 9bb8 d5bc
00000040: 8e93 a6bc 93ae 78bc ca0d 44bc d2e2 93bc
00000050: 87b4 eabc 9588 9dbc 4545 8cbc d5fd 92bc
00000060: edf7 babc d17a d83c 00ca a73c b866 703c
00000070: f409 793c 209f c03c 479e c33c d255 7a3c
00000080: 19cd 393c 2a5b 273c 64c5 8b3c b5c0 a53c
00000090: 178a 4f3c bc6b cd3b c4af 763b c856 7a3c
000000a0: 64e7 ac3c 311d 703c e5b6 d63b 981f ee3b
000000b0: 4f7a 713c f269 d13c dfce c73c ab31 9e3c
000000c0: bf25 913c fad9 ad3c a76f c4bc 7552 c3bc
000000d0: c351 bdbc 55db aabc a100 98bc ab5d dfbc
000000e0: 27fd d5bc 10c8 bbbc a0e3 94bc 2286 79bc
000000f0: a14a e4bc 8566 d3bc 8182 a7bc 83f1 8fbc
00000100: eed8 51bc 3fc7 fcbc 43ae cdbc 954f b3bc
00000110: 7c6b 5abc 422f 18bc 83e0 ccbc e52d bdbc
00000120: 95d7 9abc 6387 32bc 13e6 25bb adad bebc
00000130: ef18 afbc 2353 5fbc a74e 29bc dce7 24bb
00000140: 09e1 efbc d251 d9bc 69fc a8bc f03b 69bc
00000150: b847 21bc 7750 05bd 10c8 01bd 0b59 c4bc
00000160: a929 a6bc b10f 8bbc 7837 fdbc 0733 ffbc
00000170: 3923 e5bc 5a5f e7bc 780c d0bc 132f e7bc
00000180: 0206 06bd d43b 02bd 03eb 12bd f5c4 0fbd
00000190: 7b1c 58bc b551 bdbc 6bdf bcbc 3bf1 aebc
000001a0: 0571 86bc 4740 2abb 95f6 65bc 6902 9abc
000001b0: 81fd 6ebc 0881 0bbc 08a8 c43a e838 0bbc
000001c0: 73aa 5ebc 68e9 3cbc c2dc 9cbb 9022 9a3b
000001d0: 8e0d 81ba 4f02 08bc 7a82 c2bb 7cff bf3a
000001e0: aa73 3a3c 1dfc 973b e1ef dd3a d3be 6e3b
000001f0: 65de 183c d772 e43b f2b7 203c 5bf3 333c
00000200: 2a26 833c 074f 013d 3fe4 163b a258 4e3b
00000210: 945c d73b 94c5 803c 72c2 013d 464e 903b
00000220: 404b a23b e8d7 e43b 7137 9b3c dc76 003d
00000230: 6eec e03b ec79 033c 5493 483c 6bb5 b63c
00000240: bdb8 223d 52ff 363c 1be1 833c 5331 c83c
00000250: 5acb 103d 8b80 4d3d e118 77bb 52ce aabb
00000260: c40a b9bb d23b e5ba af44 2d3a e260 6bbc
00000270: cf4a 50bc 1b30 4bbc 4280 11bc 79ff afbb
00000280: 9781 7abc b5c3 95bc deee 75bc 32ac 51bc
00000290: b8c7 47bc cec7 6bbc 4f09 88bc 186b 69bc
000002a0: 7d0c 6ebc 065d 85bc 7aec 11bc 13e8 5bbc
000002b0: 7a94 81bc c2be abbc 7688 bcbc fd6d 95bc
000002c0: c738 b5bc 1f96 adbc 26ee 90bc bd0b 38bc
000002d0: bd3d 8abc e276 a1bc 6b1b afbc 4ebd 74bc
000002e0: 2cbb c8bb 7329 a9bc 5570 b1bc 0172 82bc
000002f0: 7eda 2bbc c560 caba 24a4 7ebc 1ffc 7dbc
00000300: 05ae 2ebc d7ec 17bb 75ce f33b 77f9 11bc
00000310: 317c 0fbc 2abe 45bb e550 083c 5575 483c
00000320: 3d2d b8bb e134 7abc e4ec 92bc f169 86bc
00000330: 8abf 47bc f54f a3bb f8bf 7fbc b76b aebc
00000340: 8135 9dbc 7849 7dbc 224f fabb 285c aabc
00000350: 3fc7 c3bc c761 a5bc c7f7 88bc 50cc 0fbc
00000360: 7c2f a3bc 974d dfbc d525 c1bc 151d aebc
00000370: a19f bfbb 9571 99bc 40a4 efbc bf85 dfbc
00000380: 33cc d7bc 5dc1 c9bc 8e51 c0bc 29a3 8bbc
00000390: c336 30bc ad81 9c3a e765 05bd d2e1 e7bc
000003a0: 00d0 c5bc 5b8d 87bc a765 04bc 5fa1 15bd
000003b0: 87ee 12bd 0b6f e1bc d2b1 b5bc 15bb 91bc
000003c0: 58b0 0cbd ae34 febc 22d2 f9bc 4274 d4bc
000003d0: 72e6 c0bc 9643 e4bc 5cea 00bd 7e18 00bd
000003e0: d53b 0fbd 9a47 0cbd f6fc 31bd e430 32bd
000003f0: e7c0 43bd b42d 55bd 42cb 93bd e1dd 1fbd
-0.028092382 -0.019036377 -0.013662652 -0.012687365 -0.021550903 -0.02615478 -0.018190308 -0.015964441
-0.013551732 -0.016728736 -0.027721552 -0.018908208 -0.015743366 -0.012716847 -0.016771294 -0.026089003
-0.020334031 -0.0151783405 -0.011966178 -0.018052492 -0.028650535 -0.019230166 -0.017122874 -0.017943302
-0.022823298 0.02642575 0.020482063 0.014672928 0.015200127 0.023513377 0.023879183 0.01527925
0.011340403 0.010214606 0.017061897 0.020233491 0.0126672005 0.0062689465 0.0037641386 0.015279479
0.02110643 0.014655397 0.0065525644 0.00726695 0.014738633 0.025563214 0.024390636 0.019310793
0.017718194 0.021222103 -0.023979021 -0.02384303 -0.023110276 -0.020856539 -0.018554987 -0.027266344
-0.026121689 -0.022922546 -0.018174946 -0.015229734 -0.027867617 -0.025805721 -0.020447971 -0.017571216
-0.012808068 -0.030856727 -0.025107509 -0.021888534 -0.01333129 -0.009288611 -0.0250094 -0.023093173
-0.018901626 -0.0108965365 -0.0025314137 -0.023276174 -0.021374194 -0.013630661 -0.010333694 -0.0025162613
-0.02928211 -0.026528273 -0.020628171 -0.014235482 -0.009843759 -0.03254744 -0.031684935 -0.02396824
-0.020283537 -0.016975256 -0.030910239 -0.031152261 -0.027970897 -0.02824371 -0.02539657 -0.028220689
-0.032720573 -0.031795338 -0.035868656 -0.035099942 -0.013190384 -0.02311025 -0.023055753 -0.021355262
-0.016411314 -0.0025978254 -0.0140358405 -0.018799977 -0.014586807 -0.00851465 0.001500369 -0.008497454
-0.013590443 -0.011530258 -0.0047870586 0.004703827 -0.0009845959 -0.008301332 -0.005935964 0.0014648284
0.0113801155 0.0046382085 0.0016932451 0.0036429658 0.009330367 0.006971698 0.009809481 0.010983313
0.016009409 0.031569507 0.002302423 0.0031485935 0.0065723155 0.015719213 0.031679578 0.004403862
0.004952818 0.006983746 0.018947335 0.031363353 0.006864122 0.008024674 0.012242157 0.022303304
0.03972696 0.011169272 0.01609855 0.024437582 0.03535018 0.050171416 -0.0037704038 -0.0052125836
-0.0056470353 -0.0017489141 0.0006609661 -0.01436636 -0.012713148 -0.012401606 -0.008880677 -0.005371031
-0.015289686 -0.018281797 -0.015010564 -0.012797402 -0.012193613 -0.014390899 -0.016606001 -0.014246725
-0.014529345 -0.016279709 -0.008906478 -0.01342203 -0.01581787 -0.020964984 -0.023014288 -0.018240923
-0.0221218 -0.021189747 -0.017691683 -0.011233267 -0.016875142 -0.019710008 -0.021375379 -0.014937712
-0.0061258283 -0.020649647 -0.02166001 -0.015923502 -0.010489104 -0.0015440217 -0.015542064 -0.015502005
-0.010661607 -0.002318194 0.007440383 -0.008909575 -0.008757637 -0.003017316 0.008320068 0.012235005
-0.005620627 -0.015271396 -0.017935224 -0.016407939 -0.012191663 -0.004983897 -0.015609734 -0.021291597
-0.019190552 -0.015459411 -0.007638828 -0.020795897 -0.023898719 -0.020188225 -0.016719712 -0.008776739
-0.019920103 -0.027258677 -0.02357761 -0.021254102 -0.0058478867 -0.018730918 -0.029253125 -0.027285455
-0.026342487 -0.024628336 -0.023476388 -0.017045574 -0.010755244 0.0011940502 -0.032567885 -0.028305922
-0.024147034 -0.016546896 -0.008080876 -0.03653085 -0.03587201 -0.02751877 -0.022179518 -0.017789403
-0.034347862 -0.031030979 -0.030495707 -0.025934342 -0.023547385 -0.027864259 -0.031473503 -0.031273358
-0.03496917 -0.034247972 -0.043454133 -0.043503657 -0.047791388 -0.05204554 -0.07216503 -0.03902996

conv2.bias f4 [128]
00000000: 0d3c 9abd ad4c 533e 07d9 0f3d 7fb3 87bd
00000010: 5e9d db3c 4110 653d 50ee ac3d 225d a3be
00000020: a5b3 03bd 282e c23c 4017 f236 9dd4 74bd
00000030: 2727 953d 32cd d03e f162 953e c423 cd3c
00000040: ef82 b7bd 1927 7f3e d618 4bbd 5a54 903f
00000050: 8ad0 3dbc b2ed 9fbe 9f6e 883c e16a 3c3c
00000060: 20bf 1d3d 54a1 0e3c 7409 99bd 770c 543b
00000070: 573e a33e ac46 94bd 3d2d 8ebe f563 62bc
00000080: ba7f a83c 3939 873d a117 ae3c 7bba 8d3c
00000090: 85ea 763c 89f6 91bc 6b74 cdbd b104 3dbe
000000a0: 8ea2 fabd 3f09 f33b d08d 30bf 9f6a 653d
000000b0: 8c95 b4bd 37d8 053d a662 05bd 1c59 cf3d
000000c0: 6c0b 01bd 588c c8bd 978d c9bd 35b6 91bd
000000d0: 623e 7dbc c910 623c 8f42 abbd 9028 b6bc
000000e0: cecc 223e 3000 8dbd 368d 503b 4bfb 8cbe
000000f0: 2ead b53b 8f8a 0e3c 119d 6bbe 0e8e 143d
00000100: 152f a93e e70f 5cbe 56c2 6cbd 0c82 f73c
00000110: bbe7 2abd ee84 b83c 6a5c 44bc 1901 56bf
00000120: 398b 7dbd fa49 81bc ecf2 023d d1c4 b5bd
00000130: 107e 533d c12f 18bb 900a c0ba 9563 9b3c
00000140: 00e6 29bb 4fb2 b03c e66c de3c dfa0 80be
00000150: 80b4 babd 45a3 10bd e04a 843e 4dfa fc3d
00000160: e789 a3bb c6ed ed3a 2429 cf3d 2de7 95ba
00000170: 595a 8dbe a83f 0b3b cb2c a4bd 0470 e1bc
00000180: 2c9c 213d 1629 99bc db8e 40be 450c aebc
00000190: 06ed 713b 8b43 483d f948 2f3d 6aa4 0a3f
000001a0: e83e 203d bbbb 0fbe f7aa 503f 7e42 9e3c
000001b0: 8e3d 06be fe2b 8639 9f70 b33d 75c6 6bbd
000001c0: 5673 c7bd 0482 163a 4950 023d 3803 91be
000001d0: eb4f 60be 1986 8fbb 185d febb d12b cc3b
000001e0: 7940 efb8 c73e ac3d 9091 e23c d480 38bc
000001f0: 88d1 d4bd 5a57 803e 5274 33bd e652 063d
-0.07530985 0.20634718 0.035119083 -0.06626033 0.026808437 0.055923704 0.08443892 -0.31906992
-0.032153744 0.02370365 7.2148687e-06 -0.059773076 0.07282858 0.40781552 0.2917705 0.025041468
-0.089605205 0.24917258 -0.049584232 1.1275742 -0.011585364 -0.31236035 0.01665431 0.011500091
0.03851235 0.008705456 -0.07472506 0.0032356062 0.318835 -0.07240042 -0.2776889 -0.013817777
0.020568717 0.06602711 0.021251502 0.017300835 0.015070562 -0.017817752 -0.100319706 -0.18458821
-0.12238036 0.0074168737 -0.6896639 0.056009885 -0.08817586 0.0326769 -0.03256478 0.10124418
-0.031505033 -0.097923934 -0.09841459 -0.07114831 -0.015456768 0.013797947 -0.083623044 -0.022236139
0.1589844 -0.068848014 0.003182245 -0.2753547 0.0055443263 0.008700027 -0.23009135 0.036268286
0.33043733 -0.21490441 -0.05780252 0.030213378 -0.0417249 0.022524323 -0.011984924 -0.83595425
-0.06190035 -0.015782345 0.03196995 -0.088754304 0.051633894 -0.0023221823 -0.0014651585 0.018968383
-0.0025924444 0.0215694 0.027151536 -0.25122735 -0.09116459 -0.035311956 0.25838375 0.123524286
-0.0049908045 0.0018152527 0.10115269 -0.0011436694 -0.27607992 0.002124766 -0.08016356 -0.027519234
0.039455578 -0.01869635 -0.18804495 -0.021246085 0.0036914959 0.04889254 0.0427942 0.54157126
0.039122492 -0.14036457 0.8151087 0.019318815 -0.13109419 0.00025591248 0.08761715 -0.05756231
-0.097387955 0.000574142 0.031814847 -0.28322768 -0.21905486 -0.0043799994 -0.0077625625 0.0062308093
-0.00011408417 0.08410411 0.0276573 -0.011261184 -0.103915274 0.25066644 -0.043812104 0.0327939

fc1.weight f4 [64, 128]
00000000: 0c1b e53d 2871 fbbe f3d9 a8be d715 62be
00000010: d22b c13d 4d82 5bbc 06b2 51bc f573 313e
00000020: 0d80 8dbe bab2 143d 4a3a c8ba 132a 1a3d
00000030: 5238 003e dd5d a0bc d6d8 03be 75c3 a4bb
00000040: 179f 2b3e 5f7d 393e 93c7 3b3d b500 713e
00000050: 17d8 283c 4d86 b3be c89f 8f3d a84c aabe
00000060: 6a53 623d 54da eabb 162e d93d f92a a8bb
00000070: c844 d5bd 1441 bb3c 832f 513e edb6 a93d
00000080: 953d 273d 3be1 083c 1565 18be 5c5a 073d
00000090: c7a0 f73c e82b 493e e57e e23b 1332 c4bd
000000a0: edc1 1f3e 0ee2 3d3d 3598 103e e737 ba3c
000000b0: 717b d4ba 4d71 823d 5ebd f43c 7490 febc
000000c0: 19e6 113b 0c25 0dbe b874 2f3e 3594 03be
000000d0: 73d3 85bb ed7f 583c afa9 5c3e 3a7d 9c3d
000000e0: 9454 cdbd 5688 173e c4a0 743b aa1d c5bd
000000f0: da84 bc3d 6d09 8b3d d7de 0e3e 10fb ac3d
00000100: 4543 513c 1891 c139 1f2e 6ebe b854 ea3b
00000110: 774c ee3d 376b fb3c 4073 3dbd 5bfd 063e
00000120: 61b6 ca3c 2272 b63b 1c2c aa3b f4ab af3c
00000130: 19b2 acbd 0064 6f3d 1697 653b 2630 5a3c
00000140: b430 423d d9f7 fe3c ba06 1d3d e842 bdbd
00000150: 52dd 703d 4c89 a63d bc3a c9bc 6281 9ebe
00000160: 8dd8 61bc 7bba 363d 9bef 583d 7929 12bd
00000170: 5881 8b3d e84c d3bb 2f3a 623d 647a 4dbe
00000180: f12e 563d bfe2 6dbc d6f6 033d 4721 4f3d
00000190: 933c eebb 134f b8be 3aa1 a83d 2a6e eabe
000001a0: fb34 d6bd 7993 a73c 01b5 ca3d fde2 433d
000001b0: c24d 743d 4552 0f3e 9ac6 26bd 0bf9 9ebe
000001c0: aaef 193e d494 143b 6785 86bd 1d11 323e
000001d0: ac60 d43d 0dd8 d637 821d 893a 2a38 e4bb
000001e0: 52dd 60bc d72a 86bc 2cab 243d 04e8 d3be
000001f0: 919b d23d b0cc 9ebe 5ed7 463d e555 673d
00000200: d61e ff3d 4898 03be c3e1 333e 509e 1a3d
00000210: cdc3 e33d cedf 27bd e536 c3bd a411 1c3e
00000220: 30c6 ac3d b9ce 8a3d 9f81 d33b 28cb a9bd
00000230: d3e6 3b3e 6b8d 43be 316e 8c3d dfeb 1dbc
00000240: b280 1e3e fcd1 2d3e a75c 533d 53fc 80be
00000250: 7bcd ddbc d2e2 82bd 70c4 a13d 9dee 193e
00000260: d5b5 cf3d 4148 9cbc 26a7 ff3d 5a0c e53b
00000270: 370f ddbe 90d8 0e3d 4fd9 4d3e 44d6 943d
00000280: b5e4 473d 3a89 c2bc 1fcf 40bd 8d0b 833d
00000290: 8c73 323d 8403 3d3e deef f73b 1243 343d
000002a0: 221b e2bc ebb4 653d 5597 21bd beee 29bd
000002b0: 3c80 84bd 8c1d cc3d 4cb2 833c 0b78 dbbd
000002c0: 54e5 6bbc 8000 83bc a514 1c3e 96e0 89be
000002d0: 98be 1abc e2b2 183d 87fb 423e 04e0 ec3d
000002e0: 46ba 02be 5239 603e 4b4d 5e3c 9787 b43c
000002f0: ce87 693d 96e5 983d 7590 dc3d 0180 133e
00000300: ce01 c6be d0e1 c7bc 7033 b43d b835 843d
00000310: e507 b43d dcf3 873d baea 303c fdcf 2ebe
00000320: 94ca 8e3c 4b3f 3536 b9e4 9dbc 1a91 b7bc
00000330: 4e8b 69bc 86ae c93c b595 d1bb 87a1 1a3d
00000340: 5308 113d 16ef 433d d4d4 a33d 640c a53a
00000350: b6ae 583d a696 e13d 6db5 063e ce9d 02be
00000360: 7c28 713a 6d00 9b3b d965 6fbe 565d a83c
00000370: 3c6e 813e d4e6 7dba b357 653d a6b3 4c3d
00000380: 8651 ce3d 76e2 103c 5e95 483d c6cb 953d
00000390: 97e5 47bc 6b05 e5bd 1c09 153e 2032 f5be
000003a0: 9f90 06be ad7a bebd 3457 1bbe 413c e03d
000003b0: 0346 153d 6266 063d e062 27be 230b 4c3e
000003c0: 2ac0 3d3e 77ec 503b ed5b df3b 475d fdbc
000003d0: 3589 be3d a909 f73b 3578 e2bb 803d 26bb
000003e0: 5e09 a33b e4a1 2abe c68c 0fbe d389 783e
000003f0: aff0 b63d 1b72 fdbe 726b 853d f29e e93d
0.111867994 -0.4910977 -0.32978782 -0.22078644 0.09432186 -0.013397765 -0.012798792 0.1732939
-0.27636757 0.03630326 -0.001527616 0.03763778 0.12521484 -0.019576008 -0.12875685 -0.005028183
0.16759907 0.18114232 0.045844626 0.23535426 0.010305426 -0.350634 0.07012898 -0.3326161
0.05525533 -0.00716714 0.10604493 -0.005132076 -0.104135096 0.02285818 0.2042828 0.082868434
0.040830214 0.00835448 -0.1488231 0.033045158 0.030228032 0.19645655 0.0069120997 -0.095798634
0.1560132 0.04635816 0.14120562 0.022731734 -0.0016211105 0.06369267 0.029875454 -0.03107474
0.0022262393 -0.13783664 0.17134368 -0.12849505 -0.0040840446 0.013214094 0.21549104 0.076410726
-0.100258976 0.14798102 0.003732727 -0.096247986 0.09205027 0.06788907 0.13952194 0.08446324
0.012772386 0.00036919932 -0.23259781 0.0071512125 0.11635678 0.030690772 -0.04625249 0.13182585
0.024745168 0.005567805 0.0051932465 0.021444298 -0.08432407 0.058444977 0.0035032681 0.013317144
0.04740973 0.031124042 0.038336493 -0.09241277 0.058804817 0.08131656 -0.02456414 -0.30958086
-0.01378454 0.044611435 0.05296288 -0.035684083 0.0681178 -0.006448377 0.05523127 -0.2006622
0.05229086 -0.0145193925 0.032217823 0.050568845 -0.0072704046 -0.3599783 0.082338765 -0.45787174
-0.10459324 0.020456063 0.09897805 0.047823895 0.059644468 0.13996227 -0.040716745 -0.3104938
0.15032831 0.0022671716 -0.06568413 0.1738934 0.10370001 2.5611394e-05 0.0010461065 -0.006964703
-0.013724642 -0.01637785 0.040202305 -0.4138795 0.10283578 -0.3101554 0.048545234 0.0564784
0.12457053 -0.1285106 0.1756659 0.037748635 0.111213304 -0.04098492 -0.09531955 0.15241104
0.08436239 0.067777105 0.006454661 -0.08290702 0.18349771 -0.19096915 0.06856955 -0.009638756
0.15478781 0.16974634 0.051602032 -0.25192508 -0.02707552 -0.06390919 0.078987956 0.1503243
0.101421036 -0.019077422 0.12483053 0.006989998 -0.4317567 0.0348745 0.20102428 0.072674304
0.048802096 -0.023747075 -0.047072526 0.063986875 0.043567225 0.18458372 0.007566436 0.044009276
-0.027600829 0.05608074 -0.039450962 -0.041487448 -0.06469771 0.09966573 0.01607623 -0.10716256
-0.014397938 -0.01599145 0.1524225 -0.26929158 -0.009444855 0.03727997 0.19041263 0.11566165
-0.1276637 0.21896866 0.013568233 0.02203731 0.05701428 0.07465665 0.107697405 0.14404298
-0.38673252 -0.024399668 0.087988734 0.064555585 0.08790568 0.06638309 0.010798151 -0.17071529
0.017430581 2.7007943e-06 -0.019274103 -0.022408057 -0.014254404 0.024619352 -0.0063960203 0.0377517
0.03540833 0.047835432 0.07999578 0.0012592194 0.052900992 0.11015062 0.13155146 -0.1275551
0.0009199453 0.0047302754 -0.23378696 0.020552319 0.25279415 -0.000968558 0.05599184 0.049976014
0.10074143 0.008843055 0.048970573 0.07314257 -0.012200735 -0.11182674 0.14554256 -0.47889805
-0.13141106 -0.09300742 -0.15169984 0.109489925 0.03644372 0.032812484 -0.16346312 0.19926123
0.18530336 0.0031879225 0.0068163783 -0.030928267 0.09303514 0.0075389934 -0.0069113025 -0.0025366247
0.004975482 -0.16663319 -0.14018545 0.24271326 0.089326255 -0.49501118 0.06514634 0.114072695

fc1.bias f4 [64]
00000000: c9fb db3e c6f3 f9be 4685 e6b8 20c9 88be
00000010: 7ed8 e33c 7f81 6a3e c14f 3cbd 0ce0 003f
00000020: 33ae 99bd 1c46 0b3e f841 1d3f d925 5a3e
00000030: 99b4 743e bc76 463d fa46 96bb d364 d63e
00000040: 55c8 2c3f 2a4f ff3b 8537 623d d57e e4bc
00000050: cf06 7cbb fbcd 313f 07cd 1c3c 43b7 e0bb
00000060: d09f cfbc 9122 acbb ca26 103e 9105 153f
00000070: 5946 0ebc c627 f5bb 707b 81ba ecfd 35bc
00000080: 5caa 2abc 05ce da3e 7bf6 67bd 5ef4 4fbc
00000090: 63bd d1bb dbd6 afba fd7a 37bc 8dbc aebc
000000a0: 07b5 aa3e 7fd1 debe 9fb1 6f3f 7810 07bd
000000b0: b0aa 4c3d 9ed5 febb d45c de3d c038 333c
000000c0: be08 82bb d31a 78be 110b fabd c2e9 f2bb
000000d0: 6374 b73a 3cbc 9f3e 654e dd3e 5744 09bd
000000e0: 57f0 df3e b87b 0e3e f363 deba 9535 3ebd
000000f0: e487 3d3f 25de 8b3c 39c6 133e b46f 993e
0.42965534 -0.48818797 -0.00010992079 -0.26715946 0.027813192 0.22900961 -0.045974497 0.5034187
-0.07503929 0.13600963 0.61428785 0.213035 0.23897018 0.048453078 -0.004586098 0.41873798
0.6749318 0.0077914195 0.05522873 -0.02789251 -0.0038456207 0.69454926 0.009570367 -0.006857784
-0.02534476 -0.005253144 0.14077297 0.5821162 -0.008683764 -0.007481548 -0.0009878706 -0.011107903
-0.010416593 0.42735305 -0.056631546 -0.012692539 -0.0064007505 -0.0013415472 -0.011198756 -0.021330142
0.33341238 -0.43519208 0.93630403 -0.03297469 0.049967468 -0.00777693 0.10857549 0.010938823
-0.0039683273 -0.24228983 -0.12209142 -0.00741312 0.0013996478 0.311983 0.43223873 -0.03351244
0.43738052 0.13914382 -0.0016967043 -0.04643782 0.7403548 0.0170737 0.14431085 0.29968035

fc2.weight f4 [32, 64]
00000000: 0e12 013c b2c3 dfbb 78d1 193b 7dd6 9a3a
00000010: 17b4 a2bb 3fb9 0cbc 8333 5a3b 49ea 133b
00000020: 6e63 f93a 5009 5239 362a 91bb 55f2 303b
00000030: fe2e 23bc ebec 213b 5099 c63b 9893 a4ba
00000040: 9d10 07bb ce15 ac3b 127a 5dbb 2994 a8bb
00000050: cf94 053c 65db 01bc 5532 863b 8248 e9bb
00000060: 2174 e4ba b43b 273c b173 293a d1f4 24bc
00000070: 8084 953b 66ba a23b 690e cbba 8ced e83b
00000080: 9acd 71b9 6f6d 703a 976d 5b3b d69b f0ba
00000090: 5e9f ba3b 422b 84bb d9f6 173b c833 cd3b
000000a0: c57f d33b 9806 15bc 3e41 6938 c784 ee3b
000000b0: 2100 15bc f7be c5b9 836e a4bb b537 2cbc
000000c0: 0a6f 713a a7e2 0ebc adcb a73a ac37 c9bb
000000d0: 9128 cfba ae7d 9fba cf0c ddbb fdfd 10bc
000000e0: ad40 39bc 08d0 513b 91a4 1fbb 0e1e 0a3c
000000f0: 964e 16bb 2b0e d23b f853 9a3b 827b e2ba
00000100: 9768 cdbb cb93 66ba 464d babb 3a57 c3bb
00000110: a4eb 9dba fa4b 5bba 7373 0c3b c1e9 5dbb
00000120: 9bda 9dbb ccb1 2f3b 8571 693a bce0 07bc
00000130: 44c5 b8bb 1187 0abc 13db 223c a865 8ab9
00000140: c0f1 2cbc 7cff c6bb 5f82 a9ba ced9 a33a
00000150: 677c c3bb 2840 65b8 a577 0f3c edf1 d5bb
00000160: cdda 543b b19d 933b 0ba1 e8bb fbcd a6b9
00000170: 22b5 10bb c097 0e3c 684e 1bbc 15c1 13bc
00000180: 86d1 76bb 7fc1 1ebc d106 03bc 519e d3bb
00000190: 8b2f 7cbb 0630 a23b e9b9 b0bb 121c 83bb
000001a0: 9f6c 0f3c 42f2 efbb 4fc7 0839 09e8 f73a
000001b0: c3ca 0bbc e386 063c 0ac7 8bba 815f 16bb
000001c0: 17e6 98ba ae2c 223c 0089 94ba 105a 843b
000001d0: 7e09 acb9 c634 ebbb bec4 0a3a a2b2 813b
000001e0: a595 74bb 9689 3cbb d6a4 8bba 9d97 8cbb
000001f0: 7cf4 b43a ced4 4cbb c063 e6ba 9612 62b9
00000200: 7cd7 963b 5255 f4bb 39eb 993a a035 153b
00000210: d01d cd37 a029 e7bb e460 d73b 9498 183b
00000220: 5488 9d3b 5d68 46bc 1a35 073c 2a74 01bb
00000230: 5cd5 b03b 927e 063c 2829 5b39 1624 2738
00000240: df9a d43b 2837 82bb 0d0b f73a 79d5 a03b
00000250: 94de a8b9 8a1d 37bc 33ba 10bc 538d f1bb
00000260: 3672 02bc 8432 26bb 56b8 ca3b 93ba 0839
00000270: 2019 5b3b 6fd9 393b 30f1 253b 9496 d4ba
00000280: 07cf a2bb c5bb 6fbc f691 7bbb 0c55 7d3a
00000290: 2c90 d8bb 2cd6 0dbc 19b5 e5bb 260d 00bc
000002a0: 57f8 033c e018 093c 49d2 8ebb e1ca 1e3c
000002b0: 6320 57ba 89d0 e9bb 3552 77bb 9fd4 d4ba
000002c0: aa84 8dbb fd9c a0ba 9616 31bb 9e98 cb3b
000002d0: c643 9e3b 386e 843a 64df a8bb 1800 36bb
000002e0: 4e79 e2bb cfe6 033c 4ffb b2ba 7c61 d23b
000002f0: 61af 073b c70c f5bb 054c 7bbb 3ade 00bc
00000300: 7cf5 59be 933d 15bd bcfa 45bc 61b0 9bbc
00000310: f9c5 37bc 5232 1dbe 3abc 31bd aa83 81bd
00000320: f9e5 30bd a779 7dbd 44b6 1fbe 7aa9 bc3d
00000330: d543 18be 36c1 51bd a2dc d03b 7e92 0ebe
00000340: 8511 f4bd 1c34 63bc 53c6 e53c ef7a 9fbc
00000350: 85a5 2bba 924a d6bd 7fb8 47bc 8428 a93a
00000360: 3740 19bc faee b0bb bc86 bcbd bdb5 083d
00000370: 866e a93b a728 57bb 773a 8eba b57f 1abc
00000380: b1bf e9bb e108 0cbd 7272 2cbc 162c 54bc
00000390: dbf5 ccbb 6157 2fbe 9475 2abc 202c febb
000003a0: 9843 57be 3899 38bd b2bd 16be 2d7e afbd
000003b0: 9def 01be 9784 fd3b 0847 a2bc 2ce5 d23b
000003c0: 5098 47ba deab 7d3c 2912 1dbd 0358 85bd
000003d0: 6d13 4cbc 36de e93d 092f 9b3e 9579 94bc
000003e0: 47c4 97be 7a44 18be 9212 e33b c62b 5dba
000003f0: d18a 1dbe fde1 35bc 8d82 9f3d 9fe3 5abd
0.00787784 -0.0068287486 0.00234708 0.001181319 -0.004965316 -0.008589088 0.0033294864 0.0022570065
0.0019026825 0.0002003063 -0.0044300808 0.002699991 -0.009959934 0.0024707865 0.0060607567 -0.0012556193
-0.0020609268 0.0052516228 -0.0033794683 -0.005144615 0.0081531545 -0.007925843 0.0040953555 -0.0071192393
-0.0017429629 0.010207105 0.0006464078 -0.010068134 0.0045629144 0.004966068 -0.0015491965 0.007108396
-0.00023060144 0.00091715803 0.0033482069 -0.001835699 0.0056952676 -0.004033477 0.0023187904 0.0062622763
0.0064544403 -0.00909581 5.561229e-05 0.007279012 -0.009094269 -0.00037717048 -0.005018057 -0.0105113285
0.00092099665 -0.00872103 0.0012801789 -0.00614067 -0.0015804936 -0.0012168193 -0.0067459117 -0.008849618
-0.011306924 0.0032014865 -0.0024359564 0.008430017 -0.0022935024 0.0064103804 0.004709717 -0.001727924
-0.0062685716 -0.00087958266 -0.0056854812 -0.005961326 -0.0012048376 -0.00083655084 0.0021431118 -0.0033861252
-0.0048173196 0.0026808856 0.00089051604 -0.008293327 -0.0056387503 -0.008455054 0.009939927 -0.0002639715
-0.010555685 -0.0060729366 -0.001293253 0.0012500824 -0.0059657576 -5.4657605e-05 0.008756553 -0.006529084
0.0032479048 0.0045048823 -0.007099276 -0.00031815455 -0.002208062 0.008703172 -0.009479143 -0.009018202
-0.0037661507 -0.009689688 -0.007997231 -0.006458082 -0.0038480486 0.0049495725 -0.005393256 -0.004001149
0.008753925 -0.0073225806 0.00013044219 0.0018913756 -0.008532229 0.00821087 -0.0010664177 -0.0022945108
-0.0011665252 0.009898348 -0.0011332333 0.0040390566 -0.0003281347 -0.007177922 0.0005293599 0.0039580623
-0.003732064 -0.002876853 -0.0010653983 -0.0042905346 0.0013805772 -0.0031254771 -0.0017577335 -0.00021559963
0.0046033245 -0.00745646 0.0011743075 0.0022767559 2.4451787e-05 -0.0070545226 0.0065728296 0.0023284303
0.0048075113 -0.012109843 0.0082524065 -0.0019753077 0.005396528 0.008208888 0.000209008 3.984951e-05
0.0064881886 -0.0039738603 0.0018847898 0.0049082604 -0.0003220929 -0.011176476 -0.008833456 -0.0073715835
-0.0079618 -0.00253597 0.0061865253 0.00013039475 0.0033431724 0.002835836 0.002532076 -0.0016219192
-0.0049685272 -0.01463217 -0.003838656 0.0009663857 -0.0066089835 -0.00865702 -0.007010114 -0.007815635
0.008054814 0.008367747 -0.004358564 0.009691925 -0.0008206425 -0.007135455 -0.0037738208 -0.0016237682
-0.0043187933 -0.0012253817 -0.002702152 0.0062132617 0.0048298566 0.0010103649 -0.0051535834 -0.0027771052
-0.0069114333 0.0080506345 -0.0013655218 0.0064203124 0.00207039 -0.00747833 -0.0038344872 -0.007865483
-0.21285051 -0.036435675 -0.0120837055 -0.019005002 -0.011216634 -0.15351227 -0.043392397 -0.06323941
-0.04318807 -0.061883595 -0.15596873 0.092120126 -0.14869626 -0.05120965 0.0063739577 -0.1392307
-0.11917404 -0.013867404 0.02804867 -0.019467799 -0.00065477967 -0.10463442 -0.012189983 0.0012905751
-0.009353689 -0.005399582 -0.09205386 0.033376444 0.005170646 -0.0032830627 -0.0010851164 -0.009429862
-0.007133447 -0.034188155 -0.010525333 -0.012949964 -0.006254894 -0.17123176 -0.010404009 -0.007756725
-0.21021879 -0.045067996 -0.147208 -0.08568988 -0.12689061 0.007736753 -0.019809261 0.006436011
-0.0007613944 0.015482871 -0.038347397 -0.065109275 -0.012455803 0.114193365 0.30309322 -0.018124381
-0.29641935 -0.14869872 0.006929704 -0.00084370037 -0.15384986 -0.011101243 0.077885725 -0.053439733

fc2.bias f4 [32]
00000000: 2695 57bc 72d6 35bc 9459 12bc c0dc 753e
00000010: 04ef 12bc d6da 9abe e073 ef3e f66c 293f
00000020: d1a5 c83e 1f3c 363e da8c 37bc 5df4 883d
00000030: 97e5 8bbe 5bae b33e bdf6 d73d 96ae d63d
00000040: 428b 97bd 8ada 36bc baa5 253f c70c f03e
00000050: d640 703e 457a 703e da34 a53b a6a8 cb3e
00000060: c4fe 1fbe e7a9 a8bc 3e91 113e 9017 58bc
00000070: 99d4 483d 87ec 543e 3299 c33d 24a0 1fbc
-0.013158118 -0.011098491 -0.00893249 0.2400999 -0.008968119 -0.30245084 0.46768093 0.66181886
0.39189008 0.17796372 -0.011203015 0.066872336 -0.273236 0.3509396 0.105451085 0.104825184
-0.07399608 -0.011160502 0.64706004 0.46884748 0.23462233 0.23484142 0.005041701 0.39777106
-0.15624529 -0.020588828 0.14215562 -0.0131892115 0.049030874 0.20793353 0.09550704 -0.00974277

fc3.weight f4 [5, 32]
00000000: 6a30 85bb 692f 8b3b d0ef ab3b 66d8 6fbe
00000010: 9a2b 1f3b 8053 e0bb e649 90bf 4d41 21bf
00000020: 07d0 d33a 96e3 753d 8528 14bb df0e 1ebe
00000030: 23ef 4c3f 273b 6bbe d6e1 873e 047a 01bf
00000040: 80db aa3e 473c a9bc 3eb5 92be af70 40bf
00000050: 8af4 5ebe 2d5a 0bbf 9a44 b13e e9b2 b9bd
00000060: 1995 0c3e 9166 69bb d8c5 1c3d 5dff 3dbe
00000070: 1bf0 153f a91f 6e3e 501b 023f 70cb 9dbb
00000080: 1cda adba f22d 76bb 3280 463c cab0 0cbd
00000090: 2eed 46ba 9be9 08be ad8a 6c3e 40bb d13e
000000a0: 40ce 89bd 4525 a53c a445 23bc 9b1b d63c
000000b0: 46ba 8ebe 2650 923e f6e0 5f3d 8625 d0be
000000c0: 3873 733d 3ba9 873b 17d3 3b3c a6a7 b33e
000000d0: 9f16 1abe dbe6 213e 1a5a 2d3e 72b2 c8be
000000e0: 835d 2f3e dd4d ac3b cd3a 073d 54ba 9dbc
000000f0: 9ff7 a7bc c59f 11be 8de7 0bbf 372d adba
00000100: ba84 29bc 5265 b43b 35db ddbb 2df0 c93e
00000110: 8cfd 0d3c ba68 42be 4025 9a3e 51a1 9fbb
00000120: 9dcf 963e 3cd8 6d3e 7fb5 d3bb d70f a63d
00000130: d709 f4bd ac9b 81be b502 8f3d a6bb b83e
00000140: b2e8 31be 1fde 55bb 7cb9 f63e bb03 ef3e
00000150: 57ec 273e 8e9b 183e 5ddc 5cbd 00cd c93e
00000160: 3856 03bf f4a4 58bc 5c87 3ebd 0713 96bc
00000170: e17f b83e 7364 403e 458e bc3e a5c9 303c
00000180: 6de8 233c 0e0d 083c 9971 473c 6422 a3bd
00000190: eaf2 9fbb 879c 6cbe 6880 9a3e a84d 093f
000001a0: 053a d13b f494 39bd e75b ff3b e6de 1fbd
000001b0: 93b9 07bf a617 58be b698 1abe 0b27 46be
000001c0: bfee e33d ffe4 f3bb ce86 3a3d a0b5 133e
000001d0: 73d8 9b3d 8ac8 bb3e 7a99 f13d dfc6 9abd
000001e0: 5e65 f63e 8df1 aa3b 08e4 df3e 5511 7cbe
000001f0: 39f1 7ebe 58da 403e 75ab f7be 406e 753b
00000200: 551f 533a d73d 943b 443e d7bb 1791 4dbd
00000210: 0b72 c1ba 120f 113f ec57 9a3e c44e a7be
00000220: b937 6bbe 1c4c 92be 1c4a 4e3c 4b15 8b3d
00000230: 21fd 103e cc59 c93e 80d7 85be c8c4 3b3f
00000240: 4039 a5be d655 70bc bd72 87be 424e 57be
00000250: 6293 013e c684 12be 8997 17bf 2b57 303e
00000260: 5a7d 8abe db6f 903b 4916 f1be 627a e73e
00000270: ccb1 2dbf 8574 ebbe e5b3 083e 68e2 643c
-0.0040646093 0.004247595 0.0052470937 -0.23422393 0.0024287463 -0.0068458915 -1.1272552 -0.62990266
0.001616002 0.060031496 -0.002260716 -0.1543536 0.80052394 -0.22971784 0.26539487 -0.50576806
0.3337059 -0.020658625 -0.28653902 -0.7517194 -0.21772972 -0.5443447 0.3462265 -0.090673275
0.13728751 -0.0035614113 0.038274616 -0.18554445 0.58569497 0.23254265 0.50822926 -0.0048155114
-0.0013263854 -0.0037564007 0.012115525 -0.034348287 -0.0007588443 -0.13370363 0.23099776 0.40963173
-0.06728792 0.020159373 -0.009965334 0.02613621 -0.2787649 0.28576773 0.0546579 -0.40653628
0.059436053 0.004140047 0.011463902 0.35088843 -0.15047692 0.1581072 0.16928902 -0.39198643
0.17125516 0.0052583055 0.03301506 -0.019253887 -0.020503817 -0.14221103 -0.54650193 -0.0013212328
-0.010346586 0.0055052424 -0.0067705163 0.39441052 0.008666407 -0.18985263 0.30106544 -0.0048715253
0.2945527 0.23227018 -0.006460845 0.0810849 -0.11915939 -0.2531408 0.06982938 0.36080664
-0.17373922 -0.0032633615 0.48188388 0.46682534 0.1639875 0.1490309 -0.053921092 0.39414215
-0.51303434 -0.013222922 -0.046515808 -0.01831962 0.36035064 0.18788318 0.36827293 0.010790263
0.010004145 0.008303894 0.01217308 -0.07965544 -0.0048812525 -0.23106585 0.3017609 0.5363412
0.0063850903 -0.04530807 0.007792938 -0.039030932 -0.5301754 -0.21102771 -0.15097317 -0.19350831
0.111295216 -0.00744307 0.045538716 0.14424753 0.07609644 0.36676437 0.117968515 -0.07557463
0.48124212 0.0052167834 0.43728662 -0.24615987 -0.24896707 0.18833292 -0.48373 0.0037449747
0.000805368 0.0045239734 -0.006568702 -0.050187197 -0.0014758719 0.5666362 0.30145204 -0.3267728
-0.22970475 -0.28573692 0.012590911 0.06791171 0.14159061 0.39326322 -0.26140976 0.7334714
-0.3227024 -0.014668902 -0.26454726 -0.21025947 0.12653878 -0.14308462 -0.592156 0.17220752
-0.2704876 0.0044078655 -0.47087315 0.45210558 -0.6784942 -0.45987335 0.13349874 0.013969995

fc3.bias f4 [5]
00000000: bab0 babe 32a5 c73e cfc7 c2be 9ea4 143e
00000010: eb38 5b3e
-0.36462957 0.38993222 -0.38043067 0.14515921 0.21408431
